…
        max_scale: 1
        min_aspect_ratio: 0.5
        max_aspect_ratio: 2
      }
      sample_constraint {
        min_jaccard_overlap: 0.9
      }
      max_sample: 1
      max_trials: 50
    }
    batch_sampler {
      sampler {
        min_scale: 0.3
        max_scale: 1
        min_aspect_ratio: 0.5
        max_aspect_ratio: 2
      }
      sample_constraint {
        max_jaccard_overlap: 1
      }
      max_sample: 1
      max_trials: 50
    }
    label_map_file: "/home/zhangwanchun/data/VOCdevkit/VOC0712/lmdb/labelmap_voc.prototxt"
  }
}
layer {
  name: "conv1_1"
  type: "QuantConvolution"
  bottom: "data"
  top: "conv1_1"
  convolution_param {
    num_output: 64
    pad: 1
    kernel_size: 3
    weight_filler {
      type: "xavier"
    }
    bias_filler {
      type: "constant"
      value: 0
    }
  }
  quant_convolution_param {
    coef_precision: THREE_BITS
    bw_params: 8
    shift_enable: true
  }
}
layer {
  name: "quant_relu1_1"
  type: "QuantReLU"
  bottom: "conv1_1"
  top: "conv1_1"
  param {
    lr_mult: 0
  }
  quant_relu_param {
    filler {
      type: "constant"
      value: 31
    }
    channel_shared: true
    act_bits: 5
    quant_enable: true
  }
}
layer {
  name: "conv1_2"
  type: "QuantConvolution"
  bottom: "conv1_1"
  top: "conv1_2"
  convolution_param {
    num_output: 64
    pad: 1
    kernel_size: 3
    weight_filler {
      type: "xavier"
    }
    bias_filler {
      type: "constant"
      value: 0
    }
  }
  quant_convolution_param {
    coef_precision: THREE_BITS
    bw_params: 8
    shift_enable: true
  }
}
layer {
  name: "quant_relu1_2"
  type: "QuantReLU"
  bottom: "conv1_2"
  top: "conv1_2"
  param {
    lr_mult: 0
  }
  quant_relu_param {
    filler {
      type: "constant"
      value: 31
    }
    channel_shared: true
    act_bits: 5
    quant_enable: true
  }
}
layer {
  name: "pool1"
  type: "Pooling"
  bottom: "conv1_2"
  top: "pool1"
  pooling_param {
    pool: MAX
    kernel_size: 2
    stride: 2
  }
}
layer {
  name: "conv2_1"
  type: "QuantConvolution"
  bottom: "pool1"
  top: "conv2_1"
  convolution_param {
    num_output: 128
    pad: 1
    kernel_size: 3
    weight_filler {
      type: "xavier"
    }
    bias_filler {
      type: "constant"
      value: 0
    }
  }
  quant_convolution_param {
    coef_precision: THREE_BITS
    bw_params: 8
    shift_enable: true
  }
}
layer {
  name: "quant_relu2_1"
  type: "QuantReLU"
  bottom: "conv2_1"
  top: "conv2_1"
  param {
    lr_mult: 0
  }
  quant_relu_param {
    filler {
      type: "constant"
      value: 31
    }
    channel_shared: true
    act_bits: 5
    quant_enable: true
  }
}
layer {
  name: "conv2_2"
  type: "QuantConvolution"
  bottom: "conv2_1"
  top: "conv2_2"
  convolution_param {
    num_output: 128
    pad: 1
    kernel_size: 3
    weight_filler {
      type: "xavier"
    }
    bias_filler {
      type: "constant"
      value: 0
    }
  }
  quant_convolution_param {
    coef_precision: THREE_BITS
    bw_params: 8
    shift_enable: true
  }
}
layer {
  name: "quant_relu2_2"
  type: "QuantReLU"
  bottom: "conv2_2"
  top: "conv2_2"
  param {
    lr_mult: 0
  }
  quant_relu_param {
    filler {
      type: "constant"
      value: 31
    }
    channel_shared: true
    act_bits: 5
    quant_enable: true
  }
}
layer {
  name: "pool2"
  type: "Pooling"
  bottom: "conv2_2"
  top: "pool2"
  pooling_param {
    pool: MAX
    kernel_size: 2
    stride: 2
  }
}
layer {
  name: "conv3_1"
  type: "QuantConvolution"
  bottom: "pool2"
  top: "conv3_1"
  convolution_param {
    num_output: 256
    pad: 1
    kernel_size: 3
    weight_filler {
      type: "xavier"
    }
    bias_filler {
      type: "constant"
      value: 0
    }
  }
  quant_convolution_param {
    coef_precision: THREE_BITS
    bw_params: 8
    shift_enable: true
  }
}
layer {
  name: "quant_relu3_1"
  type: "QuantReLU"
  bottom: "conv3_1"
  top: "conv3_1"
  param {
    lr_mult: 0
  }
  quant_relu_param {
    filler {
      type: "constant"
      value: 31
    }
    channel_shared: true
    act_bits: 5
    quant_enable: true
  }
}
layer {
  name: "conv3_2"
  type: "QuantConvolution"
  bottom: "conv3_1"
  top: "conv3_2"
  convolution_param {
    num_output: 256
    pad: 1
    kernel_size: 3
    weight_filler {
      type: "xavier"
    }
    bias_filler {
      type: "constant"
      value: 0
    }
  }
  quant_convolution_param {
    coef_precision: THREE_BITS
    bw_params: 8
    shift_enable: true
  }
}
layer {
  name: "quant_relu3_2"
  type: "QuantReLU"
  bottom: "conv3_2"
  top: "conv3_2"
  param {
    lr_mult: 0
  }
  quant_relu_param {
    filler {
      type: "constant"
      value: 31
    }
    channel_shared: true
    act_bits: 5
    quant_enable: true
  }
}
layer {
  name: "conv3_3"
  type: "QuantConvolution"
  bottom: "conv3_2"
  top: "conv3_3"
  convolution_param {
    num_output: 256
    pad: 1
    kernel_size: 3
    weight_filler {
      type: "xavier"
    }
    bias_filler {
      type: "constant"
      value: 0
    }
  }
  quant_convolution_param {
    coef_precision: THREE_BITS
    bw_params: 8
    shift_enable: true
  }
}
layer {
  name: "quant_relu3_3"
  type: "QuantReLU"
  bottom: "conv3_3"
  top: "conv3_3"
  param {
    lr_mult: 0
  }
  quant_relu_param {
    filler {
      type: "constant"
      value: 31
    }
    channel_shared: true
    act_bits: 5
    quant_enable: true
  }
}
layer {
  name: "pool3"
  type: "Pooling"
  bottom: "conv3_3"
  top: "pool3"
  pooling_param {
    pool: MAX
    kernel_size: 2
    stride: 2
  }
}
layer {
  name: "conv4_1"
  type: "QuantConvolution"
  bottom: "pool3"
  top: "conv4_1"
  convolution_param {
    num_output: 512
    pad: 1
    kernel_size: 3
    weight_filler {
      type: "xavier"
    }
    bias_filler {
      type: "constant"
      value: 0
    }
  }
  quant_convolution_param {
    coef_precision: ONE_BIT
    bw_params: 8
    shift_enable: true
  }
}
layer {
  name: "quant_relu4_1"
  type: "QuantReLU"
  bottom: "conv4_1"
  top: "conv4_1"
  param {
    lr_mult: 0
  }
  quant_relu_param {
    filler {
      type: "constant"
      value: 31
    }
    channel_shared: true
    act_bits: 5
    quant_enable: true
  }
}
layer {
  name: "conv4_2"
  type: "QuantConvolution"
  bottom: "conv4_1"
  top: "conv4_2"
  convolution_param {
    num_output: 512
    pad: 1
    kernel_size: 3
    weight_filler {
      type: "xavier"
    }
    bias_filler {
      type: "constant"
      value: 0
    }
  }
  quant_convolution_param {
    coef_precision: ONE_BIT
    bw_params: 8
    shift_enable: true
  }
}
layer {
  name: "quant_relu4_2"
  type: "QuantReLU"
  bottom: "conv4_2"
  top: "conv4_2"
  param {
    lr_mult: 0
  }
  quant_relu_param {
    filler {
      type: "constant"
      value: 31
    }
    channel_shared: true
    act_bits: 5
    quant_enable: true
  }
}
layer {
  name: "conv4_3"
  type: "QuantConvolution"
  bottom: "conv4_2"
  top: "conv4_3"
  convolution_param {
    num_output: 512
    pad: 1
    kernel_size: 3
    weight_filler {
      type: "xavier"
    }
    bias_filler {
      type: "constant"
      value: 0
    }
  }
  quant_convolution_param {
    coef_precision: ONE_BIT
    bw_params: 8
    shift_enable: true
  }
}
layer {
  name: "quant_relu4_3"
  type: "QuantReLU"
  bottom: "conv4_3"
  top: "conv4_3"
  param {
    lr_mult: 0
  }
  quant_relu_param {
    filler {
      type: "constant"
      value: 31
    }
    channel_shared: true
    act_bits: 5
    quant_enable: true
  }
}
layer {
  name: "pool4"
  type: "Pooling"
  bottom: "conv4_3"
  top: "pool4"
  pooling_param {
    pool: MAX
    kernel_size: 2
    stride: 2
  }
}
layer {
  name: "conv5_1"
  type: "QuantConvolution"
  bottom: "pool4"
  top: "conv5_1"
  convolution_param {
    num_output: 512
    pad: 1
    kernel_size: 3
    weight_filler {
      type: "xavier"
    }
    bias_filler {
      type: "constant"
      value: 0
    }
  }
  quant_convolution_param {
    coef_precision: ONE_BIT
    bw_params: 8
    shift_enable: true
  }
}
layer {
  name: "quant_relu5_1"
  type: "QuantReLU"
  bottom: "conv5_1"
  top: "conv5_1"
  param {
    lr_mult: 0
  }
  quant_relu_param {
    filler {
      type: "constant"
      value: 31
    }
    channel_shared: true
    act_bits: 5
    quant_enable: true
  }
}
layer {
  name: "conv5_2"
  type: "QuantConvolution"
  bottom: "conv5_1"
  top: "conv5_2"
  param {
    lr_mult: 1
    decay_mult: 0
  }
  param {
    lr_mult: 1
    decay_mult: 1
  }
  convolution_param {
    num_output: 512
    pad: 1
    kernel_size: 3
    weight_filler {
      type: "xavier"
    }
    bias_filler {
      type: "constant"
      value: 0
    }
  }
  quant_convolution_param {
    coef_precision: ONE_BIT
    bw_params: 8
    shift_enable: true
  }
}
layer {
  name: "quant_relu5_2"
  type: "QuantReLU"
  bottom: "conv5_2"
  top: "conv5_2"
  param {
    lr_mult: 0
  }
  quant_relu_param {
    filler {
      type: "constant"
      value: 31
    }
    channel_shared: true
    act_bits: 5
    quant_enable: true
  }
}
layer {
  name: "conv5_3"
  type: "QuantConvolution"
  bottom: "conv5_2"
  top: "conv5_3"
  param {
    lr_mult: 1
    decay_mult: 0
  }
  param {
    lr_mult: 1
    decay_mult: 200
  }
  convolution_param {
    num_output: 512
    pad: 1
    kernel_size: 3
    weight_filler {
      type: "xavier"
    }
    bias_filler {
      type: "constant"
      value: 0
    }
  }
  quant_convolution_param {
    coef_precision: ONE_BIT
    bw_params: 8
    shift_enable: true
  }
}
layer {
  name: "quant_relu5_3"
  type: "QuantReLU"
  bottom: "conv5_3"
  top: "conv5_3"
  param {
    lr_mult: 0
  }
  quant_relu_param {
    filler {
      type: "constant"
      value: 31
    }
    channel_shared: true
    act_bits: 5
    quant_enable: true
  }
}
layer {
  name: "pool5"
  type: "Pooling"
  bottom: "conv5_3"
  top: "pool5"
  pooling_param {
    pool: MAX
    kernel_size: 2
    stride: 2
  }
}
layer {
  name: "ip6"
  type: "Convolution"
  bottom: "pool5"
  top: "ip6"
  param {
    lr_mult: 1
    decay_mult: 1
  }
  param {
    lr_mult: 2
    decay_mult: 0
  }
  convolution_param {
    num_output: 512
    pad: 1
    kernel_size: 3
    weight_filler {
      type: "xavier"
    }
    bias_filler {
      type: "constant"
      value: 0
    }
  }
}
layer {
  name: "relu6"
  type: "ReLU"
  bottom: "ip6"
  top: "ip6"
}
layer {
  name: "ip7"
  type: "Convolution"
  bottom: "ip6"
  top: "ip7"
  param {
    lr_mult: 1
    decay_mult: 1
  }
  param {
    lr_mult: 2
    decay_mult: 0
  }
  convolution_param {
    num_output: 512
    kernel_size: 1
    weight_filler {
      type: "xavier"
    }
    bias_filler {
      type: "constant"
      value: 0
    }
  }
}
layer {
  name: "relu7"
  type: "ReLU"
  bottom: "ip7"
  top: "ip7"
}
layer {
  name: "ip7_mbox_loc"
  type: "Convolution"
  bottom: "ip7"
  top: "ip7_mbox_loc"
  param {
    lr_mult: 1
    decay_mult: 1
  }
  param {
    lr_mult: 2
    decay_mult: 0
  }
  convolution_param {
    num_output: 24
    pad: 1
    kernel_size: 3
    stride: 1
    weight_filler {
      type: "xavier"
    }
    bias_filler {
      type: "constant"
      value: 0
    }
  }
}
layer {
  name: "ip7_mbox_loc_perm"
  type: "Permute"
  bottom: "ip7_mbox_loc"
  top: "ip7_mbox_loc_perm"
  permute_param {
    order: 0
    order: 2
    order: 3
    order: 1
  }
}
layer {
  name: "ip7_mbox_loc_flat"
  type: "Flatten"
  bottom: "ip7_mbox_loc_perm"
  top: "ip7_mbox_loc_flat"
  flatten_param {
    axis: 1
  }
}
layer {
  name: "ip7_mbox_conf"
  type: "Convolution"
  bottom: "ip7"
  top: "ip7_mbox_conf"
  param {
    lr_mult: 1
    decay_mult: 1
  }
  param {
    lr_mult: 2
    decay_mult: 0
  }
  convolution_param {
    num_output: 42
    pad: 1
    kernel_size: 3
    stride: 1
    weight_filler {
      type: "xavier"
    }
    bias_filler {
      type: "constant"
      value: 0
    }
  }
}
layer {
  name: "ip7_mbox_conf_perm"
  type: "Permute"
  bottom: "ip7_mbox_conf"
  top: "ip7_mbox_conf_perm"
  permute_param {
    order: 0
    order: 2
    order: 3
    order: 1
  }
}
layer {
  name: "ip7_mbox_conf_flat"
  type: "Flatten"
  bottom: "ip7_mbox_conf_perm"
  top: "ip7_mbox_conf_flat"
  flatten_param {
    axis: 1
  }
}
layer {
  name: "ip7_mbox_priorbox"
  type: "PriorBox"
  bottom: "ip7"
  bottom: "data"
  top: "ip7_mbox_priorbox"
  prior_box_param {
    min_size: 20
    max_size: 210
    aspect_ratio: 2
    aspect_ratio: 3
    flip: true
    clip: false
    variance: 0.1
    variance: 0.1
    variance: 0.2
    variance: 0.2
    step: 32
    offset: 0.5
  }
}
layer {
  name: "mbox_loc"
  type: "Concat"
  bottom: "ip7_mbox_loc_flat"
  top: "mbox_loc"
  concat_param {
    axis: 1
  }
}
layer {
  name: "mbox_conf"
  type: "Concat"
  bottom: "ip7_mbox_conf_flat"
  top: "mbox_conf"
  concat_param {
    axis: 1
  }
}
layer {
  name: "mbox_priorbox"
  type: "Concat"
  bottom: "ip7_mbox_priorbox"
  top: "mbox_priorbox"
  concat_param {
    axis: 2
  }
}
layer {
  name: "mbox_loss"
  type: "MultiBoxLoss"
  bottom: "mbox_loc"
  bottom: "mbox_conf"
  bottom: "mbox_priorbox"
  bottom: "label"
  top: "mbox_loss"
  include {
    phase: TRAIN
  }
  propagate_down: true
  propagate_down: true
  propagate_down: false
  propagate_down: false
  loss_param {
    normalization: VALID
  }
  multibox_loss_param {
    loc_loss_type: SMOOTH_L1
    conf_loss_type: SOFTMAX
    loc_weight: 1
    num_classes: 7
    share_location: true
    match_type: PER_PREDICTION
    overlap_threshold: 0.5
    use_prior_for_matching: true
    background_label_id: 0
    use_difficult_gt: true
    neg_pos_ratio: 3
    neg_overlap: 0.5
    code_type: CENTER_SIZE
    ignore_cross_boundary_bbox: false
    mining_type: MAX_NEGATIVE
  }
}
I0429 15:45:57.015604 31894 layer_factory.hpp:77] Creating layer data
I0429 15:45:57.015753 31894 net.cpp:100] Creating Layer data
I0429 15:45:57.015767 31894 net.cpp:408] data -> data
I0429 15:45:57.015797 31894 net.cpp:408] data -> label
I0429 15:45:57.016564 31917 db_lmdb.cpp:35] Opened lmdb /home/zhangwanchun/data/VOCdevkit/VOC0712/lmdb/VOC0712_trainval_lmdb
I0429 15:45:59.790923 31894 annotated_data_layer.cpp:62] output data size: 2,3,224,224
I0429 15:45:59.793367 31894 net.cpp:150] Setting up data
I0429 15:45:59.793380 31894 net.cpp:157] Top shape: 2 3 224 224 (301056)
I0429 15:45:59.793383 31894 net.cpp:157] Top shape: 1 1 4 8 (32)
I0429 15:45:59.793385 31894 net.cpp:165] Memory required for data: 1204352
I0429 15:45:59.793393 31894 layer_factory.hpp:77] Creating layer data_data_0_split
I0429 15:45:59.793402 31894 net.cpp:100] Creating Layer data_data_0_split
I0429 15:45:59.793422 31894 net.cpp:434] data_data_0_split <- data
I0429 15:45:59.793449 31894 net.cpp:408] data_data_0_split -> data_data_0_split_0
I0429 15:45:59.793473 31894 net.cpp:408] data_data_0_split -> data_data_0_split_1
I0429 15:45:59.793500 31894 net.cpp:150] Setting up data_data_0_split
I0429 15:45:59.793519 31894 net.cpp:157] Top shape: 2 3 224 224 (301056)
I0429 15:45:59.793522 31894 net.cpp:157] Top shape: 2 3 224 224 (301056)
I0429 15:45:59.793524 31894 net.cpp:165] Memory required for data: 3612800
I0429 15:45:59.793541 31894 layer_factory.hpp:77] Creating layer conv1_1
I0429 15:45:59.793550 31894 net.cpp:100] Creating Layer conv1_1
I0429 15:45:59.793565 31894 net.cpp:434] conv1_1 <- data_data_0_split_0
I0429 15:45:59.793571 31894 net.cpp:408] conv1_1 -> conv1_1
I0429 15:45:59.794762 31894 net.cpp:150] Setting up conv1_1
I0429 15:45:59.794770 31894 net.cpp:157] Top shape: 2 64 224 224 (6422528)
I0429 15:45:59.794772 31894 net.cpp:165] Memory required for data: 29302912
I0429 15:45:59.794800 31894 layer_factory.hpp:77] Creating layer quant_relu1_1
I0429 15:45:59.794822 31894 net.cpp:100] Creating Layer quant_relu1_1
I0429 15:45:59.794826 31894 net.cpp:434] quant_relu1_1 <- conv1_1
I0429 15:45:59.794843 31894 net.cpp:395] quant_relu1_1 -> conv1_1 (in-place)
I0429 15:45:59.798025 31894 net.cpp:150] Setting up quant_relu1_1
I0429 15:45:59.798038 31894 net.cpp:157] Top shape: 2 64 224 224 (6422528)
I0429 15:45:59.798040 31894 net.cpp:165] Memory required for data: 54993024
I0429 15:45:59.798048 31894 layer_factory.hpp:77] Creating layer conv1_2
I0429 15:45:59.798071 31894 net.cpp:100] Creating Layer conv1_2
I0429 15:45:59.798090 31894 net.cpp:434] conv1_2 <- conv1_1
I0429 15:45:59.798096 31894 net.cpp:408] conv1_2 -> conv1_2
I0429 15:45:59.798373 31894 net.cpp:150] Setting up conv1_2
I0429 15:45:59.798379 31894 net.cpp:157] Top shape: 2 64 224 224 (6422528)
I0429 15:45:59.798382 31894 net.cpp:165] Memory required for data: 80683136
I0429 15:45:59.798401 31894 layer_factory.hpp:77] Creating layer quant_relu1_2
I0429 15:45:59.798406 31894 net.cpp:100] Creating Layer quant_relu1_2
I0429 15:45:59.798425 31894 net.cpp:434] quant_relu1_2 <- conv1_2
I0429 15:45:59.798429 31894 net.cpp:395] quant_relu1_2 -> conv1_2 (in-place)
I0429 15:45:59.801669 31894 net.cpp:150] Setting up quant_relu1_2
I0429 15:45:59.801682 31894 net.cpp:157] Top shape: 2 64 224 224 (6422528)
I0429 15:45:59.801685 31894 net.cpp:165] Memory required for data: 106373248
I0429 15:45:59.801692 31894 layer_factory.hpp:77] Creating layer pool1
I0429 15:45:59.801717 31894 net.cpp:100] Creating Layer pool1
I0429 15:45:59.801719 31894 net.cpp:434] pool1 <- conv1_2
I0429 15:45:59.801723 31894 net.cpp:408] pool1 -> pool1
I0429 15:45:59.801769 31894 net.cpp:150] Setting up pool1
I0429 15:45:59.801784 31894 net.cpp:157] Top shape: 2 64 112 112 (1605632)
I0429 15:45:59.801785 31894 net.cpp:165] Memory required for data: 112795776
I0429 15:45:59.801789 31894 layer_factory.hpp:77] Creating layer conv2_1
I0429 15:45:59.801810 31894 net.cpp:100] Creating Layer conv2_1
I0429 15:45:59.801812 31894 net.cpp:434] conv2_1 <- pool1
I0429 15:45:59.801815 31894 net.cpp:408] conv2_1 -> conv2_1
I0429 15:45:59.802801 31894 net.cpp:150] Setting up conv2_1
I0429 15:45:59.802810 31894 net.cpp:157] Top shape: 2 128 112 112 (3211264)
I0429 15:45:59.802812 31894 net.cpp:165] Memory required for data: 125640832
I0429 15:45:59.802817 31894 layer_factory.hpp:77] Creating layer quant_relu2_1
I0429 15:45:59.802824 31894 net.cpp:100] Creating Layer quant_relu2_1
I0429 15:45:59.802827 31894 net.cpp:434] quant_relu2_1 <- conv2_1
I0429 15:45:59.802830 31894 net.cpp:395] quant_relu2_1 -> conv2_1 (in-place)
I0429 15:45:59.804858 31894 net.cpp:150] Setting up quant_relu2_1
I0429 15:45:59.804870 31894 net.cpp:157] Top shape: 2 128 112 112 (3211264)
I0429 15:45:59.804873 31894 net.cpp:165] Memory required for data: 138485888
I0429 15:45:59.804881 31894 layer_factory.hpp:77] Creating layer conv2_2
I0429 15:45:59.804888 31894 net.cpp:100] Creating Layer conv2_2
I0429 15:45:59.804891 31894 net.cpp:434] conv2_2 <- conv2_1
I0429 15:45:59.804895 31894 net.cpp:408] conv2_2 -> conv2_2
I0429 15:45:59.805617 31894 net.cpp:150] Setting up conv2_2
I0429 15:45:59.805626 31894 net.cpp:157] Top shape: 2 128 112 112 (3211264)
I0429 15:45:59.805629 31894 net.cpp:165] Memory required for data: 151330944
I0429 15:45:59.805634 31894 layer_factory.hpp:77] Creating layer quant_relu2_2
I0429 15:45:59.805653 31894 net.cpp:100] Creating Layer quant_relu2_2
I0429 15:45:59.805656 31894 net.cpp:434] quant_relu2_2 <- conv2_2
I0429 15:45:59.805661 31894 net.cpp:395] quant_relu2_2 -> conv2_2 (in-place)
I0429 15:45:59.807574 31894 net.cpp:150] Setting up quant_relu2_2
I0429 15:45:59.807596 31894 net.cpp:157] Top shape: 2 128 112 112 (3211264)
I0429 15:45:59.807600 31894 net.cpp:165] Memory required for data: 164176000
I0429 15:45:59.807605 31894 layer_factory.hpp:77] Creating layer pool2
I0429 15:45:59.807631 31894 net.cpp:100] Creating Layer pool2
I0429 15:45:59.807636 31894 net.cpp:434] pool2 <- conv2_2
I0429 15:45:59.807642 31894 net.cpp:408] pool2 -> pool2
I0429 15:45:59.807667 31894 net.cpp:150] Setting up pool2
I0429 15:45:59.807670 31894 net.cpp:157] Top shape: 2 128 56 56 (802816)
I0429 15:45:59.807673 31894 net.cpp:165] Memory required for data: 167387264
I0429 15:45:59.807675 31894 layer_factory.hpp:77] Creating layer conv3_1
I0429 15:45:59.807682 31894 net.cpp:100] Creating Layer conv3_1
I0429 15:45:59.807709 31894 net.cpp:434] conv3_1 <- pool2
I0429 15:45:59.807713 31894 net.cpp:408] conv3_1 -> conv3_1
I0429 15:45:59.809473 31894 net.cpp:150] Setting up conv3_1
I0429 15:45:59.809481 31894 net.cpp:157] Top shape: 2 256 56 56 (1605632)
I0429 15:45:59.809484 31894 net.cpp:165] Memory required for data: 173809792
I0429 15:45:59.809490 31894 layer_factory.hpp:77] Creating layer quant_relu3_1
I0429 15:45:59.809499 31894 net.cpp:100] Creating Layer quant_relu3_1
I0429 15:45:59.809504 31894 net.cpp:434] quant_relu3_1 <- conv3_1
I0429 15:45:59.809509 31894 net.cpp:395] quant_relu3_1 -> conv3_1 (in-place)
I0429 15:45:59.810472 31894 net.cpp:150] Setting up quant_relu3_1
I0429 15:45:59.810479 31894 net.cpp:157] Top shape: 2 256 56 56 (1605632)
I0429 15:45:59.810482 31894 net.cpp:165] Memory required for data: 180232320
I0429 15:45:59.810487 31894 layer_factory.hpp:77] Creating layer conv3_2
I0429 15:45:59.810495 31894 net.cpp:100] Creating Layer conv3_2
I0429 15:45:59.810498 31894 net.cpp:434] conv3_2 <- conv3_1
I0429 15:45:59.810504 31894 net.cpp:408] conv3_2 -> conv3_2
I0429 15:45:59.813237 31894 net.cpp:150] Setting up conv3_2
I0429 15:45:59.813246 31894 net.cpp:157] Top shape: 2 256 56 56 (1605632)
I0429 15:45:59.813249 31894 net.cpp:165] Memory required for data: 186654848
I0429 15:45:59.813261 31894 layer_factory.hpp:77] Creating layer quant_relu3_2
I0429 15:45:59.813277 31894 net.cpp:100] Creating Layer quant_relu3_2
I0429 15:45:59.813282 31894 net.cpp:434] quant_relu3_2 <- conv3_2
I0429 15:45:59.813287 31894 net.cpp:395] quant_relu3_2 -> conv3_2 (in-place)
I0429 15:45:59.814257 31894 net.cpp:150] Setting up quant_relu3_2
I0429 15:45:59.814265 31894 net.cpp:157] Top shape: 2 256 56 56 (1605632)
I0429 15:45:59.814267 31894 net.cpp:165] Memory required for data: 193077376
I0429 15:45:59.814273 31894 layer_factory.hpp:77] Creating layer conv3_3
I0429 15:45:59.814283 31894 net.cpp:100] Creating Layer conv3_3
I0429 15:45:59.814286 31894 net.cpp:434] conv3_3 <- conv3_2
I0429 15:45:59.814291 31894 net.cpp:408] conv3_3 -> conv3_3
I0429 15:45:59.817077 31894 net.cpp:150] Setting up conv3_3
I0429 15:45:59.817086 31894 net.cpp:157] Top shape: 2 256 56 56 (1605632)
I0429 15:45:59.817088 31894 net.cpp:165] Memory required for data: 199499904
I0429 15:45:59.817095 31894 layer_factory.hpp:77] Creating layer quant_relu3_3
I0429 15:45:59.817118 31894 net.cpp:100] Creating Layer quant_relu3_3
I0429 15:45:59.817124 31894 net.cpp:434] quant_relu3_3 <- conv3_3
I0429 15:45:59.817131 31894 net.cpp:395] quant_relu3_3 -> conv3_3 (in-place)
I0429 15:45:59.818440 31894 net.cpp:150] Setting up quant_relu3_3
I0429 15:45:59.818451 31894 net.cpp:157] Top shape: 2 256 56 56 (1605632)
I0429 15:45:59.818455 31894 net.cpp:165] Memory required for data: 205922432
I0429 15:45:59.818460 31894 layer_factory.hpp:77] Creating layer pool3
I0429 15:45:59.818485 31894 net.cpp:100] Creating Layer pool3
I0429 15:45:59.818490 31894 net.cpp:434] pool3 <- conv3_3
I0429 15:45:59.818495 31894 net.cpp:408] pool3 -> pool3
I0429 15:45:59.818562 31894 net.cpp:150] Setting up pool3
I0429 15:45:59.818567 31894 net.cpp:157] Top shape: 2 256 28 28 (401408)
I0429 15:45:59.818586 31894 net.cpp:165] Memory required for data: 207528064
I0429 15:45:59.818589 31894 layer_factory.hpp:77] Creating layer conv4_1
I0429 15:45:59.818595 31894 net.cpp:100] Creating Layer conv4_1
I0429 15:45:59.818598 31894 net.cpp:434] conv4_1 <- pool3
I0429 15:45:59.818604 31894 net.cpp:408] conv4_1 -> conv4_1
I0429 15:45:59.824777 31894 net.cpp:150] Setting up conv4_1
I0429 15:45:59.824791 31894 net.cpp:157] Top shape: 2 512 28 28 (802816)
I0429 15:45:59.824793 31894 net.cpp:165] Memory required for data: 210739328
I0429 15:45:59.824800 31894 layer_factory.hpp:77] Creating layer quant_relu4_1
I0429 15:45:59.824823 31894 net.cpp:100] Creating Layer quant_relu4_1
I0429 15:45:59.824826 31894 net.cpp:434] quant_relu4_1 <- conv4_1
I0429 15:45:59.824844 31894 net.cpp:395] quant_relu4_1 -> conv4_1 (in-place)
I0429 15:45:59.825515 31894 net.cpp:150] Setting up quant_relu4_1
I0429 15:45:59.825522 31894 net.cpp:157] Top shape: 2 512 28 28 (802816)
I0429 15:45:59.825525 31894 net.cpp:165] Memory required for data: 213950592
I0429 15:45:59.825528 31894 layer_factory.hpp:77] Creating layer conv4_2
I0429 15:45:59.825553 31894 net.cpp:100] Creating Layer conv4_2
I0429 15:45:59.825556 31894 net.cpp:434] conv4_2 <- conv4_1
I0429 15:45:59.825561 31894 net.cpp:408] conv4_2 -> conv4_2
I0429 15:45:59.835994 31894 net.cpp:150] Setting up conv4_2
I0429 15:45:59.836009 31894 net.cpp:157] Top shape: 2 512 28 28 (802816)
I0429 15:45:59.836014 31894 net.cpp:165] Memory required for data: 217161856
I0429 15:45:59.836019 31894 layer_factory.hpp:77] Creating layer quant_relu4_2
I0429 15:45:59.836042 31894 net.cpp:100] Creating Layer quant_relu4_2
I0429 15:45:59.836046 31894 net.cpp:434] quant_relu4_2 <- conv4_2
I0429 15:45:59.836069 31894 net.cpp:395] quant_relu4_2 -> conv4_2 (in-place)
I0429 15:45:59.836876 31894 net.cpp:150] Setting up quant_relu4_2
I0429 15:45:59.836884 31894 net.cpp:157] Top shape: 2 512 28 28 (802816)
I0429 15:45:59.836887 31894 net.cpp:165] Memory required for data: 220373120
I0429 15:45:59.836891 31894 layer_factory.hpp:77] Creating layer conv4_3
I0429 15:45:59.836912 31894 net.cpp:100] Creating Layer conv4_3
I0429 15:45:59.836916 31894 net.cpp:434] conv4_3 <- conv4_2
I0429 15:45:59.836921 31894 net.cpp:408] conv4_3 -> conv4_3
I0429 15:45:59.847411 31894 net.cpp:150] Setting up conv4_3
I0429 15:45:59.847437 31894 net.cpp:157] Top shape: 2 512 28 28 (802816)
I0429 15:45:59.847440 31894 net.cpp:165] Memory required for data: 223584384
I0429 15:45:59.847446 31894 layer_factory.hpp:77] Creating layer quant_relu4_3
I0429 15:45:59.847467 31894 net.cpp:100] Creating Layer quant_relu4_3
I0429 15:45:59.847471 31894 net.cpp:434] quant_relu4_3 <- conv4_3
I0429 15:45:59.847491 31894 net.cpp:395] quant_relu4_3 -> conv4_3 (in-place)
I0429 15:45:59.848268 31894 net.cpp:150] Setting up quant_relu4_3
I0429 15:45:59.848274 31894 net.cpp:157] Top shape: 2 512 28 28 (802816)
I0429 15:45:59.848278 31894 net.cpp:165] Memory required for data: 226795648
I0429 15:45:59.848280 31894 layer_factory.hpp:77] Creating layer pool4
I0429 15:45:59.848301 31894 net.cpp:100] Creating Layer pool4
I0429 15:45:59.848305 31894 net.cpp:434] pool4 <- conv4_3
I0429 15:45:59.848326 31894 net.cpp:408] pool4 -> pool4
I0429 15:45:59.848377 31894 net.cpp:150] Setting up pool4
I0429 15:45:59.848382 31894 net.cpp:157] Top shape: 2 512 14 14 (200704)
I0429 15:45:59.848399 31894 net.cpp:165] Memory required for data: 227598464
I0429 15:45:59.848402 31894 layer_factory.hpp:77] Creating layer conv5_1
I0429 15:45:59.848407 31894 net.cpp:100] Creating Layer conv5_1
I0429 15:45:59.848410 31894 net.cpp:434] conv5_1 <- pool4
I0429 15:45:59.848438 31894 net.cpp:408] conv5_1 -> conv5_1
I0429 15:45:59.858937 31894 net.cpp:150] Setting up conv5_1
I0429 15:45:59.858952 31894 net.cpp:157] Top shape: 2 512 14 14 (200704)
I0429 15:45:59.858955 31894 net.cpp:165] Memory required for data: 228401280
I0429 15:45:59.858960 31894 layer_factory.hpp:77] Creating layer quant_relu5_1
I0429 15:45:59.858984 31894 net.cpp:100] Creating Layer quant_relu5_1
I0429 15:45:59.858986 31894 net.cpp:434] quant_relu5_1 <- conv5_1
I0429 15:45:59.859007 31894 net.cpp:395] quant_relu5_1 -> conv5_1 (in-place)
I0429 15:45:59.859112 31894 net.cpp:150] Setting up quant_relu5_1
I0429 15:45:59.859117 31894 net.cpp:157] Top shape: 2 512 14 14 (200704)
I0429 15:45:59.859118 31894 net.cpp:165] Memory required for data: 229204096
I0429 15:45:59.859140 31894 layer_factory.hpp:77] Creating layer conv5_2
I0429 15:45:59.859146 31894 net.cpp:100] Creating Layer conv5_2
I0429 15:45:59.859169 31894 net.cpp:434] conv5_2 <- conv5_1
I0429 15:45:59.859171 31894 net.cpp:408] conv5_2 -> conv5_2
I0429 15:45:59.869007 31894 net.cpp:150] Setting up conv5_2
I0429 15:45:59.869024 31894 net.cpp:157] Top shape: 2 512 14 14 (200704)
I0429 15:45:59.869025 31894 net.cpp:165] Memory required for data: 230006912
I0429 15:45:59.869031 31894 layer_factory.hpp:77] Creating layer quant_relu5_2
I0429 15:45:59.869053 31894 net.cpp:100] Creating Layer quant_relu5_2
I0429 15:45:59.869056 31894 net.cpp:434] quant_relu5_2 <- conv5_2
I0429 15:45:59.869060 31894 net.cpp:395] quant_relu5_2 -> conv5_2 (in-place)
I0429 15:45:59.869174 31894 net.cpp:150] Setting up quant_relu5_2
I0429 15:45:59.869192 31894 net.cpp:157] Top shape: 2 512 14 14 (200704)
I0429 15:45:59.869194 31894 net.cpp:165] Memory required for data: 230809728
I0429 15:45:59.869197 31894 layer_factory.hpp:77] Creating layer conv5_3
I0429 15:45:59.869218 31894 net.cpp:100] Creating Layer conv5_3
I0429 15:45:59.869221 31894 net.cpp:434] conv5_3 <- conv5_2
I0429 15:45:59.869242 31894 net.cpp:408] conv5_3 -> conv5_3
I0429 15:45:59.879196 31894 net.cpp:150] Setting up conv5_3
I0429 15:45:59.879210 31894 net.cpp:157] Top shape: 2 512 14 14 (200704)
I0429 15:45:59.879213 31894 net.cpp:165] Memory required for data: 231612544
I0429 15:45:59.879218 31894 layer_factory.hpp:77] Creating layer quant_relu5_3
I0429 15:45:59.879225 31894 net.cpp:100] Creating Layer quant_relu5_3
I0429 15:45:59.879227 31894 net.cpp:434] quant_relu5_3 <- conv5_3
I0429 15:45:59.879231 31894 net.cpp:395] quant_relu5_3 -> conv5_3 (in-place)
I0429 15:45:59.879309 31894 net.cpp:150] Setting up quant_relu5_3
I0429 15:45:59.879313 31894 net.cpp:157] Top shape: 2 512 14 14 (200704)
I0429 15:45:59.879315 31894 net.cpp:165] Memory required for data: 232415360
I0429 15:45:59.879319 31894 layer_factory.hpp:77] Creating layer pool5
I0429 15:45:59.879338 31894 net.cpp:100] Creating Layer pool5
I0429 15:45:59.879341 31894 net.cpp:434] pool5 <- conv5_3
I0429 15:45:59.879345 31894 net.cpp:408] pool5 -> pool5
I0429 15:45:59.879365 31894 net.cpp:150] Setting up pool5
I0429 15:45:59.879370 31894 net.cpp:157] Top shape: 2 512 7 7 (50176)
I0429 15:45:59.879372 31894 net.cpp:165] Memory required for data: 232616064
I0429 15:45:59.879374 31894 layer_factory.hpp:77] Creating layer ip6
I0429 15:45:59.879381 31894 net.cpp:100] Creating Layer ip6
I0429 15:45:59.879384 31894 net.cpp:434] ip6 <- pool5
I0429 15:45:59.879387 31894 net.cpp:408] ip6 -> ip6
I0429 15:46:00.586552 31894 net.cpp:150] Setting up ip6
I0429 15:46:00.586575 31894 net.cpp:157] Top shape: 2 512 7 7 (50176)
I0429 15:46:00.586580 31894 net.cpp:165] Memory required for data: 232816768
I0429 15:46:00.586602 31894 layer_factory.hpp:77] Creating layer relu6
I0429 15:46:00.586611 31894 net.cpp:100] Creating Layer relu6
I0429 15:46:00.586616 31894 net.cpp:434] relu6 <- ip6
I0429 15:46:00.586621 31894 net.cpp:395] relu6 -> ip6 (in-place)
I0429 15:46:00.587020 31894 net.cpp:150] Setting up relu6
I0429 15:46:00.587028 31894 net.cpp:157] Top shape: 2 512 7 7 (50176)
I0429 15:46:00.587030 31894 net.cpp:165] Memory required for data: 233017472
I0429 15:46:00.587049 31894 layer_factory.hpp:77] Creating layer ip7
I0429 15:46:00.587059 31894 net.cpp:100] Creating Layer ip7
I0429 15:46:00.587062 31894 net.cpp:434] ip7 <- ip6
I0429 15:46:00.587066 31894 net.cpp:408] ip7 -> ip7
I0429 15:46:00.590255 31894 net.cpp:150] Setting up ip7
I0429 15:46:00.590279 31894 net.cpp:157] Top shape: 2 512 7 7 (50176)
I0429 15:46:00.590282 31894 net.cpp:165] Memory required for data: 233218176
I0429 15:46:00.590287 31894 layer_factory.hpp:77] Creating layer relu7
I0429 15:46:00.590308 31894 net.cpp:100] Creating Layer relu7
I0429 15:46:00.590312 31894 net.cpp:434] relu7 <- ip7
I0429 15:46:00.590315 31894 net.cpp:395] relu7 -> ip7 (in-place)
I0429 15:46:00.590680 31894 net.cpp:150] Setting up relu7
I0429 15:46:00.590704 31894 net.cpp:157] Top shape: 2 512 7 7 (50176)
I0429 15:46:00.590706 31894 net.cpp:165] Memory required for data: 233418880
I0429 15:46:00.590709 31894 layer_factory.hpp:77] Creating layer ip7_relu7_0_split
I0429 15:46:00.590713 31894 net.cpp:100] Creating Layer ip7_relu7_0_split
I0429 15:46:00.590731 31894 net.cpp:434] ip7_relu7_0_split <- ip7
I0429 15:46:00.590736 31894 net.cpp:408] ip7_relu7_0_split -> ip7_relu7_0_split_0
I0429 15:46:00.590742 31894 net.cpp:408] ip7_relu7_0_split -> ip7_relu7_0_split_1
I0429 15:46:00.590746 31894 net.cpp:408] ip7_relu7_0_split -> ip7_relu7_0_split_2
I0429 15:46:00.590791 31894 net.cpp:150] Setting up ip7_relu7_0_split
I0429 15:46:00.590795 31894 net.cpp:157] Top shape: 2 512 7 7 (50176)
I0429 15:46:00.590800 31894 net.cpp:157] Top shape: 2 512 7 7 (50176)
I0429 15:46:00.590801 31894 net.cpp:157] Top shape: 2 512 7 7 (50176)
I0429 15:46:00.590804 31894 net.cpp:165] Memory required for data: 234020992
I0429 15:46:00.590806 31894 layer_factory.hpp:77] Creating layer ip7_mbox_loc
I0429 15:46:00.590812 31894 net.cpp:100] Creating Layer ip7_mbox_loc
I0429 15:46:00.590814 31894 net.cpp:434] ip7_mbox_loc <- ip7_relu7_0_split_0
I0429 15:46:00.590840 31894 net.cpp:408] ip7_mbox_loc -> ip7_mbox_loc
I0429 15:46:00.593871 31894 net.cpp:150] Setting up ip7_mbox_loc
I0429 15:46:00.593880 31894 net.cpp:157] Top shape: 2 24 7 7 (2352)
I0429 15:46:00.593883 31894 net.cpp:165] Memory required for data: 234030400
I0429 15:46:00.593904 31894 layer_factory.hpp:77] Creating layer ip7_mbox_loc_perm
I0429 15:46:00.593910 31894 net.cpp:100] Creating Layer ip7_mbox_loc_perm
I0429 15:46:00.593914 31894 net.cpp:434] ip7_mbox_loc_perm <- ip7_mbox_loc
I0429 15:46:00.593917 31894 net.cpp:408] ip7_mbox_loc_perm -> ip7_mbox_loc_perm
I0429 15:46:00.594002 31894 net.cpp:150] Setting up ip7_mbox_loc_perm
I0429 15:46:00.594007 31894 net.cpp:157] Top shape: 2 7 7 24 (2352)
I0429 15:46:00.594009 31894 net.cpp:165] Memory required for data: 234039808
I0429 15:46:00.594012 31894 layer_factory.hpp:77] Creating layer ip7_mbox_loc_flat
I0429 15:46:00.594024 31894 net.cpp:100] Creating Layer ip7_mbox_loc_flat
I0429 15:46:00.594028 31894 net.cpp:434] ip7_mbox_loc_flat <- ip7_mbox_loc_perm
I0429 15:46:00.594033 31894 net.cpp:408] ip7_mbox_loc_flat -> ip7_mbox_loc_flat
I0429 15:46:00.594053 31894 net.cpp:150] Setting up ip7_mbox_loc_flat
I0429 15:46:00.594058 31894 net.cpp:157] Top shape: 2 1176 (2352)
I0429 15:46:00.594060 31894 net.cpp:165] Memory required for data: 234049216
I0429 15:46:00.594063 31894 layer_factory.hpp:77] Creating layer ip7_mbox_conf
I0429 15:46:00.594069 31894 net.cpp:100] Creating Layer ip7_mbox_conf
I0429 15:46:00.594072 31894 net.cpp:434] ip7_mbox_conf <- ip7_relu7_0_split_1
I0429 15:46:00.594077 31894 net.cpp:408] ip7_mbox_conf -> ip7_mbox_conf
I0429 15:46:00.596549 31894 net.cpp:150] Setting up ip7_mbox_conf
I0429 15:46:00.596557 31894 net.cpp:157] Top shape: 2 42 7 7 (4116)
I0429 15:46:00.596561 31894 net.cpp:165] Memory required for data: 234065680
I0429 15:46:00.596565 31894 layer_factory.hpp:77] Creating layer ip7_mbox_conf_perm
I0429 15:46:00.596571 31894 net.cpp:100] Creating Layer ip7_mbox_conf_perm
I0429 15:46:00.596575 31894 net.cpp:434] ip7_mbox_conf_perm <- ip7_mbox_conf
I0429 15:46:00.596580 31894 net.cpp:408] ip7_mbox_conf_perm -> ip7_mbox_conf_perm
I0429 15:46:00.596665 31894 net.cpp:150] Setting up ip7_mbox_conf_perm
I0429 15:46:00.596669 31894 net.cpp:157] Top shape: 2 7 7 42 (4116)
I0429 15:46:00.596671 31894 net.cpp:165] Memory required for data: 234082144
I0429 15:46:00.596674 31894 layer_factory.hpp:77] Creating layer ip7_mbox_conf_flat
I0429 15:46:00.596678 31894 net.cpp:100] Creating Layer ip7_mbox_conf_flat
I0429 15:46:00.596680 31894 net.cpp:434] ip7_mbox_conf_flat <- ip7_mbox_conf_perm
I0429 15:46:00.596685 31894 net.cpp:408] ip7_mbox_conf_flat -> ip7_mbox_conf_flat
I0429 15:46:00.596707 31894 net.cpp:150] Setting up ip7_mbox_conf_flat
I0429 15:46:00.596711 31894 net.cpp:157] Top shape: 2 2058 (4116)
I0429 15:46:00.596714 31894 net.cpp:165] Memory required for data: 234098608
I0429 15:46:00.596715 31894 layer_factory.hpp:77] Creating layer ip7_mbox_priorbox
I0429 15:46:00.596721 31894 net.cpp:100] Creating Layer ip7_mbox_priorbox
I0429 15:46:00.596724 31894 net.cpp:434] ip7_mbox_priorbox <- ip7_relu7_0_split_2
I0429 15:46:00.596727 31894 net.cpp:434] ip7_mbox_priorbox <- data_data_0_split_1
I0429 15:46:00.596732 31894 net.cpp:408] ip7_mbox_priorbox -> ip7_mbox_priorbox
I0429 15:46:00.596753 31894 net.cpp:150] Setting up ip7_mbox_priorbox
I0429 15:46:00.596757 31894 net.cpp:157] Top shape: 1 2 1176 (2352)
I0429 15:46:00.596760 31894 net.cpp:165] Memory required for data: 234108016
I0429 15:46:00.596761 31894 layer_factory.hpp:77] Creating layer mbox_loc
I0429 15:46:00.596767 31894 net.cpp:100] Creating Layer mbox_loc
I0429 15:46:00.596771 31894 net.cpp:434] mbox_loc <- ip7_mbox_loc_flat
I0429 15:46:00.596773 31894 net.cpp:408] mbox_loc -> mbox_loc
I0429 15:46:00.596794 31894 net.cpp:150] Setting up mbox_loc
I0429 15:46:00.596799 31894 net.cpp:157] Top shape: 2 1176 (2352)
I0429 15:46:00.596801 31894 net.cpp:165] Memory required for data: 234117424
I0429 15:46:00.596803 31894 layer_factory.hpp:77] Creating layer mbox_conf
I0429 15:46:00.596807 31894 net.cpp:100] Creating Layer mbox_conf
I0429 15:46:00.596809 31894 net.cpp:434] mbox_conf <- ip7_mbox_conf_flat
I0429 15:46:00.596813 31894 net.cpp:408] mbox_conf -> mbox_conf
I0429 15:46:00.596830 31894 net.cpp:150] Setting up mbox_conf
I0429 15:46:00.596834 31894 net.cpp:157] Top shape: 2 2058 (4116)
I0429 15:46:00.596837 31894 net.cpp:165] Memory required for data: 234133888
I0429 15:46:00.596839 31894 layer_factory.hpp:77] Creating layer mbox_priorbox
I0429 15:46:00.596843 31894 net.cpp:100] Creating Layer mbox_priorbox
I0429 15:46:00.596844 31894 net.cpp:434] mbox_priorbox <- ip7_mbox_priorbox
I0429 15:46:00.596849 31894 net.cpp:408] mbox_priorbox -> mbox_priorbox
I0429 15:46:00.596865 31894 net.cpp:150] Setting up mbox_priorbox
I0429 15:46:00.596870 31894 net.cpp:157] Top shape: 1 2 1176 (2352)
I0429 15:46:00.596873 31894 net.cpp:165] Memory required for data: 234143296
I0429 15:46:00.596884 31894 layer_factory.hpp:77] Creating layer mbox_loss
I0429 15:46:00.596889 31894 net.cpp:100] Creating Layer mbox_loss
I0429 15:46:00.596892 31894 net.cpp:434] mbox_loss <- mbox_loc
I0429 15:46:00.596894 31894 net.cpp:434] mbox_loss <- mbox_conf
I0429 15:46:00.596897 31894 net.cpp:434] mbox_loss <- mbox_priorbox
…
  name: "data"
  type: "AnnotatedData"
  top: "data"
  top: "label"
  include {
    phase: TEST
  }
  transform_param {
    scale: 0.12156863
    resize_param {
      prob: 1
      resize_mode: WARP
      height: 224
      width: 224
      interp_mode: LINEAR
    }
  }
  data_param {
    source: "/home/zhangwanchun/data/VOCdevkit/VOC0712/lmdb/VOC0712_test_lmdb"
    batch_size: 10
    backend: LMDB
  }
  annotated_data_param {
    batch_sampler {
    }
    label_map_file: "/home/zhangwanchun/data/VOCdevkit/VOC0712/lmdb/labelmap_voc.prototxt"
  }
}
layer {
  name: "conv1_1"
  type: "QuantConvolution"
  bottom: "data"
  top: "conv1_1"
  convolution_param {
    num_output: 64
    pad: 1
    kernel_size: 3
    weight_filler {
      type: "xavier"
    }
    bias_filler {
      type: "constant"
      value: 0
    }
  }
  quant_convolution_param {
    coef_precision: THREE_BITS
    bw_params: 8
    shift_enable: true
  }
}
layer {
  name: "quant_relu1_1"
  type: "QuantReLU"
  bottom: "conv1_1"
  top: "conv1_1"
  param {
    lr_mult: 0
  }
  quant_relu_param {
    filler {
      type: "constant"
      value: 31
    }
    channel_shared: true
    act_bits: 5
    quant_enable: true
  }
}
layer {
  name: "conv1_2"
  type: "QuantConvolution"
  bottom: "conv1_1"
  top: "conv1_2"
  convolution_param {
    num_output: 64
    pad: 1
    kernel_size: 3
    weight_filler {
      type: "xavier"
    }
    bias_filler {
      type: "constant"
      value: 0
    }
  }
  quant_convolution_param {
    coef_precision: THREE_BITS
    bw_params: 8
    shift_enable: true
  }
}
layer {
  name: "quant_relu1_2"
  type: "QuantReLU"
  bottom: "conv1_2"
  top: "conv1_2"
  param {
    lr_mult: 0
  }
  quant_relu_param {
    filler {
      type: "constant"
      value: 31
    }
    channel_shared: true
    act_bits: 5
    quant_enable: true
  }
}
layer {
  name: "pool1"
  type: "Pooling"
  bottom: "conv1_2"
  top: "pool1"
  pooling_param {
    pool: MAX
    kernel_size: 2
    stride: 2
  }
}
layer {
  name: "conv2_1"
  type: "QuantConvolution"
  bottom: "pool1"
  top: "conv2_1"
  convolution_param {
    num_output: 128
    pad: 1
    kernel_size: 3
    weight_filler {
      type: "xavier"
    }
    bias_filler {
      type: "constant"
      value: 0
    }
  }
  quant_convolution_param {
    coef_precision: THREE_BITS
    bw_params: 8
    shift_enable: true
  }
}
layer {
  name: "quant_relu2_1"
  type: "QuantReLU"
  bottom: "conv2_1"
  top: "conv2_1"
  param {
    lr_mult: 0
  }
  quant_relu_param {
    filler {
      type: "constant"
      value: 31
    }
    channel_shared: true
    act_bits: 5
    quant_enable: true
  }
}
layer {
  name: "conv2_2"
  type: "QuantConvolution"
  bottom: "conv2_1"
  top: "conv2_2"
  convolution_param {
    num_output: 128
    pad: 1
    kernel_size: 3
    weight_filler {
      type: "xavier"
    }
    bias_filler {
      type: "constant"
      value: 0
    }
  }
  quant_convolution_param {
    coef_precision: THREE_BITS
    bw_params: 8
    shift_enable: true
  }
}
layer {
  name: "quant_relu2_2"
  type: "QuantReLU"
  bottom: "conv2_2"
  top: "conv2_2"
  param {
    lr_mult: 0
  }
  quant_relu_param {
    filler {
      type: "constant"
      value: 31
    }
    channel_shared: true
    act_bits: 5
    quant_enable: true
  }
}
layer {
  name: "pool2"
  type: "Pooling"
  bottom: "conv2_2"
  top: "pool2"
  pooling_param {
    pool: MAX
    kernel_size: 2
    stride: 2
  }
}
layer {
  name: "conv3_1"
  type: "QuantConvolution"
  bottom: "pool2"
  top: "conv3_1"
  convolution_param {
    num_output: 256
    pad: 1
    kernel_size: 3
    weight_filler {
      type: "xavier"
    }
    bias_filler {
      type: "constant"
      value: 0
    }
  }
  quant_convolution_param {
    coef_precision: THREE_BITS
    bw_params: 8
    shift_enable: true
  }
}
layer {
  name: "quant_relu3_1"
  type: "QuantReLU"
  bottom: "conv3_1"
  top: "conv3_1"
  param {
    lr_mult: 0
  }
  quant_relu_param {
    filler {
      type: "constant"
      value: 31
    }
    channel_shared: true
    act_bits: 5
    quant_enable: true
  }
}
layer {
  name: "conv3_2"
  type: "QuantConvolution"
  bottom: "conv3_1"
  top: "conv3_2"
  convolution_param {
    num_output: 256
    pad: 1
    kernel_size: 3
    weight_filler {
      type: "xavier"
    }
    bias_filler {
      type: "constant"
      value: 0
    }
  }
  quant_convolution_param {
    coef_precision: THREE_BITS
    bw_params: 8
    shift_enable: true
  }
}
layer {
  name: "quant_relu3_2"
  type: "QuantReLU"
  bottom: "conv3_2"
  top: "conv3_2"
  param {
    lr_mult: 0
  }
  quant_relu_param {
    filler {
      type: "constant"
      value: 31
    }
    channel_shared: true
    act_bits: 5
    quant_enable: true
  }
}
layer {
  name: "conv3_3"
  type: "QuantConvolution"
  bottom: "conv3_2"
  top: "conv3_3"
  convolution_param {
    num_output: 256
    pad: 1
    kernel_size: 3
    weight_filler {
      type: "xavier"
    }
    bias_filler {
      type: "constant"
      value: 0
    }
  }
  quant_convolution_param {
    coef_precision: THREE_BITS
    bw_params: 8
    shift_enable: true
  }
}
layer {
  name: "quant_relu3_3"
  type: "QuantReLU"
  bottom: "conv3_3"
  top: "conv3_3"
  param {
    lr_mult: 0
  }
  quant_relu_param {
    filler {
      type: "constant"
      value: 31
    }
    channel_shared: true
    act_bits: 5
    quant_enable: true
  }
}
layer {
  name: "pool3"
  type: "Pooling"
  bottom: "conv3_3"
  top: "pool3"
  pooling_param {
    pool: MAX
    kernel_size: 2
    stride: 2
  }
}
layer {
  name: "conv4_1"
  type: "QuantConvolution"
  bottom: "pool3"
  top: "conv4_1"
  convolution_param {
    num_output: 512
    pad: 1
    kernel_size: 3
    weight_filler {
      type: "xavier"
    }
    bias_filler {
      type: "constant"
      value: 0
    }
  }
  quant_convolution_param {
    coef_precision: ONE_BIT
    bw_params: 8
    shift_enable: true
  }
}
layer {
  name: "quant_relu4_1"
  type: "QuantReLU"
  bottom: "conv4_1"
  top: "conv4_1"
  param {
    lr_mult: 0
  }
  quant_relu_param {
    filler {
      type: "constant"
      value: 31
    }
    channel_shared: true
    act_bits: 5
    quant_enable: true
  }
}
layer {
  name: "conv4_2"
  type: "QuantConvolution"
  bottom: "conv4_1"
  top: "conv4_2"
  convolution_param {
    num_output: 512
    pad: 1
    kernel_size: 3
    weight_filler {
      type: "xavier"
    }
    bias_filler {
      type: "constant"
      value: 0
    }
  }
  quant_convolution_param {
    coef_precision: ONE_BIT
    bw_params: 8
    shift_enable: true
  }
}
layer {
  name: "quant_relu4_2"
  type: "QuantReLU"
  bottom: "conv4_2"
  top: "conv4_2"
  param {
    lr_mult: 0
  }
  quant_relu_param {
    filler {
      type: "constant"
      value: 31
    }
    channel_shared: true
    act_bits: 5
    quant_enable: true
  }
}
layer {
  name: "conv4_3"
  type: "QuantConvolution"
  bottom: "conv4_2"
  top: "conv4_3"
  convolution_param {
    num_output: 512
    pad: 1
    kernel_size: 3
    weight_filler {
      type: "xavier"
    }
    bias_filler {
      type: "constant"
      value: 0
    }
  }
  quant_convolution_param {
    coef_precision: ONE_BIT
    bw_params: 8
    shift_enable: true
  }
}
layer {
  name: "quant_relu4_3"
  type: "QuantReLU"
  bottom: "conv4_3"
  top: "conv4_3"
  param {
    lr_mult: 0
  }
  quant_relu_param {
    filler {
      type: "constant"
      value: 31
    }
    channel_shared: true
    act_bits: 5
    quant_enable: true
  }
}
layer {
  name: "pool4"
  type: "Pooling"
  bottom: "conv4_3"
  top: "pool4"
  pooling_param {
    pool: MAX
    kernel_size: 2
    stride: 2
  }
}
layer {
  name: "conv5_1"
  type: "QuantConvolution"
  bottom: "pool4"
  top: "conv5_1"
  convolution_param {
    num_output: 512
    pad: 1
    kernel_size: 3
    weight_filler {
      type: "xavier"
    }
    bias_filler {
      type: "constant"
      value: 0
    }
  }
  quant_convolution_param {
    coef_precision: ONE_BIT
    bw_params: 8
    shift_enable: true
  }
}
layer {
  name: "quant_relu5_1"
  type: "QuantReLU"
  bottom: "conv5_1"
  top: "conv5_1"
  param {
    lr_mult: 0
  }
  quant_relu_param {
    filler {
      type: "constant"
      value: 31
    }
    channel_shared: true
    act_bits: 5
    quant_enable: true
  }
}
layer {
  name: "conv5_2"
  type: "QuantConvolution"
  bottom: "conv5_1"
  top: "conv5_2"
  param {
    lr_mult: 1
    decay_mult: 0
  }
  param {
    lr_mult: 1
    decay_mult: 1
  }
  convolution_param {
    num_output: 512
    pad: 1
    kernel_size: 3
    weight_filler {
      type: "xavier"
    }
    bias_filler {
      type: "constant"
      value: 0
    }
  }
  quant_convolution_param {
    coef_precision: ONE_BIT
    bw_params: 8
    shift_enable: true
  }
}
layer {
  name: "quant_relu5_2"
  type: "QuantReLU"
  bottom: "conv5_2"
  top: "conv5_2"
  param {
    lr_mult: 0
  }
  quant_relu_param {
    filler {
      type: "constant"
      value: 31
    }
    channel_shared: true
    act_bits: 5
    quant_enable: true
  }
}
layer {
  name: "conv5_3"
  type: "QuantConvolution"
  bottom: "conv5_2"
  top: "conv5_3"
  param {
    lr_mult: 1
    decay_mult: 0
  }
  param {
    lr_mult: 1
    decay_mult: 200
  }
  convolution_param {
    num_output: 512
    pad: 1
    kernel_size: 3
    weight_filler {
      type: "xavier"
    }
    bias_filler {
      type: "constant"
      value: 0
    }
  }
  quant_convolution_param {
    coef_precision: ONE_BIT
    bw_params: 8
    shift_enable: true
  }
}
layer {
  name: "quant_relu5_3"
  type: "QuantReLU"
  bottom: "conv5_3"
  top: "conv5_3"
  param {
    lr_mult: 0
  }
  quant_relu_param {
    filler {
      type: "constant"
      value: 31
    }
    channel_shared: true
    act_bits: 5
    quant_enable: true
  }
}
layer {
  name: "pool5"
  type: "Pooling"
  bottom: "conv5_3"
  top: "pool5"
  pooling_param {
    pool: MAX
    kernel_size: 2
    stride: 2
  }
}
layer {
  name: "ip6"
  type: "Convolution"
  bottom: "pool5"
  top: "ip6"
  param {
    lr_mult: 1
    decay_mult: 1
  }
  param {
    lr_mult: 2
    decay_mult: 0
  }
  convolution_param {
    num_output: 512
    pad: 1
    kernel_size: 3
    weight_filler {
      type: "xavier"
    }
    bias_filler {
      type: "constant"
      value: 0
    }
  }
}
layer {
  name: "relu6"
  type: "ReLU"
  bottom: "ip6"
  top: "ip6"
}
layer {
  name: "ip7"
  type: "Convolution"
  bottom: "ip6"
  top: "ip7"
  param {
    lr_mult: 1
    decay_mult: 1
  }
  param {
    lr_mult: 2
    decay_mult: 0
  }
  convolution_param {
    num_output: 512
    kernel_size: 1
    weight_filler {
      type: "xavier"
    }
    bias_filler {
      type: "constant"
      value: 0
    }
  }
}
layer {
  name: "relu7"
  type: "ReLU"
  bottom: "ip7"
  top: "ip7"
}
layer {
  name: "ip7_mbox_loc"
  type: "Convolution"
  bottom: "ip7"
  top: "ip7_mbox_loc"
  param {
    lr_mult: 1
    decay_mult: 1
  }
  param {
    lr_mult: 2
    decay_mult: 0
  }
  convolution_param {
    num_output: 24
    pad: 1
    kernel_size: 3
    stride: 1
    weight_filler {
      type: "xavier"
    }
    bias_filler {
      type: "constant"
      value: 0
    }
  }
}
layer {
  name: "ip7_mbox_loc_perm"
  type: "Permute"
  bottom: "ip7_mbox_loc"
  top: "ip7_mbox_loc_perm"
  permute_param {
    order: 0
    order: 2
    order: 3
    order: 1
  }
}
layer {
  name: "ip7_mbox_loc_flat"
  type: "Flatten"
  bottom: "ip7_mbox_loc_perm"
  top: "ip7_mbox_loc_flat"
  flatten_param {
    axis: 1
  }
}
layer {
  name: "ip7_mbox_conf"
  type: "Convolution"
  bottom: "ip7"
  top: "ip7_mbox_conf"
  param {
    lr_mult: 1
    decay_mult: 1
  }
  param {
    lr_mult: 2
    decay_mult: 0
  }
  convolution_param {
    num_output: 42
    pad: 1
    kernel_size: 3
    stride: 1
    weight_filler {
      type: "xavier"
    }
    bias_filler {
      type: "constant"
      value: 0
    }
  }
}
layer {
  name: "ip7_mbox_conf_perm"
  type: "Permute"
  bottom: "ip7_mbox_conf"
  top: "ip7_mbox_conf_perm"
  permute_param {
    order: 0
    order: 2
    order: 3
    order: 1
  }
}
layer {
  name: "ip7_mbox_conf_flat"
  type: "Flatten"
  bottom: "ip7_mbox_conf_perm"
  top: "ip7_mbox_conf_flat"
  flatten_param {
    axis: 1
  }
}
layer {
  name: "ip7_mbox_priorbox"
  type: "PriorBox"
  bottom: "ip7"
  bottom: "data"
  top: "ip7_mbox_priorbox"
  prior_box_param {
    min_size: 20
    max_size: 210
    aspect_ratio: 2
    aspect_ratio: 3
    flip: true
    clip: false
    variance: 0.1
    variance: 0.1
    variance: 0.2
    variance: 0.2
    step: 32
    offset: 0.5
  }
}
layer {
  name: "mbox_loc"
  type: "Concat"
  bottom: "ip7_mbox_loc_flat"
  top: "mbox_loc"
  concat_param {
    axis: 1
  }
}
layer {
  name: "mbox_conf"
  type: "Concat"
  bottom: "ip7_mbox_conf_flat"
  top: "mbox_conf"
  concat_param {
    axis: 1
  }
}
layer {
  name: "mbox_priorbox"
  type: "Concat"
  bottom: "ip7_mbox_priorbox"
  top: "mbox_priorbox"
  concat_param {
    axis: 2
  }
}
layer {
  name: "mbox_conf_reshape"
  type: "Reshape"
  bottom: "mbox_conf"
  top: "mbox_conf_reshape"
  reshape_param {
    shape {
      dim: 0
      dim: -1
      dim: 7
    }
  }
}
layer {
  name: "mbox_conf_softmax"
  type: "Softmax"
  bottom: "mbox_conf_reshape"
  top: "mbox_conf_softmax"
  softmax_param {
    axis: 2
  }
}
layer {
  name: "mbox_conf_flatten"
  type: "Flatten"
  bottom: "mbox_conf_softmax"
  top: "mbox_conf_flatten"
  flatten_param {
    axis: 1
  }
}
layer {
  name: "detection_out"
  type: "DetectionOutput"
  bottom: "mbox_loc"
  bottom: "mbox_conf_flatten"
  bottom: "mbox_priorbox"
  top: "detection_out"
  include {
    phase: TEST
  }
  detection_output_param {
    num_classes: 7
    share_location: true
    background_label_id: 0
    nms_param {
      nms_threshold: 0.45
      top_k: 400
    }
    code_type: CENTER_SIZE
    keep_top_k: 200
    confidence_threshold: 0.01
  }
}
layer {
  name: "detection_eval"
  type: "DetectionEvaluate"
  bottom: "detection_out"
  bottom: "label"
  top: "detection_eval"
  include {
    phase: TEST
  }
  detection_evaluate_param {
    num_classes: 7
    background_label_id: 0
    overlap_threshold: 0.5
    evaluate_difficult_gt: false
    name_size_file: "/home/zhangwanchun/data/VOCdevkit/VOC0712/lmdb/test_name_size.txt"
  }
}
I0429 15:46:00.598587 31894 layer_factory.hpp:77] Creating layer data
I0429 15:46:00.598640 31894 net.cpp:100] Creating Layer data
I0429 15:46:00.598646 31894 net.cpp:408] data -> data
I0429 15:46:00.598654 31894 net.cpp:408] data -> label
I0429 15:46:00.599490 31934 db_lmdb.cpp:35] Opened lmdb /home/zhangwanchun/data/VOCdevkit/VOC0712/lmdb/VOC0712_test_lmdb
I0429 15:46:00.600210 31894 annotated_data_layer.cpp:62] output data size: 10,3,224,224
I0429 15:46:00.606242 31894 net.cpp:150] Setting up data
I0429 15:46:00.606258 31894 net.cpp:157] Top shape: 10 3 224 224 (1505280)
I0429 15:46:00.606263 31894 net.cpp:157] Top shape: 1 1 1 8 (8)
I0429 15:46:00.606266 31894 net.cpp:165] Memory required for data: 6021152
I0429 15:46:00.606269 31894 layer_factory.hpp:77] Creating layer data_data_0_split
I0429 15:46:00.606279 31894 net.cpp:100] Creating Layer data_data_0_split
I0429 15:46:00.606290 31894 net.cpp:434] data_data_0_split <- data
I0429 15:46:00.606297 31894 net.cpp:408] data_data_0_split -> data_data_0_split_0
I0429 15:46:00.606303 31894 net.cpp:408] data_data_0_split -> data_data_0_split_1
I0429 15:46:00.606382 31894 net.cpp:150] Setting up data_data_0_split
I0429 15:46:00.606405 31894 net.cpp:157] Top shape: 10 3 224 224 (1505280)
I0429 15:46:00.606408 31894 net.cpp:157] Top shape: 10 3 224 224 (1505280)
I0429 15:46:00.606410 31894 net.cpp:165] Memory required for data: 18063392
I0429 15:46:00.606412 31894 layer_factory.hpp:77] Creating layer conv1_1
I0429 15:46:00.606420 31894 net.cpp:100] Creating Layer conv1_1
I0429 15:46:00.606422 31894 net.cpp:434] conv1_1 <- data_data_0_split_0
I0429 15:46:00.606426 31894 net.cpp:408] conv1_1 -> conv1_1
I0429 15:46:00.606856 31894 net.cpp:150] Setting up conv1_1
I0429 15:46:00.606861 31894 net.cpp:157] Top shape: 10 64 224 224 (32112640)
I0429 15:46:00.606864 31894 net.cpp:165] Memory required for data: 146513952
I0429 15:46:00.606871 31894 layer_factory.hpp:77] Creating layer quant_relu1_1
I0429 15:46:00.606878 31894 net.cpp:100] Creating Layer quant_relu1_1
I0429 15:46:00.606879 31894 net.cpp:434] quant_relu1_1 <- conv1_1
I0429 15:46:00.606884 31894 net.cpp:395] quant_relu1_1 -> conv1_1 (in-place)
I0429 15:46:00.610654 31894 net.cpp:150] Setting up quant_relu1_1
I0429 15:46:00.610669 31894 net.cpp:157] Top shape: 10 64 224 224 (32112640)
I0429 15:46:00.610672 31894 net.cpp:165] Memory required for data: 274964512
I0429 15:46:00.610698 31894 layer_factory.hpp:77] Creating layer conv1_2
I0429 15:46:00.610708 31894 net.cpp:100] Creating Layer conv1_2
I0429 15:46:00.610710 31894 net.cpp:434] conv1_2 <- conv1_1
I0429 15:46:00.610716 31894 net.cpp:408] conv1_2 -> conv1_2
I0429 15:46:00.611552 31894 net.cpp:150] Setting up conv1_2
I0429 15:46:00.611557 31894 net.cpp:157] Top shape: 10 64 224 224 (32112640)
I0429 15:46:00.611560 31894 net.cpp:165] Memory required for data: 403415072
I0429 15:46:00.611565 31894 layer_factory.hpp:77] Creating layer quant_relu1_2
I0429 15:46:00.611588 31894 net.cpp:100] Creating Layer quant_relu1_2
I0429 15:46:00.611591 31894 net.cpp:434] quant_relu1_2 <- conv1_2
I0429 15:46:00.611594 31894 net.cpp:395] quant_relu1_2 -> conv1_2 (in-place)
I0429 15:46:00.615049 31894 net.cpp:150] Setting up quant_relu1_2
I0429 15:46:00.615067 31894 net.cpp:157] Top shape: 10 64 224 224 (32112640)
I0429 15:46:00.615069 31894 net.cpp:165] Memory required for data: 531865632
I0429 15:46:00.615075 31894 layer_factory.hpp:77] Creating layer pool1
I0429 15:46:00.615083 31894 net.cpp:100] Creating Layer pool1
I0429 15:46:00.615087 31894 net.cpp:434] pool1 <- conv1_2
I0429 15:46:00.615092 31894 net.cpp:408] pool1 -> pool1
I0429 15:46:00.615135 31894 net.cpp:150] Setting up pool1
I0429 15:46:00.615140 31894 net.cpp:157] Top shape: 10 64 112 112 (8028160)
I0429 15:46:00.615142 31894 net.cpp:165] Memory required for data: 563978272
I0429 15:46:00.615145 31894 layer_factory.hpp:77] Creating layer conv2_1
I0429 15:46:00.615150 31894 net.cpp:100] Creating Layer conv2_1
I0429 15:46:00.615154 31894 net.cpp:434] conv2_1 <- pool1
I0429 15:46:00.615159 31894 net.cpp:408] conv2_1 -> conv2_1
I0429 15:46:00.615629 31894 net.cpp:150] Setting up conv2_1
I0429 15:46:00.615634 31894 net.cpp:157] Top shape: 10 128 112 112 (16056320)
I0429 15:46:00.615636 31894 net.cpp:165] Memory required for data: 628203552
I0429 15:46:00.615641 31894 layer_factory.hpp:77] Creating layer quant_relu2_1
I0429 15:46:00.615646 31894 net.cpp:100] Creating Layer quant_relu2_1
I0429 15:46:00.615650 31894 net.cpp:434] quant_relu2_1 <- conv2_1
I0429 15:46:00.615653 31894 net.cpp:395] quant_relu2_1 -> conv2_1 (in-place)
I0429 15:46:00.617532 31894 net.cpp:150] Setting up quant_relu2_1
I0429 15:46:00.617540 31894 net.cpp:157] Top shape: 10 128 112 112 (16056320)
I0429 15:46:00.617542 31894 net.cpp:165] Memory required for data: 692428832
I0429 15:46:00.617566 31894 layer_factory.hpp:77] Creating layer conv2_2
I0429 15:46:00.617573 31894 net.cpp:100] Creating Layer conv2_2
I0429 15:46:00.617588 31894 net.cpp:434] conv2_2 <- conv2_1
I0429 15:46:00.617591 31894 net.cpp:408] conv2_2 -> conv2_2
I0429 15:46:00.618322 31894 net.cpp:150] Setting up conv2_2
I0429 15:46:00.618328 31894 net.cpp:157] Top shape: 10 128 112 112 (16056320)
I0429 15:46:00.618330 31894 net.cpp:165] Memory required for data: 756654112
I0429 15:46:00.618335 31894 layer_factory.hpp:77] Creating layer quant_relu2_2
I0429 15:46:00.618355 31894 net.cpp:100] Creating Layer quant_relu2_2
I0429 15:46:00.618358 31894 net.cpp:434] quant_relu2_2 <- conv2_2
I0429 15:46:00.618361 31894 net.cpp:395] quant_relu2_2 -> conv2_2 (in-place)
I0429 15:46:00.620134 31894 net.cpp:150] Setting up quant_relu2_2
I0429 15:46:00.620146 31894 net.cpp:157] Top shape: 10 128 112 112 (16056320)
I0429 15:46:00.620169 31894 net.cpp:165] Memory required for data: 820879392
I0429 15:46:00.620173 31894 layer_factory.hpp:77] Creating layer pool2
I0429 15:46:00.620178 31894 net.cpp:100] Creating Layer pool2
I0429 15:46:00.620182 31894 net.cpp:434] pool2 <- conv2_2
I0429 15:46:00.620185 31894 net.cpp:408] pool2 -> pool2
I0429 15:46:00.620223 31894 net.cpp:150] Setting up pool2
I0429 15:46:00.620227 31894 net.cpp:157] Top shape: 10 128 56 56 (4014080)
I0429 15:46:00.620230 31894 net.cpp:165] Memory required for data: 836935712
I0429 15:46:00.620232 31894 layer_factory.hpp:77] Creating layer conv3_1
I0429 15:46:00.620237 31894 net.cpp:100] Creating Layer conv3_1
I0429 15:46:00.620241 31894 net.cpp:434] conv3_1 <- pool2
I0429 15:46:00.620244 31894 net.cpp:408] conv3_1 -> conv3_1
I0429 15:46:00.622018 31894 net.cpp:150] Setting up conv3_1
I0429 15:46:00.622026 31894 net.cpp:157] Top shape: 10 256 56 56 (8028160)
I0429 15:46:00.622030 31894 net.cpp:165] Memory required for data: 869048352
I0429 15:46:00.622033 31894 layer_factory.hpp:77] Creating layer quant_relu3_1
I0429 15:46:00.622040 31894 net.cpp:100] Creating Layer quant_relu3_1
I0429 15:46:00.622043 31894 net.cpp:434] quant_relu3_1 <- conv3_1
I0429 15:46:00.622047 31894 net.cpp:395] quant_relu3_1 -> conv3_1 (in-place)
I0429 15:46:00.623037 31894 net.cpp:150] Setting up quant_relu3_1
I0429 15:46:00.623045 31894 net.cpp:157] Top shape: 10 256 56 56 (8028160)
I0429 15:46:00.623049 31894 net.cpp:165] Memory required for data: 901160992
I0429 15:46:00.623051 31894 layer_factory.hpp:77] Creating layer conv3_2
I0429 15:46:00.623075 31894 net.cpp:100] Creating Layer conv3_2
I0429 15:46:00.623077 31894 net.cpp:434] conv3_2 <- conv3_1
I0429 15:46:00.623081 31894 net.cpp:408] conv3_2 -> conv3_2
I0429 15:46:00.626461 31894 net.cpp:150] Setting up conv3_2
I0429 15:46:00.626471 31894 net.cpp:157] Top shape: 10 256 56 56 (8028160)
I0429 15:46:00.626474 31894 net.cpp:165] Memory required for data: 933273632
I0429 15:46:00.626499 31894 layer_factory.hpp:77] Creating layer quant_relu3_2
I0429 15:46:00.626504 31894 net.cpp:100] Creating Layer quant_relu3_2
I0429 15:46:00.626508 31894 net.cpp:434] quant_relu3_2 <- conv3_2
I0429 15:46:00.626513 31894 net.cpp:395] quant_relu3_2 -> conv3_2 (in-place)
I0429 15:46:00.627506 31894 net.cpp:150] Setting up quant_relu3_2
I0429 15:46:00.627513 31894 net.cpp:157] Top shape: 10 256 56 56 (8028160)
I0429 15:46:00.627516 31894 net.cpp:165] Memory required for data: 965386272
I0429 15:46:00.627521 31894 layer_factory.hpp:77] Creating layer conv3_3
I0429 15:46:00.627527 31894 net.cpp:100] Creating Layer conv3_3
I0429 15:46:00.627549 31894 net.cpp:434] conv3_3 <- conv3_2
I0429 15:46:00.627553 31894 net.cpp:408] conv3_3 -> conv3_3
I0429 15:46:00.630414 31894 net.cpp:150] Setting up conv3_3
I0429 15:46:00.630424 31894 net.cpp:157] Top shape: 10 256 56 56 (8028160)
I0429 15:46:00.630425 31894 net.cpp:165] Memory required for data: 997498912
I0429 15:46:00.630429 31894 layer_factory.hpp:77] Creating layer quant_relu3_3
I0429 15:46:00.630455 31894 net.cpp:100] Creating Layer quant_relu3_3
I0429 15:46:00.630458 31894 net.cpp:434] quant_relu3_3 <- conv3_3
I0429 15:46:00.630462 31894 net.cpp:395] quant_relu3_3 -> conv3_3 (in-place)
I0429 15:46:00.631444 31894 net.cpp:150] Setting up quant_relu3_3
I0429 15:46:00.631460 31894 net.cpp:157] Top shape: 10 256 56 56 (8028160)
I0429 15:46:00.631462 31894 net.cpp:165] Memory required for data: 1029611552
I0429 15:46:00.631466 31894 layer_factory.hpp:77] Creating layer pool3
I0429 15:46:00.631490 31894 net.cpp:100] Creating Layer pool3
I0429 15:46:00.631494 31894 net.cpp:434] pool3 <- conv3_3
I0429 15:46:00.631497 31894 net.cpp:408] pool3 -> pool3
I0429 15:46:00.631533 31894 net.cpp:150] Setting up pool3
I0429 15:46:00.631537 31894 net.cpp:157] Top shape: 10 256 28 28 (2007040)
I0429 15:46:00.631541 31894 net.cpp:165] Memory required for data: 1037639712
I0429 15:46:00.631542 31894 layer_factory.hpp:77] Creating layer conv4_1
I0429 15:46:00.631547 31894 net.cpp:100] Creating Layer conv4_1
I0429 15:46:00.631549 31894 net.cpp:434] conv4_1 <- pool3
I0429 15:46:00.631556 31894 net.cpp:408] conv4_1 -> conv4_1
I0429 15:46:00.636852 31894 net.cpp:150] Setting up conv4_1
I0429 15:46:00.636862 31894 net.cpp:157] Top shape: 10 512 28 28 (4014080)
I0429 15:46:00.636863 31894 net.cpp:165] Memory required for data: 1053696032
I0429 15:46:00.636868 31894 layer_factory.hpp:77] Creating layer quant_relu4_1
I0429 15:46:00.636893 31894 net.cpp:100] Creating Layer quant_relu4_1
I0429 15:46:00.636895 31894 net.cpp:434] quant_relu4_1 <- conv4_1
I0429 15:46:00.636898 31894 net.cpp:395] quant_relu4_1 -> conv4_1 (in-place)
I0429 15:46:00.637609 31894 net.cpp:150] Setting up quant_relu4_1
I0429 15:46:00.637616 31894 net.cpp:157] Top shape: 10 512 28 28 (4014080)
I0429 15:46:00.637619 31894 net.cpp:165] Memory required for data: 1069752352
I0429 15:46:00.637621 31894 layer_factory.hpp:77] Creating layer conv4_2
I0429 15:46:00.637645 31894 net.cpp:100] Creating Layer conv4_2
I0429 15:46:00.637647 31894 net.cpp:434] conv4_2 <- conv4_1
I0429 15:46:00.637651 31894 net.cpp:408] conv4_2 -> conv4_2
I0429 15:46:00.647816 31894 net.cpp:150] Setting up conv4_2
I0429 15:46:00.647831 31894 net.cpp:157] Top shape: 10 512 28 28 (4014080)
I0429 15:46:00.647833 31894 net.cpp:165] Memory required for data: 1085808672
I0429 15:46:00.647840 31894 layer_factory.hpp:77] Creating layer quant_relu4_2
I0429 15:46:00.647847 31894 net.cpp:100] Creating Layer quant_relu4_2
I0429 15:46:00.647850 31894 net.cpp:434] quant_relu4_2 <- conv4_2
I0429 15:46:00.647855 31894 net.cpp:395] quant_relu4_2 -> conv4_2 (in-place)
I0429 15:46:00.648838 31894 net.cpp:150] Setting up quant_relu4_2
I0429 15:46:00.648847 31894 net.cpp:157] Top shape: 10 512 28 28 (4014080)
I0429 15:46:00.648850 31894 net.cpp:165] Memory required for data: 1101864992
I0429 15:46:00.648854 31894 layer_factory.hpp:77] Creating layer conv4_3
I0429 15:46:00.648878 31894 net.cpp:100] Creating Layer conv4_3
I0429 15:46:00.648882 31894 net.cpp:434] conv4_3 <- conv4_2
I0429 15:46:00.648891 31894 net.cpp:408] conv4_3 -> conv4_3
I0429 15:46:00.659160 31894 net.cpp:150] Setting up conv4_3
I0429 15:46:00.659175 31894 net.cpp:157] Top shape: 10 512 28 28 (4014080)
I0429 15:46:00.659178 31894 net.cpp:165] Memory required for data: 1117921312
I0429 15:46:00.659184 31894 layer_factory.hpp:77] Creating layer quant_relu4_3
I0429 15:46:00.659206 31894 net.cpp:100] Creating Layer quant_relu4_3
I0429 15:46:00.659209 31894 net.cpp:434] quant_relu4_3 <- conv4_3
I0429 15:46:00.659214 31894 net.cpp:395] quant_relu4_3 -> conv4_3 (in-place)
I0429 15:46:00.659965 31894 net.cpp:150] Setting up quant_relu4_3
I0429 15:46:00.659973 31894 net.cpp:157] Top shape: 10 512 28 28 (4014080)
I0429 15:46:00.659976 31894 net.cpp:165] Memory required for data: 1133977632
I0429 15:46:00.659979 31894 layer_factory.hpp:77] Creating layer pool4
I0429 15:46:00.660001 31894 net.cpp:100] Creating Layer pool4
I0429 15:46:00.660003 31894 net.cpp:434] pool4 <- conv4_3
I0429 15:46:00.660007 31894 net.cpp:408] pool4 -> pool4
I0429 15:46:00.660043 31894 net.cpp:150] Setting up pool4
I0429 15:46:00.660048 31894 net.cpp:157] Top shape: 10 512 14 14 (1003520)
I0429 15:46:00.660049 31894 net.cpp:165] Memory required for data: 1137991712
I0429 15:46:00.660051 31894 layer_factory.hpp:77] Creating layer conv5_1
I0429 15:46:00.660089 31894 net.cpp:100] Creating Layer conv5_1
I0429 15:46:00.660091 31894 net.cpp:434] conv5_1 <- pool4
I0429 15:46:00.660095 31894 net.cpp:408] conv5_1 -> conv5_1
I0429 15:46:00.670207 31894 net.cpp:150] Setting up conv5_1
I0429 15:46:00.670219 31894 net.cpp:157] Top shape: 10 512 14 14 (1003520)
I0429 15:46:00.670222 31894 net.cpp:165] Memory required for data: 1142005792
I0429 15:46:00.670228 31894 layer_factory.hpp:77] Creating layer quant_relu5_1
I0429 15:46:00.670233 31894 net.cpp:100] Creating Layer quant_relu5_1
I0429 15:46:00.670236 31894 net.cpp:434] quant_relu5_1 <- conv5_1
I0429 15:46:00.670243 31894 net.cpp:395] quant_relu5_1 -> conv5_1 (in-place)
I0429 15:46:00.670353 31894 net.cpp:150] Setting up quant_relu5_1
I0429 15:46:00.670358 31894 net.cpp:157] Top shape: 10 512 14 14 (1003520)
I0429 15:46:00.670361 31894 net.cpp:165] Memory required for data: 1146019872
I0429 15:46:00.670369 31894 layer_factory.hpp:77] Creating layer conv5_2
I0429 15:46:00.670377 31894 net.cpp:100] Creating Layer conv5_2
I0429 15:46:00.670379 31894 net.cpp:434] conv5_2 <- conv5_1
I0429 15:46:00.670383 31894 net.cpp:408] conv5_2 -> conv5_2
I0429 15:46:00.680596 31894 net.cpp:150] Setting up conv5_2
I0429 15:46:00.680609 31894 net.cpp:157] Top shape: 10 512 14 14 (1003520)
I0429 15:46:00.680611 31894 net.cpp:165] Memory required for data: 1150033952
I0429 15:46:00.680616 31894 layer_factory.hpp:77] Creating layer quant_relu5_2
I0429 15:46:00.680624 31894 net.cpp:100] Creating Layer quant_relu5_2
I0429 15:46:00.680625 31894 net.cpp:434] quant_relu5_2 <- conv5_2
I0429 15:46:00.680630 31894 net.cpp:395] quant_relu5_2 -> conv5_2 (in-place)
I0429 15:46:00.680744 31894 net.cpp:150] Setting up quant_relu5_2
I0429 15:46:00.680750 31894 net.cpp:157] Top shape: 10 512 14 14 (1003520)
I0429 15:46:00.680752 31894 net.cpp:165] Memory required for data: 1154048032
I0429 15:46:00.680755 31894 layer_factory.hpp:77] Creating layer conv5_3
I0429 15:46:00.680761 31894 net.cpp:100] Creating Layer conv5_3
I0429 15:46:00.680764 31894 net.cpp:434] conv5_3 <- conv5_2
I0429 15:46:00.680769 31894 net.cpp:408] conv5_3 -> conv5_3
I0429 15:46:00.691188 31894 net.cpp:150] Setting up conv5_3
I0429 15:46:00.691202 31894 net.cpp:157] Top shape: 10 512 14 14 (1003520)
I0429 15:46:00.691205 31894 net.cpp:165] Memory required for data: 1158062112
I0429 15:46:00.691211 31894 layer_factory.hpp:77] Creating layer quant_relu5_3
I0429 15:46:00.691218 31894 net.cpp:100] Creating Layer quant_relu5_3
I0429 15:46:00.691220 31894 net.cpp:434] quant_relu5_3 <- conv5_3
I0429 15:46:00.691226 31894 net.cpp:395] quant_relu5_3 -> conv5_3 (in-place)
I0429 15:46:00.691342 31894 net.cpp:150] Setting up quant_relu5_3
I0429 15:46:00.691347 31894 net.cpp:157] Top shape: 10 512 14 14 (1003520)
I0429 15:46:00.691349 31894 net.cpp:165] Memory required for data: 1162076192
I0429 15:46:00.691354 31894 layer_factory.hpp:77] Creating layer pool5
I0429 15:46:00.691365 31894 net.cpp:100] Creating Layer pool5
I0429 15:46:00.691367 31894 net.cpp:434] pool5 <- conv5_3
I0429 15:46:00.691371 31894 net.cpp:408] pool5 -> pool5
I0429 15:46:00.691406 31894 net.cpp:150] Setting up pool5
I0429 15:46:00.691411 31894 net.cpp:157] Top shape: 10 512 7 7 (250880)
I0429 15:46:00.691412 31894 net.cpp:165] Memory required for data: 1163079712
I0429 15:46:00.691414 31894 layer_factory.hpp:77] Creating layer ip6
I0429 15:46:00.691421 31894 net.cpp:100] Creating Layer ip6
I0429 15:46:00.691424 31894 net.cpp:434] ip6 <- pool5
I0429 15:46:00.691428 31894 net.cpp:408] ip6 -> ip6
I0429 15:46:00.703343 31894 net.cpp:150] Setting up ip6
I0429 15:46:00.703361 31894 net.cpp:157] Top shape: 10 512 7 7 (250880)
I0429 15:46:00.703363 31894 net.cpp:165] Memory required for data: 1164083232
I0429 15:46:00.703370 31894 layer_factory.hpp:77] Creating layer relu6
I0429 15:46:00.703375 31894 net.cpp:100] Creating Layer relu6
I0429 15:46:00.703378 31894 net.cpp:434] relu6 <- ip6
I0429 15:46:00.703383 31894 net.cpp:395] relu6 -> ip6 (in-place)
I0429 15:46:00.703747 31894 net.cpp:150] Setting up relu6
I0429 15:46:00.703765 31894 net.cpp:157] Top shape: 10 512 7 7 (250880)
I0429 15:46:00.703768 31894 net.cpp:165] Memory required for data: 1165086752
I0429 15:46:00.703771 31894 layer_factory.hpp:77] Creating layer ip7
I0429 15:46:00.703778 31894 net.cpp:100] Creating Layer ip7
I0429 15:46:00.703781 31894 net.cpp:434] ip7 <- ip6
I0429 15:46:00.703785 31894 net.cpp:408] ip7 -> ip7
I0429 15:46:00.708035 31894 net.cpp:150] Setting up ip7
I0429 15:46:00.708046 31894 net.cpp:157] Top shape: 10 512 7 7 (250880)
I0429 15:46:00.708048 31894 net.cpp:165] Memory required for data: 1166090272
I0429 15:46:00.708055 31894 layer_factory.hpp:77] Creating layer relu7
I0429 15:46:00.708061 31894 net.cpp:100] Creating Layer relu7
I0429 15:46:00.708065 31894 net.cpp:434] relu7 <- ip7
I0429 15:46:00.708068 31894 net.cpp:395] relu7 -> ip7 (in-place)
I0429 15:46:00.708437 31894 net.cpp:150] Setting up relu7
I0429 15:46:00.708446 31894 net.cpp:157] Top shape: 10 512 7 7 (250880)
I0429 15:46:00.708448 31894 net.cpp:165] Memory required for data: 1167093792
I0429 15:46:00.708451 31894 layer_factory.hpp:77] Creating layer ip7_relu7_0_split
I0429 15:46:00.708454 31894 net.cpp:100] Creating Layer ip7_relu7_0_split
I0429 15:46:00.708458 31894 net.cpp:434] ip7_relu7_0_split <- ip7
I0429 15:46:00.708463 31894 net.cpp:408] ip7_relu7_0_split -> ip7_relu7_0_split_0
I0429 15:46:00.708468 31894 net.cpp:408] ip7_relu7_0_split -> ip7_relu7_0_split_1
I0429 15:46:00.708474 31894 net.cpp:408] ip7_relu7_0_split -> ip7_relu7_0_split_2
I0429 15:46:00.708524 31894 net.cpp:150] Setting up ip7_relu7_0_split
I0429 15:46:00.708528 31894 net.cpp:157] Top shape: 10 512 7 7 (250880)
I0429 15:46:00.708531 31894 net.cpp:157] Top shape: 10 512 7 7 (250880)
I0429 15:46:00.708534 31894 net.cpp:157] Top shape: 10 512 7 7 (250880)
I0429 15:46:00.708536 31894 net.cpp:165] Memory required for data: 1170104352
I0429 15:46:00.708539 31894 layer_factory.hpp:77] Creating layer ip7_mbox_loc
I0429 15:46:00.708547 31894 net.cpp:100] Creating Layer ip7_mbox_loc
I0429 15:46:00.708550 31894 net.cpp:434] ip7_mbox_loc <- ip7_relu7_0_split_0
I0429 15:46:00.708555 31894 net.cpp:408] ip7_mbox_loc -> ip7_mbox_loc
I0429 15:46:00.710825 31894 net.cpp:150] Setting up ip7_mbox_loc
I0429 15:46:00.710834 31894 net.cpp:157] Top shape: 10 24 7 7 (11760)
I0429 15:46:00.710837 31894 net.cpp:165] Memory required for data: 1170151392
I0429 15:46:00.710842 31894 layer_factory.hpp:77] Creating layer ip7_mbox_loc_perm
I0429 15:46:00.710847 31894 net.cpp:100] Creating Layer ip7_mbox_loc_perm
I0429 15:46:00.710851 31894 net.cpp:434] ip7_mbox_loc_perm <- ip7_mbox_loc
I0429 15:46:00.710856 31894 net.cpp:408] ip7_mbox_loc_perm -> ip7_mbox_loc_perm
I0429 15:46:00.710953 31894 net.cpp:150] Setting up ip7_mbox_loc_perm
I0429 15:46:00.710958 31894 net.cpp:157] Top shape: 10 7 7 24 (11760)
I0429 15:46:00.710960 31894 net.cpp:165] Memory required for data: 1170198432
I0429 15:46:00.710963 31894 layer_factory.hpp:77] Creating layer ip7_mbox_loc_flat
I0429 15:46:00.710968 31894 net.cpp:100] Creating Layer ip7_mbox_loc_flat
I0429 15:46:00.710970 31894 net.cpp:434] ip7_mbox_loc_flat <- ip7_mbox_loc_perm
I0429 15:46:00.710975 31894 net.cpp:408] ip7_mbox_loc_flat -> ip7_mbox_loc_flat
I0429 15:46:00.710996 31894 net.cpp:150] Setting up ip7_mbox_loc_flat
I0429 15:46:00.711001 31894 net.cpp:157] Top shape: 10 1176 (11760)
I0429 15:46:00.711004 31894 net.cpp:165] Memory required for data: 1170245472
I0429 15:46:00.711005 31894 layer_factory.hpp:77] Creating layer ip7_mbox_conf
I0429 15:46:00.711011 31894 net.cpp:100] Creating Layer ip7_mbox_conf
I0429 15:46:00.711015 31894 net.cpp:434] ip7_mbox_conf <- ip7_relu7_0_split_1
I0429 15:46:00.711020 31894 net.cpp:408] ip7_mbox_conf -> ip7_mbox_conf
I0429 15:46:00.713614 31894 net.cpp:150] Setting up ip7_mbox_conf
I0429 15:46:00.713624 31894 net.cpp:157] Top shape: 10 42 7 7 (20580)
I0429 15:46:00.713626 31894 net.cpp:165] Memory required for data: 1170327792
I0429 15:46:00.713631 31894 layer_factory.hpp:77] Creating layer ip7_mbox_conf_perm
I0429 15:46:00.713637 31894 net.cpp:100] Creating Layer ip7_mbox_conf_perm
I0429 15:46:00.713649 31894 net.cpp:434] ip7_mbox_conf_perm <- ip7_mbox_conf
I0429 15:46:00.713654 31894 net.cpp:408] ip7_mbox_conf_perm -> ip7_mbox_conf_perm
I0429 15:46:00.713752 31894 net.cpp:150] Setting up ip7_mbox_conf_perm
I0429 15:46:00.713757 31894 net.cpp:157] Top shape: 10 7 7 42 (20580)
I0429 15:46:00.713759 31894 net.cpp:165] Memory required for data: 1170410112
I0429 15:46:00.713762 31894 layer_factory.hpp:77] Creating layer ip7_mbox_conf_flat
I0429 15:46:00.713765 31894 net.cpp:100] Creating Layer ip7_mbox_conf_flat
I0429 15:46:00.713768 31894 net.cpp:434] ip7_mbox_conf_flat <- ip7_mbox_conf_perm
I0429 15:46:00.713773 31894 net.cpp:408] ip7_mbox_conf_flat -> ip7_mbox_conf_flat
I0429 15:46:00.713798 31894 net.cpp:150] Setting up ip7_mbox_conf_flat
I0429 15:46:00.713801 31894 net.cpp:157] Top shape: 10 2058 (20580)
I0429 15:46:00.713804 31894 net.cpp:165] Memory required for data: 1170492432
I0429 15:46:00.713805 31894 layer_factory.hpp:77] Creating layer ip7_mbox_priorbox
I0429 15:46:00.713812 31894 net.cpp:100] Creating Layer ip7_mbox_priorbox
I0429 15:46:00.713815 31894 net.cpp:434] ip7_mbox_priorbox <- ip7_relu7_0_split_2
I0429 15:46:00.713819 31894 net.cpp:434] ip7_mbox_priorbox <- data_data_0_split_1
I0429 15:46:00.713824 31894 net.cpp:408] ip7_mbox_priorbox -> ip7_mbox_priorbox
I0429 15:46:00.713845 31894 net.cpp:150] Setting up ip7_mbox_priorbox
I0429 15:46:00.713850 31894 net.cpp:157] Top shape: 1 2 1176 (2352)
I0429 15:46:00.713851 31894 net.cpp:165] Memory required for data: 1170501840
I0429 15:46:00.713853 31894 layer_factory.hpp:77] Creating layer mbox_loc
I0429 15:46:00.713860 31894 net.cpp:100] Creating Layer mbox_loc
I0429 15:46:00.713862 31894 net.cpp:434] mbox_loc <- ip7_mbox_loc_flat
I0429 15:46:00.713866 31894 net.cpp:408] mbox_loc -> mbox_loc
I0429 15:46:00.713886 31894 net.cpp:150] Setting up mbox_loc
I0429 15:46:00.713891 31894 net.cpp:157] Top shape: 10 1176 (11760)
I0429 15:46:00.713892 31894 net.cpp:165] Memory required for data: 1170548880
I0429 15:46:00.713894 31894 layer_factory.hpp:77] Creating layer mbox_conf
I0429 15:46:00.713897 31894 net.cpp:100] Creating Layer mbox_conf
I0429 15:46:00.713901 31894 net.cpp:434] mbox_conf <- ip7_mbox_conf_flat
I0429 15:46:00.713905 31894 net.cpp:408] mbox_conf -> mbox_conf
I0429 15:46:00.713924 31894 net.cpp:150] Setting up mbox_conf
I0429 15:46:00.713928 31894 net.cpp:157] Top shape: 10 2058 (20580)
I0429 15:46:00.713930 31894 net.cpp:165] Memory required for data: 1170631200
I0429 15:46:00.713932 31894 layer_factory.hpp:77] Creating layer mbox_priorbox
I0429 15:46:00.713935 31894 net.cpp:100] Creating Layer mbox_priorbox
I0429 15:46:00.713937 31894 net.cpp:434] mbox_priorbox <- ip7_mbox_priorbox
I0429 15:46:00.713941 31894 net.cpp:408] mbox_priorbox -> mbox_priorbox
I0429 15:46:00.713960 31894 net.cpp:150] Setting up mbox_priorbox
I0429 15:46:00.713964 31894 net.cpp:157] Top shape: 1 2 1176 (2352)
I0429 15:46:00.713966 31894 net.cpp:165] Memory required for data: 1170640608
I0429 15:46:00.713968 31894 layer_factory.hpp:77] Creating layer mbox_conf_reshape
I0429 15:46:00.713973 31894 net.cpp:100] Creating Layer mbox_conf_reshape
I0429 15:46:00.713976 31894 net.cpp:434] mbox_conf_reshape <- mbox_conf
I0429 15:46:00.713980 31894 net.cpp:408] mbox_conf_reshape -> mbox_conf_reshape
I0429 15:46:00.714005 31894 net.cpp:150] Setting up mbox_conf_reshape
I0429 15:46:00.714010 31894 net.cpp:157] Top shape: 10 294 7 (20580)
I0429 15:46:00.714012 31894 net.cpp:165] Memory required for data: 1170722928
I0429 15:46:00.714015 31894 layer_factory.hpp:77] Creating layer mbox_conf_softmax
I0429 15:46:00.714020 31894 net.cpp:100] Creating Layer mbox_conf_softmax
I0429 15:46:00.714022 31894 net.cpp:434] mbox_conf_softmax <- mbox_conf_reshape
I0429 15:46:00.714025 31894 net.cpp:408] mbox_conf_softmax -> mbox_conf_softmax
I0429 15:46:00.715556 31894 net.cpp:150] Setting up mbox_conf_softmax
I0429 15:46:00.715567 31894 net.cpp:157] Top shape: 10 294 7 (20580)
I0429 15:46:00.715570 31894 net.cpp:165] Memory required for data: 1170805248
I0429 15:46:00.715581 31894 layer_factory.hpp:77] Creating layer mbox_conf_flatten
I0429 15:46:00.715586 31894 net.cpp:100] Creating Layer mbox_conf_flatten
I0429 15:46:00.715590 31894 net.cpp:434] mbox_conf_flatten <- mbox_conf_softmax
I0429 15:46:00.715595 31894 net.cpp:408] mbox_conf_flatten -> mbox_conf_flatten
I0429 15:46:00.715616 31894 net.cpp:150] Setting up mbox_conf_flatten
I0429 15:46:00.715623 31894 net.cpp:157] Top shape: 10 2058 (20580)
I0429 15:46:00.715626 31894 net.cpp:165] Memory required for data: 1170887568
I0429 15:46:00.715627 31894 layer_factory.hpp:77] Creating layer detection_out
I0429 15:46:00.715637 31894 net.cpp:100] Creating Layer detection_out
I0429 15:46:00.715641 31894 net.cpp:434] detection_out <- mbox_loc
I0429 15:46:00.715644 31894 net.cpp:434] detection_out <- mbox_conf_flatten
I0429 15:46:00.715647 31894 net.cpp:434] detection_out <- mbox_priorbox
I0429 15:46:00.715651 31894 net.cpp:408] detection_out -> detection_out
11111
I0429 15:46:00.715713 31894 net.cpp:150] Setting up detection_out
I0429 15:46:00.715718 31894 net.cpp:157] Top shape: 1 1 1 7 (7)
I0429 15:46:00.715719 31894 net.cpp:165] Memory required for data: 1170887596
I0429 15:46:00.715721 31894 layer_factory.hpp:77] Creating layer detection_eval
I0429 15:46:00.715726 31894 net.cpp:100] Creating Layer detection_eval
I0429 15:46:00.715730 31894 net.cpp:434] detection_eval <- detection_out
I0429 15:46:00.715734 31894 net.cpp:434] detection_eval <- label
I0429 15:46:00.715737 31894 net.cpp:408] detection_eval -> detection_eval
I0429 15:46:00.715842 31894 net.cpp:150] Setting up detection_eval
I0429 15:46:00.715847 31894 net.cpp:157] Top shape: 1 1 7 5 (35)
I0429 15:46:00.715849 31894 net.cpp:165] Memory required for data: 1170887736
I0429 15:46:00.715852 31894 net.cpp:228] detection_eval does not need backward computation.
I0429 15:46:00.715854 31894 net.cpp:228] detection_out does not need backward computation.
I0429 15:46:00.715857 31894 net.cpp:228] mbox_conf_flatten does not need backward computation.
I0429 15:46:00.715859 31894 net.cpp:228] mbox_conf_softmax does not need backward computation.
…
