…
        max_scale: 1
        min_aspect_ratio: 0.5
        max_aspect_ratio: 2
      }
      sample_constraint {
        min_jaccard_overlap: 0.9
      }
      max_sample: 1
      max_trials: 50
    }
    batch_sampler {
      sampler {
        min_scale: 0.3
        max_scale: 1
        min_aspect_ratio: 0.5
        max_aspect_ratio: 2
      }
      sample_constraint {
        max_jaccard_overlap: 1
      }
      max_sample: 1
      max_trials: 50
    }
    label_map_file: "/home/zhangwanchun/data/VOCdevkit/VOC0712/lmdb/labelmap_voc.prototxt"
  }
}
layer {
  name: "conv1_1"
  type: "QuantConvolution"
  bottom: "data"
  top: "conv1_1"
  convolution_param {
    num_output: 64
    pad: 1
    kernel_size: 3
    weight_filler {
      type: "xavier"
    }
    bias_filler {
      type: "constant"
      value: 0
    }
  }
  quant_convolution_param {
    coef_precision: THREE_BITS
    bw_params: 8
    shift_enable: true
  }
}
layer {
  name: "quant_relu1_1"
  type: "QuantReLU"
  bottom: "conv1_1"
  top: "conv1_1"
  param {
    lr_mult: 0
  }
  quant_relu_param {
    filler {
      type: "constant"
      value: 31
    }
    channel_shared: true
    act_bits: 5
    quant_enable: true
  }
}
layer {
  name: "conv1_2"
  type: "QuantConvolution"
  bottom: "conv1_1"
  top: "conv1_2"
  convolution_param {
    num_output: 64
    pad: 1
    kernel_size: 3
    weight_filler {
      type: "xavier"
    }
    bias_filler {
      type: "constant"
      value: 0
    }
  }
  quant_convolution_param {
    coef_precision: THREE_BITS
    bw_params: 8
    shift_enable: true
  }
}
layer {
  name: "quant_relu1_2"
  type: "QuantReLU"
  bottom: "conv1_2"
  top: "conv1_2"
  param {
    lr_mult: 0
  }
  quant_relu_param {
    filler {
      type: "constant"
      value: 31
    }
    channel_shared: true
    act_bits: 5
    quant_enable: true
  }
}
layer {
  name: "pool1"
  type: "Pooling"
  bottom: "conv1_2"
  top: "pool1"
  pooling_param {
    pool: MAX
    kernel_size: 2
    stride: 2
  }
}
layer {
  name: "conv2_1"
  type: "QuantConvolution"
  bottom: "pool1"
  top: "conv2_1"
  convolution_param {
    num_output: 128
    pad: 1
    kernel_size: 3
    weight_filler {
      type: "xavier"
    }
    bias_filler {
      type: "constant"
      value: 0
    }
  }
  quant_convolution_param {
    coef_precision: THREE_BITS
    bw_params: 8
    shift_enable: true
  }
}
layer {
  name: "quant_relu2_1"
  type: "QuantReLU"
  bottom: "conv2_1"
  top: "conv2_1"
  param {
    lr_mult: 0
  }
  quant_relu_param {
    filler {
      type: "constant"
      value: 31
    }
    channel_shared: true
    act_bits: 5
    quant_enable: true
  }
}
layer {
  name: "conv2_2"
  type: "QuantConvolution"
  bottom: "conv2_1"
  top: "conv2_2"
  convolution_param {
    num_output: 128
    pad: 1
    kernel_size: 3
    weight_filler {
      type: "xavier"
    }
    bias_filler {
      type: "constant"
      value: 0
    }
  }
  quant_convolution_param {
    coef_precision: THREE_BITS
    bw_params: 8
    shift_enable: true
  }
}
layer {
  name: "quant_relu2_2"
  type: "QuantReLU"
  bottom: "conv2_2"
  top: "conv2_2"
  param {
    lr_mult: 0
  }
  quant_relu_param {
    filler {
      type: "constant"
      value: 31
    }
    channel_shared: true
    act_bits: 5
    quant_enable: true
  }
}
layer {
  name: "pool2"
  type: "Pooling"
  bottom: "conv2_2"
  top: "pool2"
  pooling_param {
    pool: MAX
    kernel_size: 2
    stride: 2
  }
}
layer {
  name: "conv3_1"
  type: "QuantConvolution"
  bottom: "pool2"
  top: "conv3_1"
  convolution_param {
    num_output: 256
    pad: 1
    kernel_size: 3
    weight_filler {
      type: "xavier"
    }
    bias_filler {
      type: "constant"
      value: 0
    }
  }
  quant_convolution_param {
    coef_precision: THREE_BITS
    bw_params: 8
    shift_enable: true
  }
}
layer {
  name: "quant_relu3_1"
  type: "QuantReLU"
  bottom: "conv3_1"
  top: "conv3_1"
  param {
    lr_mult: 0
  }
  quant_relu_param {
    filler {
      type: "constant"
      value: 31
    }
    channel_shared: true
    act_bits: 5
    quant_enable: true
  }
}
layer {
  name: "conv3_2"
  type: "QuantConvolution"
  bottom: "conv3_1"
  top: "conv3_2"
  convolution_param {
    num_output: 256
    pad: 1
    kernel_size: 3
    weight_filler {
      type: "xavier"
    }
    bias_filler {
      type: "constant"
      value: 0
    }
  }
  quant_convolution_param {
    coef_precision: THREE_BITS
    bw_params: 8
    shift_enable: true
  }
}
layer {
  name: "quant_relu3_2"
  type: "QuantReLU"
  bottom: "conv3_2"
  top: "conv3_2"
  param {
    lr_mult: 0
  }
  quant_relu_param {
    filler {
      type: "constant"
      value: 31
    }
    channel_shared: true
    act_bits: 5
    quant_enable: true
  }
}
layer {
  name: "conv3_3"
  type: "QuantConvolution"
  bottom: "conv3_2"
  top: "conv3_3"
  convolution_param {
    num_output: 256
    pad: 1
    kernel_size: 3
    weight_filler {
      type: "xavier"
    }
    bias_filler {
      type: "constant"
      value: 0
    }
  }
  quant_convolution_param {
    coef_precision: THREE_BITS
    bw_params: 8
    shift_enable: true
  }
}
layer {
  name: "quant_relu3_3"
  type: "QuantReLU"
  bottom: "conv3_3"
  top: "conv3_3"
  param {
    lr_mult: 0
  }
  quant_relu_param {
    filler {
      type: "constant"
      value: 31
    }
    channel_shared: true
    act_bits: 5
    quant_enable: true
  }
}
layer {
  name: "pool3"
  type: "Pooling"
  bottom: "conv3_3"
  top: "pool3"
  pooling_param {
    pool: MAX
    kernel_size: 2
    stride: 2
  }
}
layer {
  name: "conv4_1"
  type: "QuantConvolution"
  bottom: "pool3"
  top: "conv4_1"
  convolution_param {
    num_output: 512
    pad: 1
    kernel_size: 3
    weight_filler {
      type: "xavier"
    }
    bias_filler {
      type: "constant"
      value: 0
    }
  }
  quant_convolution_param {
    coef_precision: ONE_BIT
    bw_params: 8
    shift_enable: true
  }
}
layer {
  name: "quant_relu4_1"
  type: "QuantReLU"
  bottom: "conv4_1"
  top: "conv4_1"
  param {
    lr_mult: 0
  }
  quant_relu_param {
    filler {
      type: "constant"
      value: 31
    }
    channel_shared: true
    act_bits: 5
    quant_enable: true
  }
}
layer {
  name: "conv4_2"
  type: "QuantConvolution"
  bottom: "conv4_1"
  top: "conv4_2"
  convolution_param {
    num_output: 512
    pad: 1
    kernel_size: 3
    weight_filler {
      type: "xavier"
    }
    bias_filler {
      type: "constant"
      value: 0
    }
  }
  quant_convolution_param {
    coef_precision: ONE_BIT
    bw_params: 8
    shift_enable: true
  }
}
layer {
  name: "quant_relu4_2"
  type: "QuantReLU"
  bottom: "conv4_2"
  top: "conv4_2"
  param {
    lr_mult: 0
  }
  quant_relu_param {
    filler {
      type: "constant"
      value: 31
    }
    channel_shared: true
    act_bits: 5
    quant_enable: true
  }
}
layer {
  name: "conv4_3"
  type: "QuantConvolution"
  bottom: "conv4_2"
  top: "conv4_3"
  convolution_param {
    num_output: 512
    pad: 1
    kernel_size: 3
    weight_filler {
      type: "xavier"
    }
    bias_filler {
      type: "constant"
      value: 0
    }
  }
  quant_convolution_param {
    coef_precision: ONE_BIT
    bw_params: 8
    shift_enable: true
  }
}
layer {
  name: "quant_relu4_3"
  type: "QuantReLU"
  bottom: "conv4_3"
  top: "conv4_3"
  param {
    lr_mult: 0
  }
  quant_relu_param {
    filler {
      type: "constant"
      value: 31
    }
    channel_shared: true
    act_bits: 5
    quant_enable: true
  }
}
layer {
  name: "pool4"
  type: "Pooling"
  bottom: "conv4_3"
  top: "pool4"
  pooling_param {
    pool: MAX
    kernel_size: 2
    stride: 2
  }
}
layer {
  name: "conv5_1"
  type: "QuantConvolution"
  bottom: "pool4"
  top: "conv5_1"
  convolution_param {
    num_output: 512
    pad: 1
    kernel_size: 3
    weight_filler {
      type: "xavier"
    }
    bias_filler {
      type: "constant"
      value: 0
    }
  }
  quant_convolution_param {
    coef_precision: ONE_BIT
    bw_params: 8
    shift_enable: true
  }
}
layer {
  name: "quant_relu5_1"
  type: "QuantReLU"
  bottom: "conv5_1"
  top: "conv5_1"
  param {
    lr_mult: 0
  }
  quant_relu_param {
    filler {
      type: "constant"
      value: 31
    }
    channel_shared: true
    act_bits: 5
    quant_enable: true
  }
}
layer {
  name: "conv5_2"
  type: "QuantConvolution"
  bottom: "conv5_1"
  top: "conv5_2"
  param {
    lr_mult: 1
    decay_mult: 0
  }
  param {
    lr_mult: 1
    decay_mult: 1
  }
  convolution_param {
    num_output: 512
    pad: 1
    kernel_size: 3
    weight_filler {
      type: "xavier"
    }
    bias_filler {
      type: "constant"
      value: 0
    }
  }
  quant_convolution_param {
    coef_precision: ONE_BIT
    bw_params: 8
    shift_enable: true
  }
}
layer {
  name: "quant_relu5_2"
  type: "QuantReLU"
  bottom: "conv5_2"
  top: "conv5_2"
  param {
    lr_mult: 0
  }
  quant_relu_param {
    filler {
      type: "constant"
      value: 31
    }
    channel_shared: true
    act_bits: 5
    quant_enable: true
  }
}
layer {
  name: "conv5_3"
  type: "QuantConvolution"
  bottom: "conv5_2"
  top: "conv5_3"
  param {
    lr_mult: 1
    decay_mult: 0
  }
  param {
    lr_mult: 1
    decay_mult: 200
  }
  convolution_param {
    num_output: 512
    pad: 1
    kernel_size: 3
    weight_filler {
      type: "xavier"
    }
    bias_filler {
      type: "constant"
      value: 0
    }
  }
  quant_convolution_param {
    coef_precision: ONE_BIT
    bw_params: 8
    shift_enable: true
  }
}
layer {
  name: "quant_relu5_3"
  type: "QuantReLU"
  bottom: "conv5_3"
  top: "conv5_3"
  param {
    lr_mult: 0
  }
  quant_relu_param {
    filler {
      type: "constant"
      value: 31
    }
    channel_shared: true
    act_bits: 5
    quant_enable: true
  }
}
layer {
  name: "pool5"
  type: "Pooling"
  bottom: "conv5_3"
  top: "pool5"
  pooling_param {
    pool: MAX
    kernel_size: 2
    stride: 2
  }
}
layer {
  name: "ip6"
  type: "Convolution"
  bottom: "pool5"
  top: "ip6"
  param {
    lr_mult: 1
    decay_mult: 1
  }
  param {
    lr_mult: 2
    decay_mult: 0
  }
  convolution_param {
    num_output: 512
    pad: 1
    kernel_size: 3
    weight_filler {
      type: "xavier"
    }
    bias_filler {
      type: "constant"
      value: 0
    }
  }
}
layer {
  name: "relu6"
  type: "ReLU"
  bottom: "ip6"
  top: "ip6"
}
layer {
  name: "ip7"
  type: "Convolution"
  bottom: "ip6"
  top: "ip7"
  param {
    lr_mult: 1
    decay_mult: 1
  }
  param {
    lr_mult: 2
    decay_mult: 0
  }
  convolution_param {
    num_output: 512
    kernel_size: 1
    weight_filler {
      type: "xavier"
    }
    bias_filler {
      type: "constant"
      value: 0
    }
  }
}
layer {
  name: "relu7"
  type: "ReLU"
  bottom: "ip7"
  top: "ip7"
}
layer {
  name: "ip7_mbox_loc"
  type: "Convolution"
  bottom: "ip7"
  top: "ip7_mbox_loc"
  param {
    lr_mult: 1
    decay_mult: 1
  }
  param {
    lr_mult: 2
    decay_mult: 0
  }
  convolution_param {
    num_output: 24
    pad: 1
    kernel_size: 3
    stride: 1
    weight_filler {
      type: "xavier"
    }
    bias_filler {
      type: "constant"
      value: 0
    }
  }
}
layer {
  name: "ip7_mbox_loc_perm"
  type: "Permute"
  bottom: "ip7_mbox_loc"
  top: "ip7_mbox_loc_perm"
  permute_param {
    order: 0
    order: 2
    order: 3
    order: 1
  }
}
layer {
  name: "ip7_mbox_loc_flat"
  type: "Flatten"
  bottom: "ip7_mbox_loc_perm"
  top: "ip7_mbox_loc_flat"
  flatten_param {
    axis: 1
  }
}
layer {
  name: "ip7_mbox_conf"
  type: "Convolution"
  bottom: "ip7"
  top: "ip7_mbox_conf"
  param {
    lr_mult: 1
    decay_mult: 1
  }
  param {
    lr_mult: 2
    decay_mult: 0
  }
  convolution_param {
    num_output: 36
    pad: 1
    kernel_size: 3
    stride: 1
    weight_filler {
      type: "xavier"
    }
    bias_filler {
      type: "constant"
      value: 0
    }
  }
}
layer {
  name: "ip7_mbox_conf_perm"
  type: "Permute"
  bottom: "ip7_mbox_conf"
  top: "ip7_mbox_conf_perm"
  permute_param {
    order: 0
    order: 2
    order: 3
    order: 1
  }
}
layer {
  name: "ip7_mbox_conf_flat"
  type: "Flatten"
  bottom: "ip7_mbox_conf_perm"
  top: "ip7_mbox_conf_flat"
  flatten_param {
    axis: 1
  }
}
layer {
  name: "ip7_mbox_priorbox"
  type: "PriorBox"
  bottom: "ip7"
  bottom: "data"
  top: "ip7_mbox_priorbox"
  prior_box_param {
    min_size: 20
    max_size: 210
    aspect_ratio: 2
    aspect_ratio: 3
    flip: true
    clip: false
    variance: 0.1
    variance: 0.1
    variance: 0.2
    variance: 0.2
    step: 32
    offset: 0.5
  }
}
layer {
  name: "mbox_loc"
  type: "Concat"
  bottom: "ip7_mbox_loc_flat"
  top: "mbox_loc"
  concat_param {
    axis: 1
  }
}
layer {
  name: "mbox_conf"
  type: "Concat"
  bottom: "ip7_mbox_conf_flat"
  top: "mbox_conf"
  concat_param {
    axis: 1
  }
}
layer {
  name: "mbox_priorbox"
  type: "Concat"
  bottom: "ip7_mbox_priorbox"
  top: "mbox_priorbox"
  concat_param {
    axis: 2
  }
}
layer {
  name: "mbox_loss"
  type: "MultiBoxLoss"
  bottom: "mbox_loc"
  bottom: "mbox_conf"
  bottom: "mbox_priorbox"
  bottom: "label"
  top: "mbox_loss"
  include {
    phase: TRAIN
  }
  propagate_down: true
  propagate_down: true
  propagate_down: false
  propagate_down: false
  loss_param {
    normalization: VALID
  }
  multibox_loss_param {
    loc_loss_type: SMOOTH_L1
    conf_loss_type: SOFTMAX
    loc_weight: 1
    num_classes: 6
    share_location: true
    match_type: PER_PREDICTION
    overlap_threshold: 0.5
    use_prior_for_matching: true
    background_label_id: 0
    use_difficult_gt: true
    neg_pos_ratio: 3
    neg_overlap: 0.5
    code_type: CENTER_SIZE
    ignore_cross_boundary_bbox: false
    mining_type: MAX_NEGATIVE
  }
}
I0603 08:36:36.412923  3793 layer_factory.hpp:77] Creating layer data
I0603 08:36:36.413033  3793 net.cpp:100] Creating Layer data
I0603 08:36:36.413041  3793 net.cpp:408] data -> data
I0603 08:36:36.413065  3793 net.cpp:408] data -> label
I0603 08:36:36.413869  3816 db_lmdb.cpp:35] Opened lmdb /home/zhangwanchun/data/VOCdevkit/VOC0712/lmdb/VOC0712_trainval_lmdb
I0603 08:36:39.254230  3793 annotated_data_layer.cpp:62] output data size: 2,3,224,224
I0603 08:36:39.256798  3793 net.cpp:150] Setting up data
I0603 08:36:39.256811  3793 net.cpp:157] Top shape: 2 3 224 224 (301056)
I0603 08:36:39.256816  3793 net.cpp:157] Top shape: 1 1 1 8 (8)
I0603 08:36:39.256819  3793 net.cpp:165] Memory required for data: 1204256
I0603 08:36:39.256825  3793 layer_factory.hpp:77] Creating layer data_data_0_split
I0603 08:36:39.256834  3793 net.cpp:100] Creating Layer data_data_0_split
I0603 08:36:39.256858  3793 net.cpp:434] data_data_0_split <- data
I0603 08:36:39.256883  3793 net.cpp:408] data_data_0_split -> data_data_0_split_0
I0603 08:36:39.256891  3793 net.cpp:408] data_data_0_split -> data_data_0_split_1
I0603 08:36:39.256992  3793 net.cpp:150] Setting up data_data_0_split
I0603 08:36:39.256999  3793 net.cpp:157] Top shape: 2 3 224 224 (301056)
I0603 08:36:39.257019  3793 net.cpp:157] Top shape: 2 3 224 224 (301056)
I0603 08:36:39.257020  3793 net.cpp:165] Memory required for data: 3612704
I0603 08:36:39.257022  3793 layer_factory.hpp:77] Creating layer conv1_1
I0603 08:36:39.257047  3793 net.cpp:100] Creating Layer conv1_1
I0603 08:36:39.257050  3793 net.cpp:434] conv1_1 <- data_data_0_split_0
I0603 08:36:39.257055  3793 net.cpp:408] conv1_1 -> conv1_1
I0603 08:36:39.258498  3793 net.cpp:150] Setting up conv1_1
I0603 08:36:39.258507  3793 net.cpp:157] Top shape: 2 64 224 224 (6422528)
I0603 08:36:39.258530  3793 net.cpp:165] Memory required for data: 29302816
I0603 08:36:39.258541  3793 layer_factory.hpp:77] Creating layer quant_relu1_1
I0603 08:36:39.258548  3793 net.cpp:100] Creating Layer quant_relu1_1
I0603 08:36:39.258550  3793 net.cpp:434] quant_relu1_1 <- conv1_1
I0603 08:36:39.258554  3793 net.cpp:395] quant_relu1_1 -> conv1_1 (in-place)
I0603 08:36:39.261909  3793 net.cpp:150] Setting up quant_relu1_1
I0603 08:36:39.261922  3793 net.cpp:157] Top shape: 2 64 224 224 (6422528)
I0603 08:36:39.261925  3793 net.cpp:165] Memory required for data: 54992928
I0603 08:36:39.261932  3793 layer_factory.hpp:77] Creating layer conv1_2
I0603 08:36:39.261940  3793 net.cpp:100] Creating Layer conv1_2
I0603 08:36:39.261943  3793 net.cpp:434] conv1_2 <- conv1_1
I0603 08:36:39.261947  3793 net.cpp:408] conv1_2 -> conv1_2
I0603 08:36:39.262256  3793 net.cpp:150] Setting up conv1_2
I0603 08:36:39.262262  3793 net.cpp:157] Top shape: 2 64 224 224 (6422528)
I0603 08:36:39.262280  3793 net.cpp:165] Memory required for data: 80683040
I0603 08:36:39.262286  3793 layer_factory.hpp:77] Creating layer quant_relu1_2
I0603 08:36:39.262290  3793 net.cpp:100] Creating Layer quant_relu1_2
I0603 08:36:39.262292  3793 net.cpp:434] quant_relu1_2 <- conv1_2
I0603 08:36:39.262296  3793 net.cpp:395] quant_relu1_2 -> conv1_2 (in-place)
I0603 08:36:39.265605  3793 net.cpp:150] Setting up quant_relu1_2
I0603 08:36:39.265620  3793 net.cpp:157] Top shape: 2 64 224 224 (6422528)
I0603 08:36:39.265624  3793 net.cpp:165] Memory required for data: 106373152
I0603 08:36:39.265630  3793 layer_factory.hpp:77] Creating layer pool1
I0603 08:36:39.265637  3793 net.cpp:100] Creating Layer pool1
I0603 08:36:39.265640  3793 net.cpp:434] pool1 <- conv1_2
I0603 08:36:39.265645  3793 net.cpp:408] pool1 -> pool1
I0603 08:36:39.265678  3793 net.cpp:150] Setting up pool1
I0603 08:36:39.265694  3793 net.cpp:157] Top shape: 2 64 112 112 (1605632)
I0603 08:36:39.265697  3793 net.cpp:165] Memory required for data: 112795680
I0603 08:36:39.265698  3793 layer_factory.hpp:77] Creating layer conv2_1
I0603 08:36:39.265704  3793 net.cpp:100] Creating Layer conv2_1
I0603 08:36:39.265707  3793 net.cpp:434] conv2_1 <- pool1
I0603 08:36:39.265710  3793 net.cpp:408] conv2_1 -> conv2_1
I0603 08:36:39.266917  3793 net.cpp:150] Setting up conv2_1
I0603 08:36:39.266927  3793 net.cpp:157] Top shape: 2 128 112 112 (3211264)
I0603 08:36:39.266930  3793 net.cpp:165] Memory required for data: 125640736
I0603 08:36:39.266934  3793 layer_factory.hpp:77] Creating layer quant_relu2_1
I0603 08:36:39.266942  3793 net.cpp:100] Creating Layer quant_relu2_1
I0603 08:36:39.266944  3793 net.cpp:434] quant_relu2_1 <- conv2_1
I0603 08:36:39.266948  3793 net.cpp:395] quant_relu2_1 -> conv2_1 (in-place)
I0603 08:36:39.269235  3793 net.cpp:150] Setting up quant_relu2_1
I0603 08:36:39.269248  3793 net.cpp:157] Top shape: 2 128 112 112 (3211264)
I0603 08:36:39.269250  3793 net.cpp:165] Memory required for data: 138485792
I0603 08:36:39.269258  3793 layer_factory.hpp:77] Creating layer conv2_2
I0603 08:36:39.269265  3793 net.cpp:100] Creating Layer conv2_2
I0603 08:36:39.269268  3793 net.cpp:434] conv2_2 <- conv2_1
I0603 08:36:39.269273  3793 net.cpp:408] conv2_2 -> conv2_2
I0603 08:36:39.269996  3793 net.cpp:150] Setting up conv2_2
I0603 08:36:39.270004  3793 net.cpp:157] Top shape: 2 128 112 112 (3211264)
I0603 08:36:39.270021  3793 net.cpp:165] Memory required for data: 151330848
I0603 08:36:39.270025  3793 layer_factory.hpp:77] Creating layer quant_relu2_2
I0603 08:36:39.270030  3793 net.cpp:100] Creating Layer quant_relu2_2
I0603 08:36:39.270032  3793 net.cpp:434] quant_relu2_2 <- conv2_2
I0603 08:36:39.270036  3793 net.cpp:395] quant_relu2_2 -> conv2_2 (in-place)
I0603 08:36:39.272218  3793 net.cpp:150] Setting up quant_relu2_2
I0603 08:36:39.272230  3793 net.cpp:157] Top shape: 2 128 112 112 (3211264)
I0603 08:36:39.272233  3793 net.cpp:165] Memory required for data: 164175904
I0603 08:36:39.272238  3793 layer_factory.hpp:77] Creating layer pool2
I0603 08:36:39.272243  3793 net.cpp:100] Creating Layer pool2
I0603 08:36:39.272246  3793 net.cpp:434] pool2 <- conv2_2
I0603 08:36:39.272251  3793 net.cpp:408] pool2 -> pool2
I0603 08:36:39.272275  3793 net.cpp:150] Setting up pool2
I0603 08:36:39.272279  3793 net.cpp:157] Top shape: 2 128 56 56 (802816)
I0603 08:36:39.272282  3793 net.cpp:165] Memory required for data: 167387168
I0603 08:36:39.272284  3793 layer_factory.hpp:77] Creating layer conv3_1
I0603 08:36:39.272289  3793 net.cpp:100] Creating Layer conv3_1
I0603 08:36:39.272291  3793 net.cpp:434] conv3_1 <- pool2
I0603 08:36:39.272295  3793 net.cpp:408] conv3_1 -> conv3_1
I0603 08:36:39.273973  3793 net.cpp:150] Setting up conv3_1
I0603 08:36:39.273983  3793 net.cpp:157] Top shape: 2 256 56 56 (1605632)
I0603 08:36:39.273984  3793 net.cpp:165] Memory required for data: 173809696
I0603 08:36:39.273989  3793 layer_factory.hpp:77] Creating layer quant_relu3_1
I0603 08:36:39.273995  3793 net.cpp:100] Creating Layer quant_relu3_1
I0603 08:36:39.273998  3793 net.cpp:434] quant_relu3_1 <- conv3_1
I0603 08:36:39.274000  3793 net.cpp:395] quant_relu3_1 -> conv3_1 (in-place)
I0603 08:36:39.274978  3793 net.cpp:150] Setting up quant_relu3_1
I0603 08:36:39.274986  3793 net.cpp:157] Top shape: 2 256 56 56 (1605632)
I0603 08:36:39.274988  3793 net.cpp:165] Memory required for data: 180232224
I0603 08:36:39.274992  3793 layer_factory.hpp:77] Creating layer conv3_2
I0603 08:36:39.274998  3793 net.cpp:100] Creating Layer conv3_2
I0603 08:36:39.275002  3793 net.cpp:434] conv3_2 <- conv3_1
I0603 08:36:39.275005  3793 net.cpp:408] conv3_2 -> conv3_2
I0603 08:36:39.277895  3793 net.cpp:150] Setting up conv3_2
I0603 08:36:39.277904  3793 net.cpp:157] Top shape: 2 256 56 56 (1605632)
I0603 08:36:39.277922  3793 net.cpp:165] Memory required for data: 186654752
I0603 08:36:39.277930  3793 layer_factory.hpp:77] Creating layer quant_relu3_2
I0603 08:36:39.277946  3793 net.cpp:100] Creating Layer quant_relu3_2
I0603 08:36:39.277949  3793 net.cpp:434] quant_relu3_2 <- conv3_2
I0603 08:36:39.277952  3793 net.cpp:395] quant_relu3_2 -> conv3_2 (in-place)
I0603 08:36:39.278926  3793 net.cpp:150] Setting up quant_relu3_2
I0603 08:36:39.278934  3793 net.cpp:157] Top shape: 2 256 56 56 (1605632)
I0603 08:36:39.278955  3793 net.cpp:165] Memory required for data: 193077280
I0603 08:36:39.278959  3793 layer_factory.hpp:77] Creating layer conv3_3
I0603 08:36:39.278966  3793 net.cpp:100] Creating Layer conv3_3
I0603 08:36:39.278970  3793 net.cpp:434] conv3_3 <- conv3_2
I0603 08:36:39.278975  3793 net.cpp:408] conv3_3 -> conv3_3
I0603 08:36:39.281750  3793 net.cpp:150] Setting up conv3_3
I0603 08:36:39.281759  3793 net.cpp:157] Top shape: 2 256 56 56 (1605632)
I0603 08:36:39.281777  3793 net.cpp:165] Memory required for data: 199499808
I0603 08:36:39.281783  3793 layer_factory.hpp:77] Creating layer quant_relu3_3
I0603 08:36:39.281787  3793 net.cpp:100] Creating Layer quant_relu3_3
I0603 08:36:39.281790  3793 net.cpp:434] quant_relu3_3 <- conv3_3
I0603 08:36:39.281793  3793 net.cpp:395] quant_relu3_3 -> conv3_3 (in-place)
I0603 08:36:39.282902  3793 net.cpp:150] Setting up quant_relu3_3
I0603 08:36:39.282912  3793 net.cpp:157] Top shape: 2 256 56 56 (1605632)
I0603 08:36:39.282913  3793 net.cpp:165] Memory required for data: 205922336
I0603 08:36:39.282917  3793 layer_factory.hpp:77] Creating layer pool3
I0603 08:36:39.282923  3793 net.cpp:100] Creating Layer pool3
I0603 08:36:39.282925  3793 net.cpp:434] pool3 <- conv3_3
I0603 08:36:39.282929  3793 net.cpp:408] pool3 -> pool3
I0603 08:36:39.282975  3793 net.cpp:150] Setting up pool3
I0603 08:36:39.282980  3793 net.cpp:157] Top shape: 2 256 28 28 (401408)
I0603 08:36:39.282982  3793 net.cpp:165] Memory required for data: 207527968
I0603 08:36:39.282984  3793 layer_factory.hpp:77] Creating layer conv4_1
I0603 08:36:39.283004  3793 net.cpp:100] Creating Layer conv4_1
I0603 08:36:39.283005  3793 net.cpp:434] conv4_1 <- pool3
I0603 08:36:39.283028  3793 net.cpp:408] conv4_1 -> conv4_1
I0603 08:36:39.289957  3793 net.cpp:150] Setting up conv4_1
I0603 08:36:39.289970  3793 net.cpp:157] Top shape: 2 512 28 28 (802816)
I0603 08:36:39.289973  3793 net.cpp:165] Memory required for data: 210739232
I0603 08:36:39.289979  3793 layer_factory.hpp:77] Creating layer quant_relu4_1
I0603 08:36:39.289986  3793 net.cpp:100] Creating Layer quant_relu4_1
I0603 08:36:39.289989  3793 net.cpp:434] quant_relu4_1 <- conv4_1
I0603 08:36:39.289994  3793 net.cpp:395] quant_relu4_1 -> conv4_1 (in-place)
I0603 08:36:39.290735  3793 net.cpp:150] Setting up quant_relu4_1
I0603 08:36:39.290743  3793 net.cpp:157] Top shape: 2 512 28 28 (802816)
I0603 08:36:39.290745  3793 net.cpp:165] Memory required for data: 213950496
I0603 08:36:39.290750  3793 layer_factory.hpp:77] Creating layer conv4_2
I0603 08:36:39.290756  3793 net.cpp:100] Creating Layer conv4_2
I0603 08:36:39.290758  3793 net.cpp:434] conv4_2 <- conv4_1
I0603 08:36:39.290762  3793 net.cpp:408] conv4_2 -> conv4_2
I0603 08:36:39.301183  3793 net.cpp:150] Setting up conv4_2
I0603 08:36:39.301200  3793 net.cpp:157] Top shape: 2 512 28 28 (802816)
I0603 08:36:39.301203  3793 net.cpp:165] Memory required for data: 217161760
I0603 08:36:39.301208  3793 layer_factory.hpp:77] Creating layer quant_relu4_2
I0603 08:36:39.301216  3793 net.cpp:100] Creating Layer quant_relu4_2
I0603 08:36:39.301218  3793 net.cpp:434] quant_relu4_2 <- conv4_2
I0603 08:36:39.301223  3793 net.cpp:395] quant_relu4_2 -> conv4_2 (in-place)
I0603 08:36:39.301964  3793 net.cpp:150] Setting up quant_relu4_2
I0603 08:36:39.301973  3793 net.cpp:157] Top shape: 2 512 28 28 (802816)
I0603 08:36:39.301975  3793 net.cpp:165] Memory required for data: 220373024
I0603 08:36:39.301980  3793 layer_factory.hpp:77] Creating layer conv4_3
I0603 08:36:39.301985  3793 net.cpp:100] Creating Layer conv4_3
I0603 08:36:39.301987  3793 net.cpp:434] conv4_3 <- conv4_2
I0603 08:36:39.301991  3793 net.cpp:408] conv4_3 -> conv4_3
I0603 08:36:39.312281  3793 net.cpp:150] Setting up conv4_3
I0603 08:36:39.312307  3793 net.cpp:157] Top shape: 2 512 28 28 (802816)
I0603 08:36:39.312310  3793 net.cpp:165] Memory required for data: 223584288
I0603 08:36:39.312315  3793 layer_factory.hpp:77] Creating layer quant_relu4_3
I0603 08:36:39.312321  3793 net.cpp:100] Creating Layer quant_relu4_3
I0603 08:36:39.312325  3793 net.cpp:434] quant_relu4_3 <- conv4_3
I0603 08:36:39.312328  3793 net.cpp:395] quant_relu4_3 -> conv4_3 (in-place)
I0603 08:36:39.313046  3793 net.cpp:150] Setting up quant_relu4_3
I0603 08:36:39.313055  3793 net.cpp:157] Top shape: 2 512 28 28 (802816)
I0603 08:36:39.313057  3793 net.cpp:165] Memory required for data: 226795552
I0603 08:36:39.313061  3793 layer_factory.hpp:77] Creating layer pool4
I0603 08:36:39.313066  3793 net.cpp:100] Creating Layer pool4
I0603 08:36:39.313068  3793 net.cpp:434] pool4 <- conv4_3
I0603 08:36:39.313072  3793 net.cpp:408] pool4 -> pool4
I0603 08:36:39.313094  3793 net.cpp:150] Setting up pool4
I0603 08:36:39.313098  3793 net.cpp:157] Top shape: 2 512 14 14 (200704)
I0603 08:36:39.313100  3793 net.cpp:165] Memory required for data: 227598368
I0603 08:36:39.313102  3793 layer_factory.hpp:77] Creating layer conv5_1
I0603 08:36:39.313107  3793 net.cpp:100] Creating Layer conv5_1
I0603 08:36:39.313110  3793 net.cpp:434] conv5_1 <- pool4
I0603 08:36:39.313113  3793 net.cpp:408] conv5_1 -> conv5_1
I0603 08:36:39.323159  3793 net.cpp:150] Setting up conv5_1
I0603 08:36:39.323174  3793 net.cpp:157] Top shape: 2 512 14 14 (200704)
I0603 08:36:39.323177  3793 net.cpp:165] Memory required for data: 228401184
I0603 08:36:39.323182  3793 layer_factory.hpp:77] Creating layer quant_relu5_1
I0603 08:36:39.323189  3793 net.cpp:100] Creating Layer quant_relu5_1
I0603 08:36:39.323194  3793 net.cpp:434] quant_relu5_1 <- conv5_1
I0603 08:36:39.323197  3793 net.cpp:395] quant_relu5_1 -> conv5_1 (in-place)
I0603 08:36:39.323282  3793 net.cpp:150] Setting up quant_relu5_1
I0603 08:36:39.323287  3793 net.cpp:157] Top shape: 2 512 14 14 (200704)
I0603 08:36:39.323290  3793 net.cpp:165] Memory required for data: 229204000
I0603 08:36:39.323315  3793 layer_factory.hpp:77] Creating layer conv5_2
I0603 08:36:39.323323  3793 net.cpp:100] Creating Layer conv5_2
I0603 08:36:39.323325  3793 net.cpp:434] conv5_2 <- conv5_1
I0603 08:36:39.323346  3793 net.cpp:408] conv5_2 -> conv5_2
I0603 08:36:39.333644  3793 net.cpp:150] Setting up conv5_2
I0603 08:36:39.333662  3793 net.cpp:157] Top shape: 2 512 14 14 (200704)
I0603 08:36:39.333665  3793 net.cpp:165] Memory required for data: 230006816
I0603 08:36:39.333673  3793 layer_factory.hpp:77] Creating layer quant_relu5_2
I0603 08:36:39.333681  3793 net.cpp:100] Creating Layer quant_relu5_2
I0603 08:36:39.333684  3793 net.cpp:434] quant_relu5_2 <- conv5_2
I0603 08:36:39.333689  3793 net.cpp:395] quant_relu5_2 -> conv5_2 (in-place)
I0603 08:36:39.333789  3793 net.cpp:150] Setting up quant_relu5_2
I0603 08:36:39.333794  3793 net.cpp:157] Top shape: 2 512 14 14 (200704)
I0603 08:36:39.333796  3793 net.cpp:165] Memory required for data: 230809632
I0603 08:36:39.333801  3793 layer_factory.hpp:77] Creating layer conv5_3
I0603 08:36:39.333807  3793 net.cpp:100] Creating Layer conv5_3
I0603 08:36:39.333811  3793 net.cpp:434] conv5_3 <- conv5_2
I0603 08:36:39.333813  3793 net.cpp:408] conv5_3 -> conv5_3
I0603 08:36:39.343911  3793 net.cpp:150] Setting up conv5_3
I0603 08:36:39.343926  3793 net.cpp:157] Top shape: 2 512 14 14 (200704)
I0603 08:36:39.343930  3793 net.cpp:165] Memory required for data: 231612448
I0603 08:36:39.343935  3793 layer_factory.hpp:77] Creating layer quant_relu5_3
I0603 08:36:39.343941  3793 net.cpp:100] Creating Layer quant_relu5_3
I0603 08:36:39.343945  3793 net.cpp:434] quant_relu5_3 <- conv5_3
I0603 08:36:39.343948  3793 net.cpp:395] quant_relu5_3 -> conv5_3 (in-place)
I0603 08:36:39.344029  3793 net.cpp:150] Setting up quant_relu5_3
I0603 08:36:39.344034  3793 net.cpp:157] Top shape: 2 512 14 14 (200704)
I0603 08:36:39.344036  3793 net.cpp:165] Memory required for data: 232415264
I0603 08:36:39.344039  3793 layer_factory.hpp:77] Creating layer pool5
I0603 08:36:39.344058  3793 net.cpp:100] Creating Layer pool5
I0603 08:36:39.344060  3793 net.cpp:434] pool5 <- conv5_3
I0603 08:36:39.344064  3793 net.cpp:408] pool5 -> pool5
I0603 08:36:39.344086  3793 net.cpp:150] Setting up pool5
I0603 08:36:39.344090  3793 net.cpp:157] Top shape: 2 512 7 7 (50176)
I0603 08:36:39.344094  3793 net.cpp:165] Memory required for data: 232615968
I0603 08:36:39.344095  3793 layer_factory.hpp:77] Creating layer ip6
I0603 08:36:39.344102  3793 net.cpp:100] Creating Layer ip6
I0603 08:36:39.344105  3793 net.cpp:434] ip6 <- pool5
I0603 08:36:39.344107  3793 net.cpp:408] ip6 -> ip6
I0603 08:36:40.069543  3793 net.cpp:150] Setting up ip6
I0603 08:36:40.069561  3793 net.cpp:157] Top shape: 2 512 7 7 (50176)
I0603 08:36:40.069564  3793 net.cpp:165] Memory required for data: 232816672
I0603 08:36:40.069571  3793 layer_factory.hpp:77] Creating layer relu6
I0603 08:36:40.069578  3793 net.cpp:100] Creating Layer relu6
I0603 08:36:40.069583  3793 net.cpp:434] relu6 <- ip6
I0603 08:36:40.069587  3793 net.cpp:395] relu6 -> ip6 (in-place)
I0603 08:36:40.069936  3793 net.cpp:150] Setting up relu6
I0603 08:36:40.069943  3793 net.cpp:157] Top shape: 2 512 7 7 (50176)
I0603 08:36:40.069945  3793 net.cpp:165] Memory required for data: 233017376
I0603 08:36:40.069948  3793 layer_factory.hpp:77] Creating layer ip7
I0603 08:36:40.069957  3793 net.cpp:100] Creating Layer ip7
I0603 08:36:40.069959  3793 net.cpp:434] ip7 <- ip6
I0603 08:36:40.069963  3793 net.cpp:408] ip7 -> ip7
I0603 08:36:40.073158  3793 net.cpp:150] Setting up ip7
I0603 08:36:40.073166  3793 net.cpp:157] Top shape: 2 512 7 7 (50176)
I0603 08:36:40.073169  3793 net.cpp:165] Memory required for data: 233218080
I0603 08:36:40.073174  3793 layer_factory.hpp:77] Creating layer relu7
I0603 08:36:40.073179  3793 net.cpp:100] Creating Layer relu7
I0603 08:36:40.073180  3793 net.cpp:434] relu7 <- ip7
I0603 08:36:40.073185  3793 net.cpp:395] relu7 -> ip7 (in-place)
I0603 08:36:40.073520  3793 net.cpp:150] Setting up relu7
I0603 08:36:40.073529  3793 net.cpp:157] Top shape: 2 512 7 7 (50176)
I0603 08:36:40.073530  3793 net.cpp:165] Memory required for data: 233418784
I0603 08:36:40.073534  3793 layer_factory.hpp:77] Creating layer ip7_relu7_0_split
I0603 08:36:40.073537  3793 net.cpp:100] Creating Layer ip7_relu7_0_split
I0603 08:36:40.073539  3793 net.cpp:434] ip7_relu7_0_split <- ip7
I0603 08:36:40.073544  3793 net.cpp:408] ip7_relu7_0_split -> ip7_relu7_0_split_0
I0603 08:36:40.073549  3793 net.cpp:408] ip7_relu7_0_split -> ip7_relu7_0_split_1
I0603 08:36:40.073554  3793 net.cpp:408] ip7_relu7_0_split -> ip7_relu7_0_split_2
I0603 08:36:40.073611  3793 net.cpp:150] Setting up ip7_relu7_0_split
I0603 08:36:40.073616  3793 net.cpp:157] Top shape: 2 512 7 7 (50176)
I0603 08:36:40.073619  3793 net.cpp:157] Top shape: 2 512 7 7 (50176)
I0603 08:36:40.073622  3793 net.cpp:157] Top shape: 2 512 7 7 (50176)
I0603 08:36:40.073624  3793 net.cpp:165] Memory required for data: 234020896
I0603 08:36:40.073626  3793 layer_factory.hpp:77] Creating layer ip7_mbox_loc
I0603 08:36:40.073633  3793 net.cpp:100] Creating Layer ip7_mbox_loc
I0603 08:36:40.073637  3793 net.cpp:434] ip7_mbox_loc <- ip7_relu7_0_split_0
I0603 08:36:40.073640  3793 net.cpp:408] ip7_mbox_loc -> ip7_mbox_loc
I0603 08:36:40.076913  3793 net.cpp:150] Setting up ip7_mbox_loc
I0603 08:36:40.076923  3793 net.cpp:157] Top shape: 2 24 7 7 (2352)
I0603 08:36:40.076925  3793 net.cpp:165] Memory required for data: 234030304
I0603 08:36:40.076930  3793 layer_factory.hpp:77] Creating layer ip7_mbox_loc_perm
I0603 08:36:40.076934  3793 net.cpp:100] Creating Layer ip7_mbox_loc_perm
I0603 08:36:40.076937  3793 net.cpp:434] ip7_mbox_loc_perm <- ip7_mbox_loc
I0603 08:36:40.076942  3793 net.cpp:408] ip7_mbox_loc_perm -> ip7_mbox_loc_perm
I0603 08:36:40.077064  3793 net.cpp:150] Setting up ip7_mbox_loc_perm
I0603 08:36:40.077069  3793 net.cpp:157] Top shape: 2 7 7 24 (2352)
I0603 08:36:40.077071  3793 net.cpp:165] Memory required for data: 234039712
I0603 08:36:40.077073  3793 layer_factory.hpp:77] Creating layer ip7_mbox_loc_flat
I0603 08:36:40.077086  3793 net.cpp:100] Creating Layer ip7_mbox_loc_flat
I0603 08:36:40.077090  3793 net.cpp:434] ip7_mbox_loc_flat <- ip7_mbox_loc_perm
I0603 08:36:40.077095  3793 net.cpp:408] ip7_mbox_loc_flat -> ip7_mbox_loc_flat
I0603 08:36:40.077131  3793 net.cpp:150] Setting up ip7_mbox_loc_flat
I0603 08:36:40.077136  3793 net.cpp:157] Top shape: 2 1176 (2352)
I0603 08:36:40.077137  3793 net.cpp:165] Memory required for data: 234049120
I0603 08:36:40.077141  3793 layer_factory.hpp:77] Creating layer ip7_mbox_conf
I0603 08:36:40.077147  3793 net.cpp:100] Creating Layer ip7_mbox_conf
I0603 08:36:40.077170  3793 net.cpp:434] ip7_mbox_conf <- ip7_relu7_0_split_1
I0603 08:36:40.077175  3793 net.cpp:408] ip7_mbox_conf -> ip7_mbox_conf
I0603 08:36:40.079689  3793 net.cpp:150] Setting up ip7_mbox_conf
I0603 08:36:40.079696  3793 net.cpp:157] Top shape: 2 36 7 7 (3528)
I0603 08:36:40.079699  3793 net.cpp:165] Memory required for data: 234063232
I0603 08:36:40.079704  3793 layer_factory.hpp:77] Creating layer ip7_mbox_conf_perm
I0603 08:36:40.079710  3793 net.cpp:100] Creating Layer ip7_mbox_conf_perm
I0603 08:36:40.079712  3793 net.cpp:434] ip7_mbox_conf_perm <- ip7_mbox_conf
I0603 08:36:40.079716  3793 net.cpp:408] ip7_mbox_conf_perm -> ip7_mbox_conf_perm
I0603 08:36:40.079829  3793 net.cpp:150] Setting up ip7_mbox_conf_perm
I0603 08:36:40.079836  3793 net.cpp:157] Top shape: 2 7 7 36 (3528)
I0603 08:36:40.079854  3793 net.cpp:165] Memory required for data: 234077344
I0603 08:36:40.079856  3793 layer_factory.hpp:77] Creating layer ip7_mbox_conf_flat
I0603 08:36:40.079860  3793 net.cpp:100] Creating Layer ip7_mbox_conf_flat
I0603 08:36:40.079864  3793 net.cpp:434] ip7_mbox_conf_flat <- ip7_mbox_conf_perm
I0603 08:36:40.079867  3793 net.cpp:408] ip7_mbox_conf_flat -> ip7_mbox_conf_flat
I0603 08:36:40.079890  3793 net.cpp:150] Setting up ip7_mbox_conf_flat
I0603 08:36:40.079893  3793 net.cpp:157] Top shape: 2 1764 (3528)
I0603 08:36:40.079896  3793 net.cpp:165] Memory required for data: 234091456
I0603 08:36:40.079898  3793 layer_factory.hpp:77] Creating layer ip7_mbox_priorbox
I0603 08:36:40.079903  3793 net.cpp:100] Creating Layer ip7_mbox_priorbox
I0603 08:36:40.079905  3793 net.cpp:434] ip7_mbox_priorbox <- ip7_relu7_0_split_2
I0603 08:36:40.079910  3793 net.cpp:434] ip7_mbox_priorbox <- data_data_0_split_1
I0603 08:36:40.079913  3793 net.cpp:408] ip7_mbox_priorbox -> ip7_mbox_priorbox
I0603 08:36:40.079958  3793 net.cpp:150] Setting up ip7_mbox_priorbox
I0603 08:36:40.079963  3793 net.cpp:157] Top shape: 1 2 1176 (2352)
I0603 08:36:40.079965  3793 net.cpp:165] Memory required for data: 234100864
I0603 08:36:40.079967  3793 layer_factory.hpp:77] Creating layer mbox_loc
I0603 08:36:40.079972  3793 net.cpp:100] Creating Layer mbox_loc
I0603 08:36:40.079975  3793 net.cpp:434] mbox_loc <- ip7_mbox_loc_flat
I0603 08:36:40.079979  3793 net.cpp:408] mbox_loc -> mbox_loc
I0603 08:36:40.080016  3793 net.cpp:150] Setting up mbox_loc
I0603 08:36:40.080019  3793 net.cpp:157] Top shape: 2 1176 (2352)
I0603 08:36:40.080021  3793 net.cpp:165] Memory required for data: 234110272
I0603 08:36:40.080024  3793 layer_factory.hpp:77] Creating layer mbox_conf
I0603 08:36:40.080027  3793 net.cpp:100] Creating Layer mbox_conf
I0603 08:36:40.080030  3793 net.cpp:434] mbox_conf <- ip7_mbox_conf_flat
I0603 08:36:40.080034  3793 net.cpp:408] mbox_conf -> mbox_conf
I0603 08:36:40.080052  3793 net.cpp:150] Setting up mbox_conf
I0603 08:36:40.080056  3793 net.cpp:157] Top shape: 2 1764 (3528)
I0603 08:36:40.080058  3793 net.cpp:165] Memory required for data: 234124384
I0603 08:36:40.080060  3793 layer_factory.hpp:77] Creating layer mbox_priorbox
I0603 08:36:40.080065  3793 net.cpp:100] Creating Layer mbox_priorbox
I0603 08:36:40.080066  3793 net.cpp:434] mbox_priorbox <- ip7_mbox_priorbox
I0603 08:36:40.080070  3793 net.cpp:408] mbox_priorbox -> mbox_priorbox
I0603 08:36:40.080087  3793 net.cpp:150] Setting up mbox_priorbox
I0603 08:36:40.080091  3793 net.cpp:157] Top shape: 1 2 1176 (2352)
I0603 08:36:40.080093  3793 net.cpp:165] Memory required for data: 234133792
I0603 08:36:40.080102  3793 layer_factory.hpp:77] Creating layer mbox_loss
I0603 08:36:40.080109  3793 net.cpp:100] Creating Layer mbox_loss
I0603 08:36:40.080113  3793 net.cpp:434] mbox_loss <- mbox_loc
I0603 08:36:40.080116  3793 net.cpp:434] mbox_loss <- mbox_conf
I0603 08:36:40.080119  3793 net.cpp:434] mbox_loss <- mbox_priorbox
…
  name: "data"
  type: "AnnotatedData"
  top: "data"
  top: "label"
  include {
    phase: TEST
  }
  transform_param {
    scale: 0.12156863
    resize_param {
      prob: 1
      resize_mode: WARP
      height: 224
      width: 224
      interp_mode: LINEAR
    }
  }
  data_param {
    source: "/home/zhangwanchun/data/VOCdevkit/VOC0712/lmdb/VOC0712_test_lmdb"
    batch_size: 10
    backend: LMDB
  }
  annotated_data_param {
    batch_sampler {
    }
    label_map_file: "/home/zhangwanchun/data/VOCdevkit/VOC0712/lmdb/labelmap_voc.prototxt"
  }
}
layer {
  name: "conv1_1"
  type: "QuantConvolution"
  bottom: "data"
  top: "conv1_1"
  convolution_param {
    num_output: 64
    pad: 1
    kernel_size: 3
    weight_filler {
      type: "xavier"
    }
    bias_filler {
      type: "constant"
      value: 0
    }
  }
  quant_convolution_param {
    coef_precision: THREE_BITS
    bw_params: 8
    shift_enable: true
  }
}
layer {
  name: "quant_relu1_1"
  type: "QuantReLU"
  bottom: "conv1_1"
  top: "conv1_1"
  param {
    lr_mult: 0
  }
  quant_relu_param {
    filler {
      type: "constant"
      value: 31
    }
    channel_shared: true
    act_bits: 5
    quant_enable: true
  }
}
layer {
  name: "conv1_2"
  type: "QuantConvolution"
  bottom: "conv1_1"
  top: "conv1_2"
  convolution_param {
    num_output: 64
    pad: 1
    kernel_size: 3
    weight_filler {
      type: "xavier"
    }
    bias_filler {
      type: "constant"
      value: 0
    }
  }
  quant_convolution_param {
    coef_precision: THREE_BITS
    bw_params: 8
    shift_enable: true
  }
}
layer {
  name: "quant_relu1_2"
  type: "QuantReLU"
  bottom: "conv1_2"
  top: "conv1_2"
  param {
    lr_mult: 0
  }
  quant_relu_param {
    filler {
      type: "constant"
      value: 31
    }
    channel_shared: true
    act_bits: 5
    quant_enable: true
  }
}
layer {
  name: "pool1"
  type: "Pooling"
  bottom: "conv1_2"
  top: "pool1"
  pooling_param {
    pool: MAX
    kernel_size: 2
    stride: 2
  }
}
layer {
  name: "conv2_1"
  type: "QuantConvolution"
  bottom: "pool1"
  top: "conv2_1"
  convolution_param {
    num_output: 128
    pad: 1
    kernel_size: 3
    weight_filler {
      type: "xavier"
    }
    bias_filler {
      type: "constant"
      value: 0
    }
  }
  quant_convolution_param {
    coef_precision: THREE_BITS
    bw_params: 8
    shift_enable: true
  }
}
layer {
  name: "quant_relu2_1"
  type: "QuantReLU"
  bottom: "conv2_1"
  top: "conv2_1"
  param {
    lr_mult: 0
  }
  quant_relu_param {
    filler {
      type: "constant"
      value: 31
    }
    channel_shared: true
    act_bits: 5
    quant_enable: true
  }
}
layer {
  name: "conv2_2"
  type: "QuantConvolution"
  bottom: "conv2_1"
  top: "conv2_2"
  convolution_param {
    num_output: 128
    pad: 1
    kernel_size: 3
    weight_filler {
      type: "xavier"
    }
    bias_filler {
      type: "constant"
      value: 0
    }
  }
  quant_convolution_param {
    coef_precision: THREE_BITS
    bw_params: 8
    shift_enable: true
  }
}
layer {
  name: "quant_relu2_2"
  type: "QuantReLU"
  bottom: "conv2_2"
  top: "conv2_2"
  param {
    lr_mult: 0
  }
  quant_relu_param {
    filler {
      type: "constant"
      value: 31
    }
    channel_shared: true
    act_bits: 5
    quant_enable: true
  }
}
layer {
  name: "pool2"
  type: "Pooling"
  bottom: "conv2_2"
  top: "pool2"
  pooling_param {
    pool: MAX
    kernel_size: 2
    stride: 2
  }
}
layer {
  name: "conv3_1"
  type: "QuantConvolution"
  bottom: "pool2"
  top: "conv3_1"
  convolution_param {
    num_output: 256
    pad: 1
    kernel_size: 3
    weight_filler {
      type: "xavier"
    }
    bias_filler {
      type: "constant"
      value: 0
    }
  }
  quant_convolution_param {
    coef_precision: THREE_BITS
    bw_params: 8
    shift_enable: true
  }
}
layer {
  name: "quant_relu3_1"
  type: "QuantReLU"
  bottom: "conv3_1"
  top: "conv3_1"
  param {
    lr_mult: 0
  }
  quant_relu_param {
    filler {
      type: "constant"
      value: 31
    }
    channel_shared: true
    act_bits: 5
    quant_enable: true
  }
}
layer {
  name: "conv3_2"
  type: "QuantConvolution"
  bottom: "conv3_1"
  top: "conv3_2"
  convolution_param {
    num_output: 256
    pad: 1
    kernel_size: 3
    weight_filler {
      type: "xavier"
    }
    bias_filler {
      type: "constant"
      value: 0
    }
  }
  quant_convolution_param {
    coef_precision: THREE_BITS
    bw_params: 8
    shift_enable: true
  }
}
layer {
  name: "quant_relu3_2"
  type: "QuantReLU"
  bottom: "conv3_2"
  top: "conv3_2"
  param {
    lr_mult: 0
  }
  quant_relu_param {
    filler {
      type: "constant"
      value: 31
    }
    channel_shared: true
    act_bits: 5
    quant_enable: true
  }
}
layer {
  name: "conv3_3"
  type: "QuantConvolution"
  bottom: "conv3_2"
  top: "conv3_3"
  convolution_param {
    num_output: 256
    pad: 1
    kernel_size: 3
    weight_filler {
      type: "xavier"
    }
    bias_filler {
      type: "constant"
      value: 0
    }
  }
  quant_convolution_param {
    coef_precision: THREE_BITS
    bw_params: 8
    shift_enable: true
  }
}
layer {
  name: "quant_relu3_3"
  type: "QuantReLU"
  bottom: "conv3_3"
  top: "conv3_3"
  param {
    lr_mult: 0
  }
  quant_relu_param {
    filler {
      type: "constant"
      value: 31
    }
    channel_shared: true
    act_bits: 5
    quant_enable: true
  }
}
layer {
  name: "pool3"
  type: "Pooling"
  bottom: "conv3_3"
  top: "pool3"
  pooling_param {
    pool: MAX
    kernel_size: 2
    stride: 2
  }
}
layer {
  name: "conv4_1"
  type: "QuantConvolution"
  bottom: "pool3"
  top: "conv4_1"
  convolution_param {
    num_output: 512
    pad: 1
    kernel_size: 3
    weight_filler {
      type: "xavier"
    }
    bias_filler {
      type: "constant"
      value: 0
    }
  }
  quant_convolution_param {
    coef_precision: ONE_BIT
    bw_params: 8
    shift_enable: true
  }
}
layer {
  name: "quant_relu4_1"
  type: "QuantReLU"
  bottom: "conv4_1"
  top: "conv4_1"
  param {
    lr_mult: 0
  }
  quant_relu_param {
    filler {
      type: "constant"
      value: 31
    }
    channel_shared: true
    act_bits: 5
    quant_enable: true
  }
}
layer {
  name: "conv4_2"
  type: "QuantConvolution"
  bottom: "conv4_1"
  top: "conv4_2"
  convolution_param {
    num_output: 512
    pad: 1
    kernel_size: 3
    weight_filler {
      type: "xavier"
    }
    bias_filler {
      type: "constant"
      value: 0
    }
  }
  quant_convolution_param {
    coef_precision: ONE_BIT
    bw_params: 8
    shift_enable: true
  }
}
layer {
  name: "quant_relu4_2"
  type: "QuantReLU"
  bottom: "conv4_2"
  top: "conv4_2"
  param {
    lr_mult: 0
  }
  quant_relu_param {
    filler {
      type: "constant"
      value: 31
    }
    channel_shared: true
    act_bits: 5
    quant_enable: true
  }
}
layer {
  name: "conv4_3"
  type: "QuantConvolution"
  bottom: "conv4_2"
  top: "conv4_3"
  convolution_param {
    num_output: 512
    pad: 1
    kernel_size: 3
    weight_filler {
      type: "xavier"
    }
    bias_filler {
      type: "constant"
      value: 0
    }
  }
  quant_convolution_param {
    coef_precision: ONE_BIT
    bw_params: 8
    shift_enable: true
  }
}
layer {
  name: "quant_relu4_3"
  type: "QuantReLU"
  bottom: "conv4_3"
  top: "conv4_3"
  param {
    lr_mult: 0
  }
  quant_relu_param {
    filler {
      type: "constant"
      value: 31
    }
    channel_shared: true
    act_bits: 5
    quant_enable: true
  }
}
layer {
  name: "pool4"
  type: "Pooling"
  bottom: "conv4_3"
  top: "pool4"
  pooling_param {
    pool: MAX
    kernel_size: 2
    stride: 2
  }
}
layer {
  name: "conv5_1"
  type: "QuantConvolution"
  bottom: "pool4"
  top: "conv5_1"
  convolution_param {
    num_output: 512
    pad: 1
    kernel_size: 3
    weight_filler {
      type: "xavier"
    }
    bias_filler {
      type: "constant"
      value: 0
    }
  }
  quant_convolution_param {
    coef_precision: ONE_BIT
    bw_params: 8
    shift_enable: true
  }
}
layer {
  name: "quant_relu5_1"
  type: "QuantReLU"
  bottom: "conv5_1"
  top: "conv5_1"
  param {
    lr_mult: 0
  }
  quant_relu_param {
    filler {
      type: "constant"
      value: 31
    }
    channel_shared: true
    act_bits: 5
    quant_enable: true
  }
}
layer {
  name: "conv5_2"
  type: "QuantConvolution"
  bottom: "conv5_1"
  top: "conv5_2"
  param {
    lr_mult: 1
    decay_mult: 0
  }
  param {
    lr_mult: 1
    decay_mult: 1
  }
  convolution_param {
    num_output: 512
    pad: 1
    kernel_size: 3
    weight_filler {
      type: "xavier"
    }
    bias_filler {
      type: "constant"
      value: 0
    }
  }
  quant_convolution_param {
    coef_precision: ONE_BIT
    bw_params: 8
    shift_enable: true
  }
}
layer {
  name: "quant_relu5_2"
  type: "QuantReLU"
  bottom: "conv5_2"
  top: "conv5_2"
  param {
    lr_mult: 0
  }
  quant_relu_param {
    filler {
      type: "constant"
      value: 31
    }
    channel_shared: true
    act_bits: 5
    quant_enable: true
  }
}
layer {
  name: "conv5_3"
  type: "QuantConvolution"
  bottom: "conv5_2"
  top: "conv5_3"
  param {
    lr_mult: 1
    decay_mult: 0
  }
  param {
    lr_mult: 1
    decay_mult: 200
  }
  convolution_param {
    num_output: 512
    pad: 1
    kernel_size: 3
    weight_filler {
      type: "xavier"
    }
    bias_filler {
      type: "constant"
      value: 0
    }
  }
  quant_convolution_param {
    coef_precision: ONE_BIT
    bw_params: 8
    shift_enable: true
  }
}
layer {
  name: "quant_relu5_3"
  type: "QuantReLU"
  bottom: "conv5_3"
  top: "conv5_3"
  param {
    lr_mult: 0
  }
  quant_relu_param {
    filler {
      type: "constant"
      value: 31
    }
    channel_shared: true
    act_bits: 5
    quant_enable: true
  }
}
layer {
  name: "pool5"
  type: "Pooling"
  bottom: "conv5_3"
  top: "pool5"
  pooling_param {
    pool: MAX
    kernel_size: 2
    stride: 2
  }
}
layer {
  name: "ip6"
  type: "Convolution"
  bottom: "pool5"
  top: "ip6"
  param {
    lr_mult: 1
    decay_mult: 1
  }
  param {
    lr_mult: 2
    decay_mult: 0
  }
  convolution_param {
    num_output: 512
    pad: 1
    kernel_size: 3
    weight_filler {
      type: "xavier"
    }
    bias_filler {
      type: "constant"
      value: 0
    }
  }
}
layer {
  name: "relu6"
  type: "ReLU"
  bottom: "ip6"
  top: "ip6"
}
layer {
  name: "ip7"
  type: "Convolution"
  bottom: "ip6"
  top: "ip7"
  param {
    lr_mult: 1
    decay_mult: 1
  }
  param {
    lr_mult: 2
    decay_mult: 0
  }
  convolution_param {
    num_output: 512
    kernel_size: 1
    weight_filler {
      type: "xavier"
    }
    bias_filler {
      type: "constant"
      value: 0
    }
  }
}
layer {
  name: "relu7"
  type: "ReLU"
  bottom: "ip7"
  top: "ip7"
}
layer {
  name: "ip7_mbox_loc"
  type: "Convolution"
  bottom: "ip7"
  top: "ip7_mbox_loc"
  param {
    lr_mult: 1
    decay_mult: 1
  }
  param {
    lr_mult: 2
    decay_mult: 0
  }
  convolution_param {
    num_output: 24
    pad: 1
    kernel_size: 3
    stride: 1
    weight_filler {
      type: "xavier"
    }
    bias_filler {
      type: "constant"
      value: 0
    }
  }
}
layer {
  name: "ip7_mbox_loc_perm"
  type: "Permute"
  bottom: "ip7_mbox_loc"
  top: "ip7_mbox_loc_perm"
  permute_param {
    order: 0
    order: 2
    order: 3
    order: 1
  }
}
layer {
  name: "ip7_mbox_loc_flat"
  type: "Flatten"
  bottom: "ip7_mbox_loc_perm"
  top: "ip7_mbox_loc_flat"
  flatten_param {
    axis: 1
  }
}
layer {
  name: "ip7_mbox_conf"
  type: "Convolution"
  bottom: "ip7"
  top: "ip7_mbox_conf"
  param {
    lr_mult: 1
    decay_mult: 1
  }
  param {
    lr_mult: 2
    decay_mult: 0
  }
  convolution_param {
    num_output: 36
    pad: 1
    kernel_size: 3
    stride: 1
    weight_filler {
      type: "xavier"
    }
    bias_filler {
      type: "constant"
      value: 0
    }
  }
}
layer {
  name: "ip7_mbox_conf_perm"
  type: "Permute"
  bottom: "ip7_mbox_conf"
  top: "ip7_mbox_conf_perm"
  permute_param {
    order: 0
    order: 2
    order: 3
    order: 1
  }
}
layer {
  name: "ip7_mbox_conf_flat"
  type: "Flatten"
  bottom: "ip7_mbox_conf_perm"
  top: "ip7_mbox_conf_flat"
  flatten_param {
    axis: 1
  }
}
layer {
  name: "ip7_mbox_priorbox"
  type: "PriorBox"
  bottom: "ip7"
  bottom: "data"
  top: "ip7_mbox_priorbox"
  prior_box_param {
    min_size: 20
    max_size: 210
    aspect_ratio: 2
    aspect_ratio: 3
    flip: true
    clip: false
    variance: 0.1
    variance: 0.1
    variance: 0.2
    variance: 0.2
    step: 32
    offset: 0.5
  }
}
layer {
  name: "mbox_loc"
  type: "Concat"
  bottom: "ip7_mbox_loc_flat"
  top: "mbox_loc"
  concat_param {
    axis: 1
  }
}
layer {
  name: "mbox_conf"
  type: "Concat"
  bottom: "ip7_mbox_conf_flat"
  top: "mbox_conf"
  concat_param {
    axis: 1
  }
}
layer {
  name: "mbox_priorbox"
  type: "Concat"
  bottom: "ip7_mbox_priorbox"
  top: "mbox_priorbox"
  concat_param {
    axis: 2
  }
}
layer {
  name: "mbox_conf_reshape"
  type: "Reshape"
  bottom: "mbox_conf"
  top: "mbox_conf_reshape"
  reshape_param {
    shape {
      dim: 0
      dim: -1
      dim: 6
    }
  }
}
layer {
  name: "mbox_conf_softmax"
  type: "Softmax"
  bottom: "mbox_conf_reshape"
  top: "mbox_conf_softmax"
  softmax_param {
    axis: 2
  }
}
layer {
  name: "mbox_conf_flatten"
  type: "Flatten"
  bottom: "mbox_conf_softmax"
  top: "mbox_conf_flatten"
  flatten_param {
    axis: 1
  }
}
layer {
  name: "detection_out"
  type: "DetectionOutput"
  bottom: "mbox_loc"
  bottom: "mbox_conf_flatten"
  bottom: "mbox_priorbox"
  top: "detection_out"
  include {
    phase: TEST
  }
  detection_output_param {
    num_classes: 6
    share_location: true
    background_label_id: 0
    nms_param {
      nms_threshold: 0.45
      top_k: 400
    }
    code_type: CENTER_SIZE
    keep_top_k: 200
    confidence_threshold: 0.01
  }
}
layer {
  name: "detection_eval"
  type: "DetectionEvaluate"
  bottom: "detection_out"
  bottom: "label"
  top: "detection_eval"
  include {
    phase: TEST
  }
  detection_evaluate_param {
    num_classes: 6
    background_label_id: 0
    overlap_threshold: 0.5
    evaluate_difficult_gt: false
    name_size_file: "/home/zhangwanchun/data/VOCdevkit/VOC0712/lmdb/test_name_size.txt"
  }
}
I0603 08:36:40.082011  3793 layer_factory.hpp:77] Creating layer data
I0603 08:36:40.082062  3793 net.cpp:100] Creating Layer data
I0603 08:36:40.082067  3793 net.cpp:408] data -> data
I0603 08:36:40.082074  3793 net.cpp:408] data -> label
I0603 08:36:40.083657  3881 db_lmdb.cpp:35] Opened lmdb /home/zhangwanchun/data/VOCdevkit/VOC0712/lmdb/VOC0712_test_lmdb
I0603 08:36:40.085112  3793 annotated_data_layer.cpp:62] output data size: 10,3,224,224
I0603 08:36:40.091027  3793 net.cpp:150] Setting up data
I0603 08:36:40.091044  3793 net.cpp:157] Top shape: 10 3 224 224 (1505280)
I0603 08:36:40.091048  3793 net.cpp:157] Top shape: 1 1 1 8 (8)
I0603 08:36:40.091050  3793 net.cpp:165] Memory required for data: 6021152
I0603 08:36:40.091054  3793 layer_factory.hpp:77] Creating layer data_data_0_split
I0603 08:36:40.091063  3793 net.cpp:100] Creating Layer data_data_0_split
I0603 08:36:40.091091  3793 net.cpp:434] data_data_0_split <- data
I0603 08:36:40.091097  3793 net.cpp:408] data_data_0_split -> data_data_0_split_0
I0603 08:36:40.091104  3793 net.cpp:408] data_data_0_split -> data_data_0_split_1
I0603 08:36:40.091173  3793 net.cpp:150] Setting up data_data_0_split
I0603 08:36:40.091178  3793 net.cpp:157] Top shape: 10 3 224 224 (1505280)
I0603 08:36:40.091181  3793 net.cpp:157] Top shape: 10 3 224 224 (1505280)
I0603 08:36:40.091182  3793 net.cpp:165] Memory required for data: 18063392
I0603 08:36:40.091186  3793 layer_factory.hpp:77] Creating layer conv1_1
I0603 08:36:40.091192  3793 net.cpp:100] Creating Layer conv1_1
I0603 08:36:40.091195  3793 net.cpp:434] conv1_1 <- data_data_0_split_0
I0603 08:36:40.091198  3793 net.cpp:408] conv1_1 -> conv1_1
I0603 08:36:40.091614  3793 net.cpp:150] Setting up conv1_1
I0603 08:36:40.091620  3793 net.cpp:157] Top shape: 10 64 224 224 (32112640)
I0603 08:36:40.091624  3793 net.cpp:165] Memory required for data: 146513952
I0603 08:36:40.091645  3793 layer_factory.hpp:77] Creating layer quant_relu1_1
I0603 08:36:40.091650  3793 net.cpp:100] Creating Layer quant_relu1_1
I0603 08:36:40.091653  3793 net.cpp:434] quant_relu1_1 <- conv1_1
I0603 08:36:40.091656  3793 net.cpp:395] quant_relu1_1 -> conv1_1 (in-place)
I0603 08:36:40.095114  3793 net.cpp:150] Setting up quant_relu1_1
I0603 08:36:40.095126  3793 net.cpp:157] Top shape: 10 64 224 224 (32112640)
I0603 08:36:40.095129  3793 net.cpp:165] Memory required for data: 274964512
I0603 08:36:40.095136  3793 layer_factory.hpp:77] Creating layer conv1_2
I0603 08:36:40.095160  3793 net.cpp:100] Creating Layer conv1_2
I0603 08:36:40.095165  3793 net.cpp:434] conv1_2 <- conv1_1
I0603 08:36:40.095170  3793 net.cpp:408] conv1_2 -> conv1_2
I0603 08:36:40.095557  3793 net.cpp:150] Setting up conv1_2
I0603 08:36:40.095564  3793 net.cpp:157] Top shape: 10 64 224 224 (32112640)
I0603 08:36:40.095567  3793 net.cpp:165] Memory required for data: 403415072
I0603 08:36:40.095572  3793 layer_factory.hpp:77] Creating layer quant_relu1_2
I0603 08:36:40.095577  3793 net.cpp:100] Creating Layer quant_relu1_2
I0603 08:36:40.095579  3793 net.cpp:434] quant_relu1_2 <- conv1_2
I0603 08:36:40.095583  3793 net.cpp:395] quant_relu1_2 -> conv1_2 (in-place)
I0603 08:36:40.099248  3793 net.cpp:150] Setting up quant_relu1_2
I0603 08:36:40.099285  3793 net.cpp:157] Top shape: 10 64 224 224 (32112640)
I0603 08:36:40.099288  3793 net.cpp:165] Memory required for data: 531865632
I0603 08:36:40.099295  3793 layer_factory.hpp:77] Creating layer pool1
I0603 08:36:40.099303  3793 net.cpp:100] Creating Layer pool1
I0603 08:36:40.099305  3793 net.cpp:434] pool1 <- conv1_2
I0603 08:36:40.099310  3793 net.cpp:408] pool1 -> pool1
I0603 08:36:40.099375  3793 net.cpp:150] Setting up pool1
I0603 08:36:40.099380  3793 net.cpp:157] Top shape: 10 64 112 112 (8028160)
I0603 08:36:40.099382  3793 net.cpp:165] Memory required for data: 563978272
I0603 08:36:40.099385  3793 layer_factory.hpp:77] Creating layer conv2_1
I0603 08:36:40.099390  3793 net.cpp:100] Creating Layer conv2_1
I0603 08:36:40.099392  3793 net.cpp:434] conv2_1 <- pool1
I0603 08:36:40.099396  3793 net.cpp:408] conv2_1 -> conv2_1
I0603 08:36:40.099920  3793 net.cpp:150] Setting up conv2_1
I0603 08:36:40.099925  3793 net.cpp:157] Top shape: 10 128 112 112 (16056320)
I0603 08:36:40.099928  3793 net.cpp:165] Memory required for data: 628203552
I0603 08:36:40.099932  3793 layer_factory.hpp:77] Creating layer quant_relu2_1
I0603 08:36:40.099956  3793 net.cpp:100] Creating Layer quant_relu2_1
I0603 08:36:40.099961  3793 net.cpp:434] quant_relu2_1 <- conv2_1
I0603 08:36:40.099963  3793 net.cpp:395] quant_relu2_1 -> conv2_1 (in-place)
I0603 08:36:40.102016  3793 net.cpp:150] Setting up quant_relu2_1
I0603 08:36:40.102026  3793 net.cpp:157] Top shape: 10 128 112 112 (16056320)
I0603 08:36:40.102030  3793 net.cpp:165] Memory required for data: 692428832
I0603 08:36:40.102035  3793 layer_factory.hpp:77] Creating layer conv2_2
I0603 08:36:40.102041  3793 net.cpp:100] Creating Layer conv2_2
I0603 08:36:40.102051  3793 net.cpp:434] conv2_2 <- conv2_1
I0603 08:36:40.102057  3793 net.cpp:408] conv2_2 -> conv2_2
I0603 08:36:40.102789  3793 net.cpp:150] Setting up conv2_2
I0603 08:36:40.102795  3793 net.cpp:157] Top shape: 10 128 112 112 (16056320)
I0603 08:36:40.102797  3793 net.cpp:165] Memory required for data: 756654112
I0603 08:36:40.102802  3793 layer_factory.hpp:77] Creating layer quant_relu2_2
I0603 08:36:40.102805  3793 net.cpp:100] Creating Layer quant_relu2_2
I0603 08:36:40.102808  3793 net.cpp:434] quant_relu2_2 <- conv2_2
I0603 08:36:40.102811  3793 net.cpp:395] quant_relu2_2 -> conv2_2 (in-place)
I0603 08:36:40.104699  3793 net.cpp:150] Setting up quant_relu2_2
I0603 08:36:40.104709  3793 net.cpp:157] Top shape: 10 128 112 112 (16056320)
I0603 08:36:40.104712  3793 net.cpp:165] Memory required for data: 820879392
I0603 08:36:40.104715  3793 layer_factory.hpp:77] Creating layer pool2
I0603 08:36:40.104722  3793 net.cpp:100] Creating Layer pool2
I0603 08:36:40.104725  3793 net.cpp:434] pool2 <- conv2_2
I0603 08:36:40.104748  3793 net.cpp:408] pool2 -> pool2
I0603 08:36:40.104815  3793 net.cpp:150] Setting up pool2
I0603 08:36:40.104820  3793 net.cpp:157] Top shape: 10 128 56 56 (4014080)
I0603 08:36:40.104821  3793 net.cpp:165] Memory required for data: 836935712
I0603 08:36:40.104825  3793 layer_factory.hpp:77] Creating layer conv3_1
I0603 08:36:40.104847  3793 net.cpp:100] Creating Layer conv3_1
I0603 08:36:40.104851  3793 net.cpp:434] conv3_1 <- pool2
I0603 08:36:40.104871  3793 net.cpp:408] conv3_1 -> conv3_1
I0603 08:36:40.106637  3793 net.cpp:150] Setting up conv3_1
I0603 08:36:40.106645  3793 net.cpp:157] Top shape: 10 256 56 56 (8028160)
I0603 08:36:40.106648  3793 net.cpp:165] Memory required for data: 869048352
I0603 08:36:40.106652  3793 layer_factory.hpp:77] Creating layer quant_relu3_1
I0603 08:36:40.106657  3793 net.cpp:100] Creating Layer quant_relu3_1
I0603 08:36:40.106660  3793 net.cpp:434] quant_relu3_1 <- conv3_1
I0603 08:36:40.106664  3793 net.cpp:395] quant_relu3_1 -> conv3_1 (in-place)
I0603 08:36:40.107700  3793 net.cpp:150] Setting up quant_relu3_1
I0603 08:36:40.107708  3793 net.cpp:157] Top shape: 10 256 56 56 (8028160)
I0603 08:36:40.107710  3793 net.cpp:165] Memory required for data: 901160992
I0603 08:36:40.107714  3793 layer_factory.hpp:77] Creating layer conv3_2
I0603 08:36:40.107719  3793 net.cpp:100] Creating Layer conv3_2
I0603 08:36:40.107722  3793 net.cpp:434] conv3_2 <- conv3_1
I0603 08:36:40.107725  3793 net.cpp:408] conv3_2 -> conv3_2
I0603 08:36:40.110707  3793 net.cpp:150] Setting up conv3_2
I0603 08:36:40.110715  3793 net.cpp:157] Top shape: 10 256 56 56 (8028160)
I0603 08:36:40.110718  3793 net.cpp:165] Memory required for data: 933273632
I0603 08:36:40.110724  3793 layer_factory.hpp:77] Creating layer quant_relu3_2
I0603 08:36:40.110731  3793 net.cpp:100] Creating Layer quant_relu3_2
I0603 08:36:40.110734  3793 net.cpp:434] quant_relu3_2 <- conv3_2
I0603 08:36:40.110738  3793 net.cpp:395] quant_relu3_2 -> conv3_2 (in-place)
I0603 08:36:40.111763  3793 net.cpp:150] Setting up quant_relu3_2
I0603 08:36:40.111771  3793 net.cpp:157] Top shape: 10 256 56 56 (8028160)
I0603 08:36:40.111773  3793 net.cpp:165] Memory required for data: 965386272
I0603 08:36:40.111778  3793 layer_factory.hpp:77] Creating layer conv3_3
I0603 08:36:40.111783  3793 net.cpp:100] Creating Layer conv3_3
I0603 08:36:40.111788  3793 net.cpp:434] conv3_3 <- conv3_2
I0603 08:36:40.111793  3793 net.cpp:408] conv3_3 -> conv3_3
I0603 08:36:40.114568  3793 net.cpp:150] Setting up conv3_3
I0603 08:36:40.114578  3793 net.cpp:157] Top shape: 10 256 56 56 (8028160)
I0603 08:36:40.114580  3793 net.cpp:165] Memory required for data: 997498912
I0603 08:36:40.114584  3793 layer_factory.hpp:77] Creating layer quant_relu3_3
I0603 08:36:40.114588  3793 net.cpp:100] Creating Layer quant_relu3_3
I0603 08:36:40.114593  3793 net.cpp:434] quant_relu3_3 <- conv3_3
I0603 08:36:40.114596  3793 net.cpp:395] quant_relu3_3 -> conv3_3 (in-place)
I0603 08:36:40.115629  3793 net.cpp:150] Setting up quant_relu3_3
I0603 08:36:40.115645  3793 net.cpp:157] Top shape: 10 256 56 56 (8028160)
I0603 08:36:40.115648  3793 net.cpp:165] Memory required for data: 1029611552
I0603 08:36:40.115653  3793 layer_factory.hpp:77] Creating layer pool3
I0603 08:36:40.115658  3793 net.cpp:100] Creating Layer pool3
I0603 08:36:40.115661  3793 net.cpp:434] pool3 <- conv3_3
I0603 08:36:40.115665  3793 net.cpp:408] pool3 -> pool3
I0603 08:36:40.115729  3793 net.cpp:150] Setting up pool3
I0603 08:36:40.115733  3793 net.cpp:157] Top shape: 10 256 28 28 (2007040)
I0603 08:36:40.115736  3793 net.cpp:165] Memory required for data: 1037639712
I0603 08:36:40.115738  3793 layer_factory.hpp:77] Creating layer conv4_1
I0603 08:36:40.115759  3793 net.cpp:100] Creating Layer conv4_1
I0603 08:36:40.115762  3793 net.cpp:434] conv4_1 <- pool3
I0603 08:36:40.115778  3793 net.cpp:408] conv4_1 -> conv4_1
I0603 08:36:40.121001  3793 net.cpp:150] Setting up conv4_1
I0603 08:36:40.121012  3793 net.cpp:157] Top shape: 10 512 28 28 (4014080)
I0603 08:36:40.121014  3793 net.cpp:165] Memory required for data: 1053696032
I0603 08:36:40.121018  3793 layer_factory.hpp:77] Creating layer quant_relu4_1
I0603 08:36:40.121023  3793 net.cpp:100] Creating Layer quant_relu4_1
I0603 08:36:40.121027  3793 net.cpp:434] quant_relu4_1 <- conv4_1
I0603 08:36:40.121031  3793 net.cpp:395] quant_relu4_1 -> conv4_1 (in-place)
I0603 08:36:40.121737  3793 net.cpp:150] Setting up quant_relu4_1
I0603 08:36:40.121744  3793 net.cpp:157] Top shape: 10 512 28 28 (4014080)
I0603 08:36:40.121747  3793 net.cpp:165] Memory required for data: 1069752352
I0603 08:36:40.121752  3793 layer_factory.hpp:77] Creating layer conv4_2
I0603 08:36:40.121757  3793 net.cpp:100] Creating Layer conv4_2
I0603 08:36:40.121759  3793 net.cpp:434] conv4_2 <- conv4_1
I0603 08:36:40.121763  3793 net.cpp:408] conv4_2 -> conv4_2
I0603 08:36:40.132344  3793 net.cpp:150] Setting up conv4_2
I0603 08:36:40.132359  3793 net.cpp:157] Top shape: 10 512 28 28 (4014080)
I0603 08:36:40.132361  3793 net.cpp:165] Memory required for data: 1085808672
I0603 08:36:40.132367  3793 layer_factory.hpp:77] Creating layer quant_relu4_2
I0603 08:36:40.132373  3793 net.cpp:100] Creating Layer quant_relu4_2
I0603 08:36:40.132376  3793 net.cpp:434] quant_relu4_2 <- conv4_2
I0603 08:36:40.132380  3793 net.cpp:395] quant_relu4_2 -> conv4_2 (in-place)
I0603 08:36:40.133148  3793 net.cpp:150] Setting up quant_relu4_2
I0603 08:36:40.133157  3793 net.cpp:157] Top shape: 10 512 28 28 (4014080)
I0603 08:36:40.133159  3793 net.cpp:165] Memory required for data: 1101864992
I0603 08:36:40.133163  3793 layer_factory.hpp:77] Creating layer conv4_3
I0603 08:36:40.133169  3793 net.cpp:100] Creating Layer conv4_3
I0603 08:36:40.133172  3793 net.cpp:434] conv4_3 <- conv4_2
I0603 08:36:40.133177  3793 net.cpp:408] conv4_3 -> conv4_3
I0603 08:36:40.143767  3793 net.cpp:150] Setting up conv4_3
I0603 08:36:40.143781  3793 net.cpp:157] Top shape: 10 512 28 28 (4014080)
I0603 08:36:40.143784  3793 net.cpp:165] Memory required for data: 1117921312
I0603 08:36:40.143790  3793 layer_factory.hpp:77] Creating layer quant_relu4_3
I0603 08:36:40.143796  3793 net.cpp:100] Creating Layer quant_relu4_3
I0603 08:36:40.143800  3793 net.cpp:434] quant_relu4_3 <- conv4_3
I0603 08:36:40.143803  3793 net.cpp:395] quant_relu4_3 -> conv4_3 (in-place)
I0603 08:36:40.144606  3793 net.cpp:150] Setting up quant_relu4_3
I0603 08:36:40.144614  3793 net.cpp:157] Top shape: 10 512 28 28 (4014080)
I0603 08:36:40.144618  3793 net.cpp:165] Memory required for data: 1133977632
I0603 08:36:40.144620  3793 layer_factory.hpp:77] Creating layer pool4
I0603 08:36:40.144626  3793 net.cpp:100] Creating Layer pool4
I0603 08:36:40.144629  3793 net.cpp:434] pool4 <- conv4_3
I0603 08:36:40.144634  3793 net.cpp:408] pool4 -> pool4
I0603 08:36:40.144711  3793 net.cpp:150] Setting up pool4
I0603 08:36:40.144716  3793 net.cpp:157] Top shape: 10 512 14 14 (1003520)
I0603 08:36:40.144717  3793 net.cpp:165] Memory required for data: 1137991712
I0603 08:36:40.144721  3793 layer_factory.hpp:77] Creating layer conv5_1
I0603 08:36:40.144764  3793 net.cpp:100] Creating Layer conv5_1
I0603 08:36:40.144767  3793 net.cpp:434] conv5_1 <- pool4
I0603 08:36:40.144771  3793 net.cpp:408] conv5_1 -> conv5_1
I0603 08:36:40.154814  3793 net.cpp:150] Setting up conv5_1
I0603 08:36:40.154824  3793 net.cpp:157] Top shape: 10 512 14 14 (1003520)
I0603 08:36:40.154827  3793 net.cpp:165] Memory required for data: 1142005792
I0603 08:36:40.154831  3793 layer_factory.hpp:77] Creating layer quant_relu5_1
I0603 08:36:40.154837  3793 net.cpp:100] Creating Layer quant_relu5_1
I0603 08:36:40.154839  3793 net.cpp:434] quant_relu5_1 <- conv5_1
I0603 08:36:40.154844  3793 net.cpp:395] quant_relu5_1 -> conv5_1 (in-place)
I0603 08:36:40.154981  3793 net.cpp:150] Setting up quant_relu5_1
I0603 08:36:40.154987  3793 net.cpp:157] Top shape: 10 512 14 14 (1003520)
I0603 08:36:40.154989  3793 net.cpp:165] Memory required for data: 1146019872
I0603 08:36:40.154996  3793 layer_factory.hpp:77] Creating layer conv5_2
I0603 08:36:40.155004  3793 net.cpp:100] Creating Layer conv5_2
I0603 08:36:40.155006  3793 net.cpp:434] conv5_2 <- conv5_1
I0603 08:36:40.155012  3793 net.cpp:408] conv5_2 -> conv5_2
I0603 08:36:40.165503  3793 net.cpp:150] Setting up conv5_2
I0603 08:36:40.165515  3793 net.cpp:157] Top shape: 10 512 14 14 (1003520)
I0603 08:36:40.165518  3793 net.cpp:165] Memory required for data: 1150033952
I0603 08:36:40.165524  3793 layer_factory.hpp:77] Creating layer quant_relu5_2
I0603 08:36:40.165529  3793 net.cpp:100] Creating Layer quant_relu5_2
I0603 08:36:40.165532  3793 net.cpp:434] quant_relu5_2 <- conv5_2
I0603 08:36:40.165537  3793 net.cpp:395] quant_relu5_2 -> conv5_2 (in-place)
I0603 08:36:40.165648  3793 net.cpp:150] Setting up quant_relu5_2
I0603 08:36:40.165653  3793 net.cpp:157] Top shape: 10 512 14 14 (1003520)
I0603 08:36:40.165655  3793 net.cpp:165] Memory required for data: 1154048032
I0603 08:36:40.165658  3793 layer_factory.hpp:77] Creating layer conv5_3
I0603 08:36:40.165664  3793 net.cpp:100] Creating Layer conv5_3
I0603 08:36:40.165668  3793 net.cpp:434] conv5_3 <- conv5_2
I0603 08:36:40.165671  3793 net.cpp:408] conv5_3 -> conv5_3
I0603 08:36:40.176419  3793 net.cpp:150] Setting up conv5_3
I0603 08:36:40.176432  3793 net.cpp:157] Top shape: 10 512 14 14 (1003520)
I0603 08:36:40.176434  3793 net.cpp:165] Memory required for data: 1158062112
I0603 08:36:40.176440  3793 layer_factory.hpp:77] Creating layer quant_relu5_3
I0603 08:36:40.176446  3793 net.cpp:100] Creating Layer quant_relu5_3
I0603 08:36:40.176450  3793 net.cpp:434] quant_relu5_3 <- conv5_3
I0603 08:36:40.176455  3793 net.cpp:395] quant_relu5_3 -> conv5_3 (in-place)
I0603 08:36:40.176599  3793 net.cpp:150] Setting up quant_relu5_3
I0603 08:36:40.176604  3793 net.cpp:157] Top shape: 10 512 14 14 (1003520)
I0603 08:36:40.176606  3793 net.cpp:165] Memory required for data: 1162076192
I0603 08:36:40.176609  3793 layer_factory.hpp:77] Creating layer pool5
I0603 08:36:40.176617  3793 net.cpp:100] Creating Layer pool5
I0603 08:36:40.176621  3793 net.cpp:434] pool5 <- conv5_3
I0603 08:36:40.176625  3793 net.cpp:408] pool5 -> pool5
I0603 08:36:40.176687  3793 net.cpp:150] Setting up pool5
I0603 08:36:40.176690  3793 net.cpp:157] Top shape: 10 512 7 7 (250880)
I0603 08:36:40.176693  3793 net.cpp:165] Memory required for data: 1163079712
I0603 08:36:40.176695  3793 layer_factory.hpp:77] Creating layer ip6
I0603 08:36:40.176720  3793 net.cpp:100] Creating Layer ip6
I0603 08:36:40.176738  3793 net.cpp:434] ip6 <- pool5
I0603 08:36:40.176743  3793 net.cpp:408] ip6 -> ip6
I0603 08:36:40.188493  3793 net.cpp:150] Setting up ip6
I0603 08:36:40.188508  3793 net.cpp:157] Top shape: 10 512 7 7 (250880)
I0603 08:36:40.188510  3793 net.cpp:165] Memory required for data: 1164083232
I0603 08:36:40.188516  3793 layer_factory.hpp:77] Creating layer relu6
I0603 08:36:40.188522  3793 net.cpp:100] Creating Layer relu6
I0603 08:36:40.188525  3793 net.cpp:434] relu6 <- ip6
I0603 08:36:40.188529  3793 net.cpp:395] relu6 -> ip6 (in-place)
I0603 08:36:40.188886  3793 net.cpp:150] Setting up relu6
I0603 08:36:40.188895  3793 net.cpp:157] Top shape: 10 512 7 7 (250880)
I0603 08:36:40.188907  3793 net.cpp:165] Memory required for data: 1165086752
I0603 08:36:40.188910  3793 layer_factory.hpp:77] Creating layer ip7
I0603 08:36:40.188920  3793 net.cpp:100] Creating Layer ip7
I0603 08:36:40.188922  3793 net.cpp:434] ip7 <- ip6
I0603 08:36:40.188926  3793 net.cpp:408] ip7 -> ip7
I0603 08:36:40.193141  3793 net.cpp:150] Setting up ip7
I0603 08:36:40.193152  3793 net.cpp:157] Top shape: 10 512 7 7 (250880)
I0603 08:36:40.193156  3793 net.cpp:165] Memory required for data: 1166090272
I0603 08:36:40.193159  3793 layer_factory.hpp:77] Creating layer relu7
I0603 08:36:40.193163  3793 net.cpp:100] Creating Layer relu7
I0603 08:36:40.193168  3793 net.cpp:434] relu7 <- ip7
I0603 08:36:40.193171  3793 net.cpp:395] relu7 -> ip7 (in-place)
I0603 08:36:40.193526  3793 net.cpp:150] Setting up relu7
I0603 08:36:40.193533  3793 net.cpp:157] Top shape: 10 512 7 7 (250880)
I0603 08:36:40.193536  3793 net.cpp:165] Memory required for data: 1167093792
I0603 08:36:40.193538  3793 layer_factory.hpp:77] Creating layer ip7_relu7_0_split
I0603 08:36:40.193543  3793 net.cpp:100] Creating Layer ip7_relu7_0_split
I0603 08:36:40.193545  3793 net.cpp:434] ip7_relu7_0_split <- ip7
I0603 08:36:40.193550  3793 net.cpp:408] ip7_relu7_0_split -> ip7_relu7_0_split_0
I0603 08:36:40.193555  3793 net.cpp:408] ip7_relu7_0_split -> ip7_relu7_0_split_1
I0603 08:36:40.193562  3793 net.cpp:408] ip7_relu7_0_split -> ip7_relu7_0_split_2
I0603 08:36:40.193608  3793 net.cpp:150] Setting up ip7_relu7_0_split
I0603 08:36:40.193614  3793 net.cpp:157] Top shape: 10 512 7 7 (250880)
I0603 08:36:40.193616  3793 net.cpp:157] Top shape: 10 512 7 7 (250880)
I0603 08:36:40.193619  3793 net.cpp:157] Top shape: 10 512 7 7 (250880)
I0603 08:36:40.193621  3793 net.cpp:165] Memory required for data: 1170104352
I0603 08:36:40.193624  3793 layer_factory.hpp:77] Creating layer ip7_mbox_loc
I0603 08:36:40.193631  3793 net.cpp:100] Creating Layer ip7_mbox_loc
I0603 08:36:40.193634  3793 net.cpp:434] ip7_mbox_loc <- ip7_relu7_0_split_0
I0603 08:36:40.193639  3793 net.cpp:408] ip7_mbox_loc -> ip7_mbox_loc
I0603 08:36:40.195888  3793 net.cpp:150] Setting up ip7_mbox_loc
I0603 08:36:40.195897  3793 net.cpp:157] Top shape: 10 24 7 7 (11760)
I0603 08:36:40.195899  3793 net.cpp:165] Memory required for data: 1170151392
I0603 08:36:40.195904  3793 layer_factory.hpp:77] Creating layer ip7_mbox_loc_perm
I0603 08:36:40.195909  3793 net.cpp:100] Creating Layer ip7_mbox_loc_perm
I0603 08:36:40.195912  3793 net.cpp:434] ip7_mbox_loc_perm <- ip7_mbox_loc
I0603 08:36:40.195917  3793 net.cpp:408] ip7_mbox_loc_perm -> ip7_mbox_loc_perm
I0603 08:36:40.196015  3793 net.cpp:150] Setting up ip7_mbox_loc_perm
I0603 08:36:40.196022  3793 net.cpp:157] Top shape: 10 7 7 24 (11760)
I0603 08:36:40.196023  3793 net.cpp:165] Memory required for data: 1170198432
I0603 08:36:40.196025  3793 layer_factory.hpp:77] Creating layer ip7_mbox_loc_flat
I0603 08:36:40.196029  3793 net.cpp:100] Creating Layer ip7_mbox_loc_flat
I0603 08:36:40.196033  3793 net.cpp:434] ip7_mbox_loc_flat <- ip7_mbox_loc_perm
I0603 08:36:40.196038  3793 net.cpp:408] ip7_mbox_loc_flat -> ip7_mbox_loc_flat
I0603 08:36:40.196058  3793 net.cpp:150] Setting up ip7_mbox_loc_flat
I0603 08:36:40.196063  3793 net.cpp:157] Top shape: 10 1176 (11760)
I0603 08:36:40.196065  3793 net.cpp:165] Memory required for data: 1170245472
I0603 08:36:40.196067  3793 layer_factory.hpp:77] Creating layer ip7_mbox_conf
I0603 08:36:40.196074  3793 net.cpp:100] Creating Layer ip7_mbox_conf
I0603 08:36:40.196076  3793 net.cpp:434] ip7_mbox_conf <- ip7_relu7_0_split_1
I0603 08:36:40.196082  3793 net.cpp:408] ip7_mbox_conf -> ip7_mbox_conf
I0603 08:36:40.199120  3793 net.cpp:150] Setting up ip7_mbox_conf
I0603 08:36:40.199129  3793 net.cpp:157] Top shape: 10 36 7 7 (17640)
I0603 08:36:40.199131  3793 net.cpp:165] Memory required for data: 1170316032
I0603 08:36:40.199136  3793 layer_factory.hpp:77] Creating layer ip7_mbox_conf_perm
I0603 08:36:40.199142  3793 net.cpp:100] Creating Layer ip7_mbox_conf_perm
I0603 08:36:40.199153  3793 net.cpp:434] ip7_mbox_conf_perm <- ip7_mbox_conf
I0603 08:36:40.199157  3793 net.cpp:408] ip7_mbox_conf_perm -> ip7_mbox_conf_perm
I0603 08:36:40.199260  3793 net.cpp:150] Setting up ip7_mbox_conf_perm
I0603 08:36:40.199265  3793 net.cpp:157] Top shape: 10 7 7 36 (17640)
I0603 08:36:40.199268  3793 net.cpp:165] Memory required for data: 1170386592
I0603 08:36:40.199270  3793 layer_factory.hpp:77] Creating layer ip7_mbox_conf_flat
I0603 08:36:40.199275  3793 net.cpp:100] Creating Layer ip7_mbox_conf_flat
I0603 08:36:40.199278  3793 net.cpp:434] ip7_mbox_conf_flat <- ip7_mbox_conf_perm
I0603 08:36:40.199282  3793 net.cpp:408] ip7_mbox_conf_flat -> ip7_mbox_conf_flat
I0603 08:36:40.199306  3793 net.cpp:150] Setting up ip7_mbox_conf_flat
I0603 08:36:40.199311  3793 net.cpp:157] Top shape: 10 1764 (17640)
I0603 08:36:40.199313  3793 net.cpp:165] Memory required for data: 1170457152
I0603 08:36:40.199316  3793 layer_factory.hpp:77] Creating layer ip7_mbox_priorbox
I0603 08:36:40.199319  3793 net.cpp:100] Creating Layer ip7_mbox_priorbox
I0603 08:36:40.199322  3793 net.cpp:434] ip7_mbox_priorbox <- ip7_relu7_0_split_2
I0603 08:36:40.199326  3793 net.cpp:434] ip7_mbox_priorbox <- data_data_0_split_1
I0603 08:36:40.199331  3793 net.cpp:408] ip7_mbox_priorbox -> ip7_mbox_priorbox
I0603 08:36:40.199352  3793 net.cpp:150] Setting up ip7_mbox_priorbox
I0603 08:36:40.199357  3793 net.cpp:157] Top shape: 1 2 1176 (2352)
I0603 08:36:40.199358  3793 net.cpp:165] Memory required for data: 1170466560
I0603 08:36:40.199360  3793 layer_factory.hpp:77] Creating layer mbox_loc
I0603 08:36:40.199364  3793 net.cpp:100] Creating Layer mbox_loc
I0603 08:36:40.199368  3793 net.cpp:434] mbox_loc <- ip7_mbox_loc_flat
I0603 08:36:40.199373  3793 net.cpp:408] mbox_loc -> mbox_loc
I0603 08:36:40.199393  3793 net.cpp:150] Setting up mbox_loc
I0603 08:36:40.199396  3793 net.cpp:157] Top shape: 10 1176 (11760)
I0603 08:36:40.199399  3793 net.cpp:165] Memory required for data: 1170513600
I0603 08:36:40.199401  3793 layer_factory.hpp:77] Creating layer mbox_conf
I0603 08:36:40.199404  3793 net.cpp:100] Creating Layer mbox_conf
I0603 08:36:40.199406  3793 net.cpp:434] mbox_conf <- ip7_mbox_conf_flat
I0603 08:36:40.199409  3793 net.cpp:408] mbox_conf -> mbox_conf
I0603 08:36:40.199429  3793 net.cpp:150] Setting up mbox_conf
I0603 08:36:40.199432  3793 net.cpp:157] Top shape: 10 1764 (17640)
I0603 08:36:40.199434  3793 net.cpp:165] Memory required for data: 1170584160
I0603 08:36:40.199436  3793 layer_factory.hpp:77] Creating layer mbox_priorbox
I0603 08:36:40.199440  3793 net.cpp:100] Creating Layer mbox_priorbox
I0603 08:36:40.199441  3793 net.cpp:434] mbox_priorbox <- ip7_mbox_priorbox
I0603 08:36:40.199445  3793 net.cpp:408] mbox_priorbox -> mbox_priorbox
I0603 08:36:40.199462  3793 net.cpp:150] Setting up mbox_priorbox
I0603 08:36:40.199466  3793 net.cpp:157] Top shape: 1 2 1176 (2352)
I0603 08:36:40.199468  3793 net.cpp:165] Memory required for data: 1170593568
I0603 08:36:40.199470  3793 layer_factory.hpp:77] Creating layer mbox_conf_reshape
I0603 08:36:40.199476  3793 net.cpp:100] Creating Layer mbox_conf_reshape
I0603 08:36:40.199477  3793 net.cpp:434] mbox_conf_reshape <- mbox_conf
I0603 08:36:40.199481  3793 net.cpp:408] mbox_conf_reshape -> mbox_conf_reshape
I0603 08:36:40.199506  3793 net.cpp:150] Setting up mbox_conf_reshape
I0603 08:36:40.199509  3793 net.cpp:157] Top shape: 10 294 6 (17640)
I0603 08:36:40.199512  3793 net.cpp:165] Memory required for data: 1170664128
I0603 08:36:40.199514  3793 layer_factory.hpp:77] Creating layer mbox_conf_softmax
I0603 08:36:40.199517  3793 net.cpp:100] Creating Layer mbox_conf_softmax
I0603 08:36:40.199522  3793 net.cpp:434] mbox_conf_softmax <- mbox_conf_reshape
I0603 08:36:40.199527  3793 net.cpp:408] mbox_conf_softmax -> mbox_conf_softmax
I0603 08:36:40.201961  3793 net.cpp:150] Setting up mbox_conf_softmax
I0603 08:36:40.201972  3793 net.cpp:157] Top shape: 10 294 6 (17640)
I0603 08:36:40.201974  3793 net.cpp:165] Memory required for data: 1170734688
I0603 08:36:40.201984  3793 layer_factory.hpp:77] Creating layer mbox_conf_flatten
I0603 08:36:40.201988  3793 net.cpp:100] Creating Layer mbox_conf_flatten
I0603 08:36:40.201992  3793 net.cpp:434] mbox_conf_flatten <- mbox_conf_softmax
I0603 08:36:40.201997  3793 net.cpp:408] mbox_conf_flatten -> mbox_conf_flatten
I0603 08:36:40.202018  3793 net.cpp:150] Setting up mbox_conf_flatten
I0603 08:36:40.202023  3793 net.cpp:157] Top shape: 10 1764 (17640)
I0603 08:36:40.202024  3793 net.cpp:165] Memory required for data: 1170805248
I0603 08:36:40.202028  3793 layer_factory.hpp:77] Creating layer detection_out
I0603 08:36:40.202039  3793 net.cpp:100] Creating Layer detection_out
I0603 08:36:40.202042  3793 net.cpp:434] detection_out <- mbox_loc
I0603 08:36:40.202045  3793 net.cpp:434] detection_out <- mbox_conf_flatten
I0603 08:36:40.202049  3793 net.cpp:434] detection_out <- mbox_priorbox
I0603 08:36:40.202052  3793 net.cpp:408] detection_out -> detection_out
11111
I0603 08:36:40.202112  3793 net.cpp:150] Setting up detection_out
I0603 08:36:40.202117  3793 net.cpp:157] Top shape: 1 1 1 7 (7)
I0603 08:36:40.202119  3793 net.cpp:165] Memory required for data: 1170805276
I0603 08:36:40.202121  3793 layer_factory.hpp:77] Creating layer detection_eval
I0603 08:36:40.202126  3793 net.cpp:100] Creating Layer detection_eval
I0603 08:36:40.202128  3793 net.cpp:434] detection_eval <- detection_out
I0603 08:36:40.202131  3793 net.cpp:434] detection_eval <- label
I0603 08:36:40.202136  3793 net.cpp:408] detection_eval -> detection_eval
I0603 08:36:40.210940  3793 net.cpp:150] Setting up detection_eval
I0603 08:36:40.210948  3793 net.cpp:157] Top shape: 1 1 6 5 (30)
I0603 08:36:40.210952  3793 net.cpp:165] Memory required for data: 1170805396
I0603 08:36:40.210954  3793 net.cpp:228] detection_eval does not need backward computation.
I0603 08:36:40.210958  3793 net.cpp:228] detection_out does not need backward computation.
I0603 08:36:40.210959  3793 net.cpp:228] mbox_conf_flatten does not need backward computation.
I0603 08:36:40.210963  3793 net.cpp:228] mbox_conf_softmax does not need backward computation.
…
