…
        max_scale: 1
        min_aspect_ratio: 0.5
        max_aspect_ratio: 2
      }
      sample_constraint {
        min_jaccard_overlap: 0.9
      }
      max_sample: 1
      max_trials: 50
    }
    batch_sampler {
      sampler {
        min_scale: 0.3
        max_scale: 1
        min_aspect_ratio: 0.5
        max_aspect_ratio: 2
      }
      sample_constraint {
        max_jaccard_overlap: 1
      }
      max_sample: 1
      max_trials: 50
    }
    label_map_file: "/home/zhangwanchun/data/VOCdevkit/VOC0712/lmdb/labelmap_voc.prototxt"
  }
}
layer {
  name: "conv1_1"
  type: "QuantConvolution"
  bottom: "data"
  top: "conv1_1"
  convolution_param {
    num_output: 64
    pad: 1
    kernel_size: 3
    weight_filler {
      type: "xavier"
    }
    bias_filler {
      type: "constant"
      value: 0
    }
  }
  quant_convolution_param {
    coef_precision: THREE_BITS
    bw_params: 8
    shift_enable: false
  }
}
layer {
  name: "quant_relu1_1"
  type: "QuantReLU"
  bottom: "conv1_1"
  top: "conv1_1"
  param {
    lr_mult: 5
  }
  quant_relu_param {
    filler {
      type: "constant"
      value: 31
    }
    channel_shared: true
    act_bits: 5
    quant_enable: false
  }
}
layer {
  name: "conv1_2"
  type: "QuantConvolution"
  bottom: "conv1_1"
  top: "conv1_2"
  convolution_param {
    num_output: 64
    pad: 1
    kernel_size: 3
    weight_filler {
      type: "xavier"
    }
    bias_filler {
      type: "constant"
      value: 0
    }
  }
  quant_convolution_param {
    coef_precision: THREE_BITS
    bw_params: 8
    shift_enable: false
  }
}
layer {
  name: "quant_relu1_2"
  type: "QuantReLU"
  bottom: "conv1_2"
  top: "conv1_2"
  param {
    lr_mult: 5
  }
  quant_relu_param {
    filler {
      type: "constant"
      value: 31
    }
    channel_shared: true
    act_bits: 5
    quant_enable: false
  }
}
layer {
  name: "pool1"
  type: "Pooling"
  bottom: "conv1_2"
  top: "pool1"
  pooling_param {
    pool: MAX
    kernel_size: 2
    stride: 2
  }
}
layer {
  name: "conv2_1"
  type: "QuantConvolution"
  bottom: "pool1"
  top: "conv2_1"
  convolution_param {
    num_output: 128
    pad: 1
    kernel_size: 3
    weight_filler {
      type: "xavier"
    }
    bias_filler {
      type: "constant"
      value: 0
    }
  }
  quant_convolution_param {
    coef_precision: THREE_BITS
    bw_params: 8
    shift_enable: false
  }
}
layer {
  name: "quant_relu2_1"
  type: "QuantReLU"
  bottom: "conv2_1"
  top: "conv2_1"
  param {
    lr_mult: 5
  }
  quant_relu_param {
    filler {
      type: "constant"
      value: 65.934
    }
    channel_shared: true
    act_bits: 5
    quant_enable: false
  }
}
layer {
  name: "conv2_2"
  type: "QuantConvolution"
  bottom: "conv2_1"
  top: "conv2_2"
  convolution_param {
    num_output: 128
    pad: 1
    kernel_size: 3
    weight_filler {
      type: "xavier"
    }
    bias_filler {
      type: "constant"
      value: 0
    }
  }
  quant_convolution_param {
    coef_precision: THREE_BITS
    bw_params: 8
    shift_enable: false
  }
}
layer {
  name: "quant_relu2_2"
  type: "QuantReLU"
  bottom: "conv2_2"
  top: "conv2_2"
  param {
    lr_mult: 5
  }
  quant_relu_param {
    filler {
      type: "constant"
      value: 107.992
    }
    channel_shared: true
    act_bits: 5
    quant_enable: false
  }
}
layer {
  name: "pool2"
  type: "Pooling"
  bottom: "conv2_2"
  top: "pool2"
  pooling_param {
    pool: MAX
    kernel_size: 2
    stride: 2
  }
}
layer {
  name: "conv3_1"
  type: "QuantConvolution"
  bottom: "pool2"
  top: "conv3_1"
  convolution_param {
    num_output: 256
    pad: 1
    kernel_size: 3
    weight_filler {
      type: "xavier"
    }
    bias_filler {
      type: "constant"
      value: 0
    }
  }
  quant_convolution_param {
    coef_precision: THREE_BITS
    bw_params: 8
    shift_enable: false
  }
}
layer {
  name: "quant_relu3_1"
  type: "QuantReLU"
  bottom: "conv3_1"
  top: "conv3_1"
  param {
    lr_mult: 5
  }
  quant_relu_param {
    filler {
      type: "constant"
      value: 115.32
    }
    channel_shared: true
    act_bits: 5
    quant_enable: false
  }
}
layer {
  name: "conv3_2"
  type: "QuantConvolution"
  bottom: "conv3_1"
  top: "conv3_2"
  convolution_param {
    num_output: 256
    pad: 1
    kernel_size: 3
    weight_filler {
      type: "xavier"
    }
    bias_filler {
      type: "constant"
      value: 0
    }
  }
  quant_convolution_param {
    coef_precision: THREE_BITS
    bw_params: 8
    shift_enable: false
  }
}
layer {
  name: "quant_relu3_2"
  type: "QuantReLU"
  bottom: "conv3_2"
  top: "conv3_2"
  param {
    lr_mult: 0
  }
  quant_relu_param {
    filler {
      type: "constant"
      value: 31
    }
    channel_shared: true
    act_bits: 5
    quant_enable: false
  }
}
layer {
  name: "conv3_3"
  type: "QuantConvolution"
  bottom: "conv3_2"
  top: "conv3_3"
  convolution_param {
    num_output: 256
    pad: 1
    kernel_size: 3
    weight_filler {
      type: "xavier"
    }
    bias_filler {
      type: "constant"
      value: 0
    }
  }
  quant_convolution_param {
    coef_precision: THREE_BITS
    bw_params: 8
    shift_enable: false
  }
}
layer {
  name: "quant_relu3_3"
  type: "QuantReLU"
  bottom: "conv3_3"
  top: "conv3_3"
  param {
    lr_mult: 0
  }
  quant_relu_param {
    filler {
      type: "constant"
      value: 31
    }
    channel_shared: true
    act_bits: 5
    quant_enable: false
  }
}
layer {
  name: "pool3"
  type: "Pooling"
  bottom: "conv3_3"
  top: "pool3"
  pooling_param {
    pool: MAX
    kernel_size: 2
    stride: 2
  }
}
layer {
  name: "conv4_1"
  type: "QuantConvolution"
  bottom: "pool3"
  top: "conv4_1"
  convolution_param {
    num_output: 512
    pad: 1
    kernel_size: 3
    weight_filler {
      type: "xavier"
    }
    bias_filler {
      type: "constant"
      value: 0
    }
  }
  quant_convolution_param {
    coef_precision: ONE_BIT
    bw_params: 8
    shift_enable: false
  }
}
layer {
  name: "quant_relu4_1"
  type: "QuantReLU"
  bottom: "conv4_1"
  top: "conv4_1"
  param {
    lr_mult: 0
  }
  quant_relu_param {
    filler {
      type: "constant"
      value: 31
    }
    channel_shared: true
    act_bits: 5
    quant_enable: false
  }
}
layer {
  name: "conv4_2"
  type: "QuantConvolution"
  bottom: "conv4_1"
  top: "conv4_2"
  convolution_param {
    num_output: 512
    pad: 1
    kernel_size: 3
    weight_filler {
      type: "xavier"
    }
    bias_filler {
      type: "constant"
      value: 0
    }
  }
  quant_convolution_param {
    coef_precision: ONE_BIT
    bw_params: 8
    shift_enable: false
  }
}
layer {
  name: "quant_relu4_2"
  type: "QuantReLU"
  bottom: "conv4_2"
  top: "conv4_2"
  param {
    lr_mult: 0
  }
  quant_relu_param {
    filler {
      type: "constant"
      value: 31
    }
    channel_shared: true
    act_bits: 5
    quant_enable: false
  }
}
layer {
  name: "conv4_3"
  type: "QuantConvolution"
  bottom: "conv4_2"
  top: "conv4_3"
  convolution_param {
    num_output: 512
    pad: 1
    kernel_size: 3
    weight_filler {
      type: "xavier"
    }
    bias_filler {
      type: "constant"
      value: 0
    }
  }
  quant_convolution_param {
    coef_precision: ONE_BIT
    bw_params: 8
    shift_enable: false
  }
}
layer {
  name: "quant_relu4_3"
  type: "QuantReLU"
  bottom: "conv4_3"
  top: "conv4_3"
  param {
    lr_mult: 0
  }
  quant_relu_param {
    filler {
      type: "constant"
      value: 31
    }
    channel_shared: true
    act_bits: 5
    quant_enable: false
  }
}
layer {
  name: "pool4"
  type: "Pooling"
  bottom: "conv4_3"
  top: "pool4"
  pooling_param {
    pool: MAX
    kernel_size: 2
    stride: 2
  }
}
layer {
  name: "conv5_1"
  type: "QuantConvolution"
  bottom: "pool4"
  top: "conv5_1"
  convolution_param {
    num_output: 512
    pad: 1
    kernel_size: 3
    weight_filler {
      type: "xavier"
    }
    bias_filler {
      type: "constant"
      value: 0
    }
  }
  quant_convolution_param {
    coef_precision: ONE_BIT
    bw_params: 8
    shift_enable: false
  }
}
layer {
  name: "quant_relu5_1"
  type: "QuantReLU"
  bottom: "conv5_1"
  top: "conv5_1"
  param {
    lr_mult: 0
  }
  quant_relu_param {
    filler {
      type: "constant"
      value: 31
    }
    channel_shared: true
    act_bits: 5
    quant_enable: false
  }
}
layer {
  name: "conv5_2"
  type: "QuantConvolution"
  bottom: "conv5_1"
  top: "conv5_2"
  param {
    lr_mult: 1
    decay_mult: 0
  }
  param {
    lr_mult: 1
    decay_mult: 1
  }
  convolution_param {
    num_output: 512
    pad: 1
    kernel_size: 3
    weight_filler {
      type: "xavier"
    }
    bias_filler {
      type: "constant"
      value: 0
    }
  }
  quant_convolution_param {
    coef_precision: ONE_BIT
    bw_params: 8
    shift_enable: false
  }
}
layer {
  name: "quant_relu5_2"
  type: "QuantReLU"
  bottom: "conv5_2"
  top: "conv5_2"
  param {
    lr_mult: 0
  }
  quant_relu_param {
    filler {
      type: "constant"
      value: 31
    }
    channel_shared: true
    act_bits: 5
    quant_enable: false
  }
}
layer {
  name: "conv5_3"
  type: "QuantConvolution"
  bottom: "conv5_2"
  top: "conv5_3"
  param {
    lr_mult: 1
    decay_mult: 0
  }
  param {
    lr_mult: 1
    decay_mult: 200
  }
  convolution_param {
    num_output: 512
    pad: 1
    kernel_size: 3
    weight_filler {
      type: "xavier"
    }
    bias_filler {
      type: "constant"
      value: 0
    }
  }
  quant_convolution_param {
    coef_precision: ONE_BIT
    bw_params: 8
    shift_enable: false
  }
}
layer {
  name: "quant_relu5_3"
  type: "QuantReLU"
  bottom: "conv5_3"
  top: "conv5_3"
  param {
    lr_mult: 5
  }
  quant_relu_param {
    filler {
      type: "constant"
      value: 29.225
    }
    channel_shared: true
    act_bits: 5
    quant_enable: false
  }
}
layer {
  name: "pool5"
  type: "Pooling"
  bottom: "conv5_3"
  top: "pool5"
  pooling_param {
    pool: MAX
    kernel_size: 2
    stride: 2
  }
}
layer {
  name: "ip6"
  type: "Convolution"
  bottom: "pool5"
  top: "ip6"
  param {
    lr_mult: 1
    decay_mult: 1
  }
  param {
    lr_mult: 2
    decay_mult: 0
  }
  convolution_param {
    num_output: 512
    pad: 1
    kernel_size: 3
    weight_filler {
      type: "xavier"
    }
    bias_filler {
      type: "constant"
      value: 0
    }
  }
}
layer {
  name: "relu6"
  type: "ReLU"
  bottom: "ip6"
  top: "ip6"
}
layer {
  name: "ip7"
  type: "Convolution"
  bottom: "ip6"
  top: "ip7"
  param {
    lr_mult: 1
    decay_mult: 1
  }
  param {
    lr_mult: 2
    decay_mult: 0
  }
  convolution_param {
    num_output: 512
    kernel_size: 1
    weight_filler {
      type: "xavier"
    }
    bias_filler {
      type: "constant"
      value: 0
    }
  }
}
layer {
  name: "relu7"
  type: "ReLU"
  bottom: "ip7"
  top: "ip7"
}
layer {
  name: "ip7_mbox_loc"
  type: "Convolution"
  bottom: "ip7"
  top: "ip7_mbox_loc"
  param {
    lr_mult: 1
    decay_mult: 1
  }
  param {
    lr_mult: 2
    decay_mult: 0
  }
  convolution_param {
    num_output: 24
    pad: 1
    kernel_size: 3
    stride: 1
    weight_filler {
      type: "xavier"
    }
    bias_filler {
      type: "constant"
      value: 0
    }
  }
}
layer {
  name: "ip7_mbox_loc_perm"
  type: "Permute"
  bottom: "ip7_mbox_loc"
  top: "ip7_mbox_loc_perm"
  permute_param {
    order: 0
    order: 2
    order: 3
    order: 1
  }
}
layer {
  name: "ip7_mbox_loc_flat"
  type: "Flatten"
  bottom: "ip7_mbox_loc_perm"
  top: "ip7_mbox_loc_flat"
  flatten_param {
    axis: 1
  }
}
layer {
  name: "ip7_mbox_conf"
  type: "Convolution"
  bottom: "ip7"
  top: "ip7_mbox_conf"
  param {
    lr_mult: 1
    decay_mult: 1
  }
  param {
    lr_mult: 2
    decay_mult: 0
  }
  convolution_param {
    num_output: 42
    pad: 1
    kernel_size: 3
    stride: 1
    weight_filler {
      type: "xavier"
    }
    bias_filler {
      type: "constant"
      value: 0
    }
  }
}
layer {
  name: "ip7_mbox_conf_perm"
  type: "Permute"
  bottom: "ip7_mbox_conf"
  top: "ip7_mbox_conf_perm"
  permute_param {
    order: 0
    order: 2
    order: 3
    order: 1
  }
}
layer {
  name: "ip7_mbox_conf_flat"
  type: "Flatten"
  bottom: "ip7_mbox_conf_perm"
  top: "ip7_mbox_conf_flat"
  flatten_param {
    axis: 1
  }
}
layer {
  name: "ip7_mbox_priorbox"
  type: "PriorBox"
  bottom: "ip7"
  bottom: "data"
  top: "ip7_mbox_priorbox"
  prior_box_param {
    min_size: 20
    max_size: 210
    aspect_ratio: 2
    aspect_ratio: 3
    flip: true
    clip: false
    variance: 0.1
    variance: 0.1
    variance: 0.2
    variance: 0.2
    step: 32
    offset: 0.5
  }
}
layer {
  name: "mbox_loc"
  type: "Concat"
  bottom: "ip7_mbox_loc_flat"
  top: "mbox_loc"
  concat_param {
    axis: 1
  }
}
layer {
  name: "mbox_conf"
  type: "Concat"
  bottom: "ip7_mbox_conf_flat"
  top: "mbox_conf"
  concat_param {
    axis: 1
  }
}
layer {
  name: "mbox_priorbox"
  type: "Concat"
  bottom: "ip7_mbox_priorbox"
  top: "mbox_priorbox"
  concat_param {
    axis: 2
  }
}
layer {
  name: "mbox_loss"
  type: "MultiBoxLoss"
  bottom: "mbox_loc"
  bottom: "mbox_conf"
  bottom: "mbox_priorbox"
  bottom: "label"
  top: "mbox_loss"
  include {
    phase: TRAIN
  }
  propagate_down: true
  propagate_down: true
  propagate_down: false
  propagate_down: false
  loss_param {
    normalization: VALID
  }
  multibox_loss_param {
    loc_loss_type: SMOOTH_L1
    conf_loss_type: SOFTMAX
    loc_weight: 1
    num_classes: 7
    share_location: true
    match_type: PER_PREDICTION
    overlap_threshold: 0.5
    use_prior_for_matching: true
    background_label_id: 0
    use_difficult_gt: true
    neg_pos_ratio: 3
    neg_overlap: 0.5
    code_type: CENTER_SIZE
    ignore_cross_boundary_bbox: false
    mining_type: MAX_NEGATIVE
  }
}
I0429 12:10:36.620965 28978 layer_factory.hpp:77] Creating layer data
I0429 12:10:36.621073 28978 net.cpp:100] Creating Layer data
I0429 12:10:36.621084 28978 net.cpp:408] data -> data
I0429 12:10:36.621109 28978 net.cpp:408] data -> label
I0429 12:10:36.621984 29001 db_lmdb.cpp:35] Opened lmdb /home/zhangwanchun/data/VOCdevkit/VOC0712/lmdb/VOC0712_trainval_lmdb
I0429 12:10:39.600500 28978 annotated_data_layer.cpp:62] output data size: 2,3,224,224
I0429 12:10:39.602993 28978 net.cpp:150] Setting up data
I0429 12:10:39.603006 28978 net.cpp:157] Top shape: 2 3 224 224 (301056)
I0429 12:10:39.603010 28978 net.cpp:157] Top shape: 1 1 4 8 (32)
I0429 12:10:39.603013 28978 net.cpp:165] Memory required for data: 1204352
I0429 12:10:39.603020 28978 layer_factory.hpp:77] Creating layer data_data_0_split
I0429 12:10:39.603029 28978 net.cpp:100] Creating Layer data_data_0_split
I0429 12:10:39.603034 28978 net.cpp:434] data_data_0_split <- data
I0429 12:10:39.603044 28978 net.cpp:408] data_data_0_split -> data_data_0_split_0
I0429 12:10:39.603055 28978 net.cpp:408] data_data_0_split -> data_data_0_split_1
I0429 12:10:39.603088 28978 net.cpp:150] Setting up data_data_0_split
I0429 12:10:39.603093 28978 net.cpp:157] Top shape: 2 3 224 224 (301056)
I0429 12:10:39.603096 28978 net.cpp:157] Top shape: 2 3 224 224 (301056)
I0429 12:10:39.603098 28978 net.cpp:165] Memory required for data: 3612800
I0429 12:10:39.603101 28978 layer_factory.hpp:77] Creating layer conv1_1
I0429 12:10:39.603112 28978 net.cpp:100] Creating Layer conv1_1
I0429 12:10:39.603116 28978 net.cpp:434] conv1_1 <- data_data_0_split_0
I0429 12:10:39.603121 28978 net.cpp:408] conv1_1 -> conv1_1
I0429 12:10:39.604288 28978 net.cpp:150] Setting up conv1_1
I0429 12:10:39.604297 28978 net.cpp:157] Top shape: 2 64 224 224 (6422528)
I0429 12:10:39.604300 28978 net.cpp:165] Memory required for data: 29302912
I0429 12:10:39.604310 28978 layer_factory.hpp:77] Creating layer quant_relu1_1
I0429 12:10:39.604316 28978 net.cpp:100] Creating Layer quant_relu1_1
I0429 12:10:39.604319 28978 net.cpp:434] quant_relu1_1 <- conv1_1
I0429 12:10:39.604322 28978 net.cpp:395] quant_relu1_1 -> conv1_1 (in-place)
I0429 12:10:39.607664 28978 net.cpp:150] Setting up quant_relu1_1
I0429 12:10:39.607678 28978 net.cpp:157] Top shape: 2 64 224 224 (6422528)
I0429 12:10:39.607681 28978 net.cpp:165] Memory required for data: 54993024
I0429 12:10:39.607689 28978 layer_factory.hpp:77] Creating layer conv1_2
I0429 12:10:39.607697 28978 net.cpp:100] Creating Layer conv1_2
I0429 12:10:39.607699 28978 net.cpp:434] conv1_2 <- conv1_1
I0429 12:10:39.607704 28978 net.cpp:408] conv1_2 -> conv1_2
I0429 12:10:39.607966 28978 net.cpp:150] Setting up conv1_2
I0429 12:10:39.607973 28978 net.cpp:157] Top shape: 2 64 224 224 (6422528)
I0429 12:10:39.607975 28978 net.cpp:165] Memory required for data: 80683136
I0429 12:10:39.607981 28978 layer_factory.hpp:77] Creating layer quant_relu1_2
I0429 12:10:39.607985 28978 net.cpp:100] Creating Layer quant_relu1_2
I0429 12:10:39.607988 28978 net.cpp:434] quant_relu1_2 <- conv1_2
I0429 12:10:39.607991 28978 net.cpp:395] quant_relu1_2 -> conv1_2 (in-place)
I0429 12:10:39.611305 28978 net.cpp:150] Setting up quant_relu1_2
I0429 12:10:39.611321 28978 net.cpp:157] Top shape: 2 64 224 224 (6422528)
I0429 12:10:39.611323 28978 net.cpp:165] Memory required for data: 106373248
I0429 12:10:39.611330 28978 layer_factory.hpp:77] Creating layer pool1
I0429 12:10:39.611338 28978 net.cpp:100] Creating Layer pool1
I0429 12:10:39.611341 28978 net.cpp:434] pool1 <- conv1_2
I0429 12:10:39.611346 28978 net.cpp:408] pool1 -> pool1
I0429 12:10:39.611405 28978 net.cpp:150] Setting up pool1
I0429 12:10:39.611411 28978 net.cpp:157] Top shape: 2 64 112 112 (1605632)
I0429 12:10:39.611414 28978 net.cpp:165] Memory required for data: 112795776
I0429 12:10:39.611416 28978 layer_factory.hpp:77] Creating layer conv2_1
I0429 12:10:39.611423 28978 net.cpp:100] Creating Layer conv2_1
I0429 12:10:39.611424 28978 net.cpp:434] conv2_1 <- pool1
I0429 12:10:39.611428 28978 net.cpp:408] conv2_1 -> conv2_1
I0429 12:10:39.612504 28978 net.cpp:150] Setting up conv2_1
I0429 12:10:39.612514 28978 net.cpp:157] Top shape: 2 128 112 112 (3211264)
I0429 12:10:39.612517 28978 net.cpp:165] Memory required for data: 125640832
I0429 12:10:39.612522 28978 layer_factory.hpp:77] Creating layer quant_relu2_1
I0429 12:10:39.612529 28978 net.cpp:100] Creating Layer quant_relu2_1
I0429 12:10:39.612531 28978 net.cpp:434] quant_relu2_1 <- conv2_1
I0429 12:10:39.612535 28978 net.cpp:395] quant_relu2_1 -> conv2_1 (in-place)
I0429 12:10:39.615022 28978 net.cpp:150] Setting up quant_relu2_1
I0429 12:10:39.615036 28978 net.cpp:157] Top shape: 2 128 112 112 (3211264)
I0429 12:10:39.615039 28978 net.cpp:165] Memory required for data: 138485888
I0429 12:10:39.615049 28978 layer_factory.hpp:77] Creating layer conv2_2
I0429 12:10:39.615057 28978 net.cpp:100] Creating Layer conv2_2
I0429 12:10:39.615061 28978 net.cpp:434] conv2_2 <- conv2_1
I0429 12:10:39.615064 28978 net.cpp:408] conv2_2 -> conv2_2
I0429 12:10:39.615886 28978 net.cpp:150] Setting up conv2_2
I0429 12:10:39.615895 28978 net.cpp:157] Top shape: 2 128 112 112 (3211264)
I0429 12:10:39.615897 28978 net.cpp:165] Memory required for data: 151330944
I0429 12:10:39.615901 28978 layer_factory.hpp:77] Creating layer quant_relu2_2
I0429 12:10:39.615906 28978 net.cpp:100] Creating Layer quant_relu2_2
I0429 12:10:39.615909 28978 net.cpp:434] quant_relu2_2 <- conv2_2
I0429 12:10:39.615912 28978 net.cpp:395] quant_relu2_2 -> conv2_2 (in-place)
I0429 12:10:39.617821 28978 net.cpp:150] Setting up quant_relu2_2
I0429 12:10:39.617833 28978 net.cpp:157] Top shape: 2 128 112 112 (3211264)
I0429 12:10:39.617836 28978 net.cpp:165] Memory required for data: 164176000
I0429 12:10:39.617842 28978 layer_factory.hpp:77] Creating layer pool2
I0429 12:10:39.617851 28978 net.cpp:100] Creating Layer pool2
I0429 12:10:39.617856 28978 net.cpp:434] pool2 <- conv2_2
I0429 12:10:39.617862 28978 net.cpp:408] pool2 -> pool2
I0429 12:10:39.617888 28978 net.cpp:150] Setting up pool2
I0429 12:10:39.617893 28978 net.cpp:157] Top shape: 2 128 56 56 (802816)
I0429 12:10:39.617898 28978 net.cpp:165] Memory required for data: 167387264
I0429 12:10:39.617903 28978 layer_factory.hpp:77] Creating layer conv3_1
I0429 12:10:39.617909 28978 net.cpp:100] Creating Layer conv3_1
I0429 12:10:39.617913 28978 net.cpp:434] conv3_1 <- pool2
I0429 12:10:39.617918 28978 net.cpp:408] conv3_1 -> conv3_1
I0429 12:10:39.619650 28978 net.cpp:150] Setting up conv3_1
I0429 12:10:39.619658 28978 net.cpp:157] Top shape: 2 256 56 56 (1605632)
I0429 12:10:39.619662 28978 net.cpp:165] Memory required for data: 173809792
I0429 12:10:39.619666 28978 layer_factory.hpp:77] Creating layer quant_relu3_1
I0429 12:10:39.619670 28978 net.cpp:100] Creating Layer quant_relu3_1
I0429 12:10:39.619674 28978 net.cpp:434] quant_relu3_1 <- conv3_1
I0429 12:10:39.619678 28978 net.cpp:395] quant_relu3_1 -> conv3_1 (in-place)
I0429 12:10:39.620697 28978 net.cpp:150] Setting up quant_relu3_1
I0429 12:10:39.620705 28978 net.cpp:157] Top shape: 2 256 56 56 (1605632)
I0429 12:10:39.620708 28978 net.cpp:165] Memory required for data: 180232320
I0429 12:10:39.620712 28978 layer_factory.hpp:77] Creating layer conv3_2
I0429 12:10:39.620718 28978 net.cpp:100] Creating Layer conv3_2
I0429 12:10:39.620723 28978 net.cpp:434] conv3_2 <- conv3_1
I0429 12:10:39.620725 28978 net.cpp:408] conv3_2 -> conv3_2
I0429 12:10:39.623503 28978 net.cpp:150] Setting up conv3_2
I0429 12:10:39.623513 28978 net.cpp:157] Top shape: 2 256 56 56 (1605632)
I0429 12:10:39.623515 28978 net.cpp:165] Memory required for data: 186654848
I0429 12:10:39.623553 28978 layer_factory.hpp:77] Creating layer quant_relu3_2
I0429 12:10:39.623559 28978 net.cpp:100] Creating Layer quant_relu3_2
I0429 12:10:39.623564 28978 net.cpp:434] quant_relu3_2 <- conv3_2
I0429 12:10:39.623566 28978 net.cpp:395] quant_relu3_2 -> conv3_2 (in-place)
I0429 12:10:39.624971 28978 net.cpp:150] Setting up quant_relu3_2
I0429 12:10:39.624979 28978 net.cpp:157] Top shape: 2 256 56 56 (1605632)
I0429 12:10:39.624982 28978 net.cpp:165] Memory required for data: 193077376
I0429 12:10:39.624986 28978 layer_factory.hpp:77] Creating layer conv3_3
I0429 12:10:39.624994 28978 net.cpp:100] Creating Layer conv3_3
I0429 12:10:39.624996 28978 net.cpp:434] conv3_3 <- conv3_2
I0429 12:10:39.625001 28978 net.cpp:408] conv3_3 -> conv3_3
I0429 12:10:39.627739 28978 net.cpp:150] Setting up conv3_3
I0429 12:10:39.627748 28978 net.cpp:157] Top shape: 2 256 56 56 (1605632)
I0429 12:10:39.627750 28978 net.cpp:165] Memory required for data: 199499904
I0429 12:10:39.627755 28978 layer_factory.hpp:77] Creating layer quant_relu3_3
I0429 12:10:39.627761 28978 net.cpp:100] Creating Layer quant_relu3_3
I0429 12:10:39.627764 28978 net.cpp:434] quant_relu3_3 <- conv3_3
I0429 12:10:39.627768 28978 net.cpp:395] quant_relu3_3 -> conv3_3 (in-place)
I0429 12:10:39.628808 28978 net.cpp:150] Setting up quant_relu3_3
I0429 12:10:39.628816 28978 net.cpp:157] Top shape: 2 256 56 56 (1605632)
I0429 12:10:39.628819 28978 net.cpp:165] Memory required for data: 205922432
I0429 12:10:39.628823 28978 layer_factory.hpp:77] Creating layer pool3
I0429 12:10:39.628829 28978 net.cpp:100] Creating Layer pool3
I0429 12:10:39.628834 28978 net.cpp:434] pool3 <- conv3_3
I0429 12:10:39.628837 28978 net.cpp:408] pool3 -> pool3
I0429 12:10:39.628860 28978 net.cpp:150] Setting up pool3
I0429 12:10:39.628866 28978 net.cpp:157] Top shape: 2 256 28 28 (401408)
I0429 12:10:39.628868 28978 net.cpp:165] Memory required for data: 207528064
I0429 12:10:39.628870 28978 layer_factory.hpp:77] Creating layer conv4_1
I0429 12:10:39.628875 28978 net.cpp:100] Creating Layer conv4_1
I0429 12:10:39.628878 28978 net.cpp:434] conv4_1 <- pool3
I0429 12:10:39.628882 28978 net.cpp:408] conv4_1 -> conv4_1
I0429 12:10:39.635004 28978 net.cpp:150] Setting up conv4_1
I0429 12:10:39.635017 28978 net.cpp:157] Top shape: 2 512 28 28 (802816)
I0429 12:10:39.635021 28978 net.cpp:165] Memory required for data: 210739328
I0429 12:10:39.635026 28978 layer_factory.hpp:77] Creating layer quant_relu4_1
I0429 12:10:39.635033 28978 net.cpp:100] Creating Layer quant_relu4_1
I0429 12:10:39.635036 28978 net.cpp:434] quant_relu4_1 <- conv4_1
I0429 12:10:39.635041 28978 net.cpp:395] quant_relu4_1 -> conv4_1 (in-place)
I0429 12:10:39.635720 28978 net.cpp:150] Setting up quant_relu4_1
I0429 12:10:39.635727 28978 net.cpp:157] Top shape: 2 512 28 28 (802816)
I0429 12:10:39.635730 28978 net.cpp:165] Memory required for data: 213950592
I0429 12:10:39.635735 28978 layer_factory.hpp:77] Creating layer conv4_2
I0429 12:10:39.635740 28978 net.cpp:100] Creating Layer conv4_2
I0429 12:10:39.635742 28978 net.cpp:434] conv4_2 <- conv4_1
I0429 12:10:39.635746 28978 net.cpp:408] conv4_2 -> conv4_2
I0429 12:10:39.646025 28978 net.cpp:150] Setting up conv4_2
I0429 12:10:39.646044 28978 net.cpp:157] Top shape: 2 512 28 28 (802816)
I0429 12:10:39.646046 28978 net.cpp:165] Memory required for data: 217161856
I0429 12:10:39.646052 28978 layer_factory.hpp:77] Creating layer quant_relu4_2
I0429 12:10:39.646059 28978 net.cpp:100] Creating Layer quant_relu4_2
I0429 12:10:39.646062 28978 net.cpp:434] quant_relu4_2 <- conv4_2
I0429 12:10:39.646066 28978 net.cpp:395] quant_relu4_2 -> conv4_2 (in-place)
I0429 12:10:39.646811 28978 net.cpp:150] Setting up quant_relu4_2
I0429 12:10:39.646819 28978 net.cpp:157] Top shape: 2 512 28 28 (802816)
I0429 12:10:39.646821 28978 net.cpp:165] Memory required for data: 220373120
I0429 12:10:39.646826 28978 layer_factory.hpp:77] Creating layer conv4_3
I0429 12:10:39.646831 28978 net.cpp:100] Creating Layer conv4_3
I0429 12:10:39.646834 28978 net.cpp:434] conv4_3 <- conv4_2
I0429 12:10:39.646849 28978 net.cpp:408] conv4_3 -> conv4_3
I0429 12:10:39.657085 28978 net.cpp:150] Setting up conv4_3
I0429 12:10:39.657099 28978 net.cpp:157] Top shape: 2 512 28 28 (802816)
I0429 12:10:39.657102 28978 net.cpp:165] Memory required for data: 223584384
I0429 12:10:39.657107 28978 layer_factory.hpp:77] Creating layer quant_relu4_3
I0429 12:10:39.657114 28978 net.cpp:100] Creating Layer quant_relu4_3
I0429 12:10:39.657117 28978 net.cpp:434] quant_relu4_3 <- conv4_3
I0429 12:10:39.657121 28978 net.cpp:395] quant_relu4_3 -> conv4_3 (in-place)
I0429 12:10:39.657861 28978 net.cpp:150] Setting up quant_relu4_3
I0429 12:10:39.657869 28978 net.cpp:157] Top shape: 2 512 28 28 (802816)
I0429 12:10:39.657871 28978 net.cpp:165] Memory required for data: 226795648
I0429 12:10:39.657876 28978 layer_factory.hpp:77] Creating layer pool4
I0429 12:10:39.657881 28978 net.cpp:100] Creating Layer pool4
I0429 12:10:39.657883 28978 net.cpp:434] pool4 <- conv4_3
I0429 12:10:39.657886 28978 net.cpp:408] pool4 -> pool4
I0429 12:10:39.657910 28978 net.cpp:150] Setting up pool4
I0429 12:10:39.657917 28978 net.cpp:157] Top shape: 2 512 14 14 (200704)
I0429 12:10:39.657919 28978 net.cpp:165] Memory required for data: 227598464
I0429 12:10:39.657922 28978 layer_factory.hpp:77] Creating layer conv5_1
I0429 12:10:39.657929 28978 net.cpp:100] Creating Layer conv5_1
I0429 12:10:39.657933 28978 net.cpp:434] conv5_1 <- pool4
I0429 12:10:39.657936 28978 net.cpp:408] conv5_1 -> conv5_1
I0429 12:10:39.668759 28978 net.cpp:150] Setting up conv5_1
I0429 12:10:39.668776 28978 net.cpp:157] Top shape: 2 512 14 14 (200704)
I0429 12:10:39.668778 28978 net.cpp:165] Memory required for data: 228401280
I0429 12:10:39.668784 28978 layer_factory.hpp:77] Creating layer quant_relu5_1
I0429 12:10:39.668792 28978 net.cpp:100] Creating Layer quant_relu5_1
I0429 12:10:39.668794 28978 net.cpp:434] quant_relu5_1 <- conv5_1
I0429 12:10:39.668799 28978 net.cpp:395] quant_relu5_1 -> conv5_1 (in-place)
I0429 12:10:39.668886 28978 net.cpp:150] Setting up quant_relu5_1
I0429 12:10:39.668892 28978 net.cpp:157] Top shape: 2 512 14 14 (200704)
I0429 12:10:39.668895 28978 net.cpp:165] Memory required for data: 229204096
I0429 12:10:39.668902 28978 layer_factory.hpp:77] Creating layer conv5_2
I0429 12:10:39.668908 28978 net.cpp:100] Creating Layer conv5_2
I0429 12:10:39.668910 28978 net.cpp:434] conv5_2 <- conv5_1
I0429 12:10:39.668915 28978 net.cpp:408] conv5_2 -> conv5_2
I0429 12:10:39.679261 28978 net.cpp:150] Setting up conv5_2
I0429 12:10:39.679275 28978 net.cpp:157] Top shape: 2 512 14 14 (200704)
I0429 12:10:39.679277 28978 net.cpp:165] Memory required for data: 230006912
I0429 12:10:39.679283 28978 layer_factory.hpp:77] Creating layer quant_relu5_2
I0429 12:10:39.679291 28978 net.cpp:100] Creating Layer quant_relu5_2
I0429 12:10:39.679293 28978 net.cpp:434] quant_relu5_2 <- conv5_2
I0429 12:10:39.679297 28978 net.cpp:395] quant_relu5_2 -> conv5_2 (in-place)
I0429 12:10:39.679388 28978 net.cpp:150] Setting up quant_relu5_2
I0429 12:10:39.679419 28978 net.cpp:157] Top shape: 2 512 14 14 (200704)
I0429 12:10:39.679435 28978 net.cpp:165] Memory required for data: 230809728
I0429 12:10:39.679455 28978 layer_factory.hpp:77] Creating layer conv5_3
I0429 12:10:39.679476 28978 net.cpp:100] Creating Layer conv5_3
I0429 12:10:39.679481 28978 net.cpp:434] conv5_3 <- conv5_2
I0429 12:10:39.679488 28978 net.cpp:408] conv5_3 -> conv5_3
I0429 12:10:39.689854 28978 net.cpp:150] Setting up conv5_3
I0429 12:10:39.689872 28978 net.cpp:157] Top shape: 2 512 14 14 (200704)
I0429 12:10:39.689874 28978 net.cpp:165] Memory required for data: 231612544
I0429 12:10:39.689880 28978 layer_factory.hpp:77] Creating layer quant_relu5_3
I0429 12:10:39.689887 28978 net.cpp:100] Creating Layer quant_relu5_3
I0429 12:10:39.689890 28978 net.cpp:434] quant_relu5_3 <- conv5_3
I0429 12:10:39.689894 28978 net.cpp:395] quant_relu5_3 -> conv5_3 (in-place)
I0429 12:10:39.689980 28978 net.cpp:150] Setting up quant_relu5_3
I0429 12:10:39.689985 28978 net.cpp:157] Top shape: 2 512 14 14 (200704)
I0429 12:10:39.689988 28978 net.cpp:165] Memory required for data: 232415360
I0429 12:10:39.690002 28978 layer_factory.hpp:77] Creating layer pool5
I0429 12:10:39.690009 28978 net.cpp:100] Creating Layer pool5
I0429 12:10:39.690012 28978 net.cpp:434] pool5 <- conv5_3
I0429 12:10:39.690016 28978 net.cpp:408] pool5 -> pool5
I0429 12:10:39.690042 28978 net.cpp:150] Setting up pool5
I0429 12:10:39.690047 28978 net.cpp:157] Top shape: 2 512 7 7 (50176)
I0429 12:10:39.690049 28978 net.cpp:165] Memory required for data: 232616064
I0429 12:10:39.690052 28978 layer_factory.hpp:77] Creating layer ip6
I0429 12:10:39.690057 28978 net.cpp:100] Creating Layer ip6
I0429 12:10:39.690060 28978 net.cpp:434] ip6 <- pool5
I0429 12:10:39.690064 28978 net.cpp:408] ip6 -> ip6
I0429 12:10:40.445369 28978 net.cpp:150] Setting up ip6
I0429 12:10:40.445390 28978 net.cpp:157] Top shape: 2 512 7 7 (50176)
I0429 12:10:40.445394 28978 net.cpp:165] Memory required for data: 232816768
I0429 12:10:40.445402 28978 layer_factory.hpp:77] Creating layer relu6
I0429 12:10:40.445427 28978 net.cpp:100] Creating Layer relu6
I0429 12:10:40.445430 28978 net.cpp:434] relu6 <- ip6
I0429 12:10:40.445436 28978 net.cpp:395] relu6 -> ip6 (in-place)
I0429 12:10:40.445812 28978 net.cpp:150] Setting up relu6
I0429 12:10:40.445822 28978 net.cpp:157] Top shape: 2 512 7 7 (50176)
I0429 12:10:40.445823 28978 net.cpp:165] Memory required for data: 233017472
I0429 12:10:40.445827 28978 layer_factory.hpp:77] Creating layer ip7
I0429 12:10:40.445834 28978 net.cpp:100] Creating Layer ip7
I0429 12:10:40.445837 28978 net.cpp:434] ip7 <- ip6
I0429 12:10:40.445842 28978 net.cpp:408] ip7 -> ip7
I0429 12:10:40.449060 28978 net.cpp:150] Setting up ip7
I0429 12:10:40.449070 28978 net.cpp:157] Top shape: 2 512 7 7 (50176)
I0429 12:10:40.449074 28978 net.cpp:165] Memory required for data: 233218176
I0429 12:10:40.449079 28978 layer_factory.hpp:77] Creating layer relu7
I0429 12:10:40.449082 28978 net.cpp:100] Creating Layer relu7
I0429 12:10:40.449084 28978 net.cpp:434] relu7 <- ip7
I0429 12:10:40.449088 28978 net.cpp:395] relu7 -> ip7 (in-place)
I0429 12:10:40.449373 28978 net.cpp:150] Setting up relu7
I0429 12:10:40.449380 28978 net.cpp:157] Top shape: 2 512 7 7 (50176)
I0429 12:10:40.449383 28978 net.cpp:165] Memory required for data: 233418880
I0429 12:10:40.449386 28978 layer_factory.hpp:77] Creating layer ip7_relu7_0_split
I0429 12:10:40.449390 28978 net.cpp:100] Creating Layer ip7_relu7_0_split
I0429 12:10:40.449393 28978 net.cpp:434] ip7_relu7_0_split <- ip7
I0429 12:10:40.449396 28978 net.cpp:408] ip7_relu7_0_split -> ip7_relu7_0_split_0
I0429 12:10:40.449401 28978 net.cpp:408] ip7_relu7_0_split -> ip7_relu7_0_split_1
I0429 12:10:40.449405 28978 net.cpp:408] ip7_relu7_0_split -> ip7_relu7_0_split_2
I0429 12:10:40.449445 28978 net.cpp:150] Setting up ip7_relu7_0_split
I0429 12:10:40.449450 28978 net.cpp:157] Top shape: 2 512 7 7 (50176)
I0429 12:10:40.449453 28978 net.cpp:157] Top shape: 2 512 7 7 (50176)
I0429 12:10:40.449456 28978 net.cpp:157] Top shape: 2 512 7 7 (50176)
I0429 12:10:40.449458 28978 net.cpp:165] Memory required for data: 234020992
I0429 12:10:40.449460 28978 layer_factory.hpp:77] Creating layer ip7_mbox_loc
I0429 12:10:40.449466 28978 net.cpp:100] Creating Layer ip7_mbox_loc
I0429 12:10:40.449468 28978 net.cpp:434] ip7_mbox_loc <- ip7_relu7_0_split_0
I0429 12:10:40.449472 28978 net.cpp:408] ip7_mbox_loc -> ip7_mbox_loc
I0429 12:10:40.452291 28978 net.cpp:150] Setting up ip7_mbox_loc
I0429 12:10:40.452301 28978 net.cpp:157] Top shape: 2 24 7 7 (2352)
I0429 12:10:40.452302 28978 net.cpp:165] Memory required for data: 234030400
I0429 12:10:40.452307 28978 layer_factory.hpp:77] Creating layer ip7_mbox_loc_perm
I0429 12:10:40.452312 28978 net.cpp:100] Creating Layer ip7_mbox_loc_perm
I0429 12:10:40.452316 28978 net.cpp:434] ip7_mbox_loc_perm <- ip7_mbox_loc
I0429 12:10:40.452319 28978 net.cpp:408] ip7_mbox_loc_perm -> ip7_mbox_loc_perm
I0429 12:10:40.452401 28978 net.cpp:150] Setting up ip7_mbox_loc_perm
I0429 12:10:40.452406 28978 net.cpp:157] Top shape: 2 7 7 24 (2352)
I0429 12:10:40.452409 28978 net.cpp:165] Memory required for data: 234039808
I0429 12:10:40.452421 28978 layer_factory.hpp:77] Creating layer ip7_mbox_loc_flat
I0429 12:10:40.452425 28978 net.cpp:100] Creating Layer ip7_mbox_loc_flat
I0429 12:10:40.452428 28978 net.cpp:434] ip7_mbox_loc_flat <- ip7_mbox_loc_perm
I0429 12:10:40.452432 28978 net.cpp:408] ip7_mbox_loc_flat -> ip7_mbox_loc_flat
I0429 12:10:40.452451 28978 net.cpp:150] Setting up ip7_mbox_loc_flat
I0429 12:10:40.452455 28978 net.cpp:157] Top shape: 2 1176 (2352)
I0429 12:10:40.452457 28978 net.cpp:165] Memory required for data: 234049216
I0429 12:10:40.452461 28978 layer_factory.hpp:77] Creating layer ip7_mbox_conf
I0429 12:10:40.452466 28978 net.cpp:100] Creating Layer ip7_mbox_conf
I0429 12:10:40.452467 28978 net.cpp:434] ip7_mbox_conf <- ip7_relu7_0_split_1
I0429 12:10:40.452471 28978 net.cpp:408] ip7_mbox_conf -> ip7_mbox_conf
I0429 12:10:40.454761 28978 net.cpp:150] Setting up ip7_mbox_conf
I0429 12:10:40.454771 28978 net.cpp:157] Top shape: 2 42 7 7 (4116)
I0429 12:10:40.454792 28978 net.cpp:165] Memory required for data: 234065680
I0429 12:10:40.454797 28978 layer_factory.hpp:77] Creating layer ip7_mbox_conf_perm
I0429 12:10:40.454816 28978 net.cpp:100] Creating Layer ip7_mbox_conf_perm
I0429 12:10:40.454819 28978 net.cpp:434] ip7_mbox_conf_perm <- ip7_mbox_conf
I0429 12:10:40.454823 28978 net.cpp:408] ip7_mbox_conf_perm -> ip7_mbox_conf_perm
I0429 12:10:40.454944 28978 net.cpp:150] Setting up ip7_mbox_conf_perm
I0429 12:10:40.454950 28978 net.cpp:157] Top shape: 2 7 7 42 (4116)
I0429 12:10:40.454952 28978 net.cpp:165] Memory required for data: 234082144
I0429 12:10:40.454954 28978 layer_factory.hpp:77] Creating layer ip7_mbox_conf_flat
I0429 12:10:40.454958 28978 net.cpp:100] Creating Layer ip7_mbox_conf_flat
I0429 12:10:40.454960 28978 net.cpp:434] ip7_mbox_conf_flat <- ip7_mbox_conf_perm
I0429 12:10:40.454964 28978 net.cpp:408] ip7_mbox_conf_flat -> ip7_mbox_conf_flat
I0429 12:10:40.455009 28978 net.cpp:150] Setting up ip7_mbox_conf_flat
I0429 12:10:40.455014 28978 net.cpp:157] Top shape: 2 2058 (4116)
I0429 12:10:40.455016 28978 net.cpp:165] Memory required for data: 234098608
I0429 12:10:40.455018 28978 layer_factory.hpp:77] Creating layer ip7_mbox_priorbox
I0429 12:10:40.455024 28978 net.cpp:100] Creating Layer ip7_mbox_priorbox
I0429 12:10:40.455045 28978 net.cpp:434] ip7_mbox_priorbox <- ip7_relu7_0_split_2
I0429 12:10:40.455049 28978 net.cpp:434] ip7_mbox_priorbox <- data_data_0_split_1
I0429 12:10:40.455073 28978 net.cpp:408] ip7_mbox_priorbox -> ip7_mbox_priorbox
I0429 12:10:40.455096 28978 net.cpp:150] Setting up ip7_mbox_priorbox
I0429 12:10:40.455099 28978 net.cpp:157] Top shape: 1 2 1176 (2352)
I0429 12:10:40.455102 28978 net.cpp:165] Memory required for data: 234108016
I0429 12:10:40.455104 28978 layer_factory.hpp:77] Creating layer mbox_loc
I0429 12:10:40.455108 28978 net.cpp:100] Creating Layer mbox_loc
I0429 12:10:40.455111 28978 net.cpp:434] mbox_loc <- ip7_mbox_loc_flat
I0429 12:10:40.455114 28978 net.cpp:408] mbox_loc -> mbox_loc
I0429 12:10:40.455153 28978 net.cpp:150] Setting up mbox_loc
I0429 12:10:40.455157 28978 net.cpp:157] Top shape: 2 1176 (2352)
I0429 12:10:40.455159 28978 net.cpp:165] Memory required for data: 234117424
I0429 12:10:40.455161 28978 layer_factory.hpp:77] Creating layer mbox_conf
I0429 12:10:40.455188 28978 net.cpp:100] Creating Layer mbox_conf
I0429 12:10:40.455190 28978 net.cpp:434] mbox_conf <- ip7_mbox_conf_flat
I0429 12:10:40.455193 28978 net.cpp:408] mbox_conf -> mbox_conf
I0429 12:10:40.455224 28978 net.cpp:150] Setting up mbox_conf
I0429 12:10:40.455229 28978 net.cpp:157] Top shape: 2 2058 (4116)
I0429 12:10:40.455230 28978 net.cpp:165] Memory required for data: 234133888
I0429 12:10:40.455232 28978 layer_factory.hpp:77] Creating layer mbox_priorbox
I0429 12:10:40.455235 28978 net.cpp:100] Creating Layer mbox_priorbox
I0429 12:10:40.455238 28978 net.cpp:434] mbox_priorbox <- ip7_mbox_priorbox
I0429 12:10:40.455240 28978 net.cpp:408] mbox_priorbox -> mbox_priorbox
I0429 12:10:40.455257 28978 net.cpp:150] Setting up mbox_priorbox
I0429 12:10:40.455284 28978 net.cpp:157] Top shape: 1 2 1176 (2352)
I0429 12:10:40.455287 28978 net.cpp:165] Memory required for data: 234143296
I0429 12:10:40.455289 28978 layer_factory.hpp:77] Creating layer mbox_loss
I0429 12:10:40.455296 28978 net.cpp:100] Creating Layer mbox_loss
I0429 12:10:40.455299 28978 net.cpp:434] mbox_loss <- mbox_loc
I0429 12:10:40.455302 28978 net.cpp:434] mbox_loss <- mbox_conf
I0429 12:10:40.455305 28978 net.cpp:434] mbox_loss <- mbox_priorbox
…
  name: "data"
  type: "AnnotatedData"
  top: "data"
  top: "label"
  include {
    phase: TEST
  }
  transform_param {
    scale: 0.12156863
    resize_param {
      prob: 1
      resize_mode: WARP
      height: 224
      width: 224
      interp_mode: LINEAR
    }
  }
  data_param {
    source: "/home/zhangwanchun/data/VOCdevkit/VOC0712/lmdb/VOC0712_test_lmdb"
    batch_size: 10
    backend: LMDB
  }
  annotated_data_param {
    batch_sampler {
    }
    label_map_file: "/home/zhangwanchun/data/VOCdevkit/VOC0712/lmdb/labelmap_voc.prototxt"
  }
}
layer {
  name: "conv1_1"
  type: "QuantConvolution"
  bottom: "data"
  top: "conv1_1"
  convolution_param {
    num_output: 64
    pad: 1
    kernel_size: 3
    weight_filler {
      type: "xavier"
    }
    bias_filler {
      type: "constant"
      value: 0
    }
  }
  quant_convolution_param {
    coef_precision: THREE_BITS
    bw_params: 8
    shift_enable: false
  }
}
layer {
  name: "quant_relu1_1"
  type: "QuantReLU"
  bottom: "conv1_1"
  top: "conv1_1"
  param {
    lr_mult: 5
  }
  quant_relu_param {
    filler {
      type: "constant"
      value: 31
    }
    channel_shared: true
    act_bits: 5
    quant_enable: false
  }
}
layer {
  name: "conv1_2"
  type: "QuantConvolution"
  bottom: "conv1_1"
  top: "conv1_2"
  convolution_param {
    num_output: 64
    pad: 1
    kernel_size: 3
    weight_filler {
      type: "xavier"
    }
    bias_filler {
      type: "constant"
      value: 0
    }
  }
  quant_convolution_param {
    coef_precision: THREE_BITS
    bw_params: 8
    shift_enable: false
  }
}
layer {
  name: "quant_relu1_2"
  type: "QuantReLU"
  bottom: "conv1_2"
  top: "conv1_2"
  param {
    lr_mult: 5
  }
  quant_relu_param {
    filler {
      type: "constant"
      value: 31
    }
    channel_shared: true
    act_bits: 5
    quant_enable: false
  }
}
layer {
  name: "pool1"
  type: "Pooling"
  bottom: "conv1_2"
  top: "pool1"
  pooling_param {
    pool: MAX
    kernel_size: 2
    stride: 2
  }
}
layer {
  name: "conv2_1"
  type: "QuantConvolution"
  bottom: "pool1"
  top: "conv2_1"
  convolution_param {
    num_output: 128
    pad: 1
    kernel_size: 3
    weight_filler {
      type: "xavier"
    }
    bias_filler {
      type: "constant"
      value: 0
    }
  }
  quant_convolution_param {
    coef_precision: THREE_BITS
    bw_params: 8
    shift_enable: false
  }
}
layer {
  name: "quant_relu2_1"
  type: "QuantReLU"
  bottom: "conv2_1"
  top: "conv2_1"
  param {
    lr_mult: 5
  }
  quant_relu_param {
    filler {
      type: "constant"
      value: 65.934
    }
    channel_shared: true
    act_bits: 5
    quant_enable: false
  }
}
layer {
  name: "conv2_2"
  type: "QuantConvolution"
  bottom: "conv2_1"
  top: "conv2_2"
  convolution_param {
    num_output: 128
    pad: 1
    kernel_size: 3
    weight_filler {
      type: "xavier"
    }
    bias_filler {
      type: "constant"
      value: 0
    }
  }
  quant_convolution_param {
    coef_precision: THREE_BITS
    bw_params: 8
    shift_enable: false
  }
}
layer {
  name: "quant_relu2_2"
  type: "QuantReLU"
  bottom: "conv2_2"
  top: "conv2_2"
  param {
    lr_mult: 5
  }
  quant_relu_param {
    filler {
      type: "constant"
      value: 107.992
    }
    channel_shared: true
    act_bits: 5
    quant_enable: false
  }
}
layer {
  name: "pool2"
  type: "Pooling"
  bottom: "conv2_2"
  top: "pool2"
  pooling_param {
    pool: MAX
    kernel_size: 2
    stride: 2
  }
}
layer {
  name: "conv3_1"
  type: "QuantConvolution"
  bottom: "pool2"
  top: "conv3_1"
  convolution_param {
    num_output: 256
    pad: 1
    kernel_size: 3
    weight_filler {
      type: "xavier"
    }
    bias_filler {
      type: "constant"
      value: 0
    }
  }
  quant_convolution_param {
    coef_precision: THREE_BITS
    bw_params: 8
    shift_enable: false
  }
}
layer {
  name: "quant_relu3_1"
  type: "QuantReLU"
  bottom: "conv3_1"
  top: "conv3_1"
  param {
    lr_mult: 5
  }
  quant_relu_param {
    filler {
      type: "constant"
      value: 115.32
    }
    channel_shared: true
    act_bits: 5
    quant_enable: false
  }
}
layer {
  name: "conv3_2"
  type: "QuantConvolution"
  bottom: "conv3_1"
  top: "conv3_2"
  convolution_param {
    num_output: 256
    pad: 1
    kernel_size: 3
    weight_filler {
      type: "xavier"
    }
    bias_filler {
      type: "constant"
      value: 0
    }
  }
  quant_convolution_param {
    coef_precision: THREE_BITS
    bw_params: 8
    shift_enable: false
  }
}
layer {
  name: "quant_relu3_2"
  type: "QuantReLU"
  bottom: "conv3_2"
  top: "conv3_2"
  param {
    lr_mult: 0
  }
  quant_relu_param {
    filler {
      type: "constant"
      value: 31
    }
    channel_shared: true
    act_bits: 5
    quant_enable: false
  }
}
layer {
  name: "conv3_3"
  type: "QuantConvolution"
  bottom: "conv3_2"
  top: "conv3_3"
  convolution_param {
    num_output: 256
    pad: 1
    kernel_size: 3
    weight_filler {
      type: "xavier"
    }
    bias_filler {
      type: "constant"
      value: 0
    }
  }
  quant_convolution_param {
    coef_precision: THREE_BITS
    bw_params: 8
    shift_enable: false
  }
}
layer {
  name: "quant_relu3_3"
  type: "QuantReLU"
  bottom: "conv3_3"
  top: "conv3_3"
  param {
    lr_mult: 0
  }
  quant_relu_param {
    filler {
      type: "constant"
      value: 31
    }
    channel_shared: true
    act_bits: 5
    quant_enable: false
  }
}
layer {
  name: "pool3"
  type: "Pooling"
  bottom: "conv3_3"
  top: "pool3"
  pooling_param {
    pool: MAX
    kernel_size: 2
    stride: 2
  }
}
layer {
  name: "conv4_1"
  type: "QuantConvolution"
  bottom: "pool3"
  top: "conv4_1"
  convolution_param {
    num_output: 512
    pad: 1
    kernel_size: 3
    weight_filler {
      type: "xavier"
    }
    bias_filler {
      type: "constant"
      value: 0
    }
  }
  quant_convolution_param {
    coef_precision: ONE_BIT
    bw_params: 8
    shift_enable: false
  }
}
layer {
  name: "quant_relu4_1"
  type: "QuantReLU"
  bottom: "conv4_1"
  top: "conv4_1"
  param {
    lr_mult: 0
  }
  quant_relu_param {
    filler {
      type: "constant"
      value: 31
    }
    channel_shared: true
    act_bits: 5
    quant_enable: false
  }
}
layer {
  name: "conv4_2"
  type: "QuantConvolution"
  bottom: "conv4_1"
  top: "conv4_2"
  convolution_param {
    num_output: 512
    pad: 1
    kernel_size: 3
    weight_filler {
      type: "xavier"
    }
    bias_filler {
      type: "constant"
      value: 0
    }
  }
  quant_convolution_param {
    coef_precision: ONE_BIT
    bw_params: 8
    shift_enable: false
  }
}
layer {
  name: "quant_relu4_2"
  type: "QuantReLU"
  bottom: "conv4_2"
  top: "conv4_2"
  param {
    lr_mult: 0
  }
  quant_relu_param {
    filler {
      type: "constant"
      value: 31
    }
    channel_shared: true
    act_bits: 5
    quant_enable: false
  }
}
layer {
  name: "conv4_3"
  type: "QuantConvolution"
  bottom: "conv4_2"
  top: "conv4_3"
  convolution_param {
    num_output: 512
    pad: 1
    kernel_size: 3
    weight_filler {
      type: "xavier"
    }
    bias_filler {
      type: "constant"
      value: 0
    }
  }
  quant_convolution_param {
    coef_precision: ONE_BIT
    bw_params: 8
    shift_enable: false
  }
}
layer {
  name: "quant_relu4_3"
  type: "QuantReLU"
  bottom: "conv4_3"
  top: "conv4_3"
  param {
    lr_mult: 0
  }
  quant_relu_param {
    filler {
      type: "constant"
      value: 31
    }
    channel_shared: true
    act_bits: 5
    quant_enable: false
  }
}
layer {
  name: "pool4"
  type: "Pooling"
  bottom: "conv4_3"
  top: "pool4"
  pooling_param {
    pool: MAX
    kernel_size: 2
    stride: 2
  }
}
layer {
  name: "conv5_1"
  type: "QuantConvolution"
  bottom: "pool4"
  top: "conv5_1"
  convolution_param {
    num_output: 512
    pad: 1
    kernel_size: 3
    weight_filler {
      type: "xavier"
    }
    bias_filler {
      type: "constant"
      value: 0
    }
  }
  quant_convolution_param {
    coef_precision: ONE_BIT
    bw_params: 8
    shift_enable: false
  }
}
layer {
  name: "quant_relu5_1"
  type: "QuantReLU"
  bottom: "conv5_1"
  top: "conv5_1"
  param {
    lr_mult: 0
  }
  quant_relu_param {
    filler {
      type: "constant"
      value: 31
    }
    channel_shared: true
    act_bits: 5
    quant_enable: false
  }
}
layer {
  name: "conv5_2"
  type: "QuantConvolution"
  bottom: "conv5_1"
  top: "conv5_2"
  param {
    lr_mult: 1
    decay_mult: 0
  }
  param {
    lr_mult: 1
    decay_mult: 1
  }
  convolution_param {
    num_output: 512
    pad: 1
    kernel_size: 3
    weight_filler {
      type: "xavier"
    }
    bias_filler {
      type: "constant"
      value: 0
    }
  }
  quant_convolution_param {
    coef_precision: ONE_BIT
    bw_params: 8
    shift_enable: false
  }
}
layer {
  name: "quant_relu5_2"
  type: "QuantReLU"
  bottom: "conv5_2"
  top: "conv5_2"
  param {
    lr_mult: 0
  }
  quant_relu_param {
    filler {
      type: "constant"
      value: 31
    }
    channel_shared: true
    act_bits: 5
    quant_enable: false
  }
}
layer {
  name: "conv5_3"
  type: "QuantConvolution"
  bottom: "conv5_2"
  top: "conv5_3"
  param {
    lr_mult: 1
    decay_mult: 0
  }
  param {
    lr_mult: 1
    decay_mult: 200
  }
  convolution_param {
    num_output: 512
    pad: 1
    kernel_size: 3
    weight_filler {
      type: "xavier"
    }
    bias_filler {
      type: "constant"
      value: 0
    }
  }
  quant_convolution_param {
    coef_precision: ONE_BIT
    bw_params: 8
    shift_enable: false
  }
}
layer {
  name: "quant_relu5_3"
  type: "QuantReLU"
  bottom: "conv5_3"
  top: "conv5_3"
  param {
    lr_mult: 5
  }
  quant_relu_param {
    filler {
      type: "constant"
      value: 29.225
    }
    channel_shared: true
    act_bits: 5
    quant_enable: false
  }
}
layer {
  name: "pool5"
  type: "Pooling"
  bottom: "conv5_3"
  top: "pool5"
  pooling_param {
    pool: MAX
    kernel_size: 2
    stride: 2
  }
}
layer {
  name: "ip6"
  type: "Convolution"
  bottom: "pool5"
  top: "ip6"
  param {
    lr_mult: 1
    decay_mult: 1
  }
  param {
    lr_mult: 2
    decay_mult: 0
  }
  convolution_param {
    num_output: 512
    pad: 1
    kernel_size: 3
    weight_filler {
      type: "xavier"
    }
    bias_filler {
      type: "constant"
      value: 0
    }
  }
}
layer {
  name: "relu6"
  type: "ReLU"
  bottom: "ip6"
  top: "ip6"
}
layer {
  name: "ip7"
  type: "Convolution"
  bottom: "ip6"
  top: "ip7"
  param {
    lr_mult: 1
    decay_mult: 1
  }
  param {
    lr_mult: 2
    decay_mult: 0
  }
  convolution_param {
    num_output: 512
    kernel_size: 1
    weight_filler {
      type: "xavier"
    }
    bias_filler {
      type: "constant"
      value: 0
    }
  }
}
layer {
  name: "relu7"
  type: "ReLU"
  bottom: "ip7"
  top: "ip7"
}
layer {
  name: "ip7_mbox_loc"
  type: "Convolution"
  bottom: "ip7"
  top: "ip7_mbox_loc"
  param {
    lr_mult: 1
    decay_mult: 1
  }
  param {
    lr_mult: 2
    decay_mult: 0
  }
  convolution_param {
    num_output: 24
    pad: 1
    kernel_size: 3
    stride: 1
    weight_filler {
      type: "xavier"
    }
    bias_filler {
      type: "constant"
      value: 0
    }
  }
}
layer {
  name: "ip7_mbox_loc_perm"
  type: "Permute"
  bottom: "ip7_mbox_loc"
  top: "ip7_mbox_loc_perm"
  permute_param {
    order: 0
    order: 2
    order: 3
    order: 1
  }
}
layer {
  name: "ip7_mbox_loc_flat"
  type: "Flatten"
  bottom: "ip7_mbox_loc_perm"
  top: "ip7_mbox_loc_flat"
  flatten_param {
    axis: 1
  }
}
layer {
  name: "ip7_mbox_conf"
  type: "Convolution"
  bottom: "ip7"
  top: "ip7_mbox_conf"
  param {
    lr_mult: 1
    decay_mult: 1
  }
  param {
    lr_mult: 2
    decay_mult: 0
  }
  convolution_param {
    num_output: 42
    pad: 1
    kernel_size: 3
    stride: 1
    weight_filler {
      type: "xavier"
    }
    bias_filler {
      type: "constant"
      value: 0
    }
  }
}
layer {
  name: "ip7_mbox_conf_perm"
  type: "Permute"
  bottom: "ip7_mbox_conf"
  top: "ip7_mbox_conf_perm"
  permute_param {
    order: 0
    order: 2
    order: 3
    order: 1
  }
}
layer {
  name: "ip7_mbox_conf_flat"
  type: "Flatten"
  bottom: "ip7_mbox_conf_perm"
  top: "ip7_mbox_conf_flat"
  flatten_param {
    axis: 1
  }
}
layer {
  name: "ip7_mbox_priorbox"
  type: "PriorBox"
  bottom: "ip7"
  bottom: "data"
  top: "ip7_mbox_priorbox"
  prior_box_param {
    min_size: 20
    max_size: 210
    aspect_ratio: 2
    aspect_ratio: 3
    flip: true
    clip: false
    variance: 0.1
    variance: 0.1
    variance: 0.2
    variance: 0.2
    step: 32
    offset: 0.5
  }
}
layer {
  name: "mbox_loc"
  type: "Concat"
  bottom: "ip7_mbox_loc_flat"
  top: "mbox_loc"
  concat_param {
    axis: 1
  }
}
layer {
  name: "mbox_conf"
  type: "Concat"
  bottom: "ip7_mbox_conf_flat"
  top: "mbox_conf"
  concat_param {
    axis: 1
  }
}
layer {
  name: "mbox_priorbox"
  type: "Concat"
  bottom: "ip7_mbox_priorbox"
  top: "mbox_priorbox"
  concat_param {
    axis: 2
  }
}
layer {
  name: "mbox_conf_reshape"
  type: "Reshape"
  bottom: "mbox_conf"
  top: "mbox_conf_reshape"
  reshape_param {
    shape {
      dim: 0
      dim: -1
      dim: 7
    }
  }
}
layer {
  name: "mbox_conf_softmax"
  type: "Softmax"
  bottom: "mbox_conf_reshape"
  top: "mbox_conf_softmax"
  softmax_param {
    axis: 2
  }
}
layer {
  name: "mbox_conf_flatten"
  type: "Flatten"
  bottom: "mbox_conf_softmax"
  top: "mbox_conf_flatten"
  flatten_param {
    axis: 1
  }
}
layer {
  name: "detection_out"
  type: "DetectionOutput"
  bottom: "mbox_loc"
  bottom: "mbox_conf_flatten"
  bottom: "mbox_priorbox"
  top: "detection_out"
  include {
    phase: TEST
  }
  detection_output_param {
    num_classes: 7
    share_location: true
    background_label_id: 0
    nms_param {
      nms_threshold: 0.45
      top_k: 400
    }
    code_type: CENTER_SIZE
    keep_top_k: 200
    confidence_threshold: 0.01
  }
}
layer {
  name: "detection_eval"
  type: "DetectionEvaluate"
  bottom: "detection_out"
  bottom: "label"
  top: "detection_eval"
  include {
    phase: TEST
  }
  detection_evaluate_param {
    num_classes: 7
    background_label_id: 0
    overlap_threshold: 0.5
    evaluate_difficult_gt: false
    name_size_file: "/home/zhangwanchun/data/VOCdevkit/VOC0712/lmdb/test_name_size.txt"
  }
}
I0429 12:10:40.456998 28978 layer_factory.hpp:77] Creating layer data
I0429 12:10:40.457060 28978 net.cpp:100] Creating Layer data
I0429 12:10:40.457083 28978 net.cpp:408] data -> data
I0429 12:10:40.457090 28978 net.cpp:408] data -> label
I0429 12:10:40.457917 29018 db_lmdb.cpp:35] Opened lmdb /home/zhangwanchun/data/VOCdevkit/VOC0712/lmdb/VOC0712_test_lmdb
I0429 12:10:40.458586 28978 annotated_data_layer.cpp:62] output data size: 10,3,224,224
I0429 12:10:40.465132 28978 net.cpp:150] Setting up data
I0429 12:10:40.465149 28978 net.cpp:157] Top shape: 10 3 224 224 (1505280)
I0429 12:10:40.465153 28978 net.cpp:157] Top shape: 1 1 1 8 (8)
I0429 12:10:40.465155 28978 net.cpp:165] Memory required for data: 6021152
I0429 12:10:40.465185 28978 layer_factory.hpp:77] Creating layer data_data_0_split
I0429 12:10:40.465195 28978 net.cpp:100] Creating Layer data_data_0_split
I0429 12:10:40.465199 28978 net.cpp:434] data_data_0_split <- data
I0429 12:10:40.465204 28978 net.cpp:408] data_data_0_split -> data_data_0_split_0
I0429 12:10:40.465225 28978 net.cpp:408] data_data_0_split -> data_data_0_split_1
I0429 12:10:40.465323 28978 net.cpp:150] Setting up data_data_0_split
I0429 12:10:40.465328 28978 net.cpp:157] Top shape: 10 3 224 224 (1505280)
I0429 12:10:40.465348 28978 net.cpp:157] Top shape: 10 3 224 224 (1505280)
I0429 12:10:40.465350 28978 net.cpp:165] Memory required for data: 18063392
I0429 12:10:40.465353 28978 layer_factory.hpp:77] Creating layer conv1_1
I0429 12:10:40.465360 28978 net.cpp:100] Creating Layer conv1_1
I0429 12:10:40.465363 28978 net.cpp:434] conv1_1 <- data_data_0_split_0
I0429 12:10:40.465368 28978 net.cpp:408] conv1_1 -> conv1_1
I0429 12:10:40.465620 28978 net.cpp:150] Setting up conv1_1
I0429 12:10:40.465626 28978 net.cpp:157] Top shape: 10 64 224 224 (32112640)
I0429 12:10:40.465628 28978 net.cpp:165] Memory required for data: 146513952
I0429 12:10:40.465636 28978 layer_factory.hpp:77] Creating layer quant_relu1_1
I0429 12:10:40.465641 28978 net.cpp:100] Creating Layer quant_relu1_1
I0429 12:10:40.465644 28978 net.cpp:434] quant_relu1_1 <- conv1_1
I0429 12:10:40.465648 28978 net.cpp:395] quant_relu1_1 -> conv1_1 (in-place)
I0429 12:10:40.469038 28978 net.cpp:150] Setting up quant_relu1_1
I0429 12:10:40.469053 28978 net.cpp:157] Top shape: 10 64 224 224 (32112640)
I0429 12:10:40.469056 28978 net.cpp:165] Memory required for data: 274964512
I0429 12:10:40.469066 28978 layer_factory.hpp:77] Creating layer conv1_2
I0429 12:10:40.469076 28978 net.cpp:100] Creating Layer conv1_2
I0429 12:10:40.469080 28978 net.cpp:434] conv1_2 <- conv1_1
I0429 12:10:40.469086 28978 net.cpp:408] conv1_2 -> conv1_2
I0429 12:10:40.469863 28978 net.cpp:150] Setting up conv1_2
I0429 12:10:40.469869 28978 net.cpp:157] Top shape: 10 64 224 224 (32112640)
I0429 12:10:40.469872 28978 net.cpp:165] Memory required for data: 403415072
I0429 12:10:40.469877 28978 layer_factory.hpp:77] Creating layer quant_relu1_2
I0429 12:10:40.469882 28978 net.cpp:100] Creating Layer quant_relu1_2
I0429 12:10:40.469885 28978 net.cpp:434] quant_relu1_2 <- conv1_2
I0429 12:10:40.469889 28978 net.cpp:395] quant_relu1_2 -> conv1_2 (in-place)
I0429 12:10:40.473719 28978 net.cpp:150] Setting up quant_relu1_2
I0429 12:10:40.473737 28978 net.cpp:157] Top shape: 10 64 224 224 (32112640)
I0429 12:10:40.473739 28978 net.cpp:165] Memory required for data: 531865632
I0429 12:10:40.473747 28978 layer_factory.hpp:77] Creating layer pool1
I0429 12:10:40.473752 28978 net.cpp:100] Creating Layer pool1
I0429 12:10:40.473755 28978 net.cpp:434] pool1 <- conv1_2
I0429 12:10:40.473759 28978 net.cpp:408] pool1 -> pool1
I0429 12:10:40.473800 28978 net.cpp:150] Setting up pool1
I0429 12:10:40.473805 28978 net.cpp:157] Top shape: 10 64 112 112 (8028160)
I0429 12:10:40.473807 28978 net.cpp:165] Memory required for data: 563978272
I0429 12:10:40.473809 28978 layer_factory.hpp:77] Creating layer conv2_1
I0429 12:10:40.473815 28978 net.cpp:100] Creating Layer conv2_1
I0429 12:10:40.473819 28978 net.cpp:434] conv2_1 <- pool1
I0429 12:10:40.473821 28978 net.cpp:408] conv2_1 -> conv2_1
I0429 12:10:40.474319 28978 net.cpp:150] Setting up conv2_1
I0429 12:10:40.474324 28978 net.cpp:157] Top shape: 10 128 112 112 (16056320)
I0429 12:10:40.474328 28978 net.cpp:165] Memory required for data: 628203552
I0429 12:10:40.474330 28978 layer_factory.hpp:77] Creating layer quant_relu2_1
I0429 12:10:40.474336 28978 net.cpp:100] Creating Layer quant_relu2_1
I0429 12:10:40.474339 28978 net.cpp:434] quant_relu2_1 <- conv2_1
I0429 12:10:40.474342 28978 net.cpp:395] quant_relu2_1 -> conv2_1 (in-place)
I0429 12:10:40.476344 28978 net.cpp:150] Setting up quant_relu2_1
I0429 12:10:40.476356 28978 net.cpp:157] Top shape: 10 128 112 112 (16056320)
I0429 12:10:40.476359 28978 net.cpp:165] Memory required for data: 692428832
I0429 12:10:40.476377 28978 layer_factory.hpp:77] Creating layer conv2_2
I0429 12:10:40.476384 28978 net.cpp:100] Creating Layer conv2_2
I0429 12:10:40.476389 28978 net.cpp:434] conv2_2 <- conv2_1
I0429 12:10:40.476411 28978 net.cpp:408] conv2_2 -> conv2_2
I0429 12:10:40.477284 28978 net.cpp:150] Setting up conv2_2
I0429 12:10:40.477293 28978 net.cpp:157] Top shape: 10 128 112 112 (16056320)
I0429 12:10:40.477295 28978 net.cpp:165] Memory required for data: 756654112
I0429 12:10:40.477300 28978 layer_factory.hpp:77] Creating layer quant_relu2_2
I0429 12:10:40.477304 28978 net.cpp:100] Creating Layer quant_relu2_2
I0429 12:10:40.477308 28978 net.cpp:434] quant_relu2_2 <- conv2_2
I0429 12:10:40.477310 28978 net.cpp:395] quant_relu2_2 -> conv2_2 (in-place)
I0429 12:10:40.479351 28978 net.cpp:150] Setting up quant_relu2_2
I0429 12:10:40.479364 28978 net.cpp:157] Top shape: 10 128 112 112 (16056320)
I0429 12:10:40.479367 28978 net.cpp:165] Memory required for data: 820879392
I0429 12:10:40.479372 28978 layer_factory.hpp:77] Creating layer pool2
I0429 12:10:40.479378 28978 net.cpp:100] Creating Layer pool2
I0429 12:10:40.479380 28978 net.cpp:434] pool2 <- conv2_2
I0429 12:10:40.479384 28978 net.cpp:408] pool2 -> pool2
I0429 12:10:40.479420 28978 net.cpp:150] Setting up pool2
I0429 12:10:40.479425 28978 net.cpp:157] Top shape: 10 128 56 56 (4014080)
I0429 12:10:40.479429 28978 net.cpp:165] Memory required for data: 836935712
I0429 12:10:40.479430 28978 layer_factory.hpp:77] Creating layer conv3_1
I0429 12:10:40.479435 28978 net.cpp:100] Creating Layer conv3_1
I0429 12:10:40.479437 28978 net.cpp:434] conv3_1 <- pool2
I0429 12:10:40.479441 28978 net.cpp:408] conv3_1 -> conv3_1
I0429 12:10:40.481323 28978 net.cpp:150] Setting up conv3_1
I0429 12:10:40.481333 28978 net.cpp:157] Top shape: 10 256 56 56 (8028160)
I0429 12:10:40.481335 28978 net.cpp:165] Memory required for data: 869048352
I0429 12:10:40.481339 28978 layer_factory.hpp:77] Creating layer quant_relu3_1
I0429 12:10:40.481344 28978 net.cpp:100] Creating Layer quant_relu3_1
I0429 12:10:40.481348 28978 net.cpp:434] quant_relu3_1 <- conv3_1
I0429 12:10:40.481351 28978 net.cpp:395] quant_relu3_1 -> conv3_1 (in-place)
I0429 12:10:40.482327 28978 net.cpp:150] Setting up quant_relu3_1
I0429 12:10:40.482336 28978 net.cpp:157] Top shape: 10 256 56 56 (8028160)
I0429 12:10:40.482337 28978 net.cpp:165] Memory required for data: 901160992
I0429 12:10:40.482342 28978 layer_factory.hpp:77] Creating layer conv3_2
I0429 12:10:40.482347 28978 net.cpp:100] Creating Layer conv3_2
I0429 12:10:40.482349 28978 net.cpp:434] conv3_2 <- conv3_1
I0429 12:10:40.482353 28978 net.cpp:408] conv3_2 -> conv3_2
I0429 12:10:40.485333 28978 net.cpp:150] Setting up conv3_2
I0429 12:10:40.485342 28978 net.cpp:157] Top shape: 10 256 56 56 (8028160)
I0429 12:10:40.485345 28978 net.cpp:165] Memory required for data: 933273632
I0429 12:10:40.485352 28978 layer_factory.hpp:77] Creating layer quant_relu3_2
I0429 12:10:40.485357 28978 net.cpp:100] Creating Layer quant_relu3_2
I0429 12:10:40.485360 28978 net.cpp:434] quant_relu3_2 <- conv3_2
I0429 12:10:40.485363 28978 net.cpp:395] quant_relu3_2 -> conv3_2 (in-place)
I0429 12:10:40.486333 28978 net.cpp:150] Setting up quant_relu3_2
I0429 12:10:40.486342 28978 net.cpp:157] Top shape: 10 256 56 56 (8028160)
I0429 12:10:40.486346 28978 net.cpp:165] Memory required for data: 965386272
I0429 12:10:40.486348 28978 layer_factory.hpp:77] Creating layer conv3_3
I0429 12:10:40.486356 28978 net.cpp:100] Creating Layer conv3_3
I0429 12:10:40.486358 28978 net.cpp:434] conv3_3 <- conv3_2
I0429 12:10:40.486362 28978 net.cpp:408] conv3_3 -> conv3_3
I0429 12:10:40.489244 28978 net.cpp:150] Setting up conv3_3
I0429 12:10:40.489253 28978 net.cpp:157] Top shape: 10 256 56 56 (8028160)
I0429 12:10:40.489272 28978 net.cpp:165] Memory required for data: 997498912
I0429 12:10:40.489277 28978 layer_factory.hpp:77] Creating layer quant_relu3_3
I0429 12:10:40.489281 28978 net.cpp:100] Creating Layer quant_relu3_3
I0429 12:10:40.489284 28978 net.cpp:434] quant_relu3_3 <- conv3_3
I0429 12:10:40.489298 28978 net.cpp:395] quant_relu3_3 -> conv3_3 (in-place)
I0429 12:10:40.490283 28978 net.cpp:150] Setting up quant_relu3_3
I0429 12:10:40.490290 28978 net.cpp:157] Top shape: 10 256 56 56 (8028160)
I0429 12:10:40.490293 28978 net.cpp:165] Memory required for data: 1029611552
I0429 12:10:40.490298 28978 layer_factory.hpp:77] Creating layer pool3
I0429 12:10:40.490303 28978 net.cpp:100] Creating Layer pool3
I0429 12:10:40.490304 28978 net.cpp:434] pool3 <- conv3_3
I0429 12:10:40.490308 28978 net.cpp:408] pool3 -> pool3
I0429 12:10:40.490356 28978 net.cpp:150] Setting up pool3
I0429 12:10:40.490375 28978 net.cpp:157] Top shape: 10 256 28 28 (2007040)
I0429 12:10:40.490377 28978 net.cpp:165] Memory required for data: 1037639712
I0429 12:10:40.490379 28978 layer_factory.hpp:77] Creating layer conv4_1
I0429 12:10:40.490384 28978 net.cpp:100] Creating Layer conv4_1
I0429 12:10:40.490386 28978 net.cpp:434] conv4_1 <- pool3
I0429 12:10:40.490391 28978 net.cpp:408] conv4_1 -> conv4_1
I0429 12:10:40.495841 28978 net.cpp:150] Setting up conv4_1
I0429 12:10:40.495851 28978 net.cpp:157] Top shape: 10 512 28 28 (4014080)
I0429 12:10:40.495854 28978 net.cpp:165] Memory required for data: 1053696032
I0429 12:10:40.495858 28978 layer_factory.hpp:77] Creating layer quant_relu4_1
I0429 12:10:40.495863 28978 net.cpp:100] Creating Layer quant_relu4_1
I0429 12:10:40.495867 28978 net.cpp:434] quant_relu4_1 <- conv4_1
I0429 12:10:40.495870 28978 net.cpp:395] quant_relu4_1 -> conv4_1 (in-place)
I0429 12:10:40.496598 28978 net.cpp:150] Setting up quant_relu4_1
I0429 12:10:40.496605 28978 net.cpp:157] Top shape: 10 512 28 28 (4014080)
I0429 12:10:40.496608 28978 net.cpp:165] Memory required for data: 1069752352
I0429 12:10:40.496613 28978 layer_factory.hpp:77] Creating layer conv4_2
I0429 12:10:40.496618 28978 net.cpp:100] Creating Layer conv4_2
I0429 12:10:40.496619 28978 net.cpp:434] conv4_2 <- conv4_1
I0429 12:10:40.496624 28978 net.cpp:408] conv4_2 -> conv4_2
I0429 12:10:40.507025 28978 net.cpp:150] Setting up conv4_2
I0429 12:10:40.507037 28978 net.cpp:157] Top shape: 10 512 28 28 (4014080)
I0429 12:10:40.507040 28978 net.cpp:165] Memory required for data: 1085808672
I0429 12:10:40.507046 28978 layer_factory.hpp:77] Creating layer quant_relu4_2
I0429 12:10:40.507052 28978 net.cpp:100] Creating Layer quant_relu4_2
I0429 12:10:40.507055 28978 net.cpp:434] quant_relu4_2 <- conv4_2
I0429 12:10:40.507059 28978 net.cpp:395] quant_relu4_2 -> conv4_2 (in-place)
I0429 12:10:40.507805 28978 net.cpp:150] Setting up quant_relu4_2
I0429 12:10:40.507814 28978 net.cpp:157] Top shape: 10 512 28 28 (4014080)
I0429 12:10:40.507817 28978 net.cpp:165] Memory required for data: 1101864992
I0429 12:10:40.507843 28978 layer_factory.hpp:77] Creating layer conv4_3
I0429 12:10:40.507850 28978 net.cpp:100] Creating Layer conv4_3
I0429 12:10:40.507853 28978 net.cpp:434] conv4_3 <- conv4_2
I0429 12:10:40.507856 28978 net.cpp:408] conv4_3 -> conv4_3
I0429 12:10:40.518810 28978 net.cpp:150] Setting up conv4_3
I0429 12:10:40.518827 28978 net.cpp:157] Top shape: 10 512 28 28 (4014080)
I0429 12:10:40.518831 28978 net.cpp:165] Memory required for data: 1117921312
I0429 12:10:40.518836 28978 layer_factory.hpp:77] Creating layer quant_relu4_3
I0429 12:10:40.518843 28978 net.cpp:100] Creating Layer quant_relu4_3
I0429 12:10:40.518847 28978 net.cpp:434] quant_relu4_3 <- conv4_3
I0429 12:10:40.518872 28978 net.cpp:395] quant_relu4_3 -> conv4_3 (in-place)
I0429 12:10:40.519876 28978 net.cpp:150] Setting up quant_relu4_3
I0429 12:10:40.519884 28978 net.cpp:157] Top shape: 10 512 28 28 (4014080)
I0429 12:10:40.519887 28978 net.cpp:165] Memory required for data: 1133977632
I0429 12:10:40.519891 28978 layer_factory.hpp:77] Creating layer pool4
I0429 12:10:40.519896 28978 net.cpp:100] Creating Layer pool4
I0429 12:10:40.519898 28978 net.cpp:434] pool4 <- conv4_3
I0429 12:10:40.519903 28978 net.cpp:408] pool4 -> pool4
I0429 12:10:40.519937 28978 net.cpp:150] Setting up pool4
I0429 12:10:40.519940 28978 net.cpp:157] Top shape: 10 512 14 14 (1003520)
I0429 12:10:40.519953 28978 net.cpp:165] Memory required for data: 1137991712
I0429 12:10:40.519956 28978 layer_factory.hpp:77] Creating layer conv5_1
I0429 12:10:40.519961 28978 net.cpp:100] Creating Layer conv5_1
I0429 12:10:40.519963 28978 net.cpp:434] conv5_1 <- pool4
I0429 12:10:40.519968 28978 net.cpp:408] conv5_1 -> conv5_1
I0429 12:10:40.530171 28978 net.cpp:150] Setting up conv5_1
I0429 12:10:40.530186 28978 net.cpp:157] Top shape: 10 512 14 14 (1003520)
I0429 12:10:40.530189 28978 net.cpp:165] Memory required for data: 1142005792
I0429 12:10:40.530194 28978 layer_factory.hpp:77] Creating layer quant_relu5_1
I0429 12:10:40.530200 28978 net.cpp:100] Creating Layer quant_relu5_1
I0429 12:10:40.530202 28978 net.cpp:434] quant_relu5_1 <- conv5_1
I0429 12:10:40.530207 28978 net.cpp:395] quant_relu5_1 -> conv5_1 (in-place)
I0429 12:10:40.530318 28978 net.cpp:150] Setting up quant_relu5_1
I0429 12:10:40.530323 28978 net.cpp:157] Top shape: 10 512 14 14 (1003520)
I0429 12:10:40.530325 28978 net.cpp:165] Memory required for data: 1146019872
I0429 12:10:40.530333 28978 layer_factory.hpp:77] Creating layer conv5_2
I0429 12:10:40.530337 28978 net.cpp:100] Creating Layer conv5_2
I0429 12:10:40.530340 28978 net.cpp:434] conv5_2 <- conv5_1
I0429 12:10:40.530344 28978 net.cpp:408] conv5_2 -> conv5_2
I0429 12:10:40.540657 28978 net.cpp:150] Setting up conv5_2
I0429 12:10:40.540673 28978 net.cpp:157] Top shape: 10 512 14 14 (1003520)
I0429 12:10:40.540676 28978 net.cpp:165] Memory required for data: 1150033952
I0429 12:10:40.540683 28978 layer_factory.hpp:77] Creating layer quant_relu5_2
I0429 12:10:40.540690 28978 net.cpp:100] Creating Layer quant_relu5_2
I0429 12:10:40.540693 28978 net.cpp:434] quant_relu5_2 <- conv5_2
I0429 12:10:40.540700 28978 net.cpp:395] quant_relu5_2 -> conv5_2 (in-place)
I0429 12:10:40.540815 28978 net.cpp:150] Setting up quant_relu5_2
I0429 12:10:40.540820 28978 net.cpp:157] Top shape: 10 512 14 14 (1003520)
I0429 12:10:40.540823 28978 net.cpp:165] Memory required for data: 1154048032
I0429 12:10:40.540827 28978 layer_factory.hpp:77] Creating layer conv5_3
I0429 12:10:40.540832 28978 net.cpp:100] Creating Layer conv5_3
I0429 12:10:40.540835 28978 net.cpp:434] conv5_3 <- conv5_2
I0429 12:10:40.540839 28978 net.cpp:408] conv5_3 -> conv5_3
I0429 12:10:40.551506 28978 net.cpp:150] Setting up conv5_3
I0429 12:10:40.551520 28978 net.cpp:157] Top shape: 10 512 14 14 (1003520)
I0429 12:10:40.551523 28978 net.cpp:165] Memory required for data: 1158062112
I0429 12:10:40.551529 28978 layer_factory.hpp:77] Creating layer quant_relu5_3
I0429 12:10:40.551537 28978 net.cpp:100] Creating Layer quant_relu5_3
I0429 12:10:40.551540 28978 net.cpp:434] quant_relu5_3 <- conv5_3
I0429 12:10:40.551545 28978 net.cpp:395] quant_relu5_3 -> conv5_3 (in-place)
I0429 12:10:40.551661 28978 net.cpp:150] Setting up quant_relu5_3
I0429 12:10:40.551667 28978 net.cpp:157] Top shape: 10 512 14 14 (1003520)
I0429 12:10:40.551669 28978 net.cpp:165] Memory required for data: 1162076192
I0429 12:10:40.551672 28978 layer_factory.hpp:77] Creating layer pool5
I0429 12:10:40.551681 28978 net.cpp:100] Creating Layer pool5
I0429 12:10:40.551683 28978 net.cpp:434] pool5 <- conv5_3
I0429 12:10:40.551687 28978 net.cpp:408] pool5 -> pool5
I0429 12:10:40.551721 28978 net.cpp:150] Setting up pool5
I0429 12:10:40.551725 28978 net.cpp:157] Top shape: 10 512 7 7 (250880)
I0429 12:10:40.551728 28978 net.cpp:165] Memory required for data: 1163079712
I0429 12:10:40.551730 28978 layer_factory.hpp:77] Creating layer ip6
I0429 12:10:40.551738 28978 net.cpp:100] Creating Layer ip6
I0429 12:10:40.551740 28978 net.cpp:434] ip6 <- pool5
I0429 12:10:40.551744 28978 net.cpp:408] ip6 -> ip6
I0429 12:10:40.563534 28978 net.cpp:150] Setting up ip6
I0429 12:10:40.563547 28978 net.cpp:157] Top shape: 10 512 7 7 (250880)
I0429 12:10:40.563550 28978 net.cpp:165] Memory required for data: 1164083232
I0429 12:10:40.563556 28978 layer_factory.hpp:77] Creating layer relu6
I0429 12:10:40.563562 28978 net.cpp:100] Creating Layer relu6
I0429 12:10:40.563565 28978 net.cpp:434] relu6 <- ip6
I0429 12:10:40.563580 28978 net.cpp:395] relu6 -> ip6 (in-place)
I0429 12:10:40.563889 28978 net.cpp:150] Setting up relu6
I0429 12:10:40.563896 28978 net.cpp:157] Top shape: 10 512 7 7 (250880)
I0429 12:10:40.563899 28978 net.cpp:165] Memory required for data: 1165086752
I0429 12:10:40.563901 28978 layer_factory.hpp:77] Creating layer ip7
I0429 12:10:40.563910 28978 net.cpp:100] Creating Layer ip7
I0429 12:10:40.563913 28978 net.cpp:434] ip7 <- ip6
I0429 12:10:40.563917 28978 net.cpp:408] ip7 -> ip7
I0429 12:10:40.567963 28978 net.cpp:150] Setting up ip7
I0429 12:10:40.567975 28978 net.cpp:157] Top shape: 10 512 7 7 (250880)
I0429 12:10:40.567978 28978 net.cpp:165] Memory required for data: 1166090272
I0429 12:10:40.567983 28978 layer_factory.hpp:77] Creating layer relu7
I0429 12:10:40.567988 28978 net.cpp:100] Creating Layer relu7
I0429 12:10:40.567991 28978 net.cpp:434] relu7 <- ip7
I0429 12:10:40.567996 28978 net.cpp:395] relu7 -> ip7 (in-place)
I0429 12:10:40.568388 28978 net.cpp:150] Setting up relu7
I0429 12:10:40.568397 28978 net.cpp:157] Top shape: 10 512 7 7 (250880)
I0429 12:10:40.568400 28978 net.cpp:165] Memory required for data: 1167093792
I0429 12:10:40.568403 28978 layer_factory.hpp:77] Creating layer ip7_relu7_0_split
I0429 12:10:40.568409 28978 net.cpp:100] Creating Layer ip7_relu7_0_split
I0429 12:10:40.568413 28978 net.cpp:434] ip7_relu7_0_split <- ip7
I0429 12:10:40.568416 28978 net.cpp:408] ip7_relu7_0_split -> ip7_relu7_0_split_0
I0429 12:10:40.568423 28978 net.cpp:408] ip7_relu7_0_split -> ip7_relu7_0_split_1
I0429 12:10:40.568428 28978 net.cpp:408] ip7_relu7_0_split -> ip7_relu7_0_split_2
I0429 12:10:40.568480 28978 net.cpp:150] Setting up ip7_relu7_0_split
I0429 12:10:40.568485 28978 net.cpp:157] Top shape: 10 512 7 7 (250880)
I0429 12:10:40.568487 28978 net.cpp:157] Top shape: 10 512 7 7 (250880)
I0429 12:10:40.568491 28978 net.cpp:157] Top shape: 10 512 7 7 (250880)
I0429 12:10:40.568493 28978 net.cpp:165] Memory required for data: 1170104352
I0429 12:10:40.568496 28978 layer_factory.hpp:77] Creating layer ip7_mbox_loc
I0429 12:10:40.568502 28978 net.cpp:100] Creating Layer ip7_mbox_loc
I0429 12:10:40.568506 28978 net.cpp:434] ip7_mbox_loc <- ip7_relu7_0_split_0
I0429 12:10:40.568511 28978 net.cpp:408] ip7_mbox_loc -> ip7_mbox_loc
I0429 12:10:40.570814 28978 net.cpp:150] Setting up ip7_mbox_loc
I0429 12:10:40.570823 28978 net.cpp:157] Top shape: 10 24 7 7 (11760)
I0429 12:10:40.570827 28978 net.cpp:165] Memory required for data: 1170151392
I0429 12:10:40.570832 28978 layer_factory.hpp:77] Creating layer ip7_mbox_loc_perm
I0429 12:10:40.570837 28978 net.cpp:100] Creating Layer ip7_mbox_loc_perm
I0429 12:10:40.570842 28978 net.cpp:434] ip7_mbox_loc_perm <- ip7_mbox_loc
I0429 12:10:40.570847 28978 net.cpp:408] ip7_mbox_loc_perm -> ip7_mbox_loc_perm
I0429 12:10:40.570945 28978 net.cpp:150] Setting up ip7_mbox_loc_perm
I0429 12:10:40.570952 28978 net.cpp:157] Top shape: 10 7 7 24 (11760)
I0429 12:10:40.570955 28978 net.cpp:165] Memory required for data: 1170198432
I0429 12:10:40.570957 28978 layer_factory.hpp:77] Creating layer ip7_mbox_loc_flat
I0429 12:10:40.570961 28978 net.cpp:100] Creating Layer ip7_mbox_loc_flat
I0429 12:10:40.570964 28978 net.cpp:434] ip7_mbox_loc_flat <- ip7_mbox_loc_perm
I0429 12:10:40.570969 28978 net.cpp:408] ip7_mbox_loc_flat -> ip7_mbox_loc_flat
I0429 12:10:40.570989 28978 net.cpp:150] Setting up ip7_mbox_loc_flat
I0429 12:10:40.570994 28978 net.cpp:157] Top shape: 10 1176 (11760)
I0429 12:10:40.570996 28978 net.cpp:165] Memory required for data: 1170245472
I0429 12:10:40.570998 28978 layer_factory.hpp:77] Creating layer ip7_mbox_conf
I0429 12:10:40.571007 28978 net.cpp:100] Creating Layer ip7_mbox_conf
I0429 12:10:40.571009 28978 net.cpp:434] ip7_mbox_conf <- ip7_relu7_0_split_1
I0429 12:10:40.571015 28978 net.cpp:408] ip7_mbox_conf -> ip7_mbox_conf
I0429 12:10:40.573678 28978 net.cpp:150] Setting up ip7_mbox_conf
I0429 12:10:40.573688 28978 net.cpp:157] Top shape: 10 42 7 7 (20580)
I0429 12:10:40.573691 28978 net.cpp:165] Memory required for data: 1170327792
I0429 12:10:40.573706 28978 layer_factory.hpp:77] Creating layer ip7_mbox_conf_perm
I0429 12:10:40.573711 28978 net.cpp:100] Creating Layer ip7_mbox_conf_perm
I0429 12:10:40.573715 28978 net.cpp:434] ip7_mbox_conf_perm <- ip7_mbox_conf
I0429 12:10:40.573720 28978 net.cpp:408] ip7_mbox_conf_perm -> ip7_mbox_conf_perm
I0429 12:10:40.573822 28978 net.cpp:150] Setting up ip7_mbox_conf_perm
I0429 12:10:40.573827 28978 net.cpp:157] Top shape: 10 7 7 42 (20580)
I0429 12:10:40.573830 28978 net.cpp:165] Memory required for data: 1170410112
I0429 12:10:40.573832 28978 layer_factory.hpp:77] Creating layer ip7_mbox_conf_flat
I0429 12:10:40.573837 28978 net.cpp:100] Creating Layer ip7_mbox_conf_flat
I0429 12:10:40.573839 28978 net.cpp:434] ip7_mbox_conf_flat <- ip7_mbox_conf_perm
I0429 12:10:40.573843 28978 net.cpp:408] ip7_mbox_conf_flat -> ip7_mbox_conf_flat
I0429 12:10:40.573868 28978 net.cpp:150] Setting up ip7_mbox_conf_flat
I0429 12:10:40.573873 28978 net.cpp:157] Top shape: 10 2058 (20580)
I0429 12:10:40.573876 28978 net.cpp:165] Memory required for data: 1170492432
I0429 12:10:40.573879 28978 layer_factory.hpp:77] Creating layer ip7_mbox_priorbox
I0429 12:10:40.573884 28978 net.cpp:100] Creating Layer ip7_mbox_priorbox
I0429 12:10:40.573886 28978 net.cpp:434] ip7_mbox_priorbox <- ip7_relu7_0_split_2
I0429 12:10:40.573889 28978 net.cpp:434] ip7_mbox_priorbox <- data_data_0_split_1
I0429 12:10:40.573894 28978 net.cpp:408] ip7_mbox_priorbox -> ip7_mbox_priorbox
I0429 12:10:40.573917 28978 net.cpp:150] Setting up ip7_mbox_priorbox
I0429 12:10:40.573922 28978 net.cpp:157] Top shape: 1 2 1176 (2352)
I0429 12:10:40.573925 28978 net.cpp:165] Memory required for data: 1170501840
I0429 12:10:40.573926 28978 layer_factory.hpp:77] Creating layer mbox_loc
I0429 12:10:40.573932 28978 net.cpp:100] Creating Layer mbox_loc
I0429 12:10:40.573935 28978 net.cpp:434] mbox_loc <- ip7_mbox_loc_flat
I0429 12:10:40.573940 28978 net.cpp:408] mbox_loc -> mbox_loc
I0429 12:10:40.573961 28978 net.cpp:150] Setting up mbox_loc
I0429 12:10:40.573966 28978 net.cpp:157] Top shape: 10 1176 (11760)
I0429 12:10:40.573967 28978 net.cpp:165] Memory required for data: 1170548880
I0429 12:10:40.573969 28978 layer_factory.hpp:77] Creating layer mbox_conf
I0429 12:10:40.573972 28978 net.cpp:100] Creating Layer mbox_conf
I0429 12:10:40.573976 28978 net.cpp:434] mbox_conf <- ip7_mbox_conf_flat
I0429 12:10:40.573979 28978 net.cpp:408] mbox_conf -> mbox_conf
I0429 12:10:40.573998 28978 net.cpp:150] Setting up mbox_conf
I0429 12:10:40.574002 28978 net.cpp:157] Top shape: 10 2058 (20580)
I0429 12:10:40.574004 28978 net.cpp:165] Memory required for data: 1170631200
I0429 12:10:40.574007 28978 layer_factory.hpp:77] Creating layer mbox_priorbox
I0429 12:10:40.574010 28978 net.cpp:100] Creating Layer mbox_priorbox
I0429 12:10:40.574013 28978 net.cpp:434] mbox_priorbox <- ip7_mbox_priorbox
I0429 12:10:40.574016 28978 net.cpp:408] mbox_priorbox -> mbox_priorbox
I0429 12:10:40.574035 28978 net.cpp:150] Setting up mbox_priorbox
I0429 12:10:40.574039 28978 net.cpp:157] Top shape: 1 2 1176 (2352)
I0429 12:10:40.574041 28978 net.cpp:165] Memory required for data: 1170640608
I0429 12:10:40.574043 28978 layer_factory.hpp:77] Creating layer mbox_conf_reshape
I0429 12:10:40.574049 28978 net.cpp:100] Creating Layer mbox_conf_reshape
I0429 12:10:40.574052 28978 net.cpp:434] mbox_conf_reshape <- mbox_conf
I0429 12:10:40.574055 28978 net.cpp:408] mbox_conf_reshape -> mbox_conf_reshape
I0429 12:10:40.574080 28978 net.cpp:150] Setting up mbox_conf_reshape
I0429 12:10:40.574085 28978 net.cpp:157] Top shape: 10 294 7 (20580)
I0429 12:10:40.574087 28978 net.cpp:165] Memory required for data: 1170722928
I0429 12:10:40.574090 28978 layer_factory.hpp:77] Creating layer mbox_conf_softmax
I0429 12:10:40.574093 28978 net.cpp:100] Creating Layer mbox_conf_softmax
I0429 12:10:40.574097 28978 net.cpp:434] mbox_conf_softmax <- mbox_conf_reshape
I0429 12:10:40.574101 28978 net.cpp:408] mbox_conf_softmax -> mbox_conf_softmax
I0429 12:10:40.575692 28978 net.cpp:150] Setting up mbox_conf_softmax
I0429 12:10:40.575703 28978 net.cpp:157] Top shape: 10 294 7 (20580)
I0429 12:10:40.575713 28978 net.cpp:165] Memory required for data: 1170805248
I0429 12:10:40.575716 28978 layer_factory.hpp:77] Creating layer mbox_conf_flatten
I0429 12:10:40.575722 28978 net.cpp:100] Creating Layer mbox_conf_flatten
I0429 12:10:40.575726 28978 net.cpp:434] mbox_conf_flatten <- mbox_conf_softmax
I0429 12:10:40.575732 28978 net.cpp:408] mbox_conf_flatten -> mbox_conf_flatten
I0429 12:10:40.575755 28978 net.cpp:150] Setting up mbox_conf_flatten
I0429 12:10:40.575762 28978 net.cpp:157] Top shape: 10 2058 (20580)
I0429 12:10:40.575764 28978 net.cpp:165] Memory required for data: 1170887568
I0429 12:10:40.575767 28978 layer_factory.hpp:77] Creating layer detection_out
I0429 12:10:40.575774 28978 net.cpp:100] Creating Layer detection_out
I0429 12:10:40.575778 28978 net.cpp:434] detection_out <- mbox_loc
I0429 12:10:40.575780 28978 net.cpp:434] detection_out <- mbox_conf_flatten
I0429 12:10:40.575784 28978 net.cpp:434] detection_out <- mbox_priorbox
I0429 12:10:40.575789 28978 net.cpp:408] detection_out -> detection_out
11111
I0429 12:10:40.575851 28978 net.cpp:150] Setting up detection_out
I0429 12:10:40.575856 28978 net.cpp:157] Top shape: 1 1 1 7 (7)
I0429 12:10:40.575860 28978 net.cpp:165] Memory required for data: 1170887596
I0429 12:10:40.575862 28978 layer_factory.hpp:77] Creating layer detection_eval
I0429 12:10:40.575866 28978 net.cpp:100] Creating Layer detection_eval
I0429 12:10:40.575868 28978 net.cpp:434] detection_eval <- detection_out
I0429 12:10:40.575872 28978 net.cpp:434] detection_eval <- label
I0429 12:10:40.575877 28978 net.cpp:408] detection_eval -> detection_eval
I0429 12:10:40.575989 28978 net.cpp:150] Setting up detection_eval
I0429 12:10:40.575994 28978 net.cpp:157] Top shape: 1 1 7 5 (35)
I0429 12:10:40.575997 28978 net.cpp:165] Memory required for data: 1170887736
I0429 12:10:40.575999 28978 net.cpp:228] detection_eval does not need backward computation.
I0429 12:10:40.576002 28978 net.cpp:228] detection_out does not need backward computation.
I0429 12:10:40.576004 28978 net.cpp:228] mbox_conf_flatten does not need backward computation.
I0429 12:10:40.576007 28978 net.cpp:228] mbox_conf_softmax does not need backward computation.
…
