…
        max_scale: 1
        min_aspect_ratio: 0.5
        max_aspect_ratio: 2
      }
      sample_constraint {
        min_jaccard_overlap: 0.9
      }
      max_sample: 1
      max_trials: 50
    }
    batch_sampler {
      sampler {
        min_scale: 0.3
        max_scale: 1
        min_aspect_ratio: 0.5
        max_aspect_ratio: 2
      }
      sample_constraint {
        max_jaccard_overlap: 1
      }
      max_sample: 1
      max_trials: 50
    }
    label_map_file: "/home/zhangwanchun/data/VOCdevkit/VOC0712/lmdb/labelmap_voc.prototxt"
  }
}
layer {
  name: "conv1_1"
  type: "QuantConvolution"
  bottom: "data"
  top: "conv1_1"
  convolution_param {
    num_output: 64
    pad: 1
    kernel_size: 3
    weight_filler {
      type: "xavier"
    }
    bias_filler {
      type: "constant"
      value: 0
    }
  }
  quant_convolution_param {
    coef_precision: THREE_BITS
    bw_params: 8
    shift_enable: false
  }
}
layer {
  name: "quant_relu1_1"
  type: "QuantReLU"
  bottom: "conv1_1"
  top: "conv1_1"
  param {
    lr_mult: 0
  }
  quant_relu_param {
    filler {
      type: "constant"
      value: 35.099712
    }
    channel_shared: true
    act_bits: 5
    quant_enable: true
  }
}
layer {
  name: "conv1_2"
  type: "QuantConvolution"
  bottom: "conv1_1"
  top: "conv1_2"
  convolution_param {
    num_output: 64
    pad: 1
    kernel_size: 3
    weight_filler {
      type: "xavier"
    }
    bias_filler {
      type: "constant"
      value: 0
    }
  }
  quant_convolution_param {
    coef_precision: THREE_BITS
    bw_params: 8
    shift_enable: false
  }
}
layer {
  name: "quant_relu1_2"
  type: "QuantReLU"
  bottom: "conv1_2"
  top: "conv1_2"
  param {
    lr_mult: 0
  }
  quant_relu_param {
    filler {
      type: "constant"
      value: 42.255703
    }
    channel_shared: true
    act_bits: 5
    quant_enable: true
  }
}
layer {
  name: "pool1"
  type: "Pooling"
  bottom: "conv1_2"
  top: "pool1"
  pooling_param {
    pool: MAX
    kernel_size: 2
    stride: 2
  }
}
layer {
  name: "conv2_1"
  type: "QuantConvolution"
  bottom: "pool1"
  top: "conv2_1"
  convolution_param {
    num_output: 128
    pad: 1
    kernel_size: 3
    weight_filler {
      type: "xavier"
    }
    bias_filler {
      type: "constant"
      value: 0
    }
  }
  quant_convolution_param {
    coef_precision: THREE_BITS
    bw_params: 8
    shift_enable: false
  }
}
layer {
  name: "quant_relu2_1"
  type: "QuantReLU"
  bottom: "conv2_1"
  top: "conv2_1"
  param {
    lr_mult: 0
  }
  quant_relu_param {
    filler {
      type: "constant"
      value: 36.365536
    }
    channel_shared: true
    act_bits: 5
    quant_enable: true
  }
}
layer {
  name: "conv2_2"
  type: "QuantConvolution"
  bottom: "conv2_1"
  top: "conv2_2"
  convolution_param {
    num_output: 128
    pad: 1
    kernel_size: 3
    weight_filler {
      type: "xavier"
    }
    bias_filler {
      type: "constant"
      value: 0
    }
  }
  quant_convolution_param {
    coef_precision: THREE_BITS
    bw_params: 8
    shift_enable: false
  }
}
layer {
  name: "quant_relu2_2"
  type: "QuantReLU"
  bottom: "conv2_2"
  top: "conv2_2"
  param {
    lr_mult: 0
  }
  quant_relu_param {
    filler {
      type: "constant"
      value: 39.094463
    }
    channel_shared: true
    act_bits: 5
    quant_enable: true
  }
}
layer {
  name: "pool2"
  type: "Pooling"
  bottom: "conv2_2"
  top: "pool2"
  pooling_param {
    pool: MAX
    kernel_size: 2
    stride: 2
  }
}
layer {
  name: "conv3_1"
  type: "QuantConvolution"
  bottom: "pool2"
  top: "conv3_1"
  convolution_param {
    num_output: 256
    pad: 1
    kernel_size: 3
    weight_filler {
      type: "xavier"
    }
    bias_filler {
      type: "constant"
      value: 0
    }
  }
  quant_convolution_param {
    coef_precision: THREE_BITS
    bw_params: 8
    shift_enable: false
  }
}
layer {
  name: "quant_relu3_1"
  type: "QuantReLU"
  bottom: "conv3_1"
  top: "conv3_1"
  param {
    lr_mult: 0
  }
  quant_relu_param {
    filler {
      type: "constant"
      value: 21.244652
    }
    channel_shared: true
    act_bits: 5
    quant_enable: true
  }
}
layer {
  name: "conv3_2"
  type: "QuantConvolution"
  bottom: "conv3_1"
  top: "conv3_2"
  convolution_param {
    num_output: 256
    pad: 1
    kernel_size: 3
    weight_filler {
      type: "xavier"
    }
    bias_filler {
      type: "constant"
      value: 0
    }
  }
  quant_convolution_param {
    coef_precision: THREE_BITS
    bw_params: 8
    shift_enable: false
  }
}
layer {
  name: "quant_relu3_2"
  type: "QuantReLU"
  bottom: "conv3_2"
  top: "conv3_2"
  param {
    lr_mult: 0
  }
  quant_relu_param {
    filler {
      type: "constant"
      value: 18.106991
    }
    channel_shared: true
    act_bits: 5
    quant_enable: true
  }
}
layer {
  name: "conv3_3"
  type: "QuantConvolution"
  bottom: "conv3_2"
  top: "conv3_3"
  convolution_param {
    num_output: 256
    pad: 1
    kernel_size: 3
    weight_filler {
      type: "xavier"
    }
    bias_filler {
      type: "constant"
      value: 0
    }
  }
  quant_convolution_param {
    coef_precision: THREE_BITS
    bw_params: 8
    shift_enable: false
  }
}
layer {
  name: "quant_relu3_3"
  type: "QuantReLU"
  bottom: "conv3_3"
  top: "conv3_3"
  param {
    lr_mult: 0
  }
  quant_relu_param {
    filler {
      type: "constant"
      value: 15.488476
    }
    channel_shared: true
    act_bits: 5
    quant_enable: true
  }
}
layer {
  name: "pool3"
  type: "Pooling"
  bottom: "conv3_3"
  top: "pool3"
  pooling_param {
    pool: MAX
    kernel_size: 2
    stride: 2
  }
}
layer {
  name: "conv4_1"
  type: "QuantConvolution"
  bottom: "pool3"
  top: "conv4_1"
  convolution_param {
    num_output: 512
    pad: 1
    kernel_size: 3
    weight_filler {
      type: "xavier"
    }
    bias_filler {
      type: "constant"
      value: 0
    }
  }
  quant_convolution_param {
    coef_precision: ONE_BIT
    bw_params: 8
    shift_enable: false
  }
}
layer {
  name: "quant_relu4_1"
  type: "QuantReLU"
  bottom: "conv4_1"
  top: "conv4_1"
  param {
    lr_mult: 0
  }
  quant_relu_param {
    filler {
      type: "constant"
      value: 12.230655
    }
    channel_shared: true
    act_bits: 5
    quant_enable: true
  }
}
layer {
  name: "conv4_2"
  type: "QuantConvolution"
  bottom: "conv4_1"
  top: "conv4_2"
  convolution_param {
    num_output: 512
    pad: 1
    kernel_size: 3
    weight_filler {
      type: "xavier"
    }
    bias_filler {
      type: "constant"
      value: 0
    }
  }
  quant_convolution_param {
    coef_precision: ONE_BIT
    bw_params: 8
    shift_enable: false
  }
}
layer {
  name: "quant_relu4_2"
  type: "QuantReLU"
  bottom: "conv4_2"
  top: "conv4_2"
  param {
    lr_mult: 0
  }
  quant_relu_param {
    filler {
      type: "constant"
      value: 9.91371
    }
    channel_shared: true
    act_bits: 5
    quant_enable: true
  }
}
layer {
  name: "conv4_3"
  type: "QuantConvolution"
  bottom: "conv4_2"
  top: "conv4_3"
  convolution_param {
    num_output: 512
    pad: 1
    kernel_size: 3
    weight_filler {
      type: "xavier"
    }
    bias_filler {
      type: "constant"
      value: 0
    }
  }
  quant_convolution_param {
    coef_precision: ONE_BIT
    bw_params: 8
    shift_enable: false
  }
}
layer {
  name: "quant_relu4_3"
  type: "QuantReLU"
  bottom: "conv4_3"
  top: "conv4_3"
  param {
    lr_mult: 0
  }
  quant_relu_param {
    filler {
      type: "constant"
      value: 6.2723484
    }
    channel_shared: true
    act_bits: 5
    quant_enable: true
  }
}
layer {
  name: "pool4"
  type: "Pooling"
  bottom: "conv4_3"
  top: "pool4"
  pooling_param {
    pool: MAX
    kernel_size: 2
    stride: 2
  }
}
layer {
  name: "conv5_1"
  type: "QuantConvolution"
  bottom: "pool4"
  top: "conv5_1"
  convolution_param {
    num_output: 512
    pad: 1
    kernel_size: 3
    weight_filler {
      type: "xavier"
    }
    bias_filler {
      type: "constant"
      value: 0
    }
  }
  quant_convolution_param {
    coef_precision: ONE_BIT
    bw_params: 8
    shift_enable: false
  }
}
layer {
  name: "quant_relu5_1"
  type: "QuantReLU"
  bottom: "conv5_1"
  top: "conv5_1"
  param {
    lr_mult: 0
  }
  quant_relu_param {
    filler {
      type: "constant"
      value: 5.7012129
    }
    channel_shared: true
    act_bits: 5
    quant_enable: true
  }
}
layer {
  name: "conv5_2"
  type: "QuantConvolution"
  bottom: "conv5_1"
  top: "conv5_2"
  param {
    lr_mult: 1
    decay_mult: 0
  }
  param {
    lr_mult: 1
    decay_mult: 1
  }
  convolution_param {
    num_output: 512
    pad: 1
    kernel_size: 3
    weight_filler {
      type: "xavier"
    }
    bias_filler {
      type: "constant"
      value: 0
    }
  }
  quant_convolution_param {
    coef_precision: ONE_BIT
    bw_params: 8
    shift_enable: false
  }
}
layer {
  name: "quant_relu5_2"
  type: "QuantReLU"
  bottom: "conv5_2"
  top: "conv5_2"
  param {
    lr_mult: 0
  }
  quant_relu_param {
    filler {
      type: "constant"
      value: 4.3471885
    }
    channel_shared: true
    act_bits: 5
    quant_enable: true
  }
}
layer {
  name: "conv5_3"
  type: "QuantConvolution"
  bottom: "conv5_2"
  top: "conv5_3"
  param {
    lr_mult: 1
    decay_mult: 0
  }
  param {
    lr_mult: 1
    decay_mult: 200
  }
  convolution_param {
    num_output: 512
    pad: 1
    kernel_size: 3
    weight_filler {
      type: "xavier"
    }
    bias_filler {
      type: "constant"
      value: 0
    }
  }
  quant_convolution_param {
    coef_precision: ONE_BIT
    bw_params: 8
    shift_enable: false
  }
}
layer {
  name: "quant_relu5_3"
  type: "QuantReLU"
  bottom: "conv5_3"
  top: "conv5_3"
  param {
    lr_mult: 0
  }
  quant_relu_param {
    filler {
      type: "constant"
      value: 2.7412345
    }
    channel_shared: true
    act_bits: 5
    quant_enable: true
  }
}
layer {
  name: "pool5"
  type: "Pooling"
  bottom: "conv5_3"
  top: "pool5"
  pooling_param {
    pool: MAX
    kernel_size: 2
    stride: 2
  }
}
layer {
  name: "ip6"
  type: "Convolution"
  bottom: "pool5"
  top: "ip6"
  param {
    lr_mult: 1
    decay_mult: 1
  }
  param {
    lr_mult: 2
    decay_mult: 0
  }
  convolution_param {
    num_output: 512
    pad: 1
    kernel_size: 3
    weight_filler {
      type: "xavier"
    }
    bias_filler {
      type: "constant"
      value: 0
    }
  }
}
layer {
  name: "relu6"
  type: "ReLU"
  bottom: "ip6"
  top: "ip6"
}
layer {
  name: "ip7"
  type: "Convolution"
  bottom: "ip6"
  top: "ip7"
  param {
    lr_mult: 1
    decay_mult: 1
  }
  param {
    lr_mult: 2
    decay_mult: 0
  }
  convolution_param {
    num_output: 512
    kernel_size: 1
    weight_filler {
      type: "xavier"
    }
    bias_filler {
      type: "constant"
      value: 0
    }
  }
}
layer {
  name: "relu7"
  type: "ReLU"
  bottom: "ip7"
  top: "ip7"
}
layer {
  name: "ip7_mbox_loc"
  type: "Convolution"
  bottom: "ip7"
  top: "ip7_mbox_loc"
  param {
    lr_mult: 1
    decay_mult: 1
  }
  param {
    lr_mult: 2
    decay_mult: 0
  }
  convolution_param {
    num_output: 24
    pad: 1
    kernel_size: 3
    stride: 1
    weight_filler {
      type: "xavier"
    }
    bias_filler {
      type: "constant"
      value: 0
    }
  }
}
layer {
  name: "ip7_mbox_loc_perm"
  type: "Permute"
  bottom: "ip7_mbox_loc"
  top: "ip7_mbox_loc_perm"
  permute_param {
    order: 0
    order: 2
    order: 3
    order: 1
  }
}
layer {
  name: "ip7_mbox_loc_flat"
  type: "Flatten"
  bottom: "ip7_mbox_loc_perm"
  top: "ip7_mbox_loc_flat"
  flatten_param {
    axis: 1
  }
}
layer {
  name: "ip7_mbox_conf"
  type: "Convolution"
  bottom: "ip7"
  top: "ip7_mbox_conf"
  param {
    lr_mult: 1
    decay_mult: 1
  }
  param {
    lr_mult: 2
    decay_mult: 0
  }
  convolution_param {
    num_output: 36
    pad: 1
    kernel_size: 3
    stride: 1
    weight_filler {
      type: "xavier"
    }
    bias_filler {
      type: "constant"
      value: 0
    }
  }
}
layer {
  name: "ip7_mbox_conf_perm"
  type: "Permute"
  bottom: "ip7_mbox_conf"
  top: "ip7_mbox_conf_perm"
  permute_param {
    order: 0
    order: 2
    order: 3
    order: 1
  }
}
layer {
  name: "ip7_mbox_conf_flat"
  type: "Flatten"
  bottom: "ip7_mbox_conf_perm"
  top: "ip7_mbox_conf_flat"
  flatten_param {
    axis: 1
  }
}
layer {
  name: "ip7_mbox_priorbox"
  type: "PriorBox"
  bottom: "ip7"
  bottom: "data"
  top: "ip7_mbox_priorbox"
  prior_box_param {
    min_size: 20
    max_size: 210
    aspect_ratio: 2
    aspect_ratio: 3
    flip: true
    clip: false
    variance: 0.1
    variance: 0.1
    variance: 0.2
    variance: 0.2
    step: 32
    offset: 0.5
  }
}
layer {
  name: "mbox_loc"
  type: "Concat"
  bottom: "ip7_mbox_loc_flat"
  top: "mbox_loc"
  concat_param {
    axis: 1
  }
}
layer {
  name: "mbox_conf"
  type: "Concat"
  bottom: "ip7_mbox_conf_flat"
  top: "mbox_conf"
  concat_param {
    axis: 1
  }
}
layer {
  name: "mbox_priorbox"
  type: "Concat"
  bottom: "ip7_mbox_priorbox"
  top: "mbox_priorbox"
  concat_param {
    axis: 2
  }
}
layer {
  name: "mbox_loss"
  type: "MultiBoxLoss"
  bottom: "mbox_loc"
  bottom: "mbox_conf"
  bottom: "mbox_priorbox"
  bottom: "label"
  top: "mbox_loss"
  include {
    phase: TRAIN
  }
  propagate_down: true
  propagate_down: true
  propagate_down: false
  propagate_down: false
  loss_param {
    normalization: VALID
  }
  multibox_loss_param {
    loc_loss_type: SMOOTH_L1
    conf_loss_type: SOFTMAX
    loc_weight: 1
    num_classes: 6
    share_location: true
    match_type: PER_PREDICTION
    overlap_threshold: 0.5
    use_prior_for_matching: true
    background_label_id: 0
    use_difficult_gt: true
    neg_pos_ratio: 3
    neg_overlap: 0.5
    code_type: CENTER_SIZE
    ignore_cross_boundary_bbox: false
    mining_type: MAX_NEGATIVE
  }
}
I0601 11:42:08.888613  9143 layer_factory.hpp:77] Creating layer data
I0601 11:42:08.888861  9143 net.cpp:100] Creating Layer data
I0601 11:42:08.888871  9143 net.cpp:408] data -> data
I0601 11:42:08.888895  9143 net.cpp:408] data -> label
I0601 11:42:08.889890  9166 db_lmdb.cpp:35] Opened lmdb /home/zhangwanchun/data/VOCdevkit/VOC0712/lmdb/VOC0712_trainval_lmdb
I0601 11:42:11.774569  9143 annotated_data_layer.cpp:62] output data size: 2,3,224,224
I0601 11:42:11.777091  9143 net.cpp:150] Setting up data
I0601 11:42:11.777106  9143 net.cpp:157] Top shape: 2 3 224 224 (301056)
I0601 11:42:11.777109  9143 net.cpp:157] Top shape: 1 1 1 8 (8)
I0601 11:42:11.777112  9143 net.cpp:165] Memory required for data: 1204256
I0601 11:42:11.777119  9143 layer_factory.hpp:77] Creating layer data_data_0_split
I0601 11:42:11.777127  9143 net.cpp:100] Creating Layer data_data_0_split
I0601 11:42:11.777132  9143 net.cpp:434] data_data_0_split <- data
I0601 11:42:11.777141  9143 net.cpp:408] data_data_0_split -> data_data_0_split_0
I0601 11:42:11.777164  9143 net.cpp:408] data_data_0_split -> data_data_0_split_1
I0601 11:42:11.777189  9143 net.cpp:150] Setting up data_data_0_split
I0601 11:42:11.777194  9143 net.cpp:157] Top shape: 2 3 224 224 (301056)
I0601 11:42:11.777197  9143 net.cpp:157] Top shape: 2 3 224 224 (301056)
I0601 11:42:11.777199  9143 net.cpp:165] Memory required for data: 3612704
I0601 11:42:11.777202  9143 layer_factory.hpp:77] Creating layer conv1_1
I0601 11:42:11.777209  9143 net.cpp:100] Creating Layer conv1_1
I0601 11:42:11.777212  9143 net.cpp:434] conv1_1 <- data_data_0_split_0
I0601 11:42:11.777215  9143 net.cpp:408] conv1_1 -> conv1_1
I0601 11:42:11.778455  9143 net.cpp:150] Setting up conv1_1
I0601 11:42:11.778463  9143 net.cpp:157] Top shape: 2 64 224 224 (6422528)
I0601 11:42:11.778466  9143 net.cpp:165] Memory required for data: 29302816
I0601 11:42:11.778477  9143 layer_factory.hpp:77] Creating layer quant_relu1_1
I0601 11:42:11.778483  9143 net.cpp:100] Creating Layer quant_relu1_1
I0601 11:42:11.778486  9143 net.cpp:434] quant_relu1_1 <- conv1_1
I0601 11:42:11.778491  9143 net.cpp:395] quant_relu1_1 -> conv1_1 (in-place)
I0601 11:42:11.781828  9143 net.cpp:150] Setting up quant_relu1_1
I0601 11:42:11.781841  9143 net.cpp:157] Top shape: 2 64 224 224 (6422528)
I0601 11:42:11.781842  9143 net.cpp:165] Memory required for data: 54992928
I0601 11:42:11.781850  9143 layer_factory.hpp:77] Creating layer conv1_2
I0601 11:42:11.781858  9143 net.cpp:100] Creating Layer conv1_2
I0601 11:42:11.781860  9143 net.cpp:434] conv1_2 <- conv1_1
I0601 11:42:11.781865  9143 net.cpp:408] conv1_2 -> conv1_2
I0601 11:42:11.782155  9143 net.cpp:150] Setting up conv1_2
I0601 11:42:11.782160  9143 net.cpp:157] Top shape: 2 64 224 224 (6422528)
I0601 11:42:11.782162  9143 net.cpp:165] Memory required for data: 80683040
I0601 11:42:11.782167  9143 layer_factory.hpp:77] Creating layer quant_relu1_2
I0601 11:42:11.782172  9143 net.cpp:100] Creating Layer quant_relu1_2
I0601 11:42:11.782174  9143 net.cpp:434] quant_relu1_2 <- conv1_2
I0601 11:42:11.782177  9143 net.cpp:395] quant_relu1_2 -> conv1_2 (in-place)
I0601 11:42:11.785604  9143 net.cpp:150] Setting up quant_relu1_2
I0601 11:42:11.785636  9143 net.cpp:157] Top shape: 2 64 224 224 (6422528)
I0601 11:42:11.785638  9143 net.cpp:165] Memory required for data: 106373152
I0601 11:42:11.785645  9143 layer_factory.hpp:77] Creating layer pool1
I0601 11:42:11.788957  9143 net.cpp:100] Creating Layer pool1
I0601 11:42:11.788995  9143 net.cpp:434] pool1 <- conv1_2
I0601 11:42:11.789002  9143 net.cpp:408] pool1 -> pool1
I0601 11:42:11.789063  9143 net.cpp:150] Setting up pool1
I0601 11:42:11.789069  9143 net.cpp:157] Top shape: 2 64 112 112 (1605632)
I0601 11:42:11.789088  9143 net.cpp:165] Memory required for data: 112795680
I0601 11:42:11.789090  9143 layer_factory.hpp:77] Creating layer conv2_1
I0601 11:42:11.789098  9143 net.cpp:100] Creating Layer conv2_1
I0601 11:42:11.789100  9143 net.cpp:434] conv2_1 <- pool1
I0601 11:42:11.789104  9143 net.cpp:408] conv2_1 -> conv2_1
I0601 11:42:11.790187  9143 net.cpp:150] Setting up conv2_1
I0601 11:42:11.790195  9143 net.cpp:157] Top shape: 2 128 112 112 (3211264)
I0601 11:42:11.790213  9143 net.cpp:165] Memory required for data: 125640736
I0601 11:42:11.790218  9143 layer_factory.hpp:77] Creating layer quant_relu2_1
I0601 11:42:11.790225  9143 net.cpp:100] Creating Layer quant_relu2_1
I0601 11:42:11.790228  9143 net.cpp:434] quant_relu2_1 <- conv2_1
I0601 11:42:11.790232  9143 net.cpp:395] quant_relu2_1 -> conv2_1 (in-place)
I0601 11:42:11.792068  9143 net.cpp:150] Setting up quant_relu2_1
I0601 11:42:11.792078  9143 net.cpp:157] Top shape: 2 128 112 112 (3211264)
I0601 11:42:11.792081  9143 net.cpp:165] Memory required for data: 138485792
I0601 11:42:11.792088  9143 layer_factory.hpp:77] Creating layer conv2_2
I0601 11:42:11.792095  9143 net.cpp:100] Creating Layer conv2_2
I0601 11:42:11.792098  9143 net.cpp:434] conv2_2 <- conv2_1
I0601 11:42:11.792102  9143 net.cpp:408] conv2_2 -> conv2_2
I0601 11:42:11.792835  9143 net.cpp:150] Setting up conv2_2
I0601 11:42:11.792856  9143 net.cpp:157] Top shape: 2 128 112 112 (3211264)
I0601 11:42:11.792860  9143 net.cpp:165] Memory required for data: 151330848
I0601 11:42:11.792863  9143 layer_factory.hpp:77] Creating layer quant_relu2_2
I0601 11:42:11.792868  9143 net.cpp:100] Creating Layer quant_relu2_2
I0601 11:42:11.792873  9143 net.cpp:434] quant_relu2_2 <- conv2_2
I0601 11:42:11.792877  9143 net.cpp:395] quant_relu2_2 -> conv2_2 (in-place)
I0601 11:42:11.795420  9143 net.cpp:150] Setting up quant_relu2_2
I0601 11:42:11.795431  9143 net.cpp:157] Top shape: 2 128 112 112 (3211264)
I0601 11:42:11.795433  9143 net.cpp:165] Memory required for data: 164175904
I0601 11:42:11.795439  9143 layer_factory.hpp:77] Creating layer pool2
I0601 11:42:11.795444  9143 net.cpp:100] Creating Layer pool2
I0601 11:42:11.795447  9143 net.cpp:434] pool2 <- conv2_2
I0601 11:42:11.795451  9143 net.cpp:408] pool2 -> pool2
I0601 11:42:11.795475  9143 net.cpp:150] Setting up pool2
I0601 11:42:11.795480  9143 net.cpp:157] Top shape: 2 128 56 56 (802816)
I0601 11:42:11.795482  9143 net.cpp:165] Memory required for data: 167387168
I0601 11:42:11.795485  9143 layer_factory.hpp:77] Creating layer conv3_1
I0601 11:42:11.795490  9143 net.cpp:100] Creating Layer conv3_1
I0601 11:42:11.795493  9143 net.cpp:434] conv3_1 <- pool2
I0601 11:42:11.795497  9143 net.cpp:408] conv3_1 -> conv3_1
I0601 11:42:11.797278  9143 net.cpp:150] Setting up conv3_1
I0601 11:42:11.797288  9143 net.cpp:157] Top shape: 2 256 56 56 (1605632)
I0601 11:42:11.797291  9143 net.cpp:165] Memory required for data: 173809696
I0601 11:42:11.797297  9143 layer_factory.hpp:77] Creating layer quant_relu3_1
I0601 11:42:11.797302  9143 net.cpp:100] Creating Layer quant_relu3_1
I0601 11:42:11.797305  9143 net.cpp:434] quant_relu3_1 <- conv3_1
I0601 11:42:11.797310  9143 net.cpp:395] quant_relu3_1 -> conv3_1 (in-place)
I0601 11:42:11.798341  9143 net.cpp:150] Setting up quant_relu3_1
I0601 11:42:11.798348  9143 net.cpp:157] Top shape: 2 256 56 56 (1605632)
I0601 11:42:11.798350  9143 net.cpp:165] Memory required for data: 180232224
I0601 11:42:11.798355  9143 layer_factory.hpp:77] Creating layer conv3_2
I0601 11:42:11.798360  9143 net.cpp:100] Creating Layer conv3_2
I0601 11:42:11.798362  9143 net.cpp:434] conv3_2 <- conv3_1
I0601 11:42:11.798367  9143 net.cpp:408] conv3_2 -> conv3_2
I0601 11:42:11.801123  9143 net.cpp:150] Setting up conv3_2
I0601 11:42:11.801132  9143 net.cpp:157] Top shape: 2 256 56 56 (1605632)
I0601 11:42:11.801160  9143 net.cpp:165] Memory required for data: 186654752
I0601 11:42:11.801168  9143 layer_factory.hpp:77] Creating layer quant_relu3_2
I0601 11:42:11.801174  9143 net.cpp:100] Creating Layer quant_relu3_2
I0601 11:42:11.801177  9143 net.cpp:434] quant_relu3_2 <- conv3_2
I0601 11:42:11.801182  9143 net.cpp:395] quant_relu3_2 -> conv3_2 (in-place)
I0601 11:42:11.802315  9143 net.cpp:150] Setting up quant_relu3_2
I0601 11:42:11.802323  9143 net.cpp:157] Top shape: 2 256 56 56 (1605632)
I0601 11:42:11.802340  9143 net.cpp:165] Memory required for data: 193077280
I0601 11:42:11.802343  9143 layer_factory.hpp:77] Creating layer conv3_3
I0601 11:42:11.802350  9143 net.cpp:100] Creating Layer conv3_3
I0601 11:42:11.802353  9143 net.cpp:434] conv3_3 <- conv3_2
I0601 11:42:11.802358  9143 net.cpp:408] conv3_3 -> conv3_3
I0601 11:42:11.805315  9143 net.cpp:150] Setting up conv3_3
I0601 11:42:11.805343  9143 net.cpp:157] Top shape: 2 256 56 56 (1605632)
I0601 11:42:11.805346  9143 net.cpp:165] Memory required for data: 199499808
I0601 11:42:11.805353  9143 layer_factory.hpp:77] Creating layer quant_relu3_3
I0601 11:42:11.805361  9143 net.cpp:100] Creating Layer quant_relu3_3
I0601 11:42:11.805366  9143 net.cpp:434] quant_relu3_3 <- conv3_3
I0601 11:42:11.805371  9143 net.cpp:395] quant_relu3_3 -> conv3_3 (in-place)
I0601 11:42:11.806874  9143 net.cpp:150] Setting up quant_relu3_3
I0601 11:42:11.806903  9143 net.cpp:157] Top shape: 2 256 56 56 (1605632)
I0601 11:42:11.806907  9143 net.cpp:165] Memory required for data: 205922336
I0601 11:42:11.806912  9143 layer_factory.hpp:77] Creating layer pool3
I0601 11:42:11.806918  9143 net.cpp:100] Creating Layer pool3
I0601 11:42:11.806921  9143 net.cpp:434] pool3 <- conv3_3
I0601 11:42:11.806926  9143 net.cpp:408] pool3 -> pool3
I0601 11:42:11.806947  9143 net.cpp:150] Setting up pool3
I0601 11:42:11.806965  9143 net.cpp:157] Top shape: 2 256 28 28 (401408)
I0601 11:42:11.806968  9143 net.cpp:165] Memory required for data: 207527968
I0601 11:42:11.806970  9143 layer_factory.hpp:77] Creating layer conv4_1
I0601 11:42:11.806990  9143 net.cpp:100] Creating Layer conv4_1
I0601 11:42:11.806993  9143 net.cpp:434] conv4_1 <- pool3
I0601 11:42:11.806998  9143 net.cpp:408] conv4_1 -> conv4_1
I0601 11:42:11.813184  9143 net.cpp:150] Setting up conv4_1
I0601 11:42:11.813200  9143 net.cpp:157] Top shape: 2 512 28 28 (802816)
I0601 11:42:11.813202  9143 net.cpp:165] Memory required for data: 210739232
I0601 11:42:11.813210  9143 layer_factory.hpp:77] Creating layer quant_relu4_1
I0601 11:42:11.813216  9143 net.cpp:100] Creating Layer quant_relu4_1
I0601 11:42:11.813220  9143 net.cpp:434] quant_relu4_1 <- conv4_1
I0601 11:42:11.813225  9143 net.cpp:395] quant_relu4_1 -> conv4_1 (in-place)
I0601 11:42:11.814057  9143 net.cpp:150] Setting up quant_relu4_1
I0601 11:42:11.814065  9143 net.cpp:157] Top shape: 2 512 28 28 (802816)
I0601 11:42:11.814067  9143 net.cpp:165] Memory required for data: 213950496
I0601 11:42:11.814071  9143 layer_factory.hpp:77] Creating layer conv4_2
I0601 11:42:11.814079  9143 net.cpp:100] Creating Layer conv4_2
I0601 11:42:11.814081  9143 net.cpp:434] conv4_2 <- conv4_1
I0601 11:42:11.814085  9143 net.cpp:408] conv4_2 -> conv4_2
I0601 11:42:11.824169  9143 net.cpp:150] Setting up conv4_2
I0601 11:42:11.824183  9143 net.cpp:157] Top shape: 2 512 28 28 (802816)
I0601 11:42:11.824187  9143 net.cpp:165] Memory required for data: 217161760
I0601 11:42:11.824192  9143 layer_factory.hpp:77] Creating layer quant_relu4_2
I0601 11:42:11.824198  9143 net.cpp:100] Creating Layer quant_relu4_2
I0601 11:42:11.824199  9143 net.cpp:434] quant_relu4_2 <- conv4_2
I0601 11:42:11.824204  9143 net.cpp:395] quant_relu4_2 -> conv4_2 (in-place)
I0601 11:42:11.824936  9143 net.cpp:150] Setting up quant_relu4_2
I0601 11:42:11.824944  9143 net.cpp:157] Top shape: 2 512 28 28 (802816)
I0601 11:42:11.824946  9143 net.cpp:165] Memory required for data: 220373024
I0601 11:42:11.824951  9143 layer_factory.hpp:77] Creating layer conv4_3
I0601 11:42:11.824956  9143 net.cpp:100] Creating Layer conv4_3
I0601 11:42:11.824970  9143 net.cpp:434] conv4_3 <- conv4_2
I0601 11:42:11.824975  9143 net.cpp:408] conv4_3 -> conv4_3
I0601 11:42:11.835216  9143 net.cpp:150] Setting up conv4_3
I0601 11:42:11.835233  9143 net.cpp:157] Top shape: 2 512 28 28 (802816)
I0601 11:42:11.835237  9143 net.cpp:165] Memory required for data: 223584288
I0601 11:42:11.835244  9143 layer_factory.hpp:77] Creating layer quant_relu4_3
I0601 11:42:11.835253  9143 net.cpp:100] Creating Layer quant_relu4_3
I0601 11:42:11.835255  9143 net.cpp:434] quant_relu4_3 <- conv4_3
I0601 11:42:11.835283  9143 net.cpp:395] quant_relu4_3 -> conv4_3 (in-place)
I0601 11:42:11.836100  9143 net.cpp:150] Setting up quant_relu4_3
I0601 11:42:11.836108  9143 net.cpp:157] Top shape: 2 512 28 28 (802816)
I0601 11:42:11.836112  9143 net.cpp:165] Memory required for data: 226795552
I0601 11:42:11.836114  9143 layer_factory.hpp:77] Creating layer pool4
I0601 11:42:11.836119  9143 net.cpp:100] Creating Layer pool4
I0601 11:42:11.836122  9143 net.cpp:434] pool4 <- conv4_3
I0601 11:42:11.836127  9143 net.cpp:408] pool4 -> pool4
I0601 11:42:11.836171  9143 net.cpp:150] Setting up pool4
I0601 11:42:11.836176  9143 net.cpp:157] Top shape: 2 512 14 14 (200704)
I0601 11:42:11.836179  9143 net.cpp:165] Memory required for data: 227598368
I0601 11:42:11.836181  9143 layer_factory.hpp:77] Creating layer conv5_1
I0601 11:42:11.836186  9143 net.cpp:100] Creating Layer conv5_1
I0601 11:42:11.836189  9143 net.cpp:434] conv5_1 <- pool4
I0601 11:42:11.836192  9143 net.cpp:408] conv5_1 -> conv5_1
I0601 11:42:11.846796  9143 net.cpp:150] Setting up conv5_1
I0601 11:42:11.846814  9143 net.cpp:157] Top shape: 2 512 14 14 (200704)
I0601 11:42:11.846817  9143 net.cpp:165] Memory required for data: 228401184
I0601 11:42:11.846822  9143 layer_factory.hpp:77] Creating layer quant_relu5_1
I0601 11:42:11.846829  9143 net.cpp:100] Creating Layer quant_relu5_1
I0601 11:42:11.846832  9143 net.cpp:434] quant_relu5_1 <- conv5_1
I0601 11:42:11.846837  9143 net.cpp:395] quant_relu5_1 -> conv5_1 (in-place)
I0601 11:42:11.846966  9143 net.cpp:150] Setting up quant_relu5_1
I0601 11:42:11.846972  9143 net.cpp:157] Top shape: 2 512 14 14 (200704)
I0601 11:42:11.846974  9143 net.cpp:165] Memory required for data: 229204000
I0601 11:42:11.846982  9143 layer_factory.hpp:77] Creating layer conv5_2
I0601 11:42:11.846987  9143 net.cpp:100] Creating Layer conv5_2
I0601 11:42:11.846990  9143 net.cpp:434] conv5_2 <- conv5_1
I0601 11:42:11.846995  9143 net.cpp:408] conv5_2 -> conv5_2
I0601 11:42:11.857199  9143 net.cpp:150] Setting up conv5_2
I0601 11:42:11.857211  9143 net.cpp:157] Top shape: 2 512 14 14 (200704)
I0601 11:42:11.857214  9143 net.cpp:165] Memory required for data: 230006816
I0601 11:42:11.857220  9143 layer_factory.hpp:77] Creating layer quant_relu5_2
I0601 11:42:11.857226  9143 net.cpp:100] Creating Layer quant_relu5_2
I0601 11:42:11.857228  9143 net.cpp:434] quant_relu5_2 <- conv5_2
I0601 11:42:11.857232  9143 net.cpp:395] quant_relu5_2 -> conv5_2 (in-place)
I0601 11:42:11.857313  9143 net.cpp:150] Setting up quant_relu5_2
I0601 11:42:11.857318  9143 net.cpp:157] Top shape: 2 512 14 14 (200704)
I0601 11:42:11.857321  9143 net.cpp:165] Memory required for data: 230809632
I0601 11:42:11.857323  9143 layer_factory.hpp:77] Creating layer conv5_3
I0601 11:42:11.857329  9143 net.cpp:100] Creating Layer conv5_3
I0601 11:42:11.857331  9143 net.cpp:434] conv5_3 <- conv5_2
I0601 11:42:11.857336  9143 net.cpp:408] conv5_3 -> conv5_3
I0601 11:42:11.867650  9143 net.cpp:150] Setting up conv5_3
I0601 11:42:11.867667  9143 net.cpp:157] Top shape: 2 512 14 14 (200704)
I0601 11:42:11.867671  9143 net.cpp:165] Memory required for data: 231612448
I0601 11:42:11.867676  9143 layer_factory.hpp:77] Creating layer quant_relu5_3
I0601 11:42:11.867683  9143 net.cpp:100] Creating Layer quant_relu5_3
I0601 11:42:11.867686  9143 net.cpp:434] quant_relu5_3 <- conv5_3
I0601 11:42:11.867692  9143 net.cpp:395] quant_relu5_3 -> conv5_3 (in-place)
I0601 11:42:11.867789  9143 net.cpp:150] Setting up quant_relu5_3
I0601 11:42:11.867794  9143 net.cpp:157] Top shape: 2 512 14 14 (200704)
I0601 11:42:11.867810  9143 net.cpp:165] Memory required for data: 232415264
I0601 11:42:11.867813  9143 layer_factory.hpp:77] Creating layer pool5
I0601 11:42:11.867822  9143 net.cpp:100] Creating Layer pool5
I0601 11:42:11.867825  9143 net.cpp:434] pool5 <- conv5_3
I0601 11:42:11.867828  9143 net.cpp:408] pool5 -> pool5
I0601 11:42:11.867852  9143 net.cpp:150] Setting up pool5
I0601 11:42:11.867856  9143 net.cpp:157] Top shape: 2 512 7 7 (50176)
I0601 11:42:11.867859  9143 net.cpp:165] Memory required for data: 232615968
I0601 11:42:11.867861  9143 layer_factory.hpp:77] Creating layer ip6
I0601 11:42:11.867868  9143 net.cpp:100] Creating Layer ip6
I0601 11:42:11.867871  9143 net.cpp:434] ip6 <- pool5
I0601 11:42:11.867874  9143 net.cpp:408] ip6 -> ip6
I0601 11:42:12.759146  9143 net.cpp:150] Setting up ip6
I0601 11:42:12.759163  9143 net.cpp:157] Top shape: 2 512 7 7 (50176)
I0601 11:42:12.759167  9143 net.cpp:165] Memory required for data: 232816672
I0601 11:42:12.759174  9143 layer_factory.hpp:77] Creating layer relu6
I0601 11:42:12.759181  9143 net.cpp:100] Creating Layer relu6
I0601 11:42:12.759183  9143 net.cpp:434] relu6 <- ip6
I0601 11:42:12.759188  9143 net.cpp:395] relu6 -> ip6 (in-place)
I0601 11:42:12.759549  9143 net.cpp:150] Setting up relu6
I0601 11:42:12.759557  9143 net.cpp:157] Top shape: 2 512 7 7 (50176)
I0601 11:42:12.759559  9143 net.cpp:165] Memory required for data: 233017376
I0601 11:42:12.759562  9143 layer_factory.hpp:77] Creating layer ip7
I0601 11:42:12.759570  9143 net.cpp:100] Creating Layer ip7
I0601 11:42:12.759573  9143 net.cpp:434] ip7 <- ip6
I0601 11:42:12.759578  9143 net.cpp:408] ip7 -> ip7
I0601 11:42:12.762893  9143 net.cpp:150] Setting up ip7
I0601 11:42:12.762903  9143 net.cpp:157] Top shape: 2 512 7 7 (50176)
I0601 11:42:12.762907  9143 net.cpp:165] Memory required for data: 233218080
I0601 11:42:12.762910  9143 layer_factory.hpp:77] Creating layer relu7
I0601 11:42:12.762915  9143 net.cpp:100] Creating Layer relu7
I0601 11:42:12.762917  9143 net.cpp:434] relu7 <- ip7
I0601 11:42:12.762920  9143 net.cpp:395] relu7 -> ip7 (in-place)
I0601 11:42:12.763265  9143 net.cpp:150] Setting up relu7
I0601 11:42:12.763274  9143 net.cpp:157] Top shape: 2 512 7 7 (50176)
I0601 11:42:12.763278  9143 net.cpp:165] Memory required for data: 233418784
I0601 11:42:12.763280  9143 layer_factory.hpp:77] Creating layer ip7_relu7_0_split
I0601 11:42:12.763284  9143 net.cpp:100] Creating Layer ip7_relu7_0_split
I0601 11:42:12.763286  9143 net.cpp:434] ip7_relu7_0_split <- ip7
I0601 11:42:12.763291  9143 net.cpp:408] ip7_relu7_0_split -> ip7_relu7_0_split_0
I0601 11:42:12.763295  9143 net.cpp:408] ip7_relu7_0_split -> ip7_relu7_0_split_1
I0601 11:42:12.763299  9143 net.cpp:408] ip7_relu7_0_split -> ip7_relu7_0_split_2
I0601 11:42:12.763345  9143 net.cpp:150] Setting up ip7_relu7_0_split
I0601 11:42:12.763350  9143 net.cpp:157] Top shape: 2 512 7 7 (50176)
I0601 11:42:12.763352  9143 net.cpp:157] Top shape: 2 512 7 7 (50176)
I0601 11:42:12.763355  9143 net.cpp:157] Top shape: 2 512 7 7 (50176)
I0601 11:42:12.763357  9143 net.cpp:165] Memory required for data: 234020896
I0601 11:42:12.763360  9143 layer_factory.hpp:77] Creating layer ip7_mbox_loc
I0601 11:42:12.763365  9143 net.cpp:100] Creating Layer ip7_mbox_loc
I0601 11:42:12.763368  9143 net.cpp:434] ip7_mbox_loc <- ip7_relu7_0_split_0
I0601 11:42:12.763372  9143 net.cpp:408] ip7_mbox_loc -> ip7_mbox_loc
I0601 11:42:12.766484  9143 net.cpp:150] Setting up ip7_mbox_loc
I0601 11:42:12.766494  9143 net.cpp:157] Top shape: 2 24 7 7 (2352)
I0601 11:42:12.766496  9143 net.cpp:165] Memory required for data: 234030304
I0601 11:42:12.766500  9143 layer_factory.hpp:77] Creating layer ip7_mbox_loc_perm
I0601 11:42:12.766506  9143 net.cpp:100] Creating Layer ip7_mbox_loc_perm
I0601 11:42:12.766510  9143 net.cpp:434] ip7_mbox_loc_perm <- ip7_mbox_loc
I0601 11:42:12.766513  9143 net.cpp:408] ip7_mbox_loc_perm -> ip7_mbox_loc_perm
I0601 11:42:12.766597  9143 net.cpp:150] Setting up ip7_mbox_loc_perm
I0601 11:42:12.766602  9143 net.cpp:157] Top shape: 2 7 7 24 (2352)
I0601 11:42:12.766615  9143 net.cpp:165] Memory required for data: 234039712
I0601 11:42:12.766618  9143 layer_factory.hpp:77] Creating layer ip7_mbox_loc_flat
I0601 11:42:12.766628  9143 net.cpp:100] Creating Layer ip7_mbox_loc_flat
I0601 11:42:12.766630  9143 net.cpp:434] ip7_mbox_loc_flat <- ip7_mbox_loc_perm
I0601 11:42:12.766633  9143 net.cpp:408] ip7_mbox_loc_flat -> ip7_mbox_loc_flat
I0601 11:42:12.766654  9143 net.cpp:150] Setting up ip7_mbox_loc_flat
I0601 11:42:12.766659  9143 net.cpp:157] Top shape: 2 1176 (2352)
I0601 11:42:12.766660  9143 net.cpp:165] Memory required for data: 234049120
I0601 11:42:12.766662  9143 layer_factory.hpp:77] Creating layer ip7_mbox_conf
I0601 11:42:12.766669  9143 net.cpp:100] Creating Layer ip7_mbox_conf
I0601 11:42:12.766670  9143 net.cpp:434] ip7_mbox_conf <- ip7_relu7_0_split_1
I0601 11:42:12.766676  9143 net.cpp:408] ip7_mbox_conf -> ip7_mbox_conf
I0601 11:42:12.769062  9143 net.cpp:150] Setting up ip7_mbox_conf
I0601 11:42:12.769071  9143 net.cpp:157] Top shape: 2 36 7 7 (3528)
I0601 11:42:12.769074  9143 net.cpp:165] Memory required for data: 234063232
I0601 11:42:12.769079  9143 layer_factory.hpp:77] Creating layer ip7_mbox_conf_perm
I0601 11:42:12.769083  9143 net.cpp:100] Creating Layer ip7_mbox_conf_perm
I0601 11:42:12.769086  9143 net.cpp:434] ip7_mbox_conf_perm <- ip7_mbox_conf
I0601 11:42:12.769090  9143 net.cpp:408] ip7_mbox_conf_perm -> ip7_mbox_conf_perm
I0601 11:42:12.769173  9143 net.cpp:150] Setting up ip7_mbox_conf_perm
I0601 11:42:12.769178  9143 net.cpp:157] Top shape: 2 7 7 36 (3528)
I0601 11:42:12.769181  9143 net.cpp:165] Memory required for data: 234077344
I0601 11:42:12.769182  9143 layer_factory.hpp:77] Creating layer ip7_mbox_conf_flat
I0601 11:42:12.769186  9143 net.cpp:100] Creating Layer ip7_mbox_conf_flat
I0601 11:42:12.769188  9143 net.cpp:434] ip7_mbox_conf_flat <- ip7_mbox_conf_perm
I0601 11:42:12.769193  9143 net.cpp:408] ip7_mbox_conf_flat -> ip7_mbox_conf_flat
I0601 11:42:12.769215  9143 net.cpp:150] Setting up ip7_mbox_conf_flat
I0601 11:42:12.769220  9143 net.cpp:157] Top shape: 2 1764 (3528)
I0601 11:42:12.769223  9143 net.cpp:165] Memory required for data: 234091456
I0601 11:42:12.769225  9143 layer_factory.hpp:77] Creating layer ip7_mbox_priorbox
I0601 11:42:12.769230  9143 net.cpp:100] Creating Layer ip7_mbox_priorbox
I0601 11:42:12.769233  9143 net.cpp:434] ip7_mbox_priorbox <- ip7_relu7_0_split_2
I0601 11:42:12.769237  9143 net.cpp:434] ip7_mbox_priorbox <- data_data_0_split_1
I0601 11:42:12.769241  9143 net.cpp:408] ip7_mbox_priorbox -> ip7_mbox_priorbox
I0601 11:42:12.769294  9143 net.cpp:150] Setting up ip7_mbox_priorbox
I0601 11:42:12.769299  9143 net.cpp:157] Top shape: 1 2 1176 (2352)
I0601 11:42:12.769301  9143 net.cpp:165] Memory required for data: 234100864
I0601 11:42:12.769320  9143 layer_factory.hpp:77] Creating layer mbox_loc
I0601 11:42:12.769323  9143 net.cpp:100] Creating Layer mbox_loc
I0601 11:42:12.769325  9143 net.cpp:434] mbox_loc <- ip7_mbox_loc_flat
I0601 11:42:12.769343  9143 net.cpp:408] mbox_loc -> mbox_loc
I0601 11:42:12.769384  9143 net.cpp:150] Setting up mbox_loc
I0601 11:42:12.769388  9143 net.cpp:157] Top shape: 2 1176 (2352)
I0601 11:42:12.769390  9143 net.cpp:165] Memory required for data: 234110272
I0601 11:42:12.769393  9143 layer_factory.hpp:77] Creating layer mbox_conf
I0601 11:42:12.769397  9143 net.cpp:100] Creating Layer mbox_conf
I0601 11:42:12.769399  9143 net.cpp:434] mbox_conf <- ip7_mbox_conf_flat
I0601 11:42:12.769403  9143 net.cpp:408] mbox_conf -> mbox_conf
I0601 11:42:12.769423  9143 net.cpp:150] Setting up mbox_conf
I0601 11:42:12.769426  9143 net.cpp:157] Top shape: 2 1764 (3528)
I0601 11:42:12.769428  9143 net.cpp:165] Memory required for data: 234124384
I0601 11:42:12.769430  9143 layer_factory.hpp:77] Creating layer mbox_priorbox
I0601 11:42:12.769434  9143 net.cpp:100] Creating Layer mbox_priorbox
I0601 11:42:12.769436  9143 net.cpp:434] mbox_priorbox <- ip7_mbox_priorbox
I0601 11:42:12.769440  9143 net.cpp:408] mbox_priorbox -> mbox_priorbox
I0601 11:42:12.769465  9143 net.cpp:150] Setting up mbox_priorbox
I0601 11:42:12.769470  9143 net.cpp:157] Top shape: 1 2 1176 (2352)
I0601 11:42:12.769472  9143 net.cpp:165] Memory required for data: 234133792
I0601 11:42:12.769474  9143 layer_factory.hpp:77] Creating layer mbox_loss
I0601 11:42:12.769482  9143 net.cpp:100] Creating Layer mbox_loss
I0601 11:42:12.769486  9143 net.cpp:434] mbox_loss <- mbox_loc
I0601 11:42:12.769490  9143 net.cpp:434] mbox_loss <- mbox_conf
I0601 11:42:12.769493  9143 net.cpp:434] mbox_loss <- mbox_priorbox
…
  name: "data"
  type: "AnnotatedData"
  top: "data"
  top: "label"
  include {
    phase: TEST
  }
  transform_param {
    scale: 0.12156863
    resize_param {
      prob: 1
      resize_mode: WARP
      height: 224
      width: 224
      interp_mode: LINEAR
    }
  }
  data_param {
    source: "/home/zhangwanchun/data/VOCdevkit/VOC0712/lmdb/VOC0712_test_lmdb"
    batch_size: 10
    backend: LMDB
  }
  annotated_data_param {
    batch_sampler {
    }
    label_map_file: "/home/zhangwanchun/data/VOCdevkit/VOC0712/lmdb/labelmap_voc.prototxt"
  }
}
layer {
  name: "conv1_1"
  type: "QuantConvolution"
  bottom: "data"
  top: "conv1_1"
  convolution_param {
    num_output: 64
    pad: 1
    kernel_size: 3
    weight_filler {
      type: "xavier"
    }
    bias_filler {
      type: "constant"
      value: 0
    }
  }
  quant_convolution_param {
    coef_precision: THREE_BITS
    bw_params: 8
    shift_enable: false
  }
}
layer {
  name: "quant_relu1_1"
  type: "QuantReLU"
  bottom: "conv1_1"
  top: "conv1_1"
  param {
    lr_mult: 0
  }
  quant_relu_param {
    filler {
      type: "constant"
      value: 35.099712
    }
    channel_shared: true
    act_bits: 5
    quant_enable: true
  }
}
layer {
  name: "conv1_2"
  type: "QuantConvolution"
  bottom: "conv1_1"
  top: "conv1_2"
  convolution_param {
    num_output: 64
    pad: 1
    kernel_size: 3
    weight_filler {
      type: "xavier"
    }
    bias_filler {
      type: "constant"
      value: 0
    }
  }
  quant_convolution_param {
    coef_precision: THREE_BITS
    bw_params: 8
    shift_enable: false
  }
}
layer {
  name: "quant_relu1_2"
  type: "QuantReLU"
  bottom: "conv1_2"
  top: "conv1_2"
  param {
    lr_mult: 0
  }
  quant_relu_param {
    filler {
      type: "constant"
      value: 42.255703
    }
    channel_shared: true
    act_bits: 5
    quant_enable: true
  }
}
layer {
  name: "pool1"
  type: "Pooling"
  bottom: "conv1_2"
  top: "pool1"
  pooling_param {
    pool: MAX
    kernel_size: 2
    stride: 2
  }
}
layer {
  name: "conv2_1"
  type: "QuantConvolution"
  bottom: "pool1"
  top: "conv2_1"
  convolution_param {
    num_output: 128
    pad: 1
    kernel_size: 3
    weight_filler {
      type: "xavier"
    }
    bias_filler {
      type: "constant"
      value: 0
    }
  }
  quant_convolution_param {
    coef_precision: THREE_BITS
    bw_params: 8
    shift_enable: false
  }
}
layer {
  name: "quant_relu2_1"
  type: "QuantReLU"
  bottom: "conv2_1"
  top: "conv2_1"
  param {
    lr_mult: 0
  }
  quant_relu_param {
    filler {
      type: "constant"
      value: 36.365536
    }
    channel_shared: true
    act_bits: 5
    quant_enable: true
  }
}
layer {
  name: "conv2_2"
  type: "QuantConvolution"
  bottom: "conv2_1"
  top: "conv2_2"
  convolution_param {
    num_output: 128
    pad: 1
    kernel_size: 3
    weight_filler {
      type: "xavier"
    }
    bias_filler {
      type: "constant"
      value: 0
    }
  }
  quant_convolution_param {
    coef_precision: THREE_BITS
    bw_params: 8
    shift_enable: false
  }
}
layer {
  name: "quant_relu2_2"
  type: "QuantReLU"
  bottom: "conv2_2"
  top: "conv2_2"
  param {
    lr_mult: 0
  }
  quant_relu_param {
    filler {
      type: "constant"
      value: 39.094463
    }
    channel_shared: true
    act_bits: 5
    quant_enable: true
  }
}
layer {
  name: "pool2"
  type: "Pooling"
  bottom: "conv2_2"
  top: "pool2"
  pooling_param {
    pool: MAX
    kernel_size: 2
    stride: 2
  }
}
layer {
  name: "conv3_1"
  type: "QuantConvolution"
  bottom: "pool2"
  top: "conv3_1"
  convolution_param {
    num_output: 256
    pad: 1
    kernel_size: 3
    weight_filler {
      type: "xavier"
    }
    bias_filler {
      type: "constant"
      value: 0
    }
  }
  quant_convolution_param {
    coef_precision: THREE_BITS
    bw_params: 8
    shift_enable: false
  }
}
layer {
  name: "quant_relu3_1"
  type: "QuantReLU"
  bottom: "conv3_1"
  top: "conv3_1"
  param {
    lr_mult: 0
  }
  quant_relu_param {
    filler {
      type: "constant"
      value: 21.244652
    }
    channel_shared: true
    act_bits: 5
    quant_enable: true
  }
}
layer {
  name: "conv3_2"
  type: "QuantConvolution"
  bottom: "conv3_1"
  top: "conv3_2"
  convolution_param {
    num_output: 256
    pad: 1
    kernel_size: 3
    weight_filler {
      type: "xavier"
    }
    bias_filler {
      type: "constant"
      value: 0
    }
  }
  quant_convolution_param {
    coef_precision: THREE_BITS
    bw_params: 8
    shift_enable: false
  }
}
layer {
  name: "quant_relu3_2"
  type: "QuantReLU"
  bottom: "conv3_2"
  top: "conv3_2"
  param {
    lr_mult: 0
  }
  quant_relu_param {
    filler {
      type: "constant"
      value: 18.106991
    }
    channel_shared: true
    act_bits: 5
    quant_enable: true
  }
}
layer {
  name: "conv3_3"
  type: "QuantConvolution"
  bottom: "conv3_2"
  top: "conv3_3"
  convolution_param {
    num_output: 256
    pad: 1
    kernel_size: 3
    weight_filler {
      type: "xavier"
    }
    bias_filler {
      type: "constant"
      value: 0
    }
  }
  quant_convolution_param {
    coef_precision: THREE_BITS
    bw_params: 8
    shift_enable: false
  }
}
layer {
  name: "quant_relu3_3"
  type: "QuantReLU"
  bottom: "conv3_3"
  top: "conv3_3"
  param {
    lr_mult: 0
  }
  quant_relu_param {
    filler {
      type: "constant"
      value: 15.488476
    }
    channel_shared: true
    act_bits: 5
    quant_enable: true
  }
}
layer {
  name: "pool3"
  type: "Pooling"
  bottom: "conv3_3"
  top: "pool3"
  pooling_param {
    pool: MAX
    kernel_size: 2
    stride: 2
  }
}
layer {
  name: "conv4_1"
  type: "QuantConvolution"
  bottom: "pool3"
  top: "conv4_1"
  convolution_param {
    num_output: 512
    pad: 1
    kernel_size: 3
    weight_filler {
      type: "xavier"
    }
    bias_filler {
      type: "constant"
      value: 0
    }
  }
  quant_convolution_param {
    coef_precision: ONE_BIT
    bw_params: 8
    shift_enable: false
  }
}
layer {
  name: "quant_relu4_1"
  type: "QuantReLU"
  bottom: "conv4_1"
  top: "conv4_1"
  param {
    lr_mult: 0
  }
  quant_relu_param {
    filler {
      type: "constant"
      value: 12.230655
    }
    channel_shared: true
    act_bits: 5
    quant_enable: true
  }
}
layer {
  name: "conv4_2"
  type: "QuantConvolution"
  bottom: "conv4_1"
  top: "conv4_2"
  convolution_param {
    num_output: 512
    pad: 1
    kernel_size: 3
    weight_filler {
      type: "xavier"
    }
    bias_filler {
      type: "constant"
      value: 0
    }
  }
  quant_convolution_param {
    coef_precision: ONE_BIT
    bw_params: 8
    shift_enable: false
  }
}
layer {
  name: "quant_relu4_2"
  type: "QuantReLU"
  bottom: "conv4_2"
  top: "conv4_2"
  param {
    lr_mult: 0
  }
  quant_relu_param {
    filler {
      type: "constant"
      value: 9.91371
    }
    channel_shared: true
    act_bits: 5
    quant_enable: true
  }
}
layer {
  name: "conv4_3"
  type: "QuantConvolution"
  bottom: "conv4_2"
  top: "conv4_3"
  convolution_param {
    num_output: 512
    pad: 1
    kernel_size: 3
    weight_filler {
      type: "xavier"
    }
    bias_filler {
      type: "constant"
      value: 0
    }
  }
  quant_convolution_param {
    coef_precision: ONE_BIT
    bw_params: 8
    shift_enable: false
  }
}
layer {
  name: "quant_relu4_3"
  type: "QuantReLU"
  bottom: "conv4_3"
  top: "conv4_3"
  param {
    lr_mult: 0
  }
  quant_relu_param {
    filler {
      type: "constant"
      value: 6.2723484
    }
    channel_shared: true
    act_bits: 5
    quant_enable: true
  }
}
layer {
  name: "pool4"
  type: "Pooling"
  bottom: "conv4_3"
  top: "pool4"
  pooling_param {
    pool: MAX
    kernel_size: 2
    stride: 2
  }
}
layer {
  name: "conv5_1"
  type: "QuantConvolution"
  bottom: "pool4"
  top: "conv5_1"
  convolution_param {
    num_output: 512
    pad: 1
    kernel_size: 3
    weight_filler {
      type: "xavier"
    }
    bias_filler {
      type: "constant"
      value: 0
    }
  }
  quant_convolution_param {
    coef_precision: ONE_BIT
    bw_params: 8
    shift_enable: false
  }
}
layer {
  name: "quant_relu5_1"
  type: "QuantReLU"
  bottom: "conv5_1"
  top: "conv5_1"
  param {
    lr_mult: 0
  }
  quant_relu_param {
    filler {
      type: "constant"
      value: 5.7012129
    }
    channel_shared: true
    act_bits: 5
    quant_enable: true
  }
}
layer {
  name: "conv5_2"
  type: "QuantConvolution"
  bottom: "conv5_1"
  top: "conv5_2"
  param {
    lr_mult: 1
    decay_mult: 0
  }
  param {
    lr_mult: 1
    decay_mult: 1
  }
  convolution_param {
    num_output: 512
    pad: 1
    kernel_size: 3
    weight_filler {
      type: "xavier"
    }
    bias_filler {
      type: "constant"
      value: 0
    }
  }
  quant_convolution_param {
    coef_precision: ONE_BIT
    bw_params: 8
    shift_enable: false
  }
}
layer {
  name: "quant_relu5_2"
  type: "QuantReLU"
  bottom: "conv5_2"
  top: "conv5_2"
  param {
    lr_mult: 0
  }
  quant_relu_param {
    filler {
      type: "constant"
      value: 4.3471885
    }
    channel_shared: true
    act_bits: 5
    quant_enable: true
  }
}
layer {
  name: "conv5_3"
  type: "QuantConvolution"
  bottom: "conv5_2"
  top: "conv5_3"
  param {
    lr_mult: 1
    decay_mult: 0
  }
  param {
    lr_mult: 1
    decay_mult: 200
  }
  convolution_param {
    num_output: 512
    pad: 1
    kernel_size: 3
    weight_filler {
      type: "xavier"
    }
    bias_filler {
      type: "constant"
      value: 0
    }
  }
  quant_convolution_param {
    coef_precision: ONE_BIT
    bw_params: 8
    shift_enable: false
  }
}
layer {
  name: "quant_relu5_3"
  type: "QuantReLU"
  bottom: "conv5_3"
  top: "conv5_3"
  param {
    lr_mult: 0
  }
  quant_relu_param {
    filler {
      type: "constant"
      value: 2.7412345
    }
    channel_shared: true
    act_bits: 5
    quant_enable: true
  }
}
layer {
  name: "pool5"
  type: "Pooling"
  bottom: "conv5_3"
  top: "pool5"
  pooling_param {
    pool: MAX
    kernel_size: 2
    stride: 2
  }
}
layer {
  name: "ip6"
  type: "Convolution"
  bottom: "pool5"
  top: "ip6"
  param {
    lr_mult: 1
    decay_mult: 1
  }
  param {
    lr_mult: 2
    decay_mult: 0
  }
  convolution_param {
    num_output: 512
    pad: 1
    kernel_size: 3
    weight_filler {
      type: "xavier"
    }
    bias_filler {
      type: "constant"
      value: 0
    }
  }
}
layer {
  name: "relu6"
  type: "ReLU"
  bottom: "ip6"
  top: "ip6"
}
layer {
  name: "ip7"
  type: "Convolution"
  bottom: "ip6"
  top: "ip7"
  param {
    lr_mult: 1
    decay_mult: 1
  }
  param {
    lr_mult: 2
    decay_mult: 0
  }
  convolution_param {
    num_output: 512
    kernel_size: 1
    weight_filler {
      type: "xavier"
    }
    bias_filler {
      type: "constant"
      value: 0
    }
  }
}
layer {
  name: "relu7"
  type: "ReLU"
  bottom: "ip7"
  top: "ip7"
}
layer {
  name: "ip7_mbox_loc"
  type: "Convolution"
  bottom: "ip7"
  top: "ip7_mbox_loc"
  param {
    lr_mult: 1
    decay_mult: 1
  }
  param {
    lr_mult: 2
    decay_mult: 0
  }
  convolution_param {
    num_output: 24
    pad: 1
    kernel_size: 3
    stride: 1
    weight_filler {
      type: "xavier"
    }
    bias_filler {
      type: "constant"
      value: 0
    }
  }
}
layer {
  name: "ip7_mbox_loc_perm"
  type: "Permute"
  bottom: "ip7_mbox_loc"
  top: "ip7_mbox_loc_perm"
  permute_param {
    order: 0
    order: 2
    order: 3
    order: 1
  }
}
layer {
  name: "ip7_mbox_loc_flat"
  type: "Flatten"
  bottom: "ip7_mbox_loc_perm"
  top: "ip7_mbox_loc_flat"
  flatten_param {
    axis: 1
  }
}
layer {
  name: "ip7_mbox_conf"
  type: "Convolution"
  bottom: "ip7"
  top: "ip7_mbox_conf"
  param {
    lr_mult: 1
    decay_mult: 1
  }
  param {
    lr_mult: 2
    decay_mult: 0
  }
  convolution_param {
    num_output: 36
    pad: 1
    kernel_size: 3
    stride: 1
    weight_filler {
      type: "xavier"
    }
    bias_filler {
      type: "constant"
      value: 0
    }
  }
}
layer {
  name: "ip7_mbox_conf_perm"
  type: "Permute"
  bottom: "ip7_mbox_conf"
  top: "ip7_mbox_conf_perm"
  permute_param {
    order: 0
    order: 2
    order: 3
    order: 1
  }
}
layer {
  name: "ip7_mbox_conf_flat"
  type: "Flatten"
  bottom: "ip7_mbox_conf_perm"
  top: "ip7_mbox_conf_flat"
  flatten_param {
    axis: 1
  }
}
layer {
  name: "ip7_mbox_priorbox"
  type: "PriorBox"
  bottom: "ip7"
  bottom: "data"
  top: "ip7_mbox_priorbox"
  prior_box_param {
    min_size: 20
    max_size: 210
    aspect_ratio: 2
    aspect_ratio: 3
    flip: true
    clip: false
    variance: 0.1
    variance: 0.1
    variance: 0.2
    variance: 0.2
    step: 32
    offset: 0.5
  }
}
layer {
  name: "mbox_loc"
  type: "Concat"
  bottom: "ip7_mbox_loc_flat"
  top: "mbox_loc"
  concat_param {
    axis: 1
  }
}
layer {
  name: "mbox_conf"
  type: "Concat"
  bottom: "ip7_mbox_conf_flat"
  top: "mbox_conf"
  concat_param {
    axis: 1
  }
}
layer {
  name: "mbox_priorbox"
  type: "Concat"
  bottom: "ip7_mbox_priorbox"
  top: "mbox_priorbox"
  concat_param {
    axis: 2
  }
}
layer {
  name: "mbox_conf_reshape"
  type: "Reshape"
  bottom: "mbox_conf"
  top: "mbox_conf_reshape"
  reshape_param {
    shape {
      dim: 0
      dim: -1
      dim: 6
    }
  }
}
layer {
  name: "mbox_conf_softmax"
  type: "Softmax"
  bottom: "mbox_conf_reshape"
  top: "mbox_conf_softmax"
  softmax_param {
    axis: 2
  }
}
layer {
  name: "mbox_conf_flatten"
  type: "Flatten"
  bottom: "mbox_conf_softmax"
  top: "mbox_conf_flatten"
  flatten_param {
    axis: 1
  }
}
layer {
  name: "detection_out"
  type: "DetectionOutput"
  bottom: "mbox_loc"
  bottom: "mbox_conf_flatten"
  bottom: "mbox_priorbox"
  top: "detection_out"
  include {
    phase: TEST
  }
  detection_output_param {
    num_classes: 6
    share_location: true
    background_label_id: 0
    nms_param {
      nms_threshold: 0.45
      top_k: 400
    }
    code_type: CENTER_SIZE
    keep_top_k: 200
    confidence_threshold: 0.01
  }
}
layer {
  name: "detection_eval"
  type: "DetectionEvaluate"
  bottom: "detection_out"
  bottom: "label"
  top: "detection_eval"
  include {
    phase: TEST
  }
  detection_evaluate_param {
    num_classes: 6
    background_label_id: 0
    overlap_threshold: 0.5
    evaluate_difficult_gt: false
    name_size_file: "/home/zhangwanchun/data/VOCdevkit/VOC0712/lmdb/test_name_size.txt"
  }
}
I0601 11:42:12.771473  9143 layer_factory.hpp:77] Creating layer data
I0601 11:42:12.771523  9143 net.cpp:100] Creating Layer data
I0601 11:42:12.771530  9143 net.cpp:408] data -> data
I0601 11:42:12.771536  9143 net.cpp:408] data -> label
I0601 11:42:12.773488  9231 db_lmdb.cpp:35] Opened lmdb /home/zhangwanchun/data/VOCdevkit/VOC0712/lmdb/VOC0712_test_lmdb
I0601 11:42:12.775465  9143 annotated_data_layer.cpp:62] output data size: 10,3,224,224
I0601 11:42:12.781477  9143 net.cpp:150] Setting up data
I0601 11:42:12.781495  9143 net.cpp:157] Top shape: 10 3 224 224 (1505280)
I0601 11:42:12.781512  9143 net.cpp:157] Top shape: 1 1 1 8 (8)
I0601 11:42:12.781513  9143 net.cpp:165] Memory required for data: 6021152
I0601 11:42:12.781517  9143 layer_factory.hpp:77] Creating layer data_data_0_split
I0601 11:42:12.781527  9143 net.cpp:100] Creating Layer data_data_0_split
I0601 11:42:12.781530  9143 net.cpp:434] data_data_0_split <- data
I0601 11:42:12.781534  9143 net.cpp:408] data_data_0_split -> data_data_0_split_0
I0601 11:42:12.781541  9143 net.cpp:408] data_data_0_split -> data_data_0_split_1
I0601 11:42:12.781628  9143 net.cpp:150] Setting up data_data_0_split
I0601 11:42:12.781633  9143 net.cpp:157] Top shape: 10 3 224 224 (1505280)
I0601 11:42:12.781651  9143 net.cpp:157] Top shape: 10 3 224 224 (1505280)
I0601 11:42:12.781652  9143 net.cpp:165] Memory required for data: 18063392
I0601 11:42:12.781654  9143 layer_factory.hpp:77] Creating layer conv1_1
I0601 11:42:12.781662  9143 net.cpp:100] Creating Layer conv1_1
I0601 11:42:12.781664  9143 net.cpp:434] conv1_1 <- data_data_0_split_0
I0601 11:42:12.781668  9143 net.cpp:408] conv1_1 -> conv1_1
I0601 11:42:12.781975  9143 net.cpp:150] Setting up conv1_1
I0601 11:42:12.781986  9143 net.cpp:157] Top shape: 10 64 224 224 (32112640)
I0601 11:42:12.781988  9143 net.cpp:165] Memory required for data: 146513952
I0601 11:42:12.781996  9143 layer_factory.hpp:77] Creating layer quant_relu1_1
I0601 11:42:12.782001  9143 net.cpp:100] Creating Layer quant_relu1_1
I0601 11:42:12.782006  9143 net.cpp:434] quant_relu1_1 <- conv1_1
I0601 11:42:12.782009  9143 net.cpp:395] quant_relu1_1 -> conv1_1 (in-place)
I0601 11:42:12.785372  9143 net.cpp:150] Setting up quant_relu1_1
I0601 11:42:12.785401  9143 net.cpp:157] Top shape: 10 64 224 224 (32112640)
I0601 11:42:12.785404  9143 net.cpp:165] Memory required for data: 274964512
I0601 11:42:12.785411  9143 layer_factory.hpp:77] Creating layer conv1_2
I0601 11:42:12.785420  9143 net.cpp:100] Creating Layer conv1_2
I0601 11:42:12.785424  9143 net.cpp:434] conv1_2 <- conv1_1
I0601 11:42:12.785429  9143 net.cpp:408] conv1_2 -> conv1_2
I0601 11:42:12.785785  9143 net.cpp:150] Setting up conv1_2
I0601 11:42:12.785790  9143 net.cpp:157] Top shape: 10 64 224 224 (32112640)
I0601 11:42:12.785809  9143 net.cpp:165] Memory required for data: 403415072
I0601 11:42:12.785815  9143 layer_factory.hpp:77] Creating layer quant_relu1_2
I0601 11:42:12.785818  9143 net.cpp:100] Creating Layer quant_relu1_2
I0601 11:42:12.785820  9143 net.cpp:434] quant_relu1_2 <- conv1_2
I0601 11:42:12.785826  9143 net.cpp:395] quant_relu1_2 -> conv1_2 (in-place)
I0601 11:42:12.789721  9143 net.cpp:150] Setting up quant_relu1_2
I0601 11:42:12.789752  9143 net.cpp:157] Top shape: 10 64 224 224 (32112640)
I0601 11:42:12.789754  9143 net.cpp:165] Memory required for data: 531865632
I0601 11:42:12.789760  9143 layer_factory.hpp:77] Creating layer pool1
I0601 11:42:12.789769  9143 net.cpp:100] Creating Layer pool1
I0601 11:42:12.789772  9143 net.cpp:434] pool1 <- conv1_2
I0601 11:42:12.789777  9143 net.cpp:408] pool1 -> pool1
I0601 11:42:12.789831  9143 net.cpp:150] Setting up pool1
I0601 11:42:12.789836  9143 net.cpp:157] Top shape: 10 64 112 112 (8028160)
I0601 11:42:12.789855  9143 net.cpp:165] Memory required for data: 563978272
I0601 11:42:12.789858  9143 layer_factory.hpp:77] Creating layer conv2_1
I0601 11:42:12.789863  9143 net.cpp:100] Creating Layer conv2_1
I0601 11:42:12.789866  9143 net.cpp:434] conv2_1 <- pool1
I0601 11:42:12.789870  9143 net.cpp:408] conv2_1 -> conv2_1
I0601 11:42:12.790340  9143 net.cpp:150] Setting up conv2_1
I0601 11:42:12.790346  9143 net.cpp:157] Top shape: 10 128 112 112 (16056320)
I0601 11:42:12.790364  9143 net.cpp:165] Memory required for data: 628203552
I0601 11:42:12.790369  9143 layer_factory.hpp:77] Creating layer quant_relu2_1
I0601 11:42:12.790374  9143 net.cpp:100] Creating Layer quant_relu2_1
I0601 11:42:12.790376  9143 net.cpp:434] quant_relu2_1 <- conv2_1
I0601 11:42:12.790382  9143 net.cpp:395] quant_relu2_1 -> conv2_1 (in-place)
I0601 11:42:12.792748  9143 net.cpp:150] Setting up quant_relu2_1
I0601 11:42:12.792773  9143 net.cpp:157] Top shape: 10 128 112 112 (16056320)
I0601 11:42:12.792776  9143 net.cpp:165] Memory required for data: 692428832
I0601 11:42:12.792809  9143 layer_factory.hpp:77] Creating layer conv2_2
I0601 11:42:12.792816  9143 net.cpp:100] Creating Layer conv2_2
I0601 11:42:12.792819  9143 net.cpp:434] conv2_2 <- conv2_1
I0601 11:42:12.792824  9143 net.cpp:408] conv2_2 -> conv2_2
I0601 11:42:12.793557  9143 net.cpp:150] Setting up conv2_2
I0601 11:42:12.793565  9143 net.cpp:157] Top shape: 10 128 112 112 (16056320)
I0601 11:42:12.793567  9143 net.cpp:165] Memory required for data: 756654112
I0601 11:42:12.793570  9143 layer_factory.hpp:77] Creating layer quant_relu2_2
I0601 11:42:12.793576  9143 net.cpp:100] Creating Layer quant_relu2_2
I0601 11:42:12.793577  9143 net.cpp:434] quant_relu2_2 <- conv2_2
I0601 11:42:12.793581  9143 net.cpp:395] quant_relu2_2 -> conv2_2 (in-place)
I0601 11:42:12.795411  9143 net.cpp:150] Setting up quant_relu2_2
I0601 11:42:12.795423  9143 net.cpp:157] Top shape: 10 128 112 112 (16056320)
I0601 11:42:12.795425  9143 net.cpp:165] Memory required for data: 820879392
I0601 11:42:12.795429  9143 layer_factory.hpp:77] Creating layer pool2
I0601 11:42:12.795435  9143 net.cpp:100] Creating Layer pool2
I0601 11:42:12.795439  9143 net.cpp:434] pool2 <- conv2_2
I0601 11:42:12.795441  9143 net.cpp:408] pool2 -> pool2
I0601 11:42:12.795509  9143 net.cpp:150] Setting up pool2
I0601 11:42:12.795514  9143 net.cpp:157] Top shape: 10 128 56 56 (4014080)
I0601 11:42:12.795516  9143 net.cpp:165] Memory required for data: 836935712
I0601 11:42:12.795519  9143 layer_factory.hpp:77] Creating layer conv3_1
I0601 11:42:12.795523  9143 net.cpp:100] Creating Layer conv3_1
I0601 11:42:12.795526  9143 net.cpp:434] conv3_1 <- pool2
I0601 11:42:12.795531  9143 net.cpp:408] conv3_1 -> conv3_1
I0601 11:42:12.797287  9143 net.cpp:150] Setting up conv3_1
I0601 11:42:12.797296  9143 net.cpp:157] Top shape: 10 256 56 56 (8028160)
I0601 11:42:12.797297  9143 net.cpp:165] Memory required for data: 869048352
I0601 11:42:12.797302  9143 layer_factory.hpp:77] Creating layer quant_relu3_1
I0601 11:42:12.797307  9143 net.cpp:100] Creating Layer quant_relu3_1
I0601 11:42:12.797309  9143 net.cpp:434] quant_relu3_1 <- conv3_1
I0601 11:42:12.797312  9143 net.cpp:395] quant_relu3_1 -> conv3_1 (in-place)
I0601 11:42:12.798406  9143 net.cpp:150] Setting up quant_relu3_1
I0601 11:42:12.798414  9143 net.cpp:157] Top shape: 10 256 56 56 (8028160)
I0601 11:42:12.798416  9143 net.cpp:165] Memory required for data: 901160992
I0601 11:42:12.798420  9143 layer_factory.hpp:77] Creating layer conv3_2
I0601 11:42:12.798425  9143 net.cpp:100] Creating Layer conv3_2
I0601 11:42:12.798429  9143 net.cpp:434] conv3_2 <- conv3_1
I0601 11:42:12.798432  9143 net.cpp:408] conv3_2 -> conv3_2
I0601 11:42:12.801293  9143 net.cpp:150] Setting up conv3_2
I0601 11:42:12.801303  9143 net.cpp:157] Top shape: 10 256 56 56 (8028160)
I0601 11:42:12.801306  9143 net.cpp:165] Memory required for data: 933273632
I0601 11:42:12.801312  9143 layer_factory.hpp:77] Creating layer quant_relu3_2
I0601 11:42:12.801317  9143 net.cpp:100] Creating Layer quant_relu3_2
I0601 11:42:12.801321  9143 net.cpp:434] quant_relu3_2 <- conv3_2
I0601 11:42:12.801323  9143 net.cpp:395] quant_relu3_2 -> conv3_2 (in-place)
I0601 11:42:12.802425  9143 net.cpp:150] Setting up quant_relu3_2
I0601 11:42:12.802433  9143 net.cpp:157] Top shape: 10 256 56 56 (8028160)
I0601 11:42:12.802436  9143 net.cpp:165] Memory required for data: 965386272
I0601 11:42:12.802440  9143 layer_factory.hpp:77] Creating layer conv3_3
I0601 11:42:12.802446  9143 net.cpp:100] Creating Layer conv3_3
I0601 11:42:12.802449  9143 net.cpp:434] conv3_3 <- conv3_2
I0601 11:42:12.802453  9143 net.cpp:408] conv3_3 -> conv3_3
I0601 11:42:12.805349  9143 net.cpp:150] Setting up conv3_3
I0601 11:42:12.805358  9143 net.cpp:157] Top shape: 10 256 56 56 (8028160)
I0601 11:42:12.805361  9143 net.cpp:165] Memory required for data: 997498912
I0601 11:42:12.805366  9143 layer_factory.hpp:77] Creating layer quant_relu3_3
I0601 11:42:12.805379  9143 net.cpp:100] Creating Layer quant_relu3_3
I0601 11:42:12.805382  9143 net.cpp:434] quant_relu3_3 <- conv3_3
I0601 11:42:12.805385  9143 net.cpp:395] quant_relu3_3 -> conv3_3 (in-place)
I0601 11:42:12.806371  9143 net.cpp:150] Setting up quant_relu3_3
I0601 11:42:12.806380  9143 net.cpp:157] Top shape: 10 256 56 56 (8028160)
I0601 11:42:12.806382  9143 net.cpp:165] Memory required for data: 1029611552
I0601 11:42:12.806386  9143 layer_factory.hpp:77] Creating layer pool3
I0601 11:42:12.806391  9143 net.cpp:100] Creating Layer pool3
I0601 11:42:12.806392  9143 net.cpp:434] pool3 <- conv3_3
I0601 11:42:12.806397  9143 net.cpp:408] pool3 -> pool3
I0601 11:42:12.806458  9143 net.cpp:150] Setting up pool3
I0601 11:42:12.806463  9143 net.cpp:157] Top shape: 10 256 28 28 (2007040)
I0601 11:42:12.806465  9143 net.cpp:165] Memory required for data: 1037639712
I0601 11:42:12.806468  9143 layer_factory.hpp:77] Creating layer conv4_1
I0601 11:42:12.806490  9143 net.cpp:100] Creating Layer conv4_1
I0601 11:42:12.806493  9143 net.cpp:434] conv4_1 <- pool3
I0601 11:42:12.806496  9143 net.cpp:408] conv4_1 -> conv4_1
I0601 11:42:12.811985  9143 net.cpp:150] Setting up conv4_1
I0601 11:42:12.811995  9143 net.cpp:157] Top shape: 10 512 28 28 (4014080)
I0601 11:42:12.811997  9143 net.cpp:165] Memory required for data: 1053696032
I0601 11:42:12.812001  9143 layer_factory.hpp:77] Creating layer quant_relu4_1
I0601 11:42:12.812007  9143 net.cpp:100] Creating Layer quant_relu4_1
I0601 11:42:12.812011  9143 net.cpp:434] quant_relu4_1 <- conv4_1
I0601 11:42:12.812013  9143 net.cpp:395] quant_relu4_1 -> conv4_1 (in-place)
I0601 11:42:12.812806  9143 net.cpp:150] Setting up quant_relu4_1
I0601 11:42:12.812814  9143 net.cpp:157] Top shape: 10 512 28 28 (4014080)
I0601 11:42:12.812817  9143 net.cpp:165] Memory required for data: 1069752352
I0601 11:42:12.812820  9143 layer_factory.hpp:77] Creating layer conv4_2
I0601 11:42:12.812826  9143 net.cpp:100] Creating Layer conv4_2
I0601 11:42:12.812829  9143 net.cpp:434] conv4_2 <- conv4_1
I0601 11:42:12.812834  9143 net.cpp:408] conv4_2 -> conv4_2
I0601 11:42:12.823364  9143 net.cpp:150] Setting up conv4_2
I0601 11:42:12.823376  9143 net.cpp:157] Top shape: 10 512 28 28 (4014080)
I0601 11:42:12.823395  9143 net.cpp:165] Memory required for data: 1085808672
I0601 11:42:12.823401  9143 layer_factory.hpp:77] Creating layer quant_relu4_2
I0601 11:42:12.823407  9143 net.cpp:100] Creating Layer quant_relu4_2
I0601 11:42:12.823410  9143 net.cpp:434] quant_relu4_2 <- conv4_2
I0601 11:42:12.823415  9143 net.cpp:395] quant_relu4_2 -> conv4_2 (in-place)
I0601 11:42:12.824167  9143 net.cpp:150] Setting up quant_relu4_2
I0601 11:42:12.824175  9143 net.cpp:157] Top shape: 10 512 28 28 (4014080)
I0601 11:42:12.824195  9143 net.cpp:165] Memory required for data: 1101864992
I0601 11:42:12.824198  9143 layer_factory.hpp:77] Creating layer conv4_3
I0601 11:42:12.824204  9143 net.cpp:100] Creating Layer conv4_3
I0601 11:42:12.824208  9143 net.cpp:434] conv4_3 <- conv4_2
I0601 11:42:12.824213  9143 net.cpp:408] conv4_3 -> conv4_3
I0601 11:42:12.834692  9143 net.cpp:150] Setting up conv4_3
I0601 11:42:12.834720  9143 net.cpp:157] Top shape: 10 512 28 28 (4014080)
I0601 11:42:12.834723  9143 net.cpp:165] Memory required for data: 1117921312
I0601 11:42:12.834729  9143 layer_factory.hpp:77] Creating layer quant_relu4_3
I0601 11:42:12.834735  9143 net.cpp:100] Creating Layer quant_relu4_3
I0601 11:42:12.834738  9143 net.cpp:434] quant_relu4_3 <- conv4_3
I0601 11:42:12.834743  9143 net.cpp:395] quant_relu4_3 -> conv4_3 (in-place)
I0601 11:42:12.835546  9143 net.cpp:150] Setting up quant_relu4_3
I0601 11:42:12.835556  9143 net.cpp:157] Top shape: 10 512 28 28 (4014080)
I0601 11:42:12.835557  9143 net.cpp:165] Memory required for data: 1133977632
I0601 11:42:12.835561  9143 layer_factory.hpp:77] Creating layer pool4
I0601 11:42:12.835566  9143 net.cpp:100] Creating Layer pool4
I0601 11:42:12.835568  9143 net.cpp:434] pool4 <- conv4_3
I0601 11:42:12.835572  9143 net.cpp:408] pool4 -> pool4
I0601 11:42:12.835631  9143 net.cpp:150] Setting up pool4
I0601 11:42:12.835636  9143 net.cpp:157] Top shape: 10 512 14 14 (1003520)
I0601 11:42:12.835661  9143 net.cpp:165] Memory required for data: 1137991712
I0601 11:42:12.835664  9143 layer_factory.hpp:77] Creating layer conv5_1
I0601 11:42:12.835669  9143 net.cpp:100] Creating Layer conv5_1
I0601 11:42:12.835687  9143 net.cpp:434] conv5_1 <- pool4
I0601 11:42:12.835692  9143 net.cpp:408] conv5_1 -> conv5_1
I0601 11:42:12.845757  9143 net.cpp:150] Setting up conv5_1
I0601 11:42:12.845769  9143 net.cpp:157] Top shape: 10 512 14 14 (1003520)
I0601 11:42:12.845772  9143 net.cpp:165] Memory required for data: 1142005792
I0601 11:42:12.845777  9143 layer_factory.hpp:77] Creating layer quant_relu5_1
I0601 11:42:12.845782  9143 net.cpp:100] Creating Layer quant_relu5_1
I0601 11:42:12.845785  9143 net.cpp:434] quant_relu5_1 <- conv5_1
I0601 11:42:12.845789  9143 net.cpp:395] quant_relu5_1 -> conv5_1 (in-place)
I0601 11:42:12.845934  9143 net.cpp:150] Setting up quant_relu5_1
I0601 11:42:12.845940  9143 net.cpp:157] Top shape: 10 512 14 14 (1003520)
I0601 11:42:12.845942  9143 net.cpp:165] Memory required for data: 1146019872
I0601 11:42:12.845949  9143 layer_factory.hpp:77] Creating layer conv5_2
I0601 11:42:12.845957  9143 net.cpp:100] Creating Layer conv5_2
I0601 11:42:12.845958  9143 net.cpp:434] conv5_2 <- conv5_1
I0601 11:42:12.845964  9143 net.cpp:408] conv5_2 -> conv5_2
I0601 11:42:12.856437  9143 net.cpp:150] Setting up conv5_2
I0601 11:42:12.856451  9143 net.cpp:157] Top shape: 10 512 14 14 (1003520)
I0601 11:42:12.856454  9143 net.cpp:165] Memory required for data: 1150033952
I0601 11:42:12.856460  9143 layer_factory.hpp:77] Creating layer quant_relu5_2
I0601 11:42:12.856467  9143 net.cpp:100] Creating Layer quant_relu5_2
I0601 11:42:12.856469  9143 net.cpp:434] quant_relu5_2 <- conv5_2
I0601 11:42:12.856473  9143 net.cpp:395] quant_relu5_2 -> conv5_2 (in-place)
I0601 11:42:12.856626  9143 net.cpp:150] Setting up quant_relu5_2
I0601 11:42:12.856631  9143 net.cpp:157] Top shape: 10 512 14 14 (1003520)
I0601 11:42:12.856634  9143 net.cpp:165] Memory required for data: 1154048032
I0601 11:42:12.856637  9143 layer_factory.hpp:77] Creating layer conv5_3
I0601 11:42:12.856643  9143 net.cpp:100] Creating Layer conv5_3
I0601 11:42:12.856647  9143 net.cpp:434] conv5_3 <- conv5_2
I0601 11:42:12.856650  9143 net.cpp:408] conv5_3 -> conv5_3
I0601 11:42:12.866917  9143 net.cpp:150] Setting up conv5_3
I0601 11:42:12.866932  9143 net.cpp:157] Top shape: 10 512 14 14 (1003520)
I0601 11:42:12.866935  9143 net.cpp:165] Memory required for data: 1158062112
I0601 11:42:12.866940  9143 layer_factory.hpp:77] Creating layer quant_relu5_3
I0601 11:42:12.866946  9143 net.cpp:100] Creating Layer quant_relu5_3
I0601 11:42:12.866950  9143 net.cpp:434] quant_relu5_3 <- conv5_3
I0601 11:42:12.866957  9143 net.cpp:395] quant_relu5_3 -> conv5_3 (in-place)
I0601 11:42:12.867071  9143 net.cpp:150] Setting up quant_relu5_3
I0601 11:42:12.867076  9143 net.cpp:157] Top shape: 10 512 14 14 (1003520)
I0601 11:42:12.867079  9143 net.cpp:165] Memory required for data: 1162076192
I0601 11:42:12.867082  9143 layer_factory.hpp:77] Creating layer pool5
I0601 11:42:12.867091  9143 net.cpp:100] Creating Layer pool5
I0601 11:42:12.867094  9143 net.cpp:434] pool5 <- conv5_3
I0601 11:42:12.867097  9143 net.cpp:408] pool5 -> pool5
I0601 11:42:12.867130  9143 net.cpp:150] Setting up pool5
I0601 11:42:12.867136  9143 net.cpp:157] Top shape: 10 512 7 7 (250880)
I0601 11:42:12.867137  9143 net.cpp:165] Memory required for data: 1163079712
I0601 11:42:12.867141  9143 layer_factory.hpp:77] Creating layer ip6
I0601 11:42:12.867148  9143 net.cpp:100] Creating Layer ip6
I0601 11:42:12.867151  9143 net.cpp:434] ip6 <- pool5
I0601 11:42:12.867156  9143 net.cpp:408] ip6 -> ip6
I0601 11:42:12.880659  9143 net.cpp:150] Setting up ip6
I0601 11:42:12.880673  9143 net.cpp:157] Top shape: 10 512 7 7 (250880)
I0601 11:42:12.880676  9143 net.cpp:165] Memory required for data: 1164083232
I0601 11:42:12.880681  9143 layer_factory.hpp:77] Creating layer relu6
I0601 11:42:12.880698  9143 net.cpp:100] Creating Layer relu6
I0601 11:42:12.880703  9143 net.cpp:434] relu6 <- ip6
I0601 11:42:12.880707  9143 net.cpp:395] relu6 -> ip6 (in-place)
I0601 11:42:12.881072  9143 net.cpp:150] Setting up relu6
I0601 11:42:12.881078  9143 net.cpp:157] Top shape: 10 512 7 7 (250880)
I0601 11:42:12.881081  9143 net.cpp:165] Memory required for data: 1165086752
I0601 11:42:12.881084  9143 layer_factory.hpp:77] Creating layer ip7
I0601 11:42:12.881093  9143 net.cpp:100] Creating Layer ip7
I0601 11:42:12.881094  9143 net.cpp:434] ip7 <- ip6
I0601 11:42:12.881100  9143 net.cpp:408] ip7 -> ip7
I0601 11:42:12.885962  9143 net.cpp:150] Setting up ip7
I0601 11:42:12.885972  9143 net.cpp:157] Top shape: 10 512 7 7 (250880)
I0601 11:42:12.885974  9143 net.cpp:165] Memory required for data: 1166090272
I0601 11:42:12.885979  9143 layer_factory.hpp:77] Creating layer relu7
I0601 11:42:12.885984  9143 net.cpp:100] Creating Layer relu7
I0601 11:42:12.885987  9143 net.cpp:434] relu7 <- ip7
I0601 11:42:12.885991  9143 net.cpp:395] relu7 -> ip7 (in-place)
I0601 11:42:12.886345  9143 net.cpp:150] Setting up relu7
I0601 11:42:12.886353  9143 net.cpp:157] Top shape: 10 512 7 7 (250880)
I0601 11:42:12.886355  9143 net.cpp:165] Memory required for data: 1167093792
I0601 11:42:12.886358  9143 layer_factory.hpp:77] Creating layer ip7_relu7_0_split
I0601 11:42:12.886363  9143 net.cpp:100] Creating Layer ip7_relu7_0_split
I0601 11:42:12.886365  9143 net.cpp:434] ip7_relu7_0_split <- ip7
I0601 11:42:12.886369  9143 net.cpp:408] ip7_relu7_0_split -> ip7_relu7_0_split_0
I0601 11:42:12.886374  9143 net.cpp:408] ip7_relu7_0_split -> ip7_relu7_0_split_1
I0601 11:42:12.886379  9143 net.cpp:408] ip7_relu7_0_split -> ip7_relu7_0_split_2
I0601 11:42:12.886428  9143 net.cpp:150] Setting up ip7_relu7_0_split
I0601 11:42:12.886433  9143 net.cpp:157] Top shape: 10 512 7 7 (250880)
I0601 11:42:12.886436  9143 net.cpp:157] Top shape: 10 512 7 7 (250880)
I0601 11:42:12.886440  9143 net.cpp:157] Top shape: 10 512 7 7 (250880)
I0601 11:42:12.886441  9143 net.cpp:165] Memory required for data: 1170104352
I0601 11:42:12.886443  9143 layer_factory.hpp:77] Creating layer ip7_mbox_loc
I0601 11:42:12.886451  9143 net.cpp:100] Creating Layer ip7_mbox_loc
I0601 11:42:12.886454  9143 net.cpp:434] ip7_mbox_loc <- ip7_relu7_0_split_0
I0601 11:42:12.886459  9143 net.cpp:408] ip7_mbox_loc -> ip7_mbox_loc
I0601 11:42:12.888718  9143 net.cpp:150] Setting up ip7_mbox_loc
I0601 11:42:12.888728  9143 net.cpp:157] Top shape: 10 24 7 7 (11760)
I0601 11:42:12.888731  9143 net.cpp:165] Memory required for data: 1170151392
I0601 11:42:12.888736  9143 layer_factory.hpp:77] Creating layer ip7_mbox_loc_perm
I0601 11:42:12.888741  9143 net.cpp:100] Creating Layer ip7_mbox_loc_perm
I0601 11:42:12.888743  9143 net.cpp:434] ip7_mbox_loc_perm <- ip7_mbox_loc
I0601 11:42:12.888748  9143 net.cpp:408] ip7_mbox_loc_perm -> ip7_mbox_loc_perm
I0601 11:42:12.888846  9143 net.cpp:150] Setting up ip7_mbox_loc_perm
I0601 11:42:12.888852  9143 net.cpp:157] Top shape: 10 7 7 24 (11760)
I0601 11:42:12.888854  9143 net.cpp:165] Memory required for data: 1170198432
I0601 11:42:12.888856  9143 layer_factory.hpp:77] Creating layer ip7_mbox_loc_flat
I0601 11:42:12.888861  9143 net.cpp:100] Creating Layer ip7_mbox_loc_flat
I0601 11:42:12.888864  9143 net.cpp:434] ip7_mbox_loc_flat <- ip7_mbox_loc_perm
I0601 11:42:12.888867  9143 net.cpp:408] ip7_mbox_loc_flat -> ip7_mbox_loc_flat
I0601 11:42:12.888888  9143 net.cpp:150] Setting up ip7_mbox_loc_flat
I0601 11:42:12.888892  9143 net.cpp:157] Top shape: 10 1176 (11760)
I0601 11:42:12.888895  9143 net.cpp:165] Memory required for data: 1170245472
I0601 11:42:12.888897  9143 layer_factory.hpp:77] Creating layer ip7_mbox_conf
I0601 11:42:12.888903  9143 net.cpp:100] Creating Layer ip7_mbox_conf
I0601 11:42:12.888907  9143 net.cpp:434] ip7_mbox_conf <- ip7_relu7_0_split_1
I0601 11:42:12.888912  9143 net.cpp:408] ip7_mbox_conf -> ip7_mbox_conf
I0601 11:42:12.892117  9143 net.cpp:150] Setting up ip7_mbox_conf
I0601 11:42:12.892125  9143 net.cpp:157] Top shape: 10 36 7 7 (17640)
I0601 11:42:12.892136  9143 net.cpp:165] Memory required for data: 1170316032
I0601 11:42:12.892141  9143 layer_factory.hpp:77] Creating layer ip7_mbox_conf_perm
I0601 11:42:12.892148  9143 net.cpp:100] Creating Layer ip7_mbox_conf_perm
I0601 11:42:12.892150  9143 net.cpp:434] ip7_mbox_conf_perm <- ip7_mbox_conf
I0601 11:42:12.892154  9143 net.cpp:408] ip7_mbox_conf_perm -> ip7_mbox_conf_perm
I0601 11:42:12.892251  9143 net.cpp:150] Setting up ip7_mbox_conf_perm
I0601 11:42:12.892256  9143 net.cpp:157] Top shape: 10 7 7 36 (17640)
I0601 11:42:12.892258  9143 net.cpp:165] Memory required for data: 1170386592
I0601 11:42:12.892261  9143 layer_factory.hpp:77] Creating layer ip7_mbox_conf_flat
I0601 11:42:12.892266  9143 net.cpp:100] Creating Layer ip7_mbox_conf_flat
I0601 11:42:12.892267  9143 net.cpp:434] ip7_mbox_conf_flat <- ip7_mbox_conf_perm
I0601 11:42:12.892271  9143 net.cpp:408] ip7_mbox_conf_flat -> ip7_mbox_conf_flat
I0601 11:42:12.892295  9143 net.cpp:150] Setting up ip7_mbox_conf_flat
I0601 11:42:12.892300  9143 net.cpp:157] Top shape: 10 1764 (17640)
I0601 11:42:12.892302  9143 net.cpp:165] Memory required for data: 1170457152
I0601 11:42:12.892304  9143 layer_factory.hpp:77] Creating layer ip7_mbox_priorbox
I0601 11:42:12.892309  9143 net.cpp:100] Creating Layer ip7_mbox_priorbox
I0601 11:42:12.892311  9143 net.cpp:434] ip7_mbox_priorbox <- ip7_relu7_0_split_2
I0601 11:42:12.892314  9143 net.cpp:434] ip7_mbox_priorbox <- data_data_0_split_1
I0601 11:42:12.892319  9143 net.cpp:408] ip7_mbox_priorbox -> ip7_mbox_priorbox
I0601 11:42:12.892362  9143 net.cpp:150] Setting up ip7_mbox_priorbox
I0601 11:42:12.892366  9143 net.cpp:157] Top shape: 1 2 1176 (2352)
I0601 11:42:12.892369  9143 net.cpp:165] Memory required for data: 1170466560
I0601 11:42:12.892370  9143 layer_factory.hpp:77] Creating layer mbox_loc
I0601 11:42:12.892374  9143 net.cpp:100] Creating Layer mbox_loc
I0601 11:42:12.892379  9143 net.cpp:434] mbox_loc <- ip7_mbox_loc_flat
I0601 11:42:12.892383  9143 net.cpp:408] mbox_loc -> mbox_loc
I0601 11:42:12.892405  9143 net.cpp:150] Setting up mbox_loc
I0601 11:42:12.892424  9143 net.cpp:157] Top shape: 10 1176 (11760)
I0601 11:42:12.892426  9143 net.cpp:165] Memory required for data: 1170513600
I0601 11:42:12.892428  9143 layer_factory.hpp:77] Creating layer mbox_conf
I0601 11:42:12.892431  9143 net.cpp:100] Creating Layer mbox_conf
I0601 11:42:12.892449  9143 net.cpp:434] mbox_conf <- ip7_mbox_conf_flat
I0601 11:42:12.892452  9143 net.cpp:408] mbox_conf -> mbox_conf
I0601 11:42:12.892472  9143 net.cpp:150] Setting up mbox_conf
I0601 11:42:12.892477  9143 net.cpp:157] Top shape: 10 1764 (17640)
I0601 11:42:12.892480  9143 net.cpp:165] Memory required for data: 1170584160
I0601 11:42:12.892482  9143 layer_factory.hpp:77] Creating layer mbox_priorbox
I0601 11:42:12.892485  9143 net.cpp:100] Creating Layer mbox_priorbox
I0601 11:42:12.892488  9143 net.cpp:434] mbox_priorbox <- ip7_mbox_priorbox
I0601 11:42:12.892491  9143 net.cpp:408] mbox_priorbox -> mbox_priorbox
I0601 11:42:12.892534  9143 net.cpp:150] Setting up mbox_priorbox
I0601 11:42:12.892537  9143 net.cpp:157] Top shape: 1 2 1176 (2352)
I0601 11:42:12.892539  9143 net.cpp:165] Memory required for data: 1170593568
I0601 11:42:12.892560  9143 layer_factory.hpp:77] Creating layer mbox_conf_reshape
I0601 11:42:12.892565  9143 net.cpp:100] Creating Layer mbox_conf_reshape
I0601 11:42:12.892568  9143 net.cpp:434] mbox_conf_reshape <- mbox_conf
I0601 11:42:12.892572  9143 net.cpp:408] mbox_conf_reshape -> mbox_conf_reshape
I0601 11:42:12.892598  9143 net.cpp:150] Setting up mbox_conf_reshape
I0601 11:42:12.892603  9143 net.cpp:157] Top shape: 10 294 6 (17640)
I0601 11:42:12.892606  9143 net.cpp:165] Memory required for data: 1170664128
I0601 11:42:12.892608  9143 layer_factory.hpp:77] Creating layer mbox_conf_softmax
I0601 11:42:12.892613  9143 net.cpp:100] Creating Layer mbox_conf_softmax
I0601 11:42:12.892616  9143 net.cpp:434] mbox_conf_softmax <- mbox_conf_reshape
I0601 11:42:12.892621  9143 net.cpp:408] mbox_conf_softmax -> mbox_conf_softmax
I0601 11:42:12.895470  9143 net.cpp:150] Setting up mbox_conf_softmax
I0601 11:42:12.895481  9143 net.cpp:157] Top shape: 10 294 6 (17640)
I0601 11:42:12.895484  9143 net.cpp:165] Memory required for data: 1170734688
I0601 11:42:12.895488  9143 layer_factory.hpp:77] Creating layer mbox_conf_flatten
I0601 11:42:12.895493  9143 net.cpp:100] Creating Layer mbox_conf_flatten
I0601 11:42:12.895498  9143 net.cpp:434] mbox_conf_flatten <- mbox_conf_softmax
I0601 11:42:12.895503  9143 net.cpp:408] mbox_conf_flatten -> mbox_conf_flatten
I0601 11:42:12.895527  9143 net.cpp:150] Setting up mbox_conf_flatten
I0601 11:42:12.895531  9143 net.cpp:157] Top shape: 10 1764 (17640)
I0601 11:42:12.895534  9143 net.cpp:165] Memory required for data: 1170805248
I0601 11:42:12.895536  9143 layer_factory.hpp:77] Creating layer detection_out
I0601 11:42:12.895546  9143 net.cpp:100] Creating Layer detection_out
I0601 11:42:12.895550  9143 net.cpp:434] detection_out <- mbox_loc
I0601 11:42:12.895552  9143 net.cpp:434] detection_out <- mbox_conf_flatten
I0601 11:42:12.895556  9143 net.cpp:434] detection_out <- mbox_priorbox
I0601 11:42:12.895560  9143 net.cpp:408] detection_out -> detection_out
11111
I0601 11:42:12.895620  9143 net.cpp:150] Setting up detection_out
I0601 11:42:12.895625  9143 net.cpp:157] Top shape: 1 1 1 7 (7)
I0601 11:42:12.895628  9143 net.cpp:165] Memory required for data: 1170805276
I0601 11:42:12.895630  9143 layer_factory.hpp:77] Creating layer detection_eval
I0601 11:42:12.895635  9143 net.cpp:100] Creating Layer detection_eval
I0601 11:42:12.895637  9143 net.cpp:434] detection_eval <- detection_out
I0601 11:42:12.895642  9143 net.cpp:434] detection_eval <- label
I0601 11:42:12.895646  9143 net.cpp:408] detection_eval -> detection_eval
I0601 11:42:12.897354  9143 net.cpp:150] Setting up detection_eval
I0601 11:42:12.897361  9143 net.cpp:157] Top shape: 1 1 6 5 (30)
I0601 11:42:12.897364  9143 net.cpp:165] Memory required for data: 1170805396
I0601 11:42:12.897367  9143 net.cpp:228] detection_eval does not need backward computation.
I0601 11:42:12.897370  9143 net.cpp:228] detection_out does not need backward computation.
I0601 11:42:12.897373  9143 net.cpp:228] mbox_conf_flatten does not need backward computation.
I0601 11:42:12.897377  9143 net.cpp:228] mbox_conf_softmax does not need backward computation.
…
