…
        max_scale: 1
        min_aspect_ratio: 0.5
        max_aspect_ratio: 2
      }
      sample_constraint {
        min_jaccard_overlap: 0.9
      }
      max_sample: 1
      max_trials: 50
    }
    batch_sampler {
      sampler {
        min_scale: 0.3
        max_scale: 1
        min_aspect_ratio: 0.5
        max_aspect_ratio: 2
      }
      sample_constraint {
        max_jaccard_overlap: 1
      }
      max_sample: 1
      max_trials: 50
    }
    label_map_file: "/home/zhangwanchun/data/VOCdevkit/VOC0712/lmdb/labelmap_voc.prototxt"
  }
}
layer {
  name: "conv1_1"
  type: "QuantConvolution"
  bottom: "data"
  top: "conv1_1"
  convolution_param {
    num_output: 64
    pad: 1
    kernel_size: 3
    weight_filler {
      type: "xavier"
    }
    bias_filler {
      type: "constant"
      value: 0
    }
  }
  quant_convolution_param {
    coef_precision: FLOATING_POINT
    bw_params: 8
    shift_enable: false
  }
}
layer {
  name: "quant_relu1_1"
  type: "QuantReLU"
  bottom: "conv1_1"
  top: "conv1_1"
  param {
    lr_mult: 5
  }
  quant_relu_param {
    filler {
      type: "constant"
      value: 31
    }
    channel_shared: true
    act_bits: 5
    quant_enable: false
  }
}
layer {
  name: "conv1_2"
  type: "QuantConvolution"
  bottom: "conv1_1"
  top: "conv1_2"
  convolution_param {
    num_output: 64
    pad: 1
    kernel_size: 3
    weight_filler {
      type: "xavier"
    }
    bias_filler {
      type: "constant"
      value: 0
    }
  }
  quant_convolution_param {
    coef_precision: FLOATING_POINT
    bw_params: 8
    shift_enable: false
  }
}
layer {
  name: "quant_relu1_2"
  type: "QuantReLU"
  bottom: "conv1_2"
  top: "conv1_2"
  param {
    lr_mult: 5
  }
  quant_relu_param {
    filler {
      type: "constant"
      value: 31
    }
    channel_shared: true
    act_bits: 5
    quant_enable: false
  }
}
layer {
  name: "pool1"
  type: "Pooling"
  bottom: "conv1_2"
  top: "pool1"
  pooling_param {
    pool: MAX
    kernel_size: 2
    stride: 2
  }
}
layer {
  name: "conv2_1"
  type: "QuantConvolution"
  bottom: "pool1"
  top: "conv2_1"
  convolution_param {
    num_output: 128
    pad: 1
    kernel_size: 3
    weight_filler {
      type: "xavier"
    }
    bias_filler {
      type: "constant"
      value: 0
    }
  }
  quant_convolution_param {
    coef_precision: FLOATING_POINT
    bw_params: 8
    shift_enable: false
  }
}
layer {
  name: "quant_relu2_1"
  type: "QuantReLU"
  bottom: "conv2_1"
  top: "conv2_1"
  param {
    lr_mult: 5
  }
  quant_relu_param {
    filler {
      type: "constant"
      value: 65.934
    }
    channel_shared: true
    act_bits: 5
    quant_enable: false
  }
}
layer {
  name: "conv2_2"
  type: "QuantConvolution"
  bottom: "conv2_1"
  top: "conv2_2"
  convolution_param {
    num_output: 128
    pad: 1
    kernel_size: 3
    weight_filler {
      type: "xavier"
    }
    bias_filler {
      type: "constant"
      value: 0
    }
  }
  quant_convolution_param {
    coef_precision: FLOATING_POINT
    bw_params: 8
    shift_enable: false
  }
}
layer {
  name: "quant_relu2_2"
  type: "QuantReLU"
  bottom: "conv2_2"
  top: "conv2_2"
  param {
    lr_mult: 5
  }
  quant_relu_param {
    filler {
      type: "constant"
      value: 107.992
    }
    channel_shared: true
    act_bits: 5
    quant_enable: false
  }
}
layer {
  name: "pool2"
  type: "Pooling"
  bottom: "conv2_2"
  top: "pool2"
  pooling_param {
    pool: MAX
    kernel_size: 2
    stride: 2
  }
}
layer {
  name: "conv3_1"
  type: "QuantConvolution"
  bottom: "pool2"
  top: "conv3_1"
  convolution_param {
    num_output: 256
    pad: 1
    kernel_size: 3
    weight_filler {
      type: "xavier"
    }
    bias_filler {
      type: "constant"
      value: 0
    }
  }
  quant_convolution_param {
    coef_precision: FLOATING_POINT
    bw_params: 8
    shift_enable: false
  }
}
layer {
  name: "quant_relu3_1"
  type: "QuantReLU"
  bottom: "conv3_1"
  top: "conv3_1"
  param {
    lr_mult: 5
  }
  quant_relu_param {
    filler {
      type: "constant"
      value: 115.32
    }
    channel_shared: true
    act_bits: 5
    quant_enable: false
  }
}
layer {
  name: "conv3_2"
  type: "QuantConvolution"
  bottom: "conv3_1"
  top: "conv3_2"
  convolution_param {
    num_output: 256
    pad: 1
    kernel_size: 3
    weight_filler {
      type: "xavier"
    }
    bias_filler {
      type: "constant"
      value: 0
    }
  }
  quant_convolution_param {
    coef_precision: THREE_BITS
    bw_params: 8
    shift_enable: false
  }
}
layer {
  name: "quant_relu3_2"
  type: "QuantReLU"
  bottom: "conv3_2"
  top: "conv3_2"
  param {
    lr_mult: 0
  }
  quant_relu_param {
    filler {
      type: "constant"
      value: 31
    }
    channel_shared: true
    act_bits: 5
    quant_enable: false
  }
}
layer {
  name: "conv3_3"
  type: "QuantConvolution"
  bottom: "conv3_2"
  top: "conv3_3"
  convolution_param {
    num_output: 256
    pad: 1
    kernel_size: 3
    weight_filler {
      type: "xavier"
    }
    bias_filler {
      type: "constant"
      value: 0
    }
  }
  quant_convolution_param {
    coef_precision: THREE_BITS
    bw_params: 8
    shift_enable: false
  }
}
layer {
  name: "quant_relu3_3"
  type: "QuantReLU"
  bottom: "conv3_3"
  top: "conv3_3"
  param {
    lr_mult: 0
  }
  quant_relu_param {
    filler {
      type: "constant"
      value: 31
    }
    channel_shared: true
    act_bits: 5
    quant_enable: false
  }
}
layer {
  name: "pool3"
  type: "Pooling"
  bottom: "conv3_3"
  top: "pool3"
  pooling_param {
    pool: MAX
    kernel_size: 2
    stride: 2
  }
}
layer {
  name: "conv4_1"
  type: "QuantConvolution"
  bottom: "pool3"
  top: "conv4_1"
  convolution_param {
    num_output: 512
    pad: 1
    kernel_size: 3
    weight_filler {
      type: "xavier"
    }
    bias_filler {
      type: "constant"
      value: 0
    }
  }
  quant_convolution_param {
    coef_precision: ONE_BIT
    bw_params: 8
    shift_enable: false
  }
}
layer {
  name: "quant_relu4_1"
  type: "QuantReLU"
  bottom: "conv4_1"
  top: "conv4_1"
  param {
    lr_mult: 0
  }
  quant_relu_param {
    filler {
      type: "constant"
      value: 31
    }
    channel_shared: true
    act_bits: 5
    quant_enable: false
  }
}
layer {
  name: "conv4_2"
  type: "QuantConvolution"
  bottom: "conv4_1"
  top: "conv4_2"
  convolution_param {
    num_output: 512
    pad: 1
    kernel_size: 3
    weight_filler {
      type: "xavier"
    }
    bias_filler {
      type: "constant"
      value: 0
    }
  }
  quant_convolution_param {
    coef_precision: ONE_BIT
    bw_params: 8
    shift_enable: false
  }
}
layer {
  name: "quant_relu4_2"
  type: "QuantReLU"
  bottom: "conv4_2"
  top: "conv4_2"
  param {
    lr_mult: 0
  }
  quant_relu_param {
    filler {
      type: "constant"
      value: 31
    }
    channel_shared: true
    act_bits: 5
    quant_enable: false
  }
}
layer {
  name: "conv4_3"
  type: "QuantConvolution"
  bottom: "conv4_2"
  top: "conv4_3"
  convolution_param {
    num_output: 512
    pad: 1
    kernel_size: 3
    weight_filler {
      type: "xavier"
    }
    bias_filler {
      type: "constant"
      value: 0
    }
  }
  quant_convolution_param {
    coef_precision: ONE_BIT
    bw_params: 8
    shift_enable: false
  }
}
layer {
  name: "quant_relu4_3"
  type: "QuantReLU"
  bottom: "conv4_3"
  top: "conv4_3"
  param {
    lr_mult: 0
  }
  quant_relu_param {
    filler {
      type: "constant"
      value: 31
    }
    channel_shared: true
    act_bits: 5
    quant_enable: false
  }
}
layer {
  name: "pool4"
  type: "Pooling"
  bottom: "conv4_3"
  top: "pool4"
  pooling_param {
    pool: MAX
    kernel_size: 2
    stride: 2
  }
}
layer {
  name: "conv5_1"
  type: "QuantConvolution"
  bottom: "pool4"
  top: "conv5_1"
  convolution_param {
    num_output: 512
    pad: 1
    kernel_size: 3
    weight_filler {
      type: "xavier"
    }
    bias_filler {
      type: "constant"
      value: 0
    }
  }
  quant_convolution_param {
    coef_precision: ONE_BIT
    bw_params: 8
    shift_enable: false
  }
}
layer {
  name: "quant_relu5_1"
  type: "QuantReLU"
  bottom: "conv5_1"
  top: "conv5_1"
  param {
    lr_mult: 0
  }
  quant_relu_param {
    filler {
      type: "constant"
      value: 31
    }
    channel_shared: true
    act_bits: 5
    quant_enable: false
  }
}
layer {
  name: "conv5_2"
  type: "QuantConvolution"
  bottom: "conv5_1"
  top: "conv5_2"
  param {
    lr_mult: 1
    decay_mult: 0
  }
  param {
    lr_mult: 1
    decay_mult: 1
  }
  convolution_param {
    num_output: 512
    pad: 1
    kernel_size: 3
    weight_filler {
      type: "xavier"
    }
    bias_filler {
      type: "constant"
      value: 0
    }
  }
  quant_convolution_param {
    coef_precision: ONE_BIT
    bw_params: 8
    shift_enable: false
  }
}
layer {
  name: "quant_relu5_2"
  type: "QuantReLU"
  bottom: "conv5_2"
  top: "conv5_2"
  param {
    lr_mult: 0
  }
  quant_relu_param {
    filler {
      type: "constant"
      value: 31
    }
    channel_shared: true
    act_bits: 5
    quant_enable: false
  }
}
layer {
  name: "conv5_3"
  type: "QuantConvolution"
  bottom: "conv5_2"
  top: "conv5_3"
  param {
    lr_mult: 1
    decay_mult: 0
  }
  param {
    lr_mult: 1
    decay_mult: 200
  }
  convolution_param {
    num_output: 512
    pad: 1
    kernel_size: 3
    weight_filler {
      type: "xavier"
    }
    bias_filler {
      type: "constant"
      value: 0
    }
  }
  quant_convolution_param {
    coef_precision: ONE_BIT
    bw_params: 8
    shift_enable: false
  }
}
layer {
  name: "quant_relu5_3"
  type: "QuantReLU"
  bottom: "conv5_3"
  top: "conv5_3"
  param {
    lr_mult: 5
  }
  quant_relu_param {
    filler {
      type: "constant"
      value: 29.225
    }
    channel_shared: true
    act_bits: 5
    quant_enable: false
  }
}
layer {
  name: "pool5"
  type: "Pooling"
  bottom: "conv5_3"
  top: "pool5"
  pooling_param {
    pool: MAX
    kernel_size: 2
    stride: 2
  }
}
layer {
  name: "ip6"
  type: "Convolution"
  bottom: "pool5"
  top: "ip6"
  param {
    lr_mult: 1
    decay_mult: 1
  }
  param {
    lr_mult: 2
    decay_mult: 0
  }
  convolution_param {
    num_output: 512
    pad: 1
    kernel_size: 3
    weight_filler {
      type: "xavier"
    }
    bias_filler {
      type: "constant"
      value: 0
    }
  }
}
layer {
  name: "relu6"
  type: "ReLU"
  bottom: "ip6"
  top: "ip6"
}
layer {
  name: "ip7"
  type: "Convolution"
  bottom: "ip6"
  top: "ip7"
  param {
    lr_mult: 1
    decay_mult: 1
  }
  param {
    lr_mult: 2
    decay_mult: 0
  }
  convolution_param {
    num_output: 512
    kernel_size: 1
    weight_filler {
      type: "xavier"
    }
    bias_filler {
      type: "constant"
      value: 0
    }
  }
}
layer {
  name: "relu7"
  type: "ReLU"
  bottom: "ip7"
  top: "ip7"
}
layer {
  name: "ip7_mbox_loc"
  type: "Convolution"
  bottom: "ip7"
  top: "ip7_mbox_loc"
  param {
    lr_mult: 1
    decay_mult: 1
  }
  param {
    lr_mult: 2
    decay_mult: 0
  }
  convolution_param {
    num_output: 24
    pad: 1
    kernel_size: 3
    stride: 1
    weight_filler {
      type: "xavier"
    }
    bias_filler {
      type: "constant"
      value: 0
    }
  }
}
layer {
  name: "ip7_mbox_loc_perm"
  type: "Permute"
  bottom: "ip7_mbox_loc"
  top: "ip7_mbox_loc_perm"
  permute_param {
    order: 0
    order: 2
    order: 3
    order: 1
  }
}
layer {
  name: "ip7_mbox_loc_flat"
  type: "Flatten"
  bottom: "ip7_mbox_loc_perm"
  top: "ip7_mbox_loc_flat"
  flatten_param {
    axis: 1
  }
}
layer {
  name: "ip7_mbox_conf"
  type: "Convolution"
  bottom: "ip7"
  top: "ip7_mbox_conf"
  param {
    lr_mult: 1
    decay_mult: 1
  }
  param {
    lr_mult: 2
    decay_mult: 0
  }
  convolution_param {
    num_output: 42
    pad: 1
    kernel_size: 3
    stride: 1
    weight_filler {
      type: "xavier"
    }
    bias_filler {
      type: "constant"
      value: 0
    }
  }
}
layer {
  name: "ip7_mbox_conf_perm"
  type: "Permute"
  bottom: "ip7_mbox_conf"
  top: "ip7_mbox_conf_perm"
  permute_param {
    order: 0
    order: 2
    order: 3
    order: 1
  }
}
layer {
  name: "ip7_mbox_conf_flat"
  type: "Flatten"
  bottom: "ip7_mbox_conf_perm"
  top: "ip7_mbox_conf_flat"
  flatten_param {
    axis: 1
  }
}
layer {
  name: "ip7_mbox_priorbox"
  type: "PriorBox"
  bottom: "ip7"
  bottom: "data"
  top: "ip7_mbox_priorbox"
  prior_box_param {
    min_size: 20
    max_size: 210
    aspect_ratio: 2
    aspect_ratio: 3
    flip: true
    clip: false
    variance: 0.1
    variance: 0.1
    variance: 0.2
    variance: 0.2
    step: 32
    offset: 0.5
  }
}
layer {
  name: "mbox_loc"
  type: "Concat"
  bottom: "ip7_mbox_loc_flat"
  top: "mbox_loc"
  concat_param {
    axis: 1
  }
}
layer {
  name: "mbox_conf"
  type: "Concat"
  bottom: "ip7_mbox_conf_flat"
  top: "mbox_conf"
  concat_param {
    axis: 1
  }
}
layer {
  name: "mbox_priorbox"
  type: "Concat"
  bottom: "ip7_mbox_priorbox"
  top: "mbox_priorbox"
  concat_param {
    axis: 2
  }
}
layer {
  name: "mbox_loss"
  type: "MultiBoxLoss"
  bottom: "mbox_loc"
  bottom: "mbox_conf"
  bottom: "mbox_priorbox"
  bottom: "label"
  top: "mbox_loss"
  include {
    phase: TRAIN
  }
  propagate_down: true
  propagate_down: true
  propagate_down: false
  propagate_down: false
  loss_param {
    normalization: VALID
  }
  multibox_loss_param {
    loc_loss_type: SMOOTH_L1
    conf_loss_type: SOFTMAX
    loc_weight: 1
    num_classes: 7
    share_location: true
    match_type: PER_PREDICTION
    overlap_threshold: 0.5
    use_prior_for_matching: true
    background_label_id: 0
    use_difficult_gt: true
    neg_pos_ratio: 3
    neg_overlap: 0.5
    code_type: CENTER_SIZE
    ignore_cross_boundary_bbox: false
    mining_type: MAX_NEGATIVE
  }
}
I0428 17:18:24.420969 20994 layer_factory.hpp:77] Creating layer data
I0428 17:18:24.421092 20994 net.cpp:100] Creating Layer data
I0428 17:18:24.421102 20994 net.cpp:408] data -> data
I0428 17:18:24.421126 20994 net.cpp:408] data -> label
I0428 17:18:24.421893 21017 db_lmdb.cpp:35] Opened lmdb /home/zhangwanchun/data/VOCdevkit/VOC0712/lmdb/VOC0712_trainval_lmdb
I0428 17:18:27.390730 20994 annotated_data_layer.cpp:62] output data size: 5,3,224,224
I0428 17:18:27.394294 20994 net.cpp:150] Setting up data
I0428 17:18:27.394309 20994 net.cpp:157] Top shape: 5 3 224 224 (752640)
I0428 17:18:27.394312 20994 net.cpp:157] Top shape: 1 1 4 8 (32)
I0428 17:18:27.394343 20994 net.cpp:165] Memory required for data: 3010688
I0428 17:18:27.394351 20994 layer_factory.hpp:77] Creating layer data_data_0_split
I0428 17:18:27.394361 20994 net.cpp:100] Creating Layer data_data_0_split
I0428 17:18:27.394366 20994 net.cpp:434] data_data_0_split <- data
I0428 17:18:27.394377 20994 net.cpp:408] data_data_0_split -> data_data_0_split_0
I0428 17:18:27.394387 20994 net.cpp:408] data_data_0_split -> data_data_0_split_1
I0428 17:18:27.394415 20994 net.cpp:150] Setting up data_data_0_split
I0428 17:18:27.394419 20994 net.cpp:157] Top shape: 5 3 224 224 (752640)
I0428 17:18:27.394423 20994 net.cpp:157] Top shape: 5 3 224 224 (752640)
I0428 17:18:27.394425 20994 net.cpp:165] Memory required for data: 9031808
I0428 17:18:27.394428 20994 layer_factory.hpp:77] Creating layer conv1_1
I0428 17:18:27.394435 20994 net.cpp:100] Creating Layer conv1_1
I0428 17:18:27.394439 20994 net.cpp:434] conv1_1 <- data_data_0_split_0
I0428 17:18:27.394443 20994 net.cpp:408] conv1_1 -> conv1_1
I0428 17:18:27.395668 20994 net.cpp:150] Setting up conv1_1
I0428 17:18:27.395678 20994 net.cpp:157] Top shape: 5 64 224 224 (16056320)
I0428 17:18:27.395680 20994 net.cpp:165] Memory required for data: 73257088
I0428 17:18:27.395691 20994 layer_factory.hpp:77] Creating layer quant_relu1_1
I0428 17:18:27.395697 20994 net.cpp:100] Creating Layer quant_relu1_1
I0428 17:18:27.395699 20994 net.cpp:434] quant_relu1_1 <- conv1_1
I0428 17:18:27.395704 20994 net.cpp:395] quant_relu1_1 -> conv1_1 (in-place)
I0428 17:18:27.399452 20994 net.cpp:150] Setting up quant_relu1_1
I0428 17:18:27.399469 20994 net.cpp:157] Top shape: 5 64 224 224 (16056320)
I0428 17:18:27.399472 20994 net.cpp:165] Memory required for data: 137482368
I0428 17:18:27.399483 20994 layer_factory.hpp:77] Creating layer conv1_2
I0428 17:18:27.399493 20994 net.cpp:100] Creating Layer conv1_2
I0428 17:18:27.399497 20994 net.cpp:434] conv1_2 <- conv1_1
I0428 17:18:27.399502 20994 net.cpp:408] conv1_2 -> conv1_2
I0428 17:18:27.399781 20994 net.cpp:150] Setting up conv1_2
I0428 17:18:27.399787 20994 net.cpp:157] Top shape: 5 64 224 224 (16056320)
I0428 17:18:27.399789 20994 net.cpp:165] Memory required for data: 201707648
I0428 17:18:27.399796 20994 layer_factory.hpp:77] Creating layer quant_relu1_2
I0428 17:18:27.399801 20994 net.cpp:100] Creating Layer quant_relu1_2
I0428 17:18:27.399804 20994 net.cpp:434] quant_relu1_2 <- conv1_2
I0428 17:18:27.399808 20994 net.cpp:395] quant_relu1_2 -> conv1_2 (in-place)
I0428 17:18:27.403414 20994 net.cpp:150] Setting up quant_relu1_2
I0428 17:18:27.403447 20994 net.cpp:157] Top shape: 5 64 224 224 (16056320)
I0428 17:18:27.403450 20994 net.cpp:165] Memory required for data: 265932928
I0428 17:18:27.403457 20994 layer_factory.hpp:77] Creating layer pool1
I0428 17:18:27.403466 20994 net.cpp:100] Creating Layer pool1
I0428 17:18:27.403470 20994 net.cpp:434] pool1 <- conv1_2
I0428 17:18:27.403475 20994 net.cpp:408] pool1 -> pool1
I0428 17:18:27.403522 20994 net.cpp:150] Setting up pool1
I0428 17:18:27.403527 20994 net.cpp:157] Top shape: 5 64 112 112 (4014080)
I0428 17:18:27.403530 20994 net.cpp:165] Memory required for data: 281989248
I0428 17:18:27.403532 20994 layer_factory.hpp:77] Creating layer conv2_1
I0428 17:18:27.403538 20994 net.cpp:100] Creating Layer conv2_1
I0428 17:18:27.403542 20994 net.cpp:434] conv2_1 <- pool1
I0428 17:18:27.403546 20994 net.cpp:408] conv2_1 -> conv2_1
I0428 17:18:27.405139 20994 net.cpp:150] Setting up conv2_1
I0428 17:18:27.405148 20994 net.cpp:157] Top shape: 5 128 112 112 (8028160)
I0428 17:18:27.405151 20994 net.cpp:165] Memory required for data: 314101888
I0428 17:18:27.405156 20994 layer_factory.hpp:77] Creating layer quant_relu2_1
I0428 17:18:27.405164 20994 net.cpp:100] Creating Layer quant_relu2_1
I0428 17:18:27.405166 20994 net.cpp:434] quant_relu2_1 <- conv2_1
I0428 17:18:27.405170 20994 net.cpp:395] quant_relu2_1 -> conv2_1 (in-place)
I0428 17:18:27.407045 20994 net.cpp:150] Setting up quant_relu2_1
I0428 17:18:27.407054 20994 net.cpp:157] Top shape: 5 128 112 112 (8028160)
I0428 17:18:27.407058 20994 net.cpp:165] Memory required for data: 346214528
I0428 17:18:27.407083 20994 layer_factory.hpp:77] Creating layer conv2_2
I0428 17:18:27.407090 20994 net.cpp:100] Creating Layer conv2_2
I0428 17:18:27.407094 20994 net.cpp:434] conv2_2 <- conv2_1
I0428 17:18:27.407099 20994 net.cpp:408] conv2_2 -> conv2_2
I0428 17:18:27.407763 20994 net.cpp:150] Setting up conv2_2
I0428 17:18:27.407769 20994 net.cpp:157] Top shape: 5 128 112 112 (8028160)
I0428 17:18:27.407773 20994 net.cpp:165] Memory required for data: 378327168
I0428 17:18:27.407793 20994 layer_factory.hpp:77] Creating layer quant_relu2_2
I0428 17:18:27.407799 20994 net.cpp:100] Creating Layer quant_relu2_2
I0428 17:18:27.407804 20994 net.cpp:434] quant_relu2_2 <- conv2_2
I0428 17:18:27.407806 20994 net.cpp:395] quant_relu2_2 -> conv2_2 (in-place)
I0428 17:18:27.409739 20994 net.cpp:150] Setting up quant_relu2_2
I0428 17:18:27.409749 20994 net.cpp:157] Top shape: 5 128 112 112 (8028160)
I0428 17:18:27.409752 20994 net.cpp:165] Memory required for data: 410439808
I0428 17:18:27.409759 20994 layer_factory.hpp:77] Creating layer pool2
I0428 17:18:27.409765 20994 net.cpp:100] Creating Layer pool2
I0428 17:18:27.409773 20994 net.cpp:434] pool2 <- conv2_2
I0428 17:18:27.409778 20994 net.cpp:408] pool2 -> pool2
I0428 17:18:27.409806 20994 net.cpp:150] Setting up pool2
I0428 17:18:27.409819 20994 net.cpp:157] Top shape: 5 128 56 56 (2007040)
I0428 17:18:27.409821 20994 net.cpp:165] Memory required for data: 418467968
I0428 17:18:27.409824 20994 layer_factory.hpp:77] Creating layer conv3_1
I0428 17:18:27.409831 20994 net.cpp:100] Creating Layer conv3_1
I0428 17:18:27.409832 20994 net.cpp:434] conv3_1 <- pool2
I0428 17:18:27.409837 20994 net.cpp:408] conv3_1 -> conv3_1
I0428 17:18:27.411078 20994 net.cpp:150] Setting up conv3_1
I0428 17:18:27.411087 20994 net.cpp:157] Top shape: 5 256 56 56 (4014080)
I0428 17:18:27.411090 20994 net.cpp:165] Memory required for data: 434524288
I0428 17:18:27.411094 20994 layer_factory.hpp:77] Creating layer quant_relu3_1
I0428 17:18:27.411101 20994 net.cpp:100] Creating Layer quant_relu3_1
I0428 17:18:27.411104 20994 net.cpp:434] quant_relu3_1 <- conv3_1
I0428 17:18:27.411108 20994 net.cpp:395] quant_relu3_1 -> conv3_1 (in-place)
I0428 17:18:27.412173 20994 net.cpp:150] Setting up quant_relu3_1
I0428 17:18:27.412184 20994 net.cpp:157] Top shape: 5 256 56 56 (4014080)
I0428 17:18:27.412185 20994 net.cpp:165] Memory required for data: 450580608
I0428 17:18:27.412189 20994 layer_factory.hpp:77] Creating layer conv3_2
I0428 17:18:27.412195 20994 net.cpp:100] Creating Layer conv3_2
I0428 17:18:27.412199 20994 net.cpp:434] conv3_2 <- conv3_1
I0428 17:18:27.412202 20994 net.cpp:408] conv3_2 -> conv3_2
I0428 17:18:27.414994 20994 net.cpp:150] Setting up conv3_2
I0428 17:18:27.415004 20994 net.cpp:157] Top shape: 5 256 56 56 (4014080)
I0428 17:18:27.415007 20994 net.cpp:165] Memory required for data: 466636928
I0428 17:18:27.415062 20994 layer_factory.hpp:77] Creating layer quant_relu3_2
I0428 17:18:27.415069 20994 net.cpp:100] Creating Layer quant_relu3_2
I0428 17:18:27.415072 20994 net.cpp:434] quant_relu3_2 <- conv3_2
I0428 17:18:27.415076 20994 net.cpp:395] quant_relu3_2 -> conv3_2 (in-place)
I0428 17:18:27.416327 20994 net.cpp:150] Setting up quant_relu3_2
I0428 17:18:27.416337 20994 net.cpp:157] Top shape: 5 256 56 56 (4014080)
I0428 17:18:27.416340 20994 net.cpp:165] Memory required for data: 482693248
I0428 17:18:27.416344 20994 layer_factory.hpp:77] Creating layer conv3_3
I0428 17:18:27.416353 20994 net.cpp:100] Creating Layer conv3_3
I0428 17:18:27.416357 20994 net.cpp:434] conv3_3 <- conv3_2
I0428 17:18:27.416362 20994 net.cpp:408] conv3_3 -> conv3_3
I0428 17:18:27.419214 20994 net.cpp:150] Setting up conv3_3
I0428 17:18:27.419224 20994 net.cpp:157] Top shape: 5 256 56 56 (4014080)
I0428 17:18:27.419225 20994 net.cpp:165] Memory required for data: 498749568
I0428 17:18:27.419230 20994 layer_factory.hpp:77] Creating layer quant_relu3_3
I0428 17:18:27.419235 20994 net.cpp:100] Creating Layer quant_relu3_3
I0428 17:18:27.419240 20994 net.cpp:434] quant_relu3_3 <- conv3_3
I0428 17:18:27.419245 20994 net.cpp:395] quant_relu3_3 -> conv3_3 (in-place)
I0428 17:18:27.420182 20994 net.cpp:150] Setting up quant_relu3_3
I0428 17:18:27.420192 20994 net.cpp:157] Top shape: 5 256 56 56 (4014080)
I0428 17:18:27.420194 20994 net.cpp:165] Memory required for data: 514805888
I0428 17:18:27.420214 20994 layer_factory.hpp:77] Creating layer pool3
I0428 17:18:27.420219 20994 net.cpp:100] Creating Layer pool3
I0428 17:18:27.420222 20994 net.cpp:434] pool3 <- conv3_3
I0428 17:18:27.420226 20994 net.cpp:408] pool3 -> pool3
I0428 17:18:27.420267 20994 net.cpp:150] Setting up pool3
I0428 17:18:27.420286 20994 net.cpp:157] Top shape: 5 256 28 28 (1003520)
I0428 17:18:27.420289 20994 net.cpp:165] Memory required for data: 518819968
I0428 17:18:27.420291 20994 layer_factory.hpp:77] Creating layer conv4_1
I0428 17:18:27.420313 20994 net.cpp:100] Creating Layer conv4_1
I0428 17:18:27.420315 20994 net.cpp:434] conv4_1 <- pool3
I0428 17:18:27.420334 20994 net.cpp:408] conv4_1 -> conv4_1
I0428 17:18:27.426232 20994 net.cpp:150] Setting up conv4_1
I0428 17:18:27.426245 20994 net.cpp:157] Top shape: 5 512 28 28 (2007040)
I0428 17:18:27.426247 20994 net.cpp:165] Memory required for data: 526848128
I0428 17:18:27.426254 20994 layer_factory.hpp:77] Creating layer quant_relu4_1
I0428 17:18:27.426260 20994 net.cpp:100] Creating Layer quant_relu4_1
I0428 17:18:27.426265 20994 net.cpp:434] quant_relu4_1 <- conv4_1
I0428 17:18:27.426268 20994 net.cpp:395] quant_relu4_1 -> conv4_1 (in-place)
I0428 17:18:27.426975 20994 net.cpp:150] Setting up quant_relu4_1
I0428 17:18:27.426982 20994 net.cpp:157] Top shape: 5 512 28 28 (2007040)
I0428 17:18:27.426985 20994 net.cpp:165] Memory required for data: 534876288
I0428 17:18:27.426990 20994 layer_factory.hpp:77] Creating layer conv4_2
I0428 17:18:27.426996 20994 net.cpp:100] Creating Layer conv4_2
I0428 17:18:27.427000 20994 net.cpp:434] conv4_2 <- conv4_1
I0428 17:18:27.427003 20994 net.cpp:408] conv4_2 -> conv4_2
I0428 17:18:27.437434 20994 net.cpp:150] Setting up conv4_2
I0428 17:18:27.437453 20994 net.cpp:157] Top shape: 5 512 28 28 (2007040)
I0428 17:18:27.437456 20994 net.cpp:165] Memory required for data: 542904448
I0428 17:18:27.437461 20994 layer_factory.hpp:77] Creating layer quant_relu4_2
I0428 17:18:27.437469 20994 net.cpp:100] Creating Layer quant_relu4_2
I0428 17:18:27.437472 20994 net.cpp:434] quant_relu4_2 <- conv4_2
I0428 17:18:27.437477 20994 net.cpp:395] quant_relu4_2 -> conv4_2 (in-place)
I0428 17:18:27.438275 20994 net.cpp:150] Setting up quant_relu4_2
I0428 17:18:27.438283 20994 net.cpp:157] Top shape: 5 512 28 28 (2007040)
I0428 17:18:27.438287 20994 net.cpp:165] Memory required for data: 550932608
I0428 17:18:27.438292 20994 layer_factory.hpp:77] Creating layer conv4_3
I0428 17:18:27.438297 20994 net.cpp:100] Creating Layer conv4_3
I0428 17:18:27.438299 20994 net.cpp:434] conv4_3 <- conv4_2
I0428 17:18:27.438313 20994 net.cpp:408] conv4_3 -> conv4_3
I0428 17:18:27.448804 20994 net.cpp:150] Setting up conv4_3
I0428 17:18:27.448820 20994 net.cpp:157] Top shape: 5 512 28 28 (2007040)
I0428 17:18:27.448822 20994 net.cpp:165] Memory required for data: 558960768
I0428 17:18:27.448830 20994 layer_factory.hpp:77] Creating layer quant_relu4_3
I0428 17:18:27.448838 20994 net.cpp:100] Creating Layer quant_relu4_3
I0428 17:18:27.448841 20994 net.cpp:434] quant_relu4_3 <- conv4_3
I0428 17:18:27.448846 20994 net.cpp:395] quant_relu4_3 -> conv4_3 (in-place)
I0428 17:18:27.449578 20994 net.cpp:150] Setting up quant_relu4_3
I0428 17:18:27.449585 20994 net.cpp:157] Top shape: 5 512 28 28 (2007040)
I0428 17:18:27.449587 20994 net.cpp:165] Memory required for data: 566988928
I0428 17:18:27.449591 20994 layer_factory.hpp:77] Creating layer pool4
I0428 17:18:27.449599 20994 net.cpp:100] Creating Layer pool4
I0428 17:18:27.449600 20994 net.cpp:434] pool4 <- conv4_3
I0428 17:18:27.449604 20994 net.cpp:408] pool4 -> pool4
I0428 17:18:27.449630 20994 net.cpp:150] Setting up pool4
I0428 17:18:27.449635 20994 net.cpp:157] Top shape: 5 512 14 14 (501760)
I0428 17:18:27.449636 20994 net.cpp:165] Memory required for data: 568995968
I0428 17:18:27.449638 20994 layer_factory.hpp:77] Creating layer conv5_1
I0428 17:18:27.449645 20994 net.cpp:100] Creating Layer conv5_1
I0428 17:18:27.449647 20994 net.cpp:434] conv5_1 <- pool4
I0428 17:18:27.449651 20994 net.cpp:408] conv5_1 -> conv5_1
I0428 17:18:27.460238 20994 net.cpp:150] Setting up conv5_1
I0428 17:18:27.460253 20994 net.cpp:157] Top shape: 5 512 14 14 (501760)
I0428 17:18:27.460256 20994 net.cpp:165] Memory required for data: 571003008
I0428 17:18:27.460263 20994 layer_factory.hpp:77] Creating layer quant_relu5_1
I0428 17:18:27.460269 20994 net.cpp:100] Creating Layer quant_relu5_1
I0428 17:18:27.460273 20994 net.cpp:434] quant_relu5_1 <- conv5_1
I0428 17:18:27.460278 20994 net.cpp:395] quant_relu5_1 -> conv5_1 (in-place)
I0428 17:18:27.460366 20994 net.cpp:150] Setting up quant_relu5_1
I0428 17:18:27.460371 20994 net.cpp:157] Top shape: 5 512 14 14 (501760)
I0428 17:18:27.460372 20994 net.cpp:165] Memory required for data: 573010048
I0428 17:18:27.460379 20994 layer_factory.hpp:77] Creating layer conv5_2
I0428 17:18:27.460386 20994 net.cpp:100] Creating Layer conv5_2
I0428 17:18:27.460389 20994 net.cpp:434] conv5_2 <- conv5_1
I0428 17:18:27.460393 20994 net.cpp:408] conv5_2 -> conv5_2
I0428 17:18:27.470633 20994 net.cpp:150] Setting up conv5_2
I0428 17:18:27.470649 20994 net.cpp:157] Top shape: 5 512 14 14 (501760)
I0428 17:18:27.470651 20994 net.cpp:165] Memory required for data: 575017088
I0428 17:18:27.470656 20994 layer_factory.hpp:77] Creating layer quant_relu5_2
I0428 17:18:27.470665 20994 net.cpp:100] Creating Layer quant_relu5_2
I0428 17:18:27.470669 20994 net.cpp:434] quant_relu5_2 <- conv5_2
I0428 17:18:27.470674 20994 net.cpp:395] quant_relu5_2 -> conv5_2 (in-place)
I0428 17:18:27.470762 20994 net.cpp:150] Setting up quant_relu5_2
I0428 17:18:27.470767 20994 net.cpp:157] Top shape: 5 512 14 14 (501760)
I0428 17:18:27.470769 20994 net.cpp:165] Memory required for data: 577024128
I0428 17:18:27.470773 20994 layer_factory.hpp:77] Creating layer conv5_3
I0428 17:18:27.470779 20994 net.cpp:100] Creating Layer conv5_3
I0428 17:18:27.470782 20994 net.cpp:434] conv5_3 <- conv5_2
I0428 17:18:27.470786 20994 net.cpp:408] conv5_3 -> conv5_3
I0428 17:18:27.481063 20994 net.cpp:150] Setting up conv5_3
I0428 17:18:27.481081 20994 net.cpp:157] Top shape: 5 512 14 14 (501760)
I0428 17:18:27.481084 20994 net.cpp:165] Memory required for data: 579031168
I0428 17:18:27.481091 20994 layer_factory.hpp:77] Creating layer quant_relu5_3
I0428 17:18:27.481097 20994 net.cpp:100] Creating Layer quant_relu5_3
I0428 17:18:27.481101 20994 net.cpp:434] quant_relu5_3 <- conv5_3
I0428 17:18:27.481106 20994 net.cpp:395] quant_relu5_3 -> conv5_3 (in-place)
I0428 17:18:27.481197 20994 net.cpp:150] Setting up quant_relu5_3
I0428 17:18:27.481202 20994 net.cpp:157] Top shape: 5 512 14 14 (501760)
I0428 17:18:27.481217 20994 net.cpp:165] Memory required for data: 581038208
I0428 17:18:27.481222 20994 layer_factory.hpp:77] Creating layer pool5
I0428 17:18:27.481230 20994 net.cpp:100] Creating Layer pool5
I0428 17:18:27.481232 20994 net.cpp:434] pool5 <- conv5_3
I0428 17:18:27.481236 20994 net.cpp:408] pool5 -> pool5
I0428 17:18:27.481261 20994 net.cpp:150] Setting up pool5
I0428 17:18:27.481266 20994 net.cpp:157] Top shape: 5 512 7 7 (125440)
I0428 17:18:27.481267 20994 net.cpp:165] Memory required for data: 581539968
I0428 17:18:27.481271 20994 layer_factory.hpp:77] Creating layer ip6
I0428 17:18:27.481277 20994 net.cpp:100] Creating Layer ip6
I0428 17:18:27.481281 20994 net.cpp:434] ip6 <- pool5
I0428 17:18:27.481284 20994 net.cpp:408] ip6 -> ip6
I0428 17:18:28.233633 20994 net.cpp:150] Setting up ip6
I0428 17:18:28.233651 20994 net.cpp:157] Top shape: 5 512 7 7 (125440)
I0428 17:18:28.233654 20994 net.cpp:165] Memory required for data: 582041728
I0428 17:18:28.233662 20994 layer_factory.hpp:77] Creating layer relu6
I0428 17:18:28.233670 20994 net.cpp:100] Creating Layer relu6
I0428 17:18:28.233675 20994 net.cpp:434] relu6 <- ip6
I0428 17:18:28.233680 20994 net.cpp:395] relu6 -> ip6 (in-place)
I0428 17:18:28.233983 20994 net.cpp:150] Setting up relu6
I0428 17:18:28.233989 20994 net.cpp:157] Top shape: 5 512 7 7 (125440)
I0428 17:18:28.233992 20994 net.cpp:165] Memory required for data: 582543488
I0428 17:18:28.233995 20994 layer_factory.hpp:77] Creating layer ip7
I0428 17:18:28.234004 20994 net.cpp:100] Creating Layer ip7
I0428 17:18:28.234005 20994 net.cpp:434] ip7 <- ip6
I0428 17:18:28.234010 20994 net.cpp:408] ip7 -> ip7
I0428 17:18:28.237172 20994 net.cpp:150] Setting up ip7
I0428 17:18:28.237181 20994 net.cpp:157] Top shape: 5 512 7 7 (125440)
I0428 17:18:28.237185 20994 net.cpp:165] Memory required for data: 583045248
I0428 17:18:28.237190 20994 layer_factory.hpp:77] Creating layer relu7
I0428 17:18:28.237195 20994 net.cpp:100] Creating Layer relu7
I0428 17:18:28.237197 20994 net.cpp:434] relu7 <- ip7
I0428 17:18:28.237200 20994 net.cpp:395] relu7 -> ip7 (in-place)
I0428 17:18:28.237540 20994 net.cpp:150] Setting up relu7
I0428 17:18:28.237550 20994 net.cpp:157] Top shape: 5 512 7 7 (125440)
I0428 17:18:28.237551 20994 net.cpp:165] Memory required for data: 583547008
I0428 17:18:28.237555 20994 layer_factory.hpp:77] Creating layer ip7_relu7_0_split
I0428 17:18:28.237558 20994 net.cpp:100] Creating Layer ip7_relu7_0_split
I0428 17:18:28.237561 20994 net.cpp:434] ip7_relu7_0_split <- ip7
I0428 17:18:28.237566 20994 net.cpp:408] ip7_relu7_0_split -> ip7_relu7_0_split_0
I0428 17:18:28.237571 20994 net.cpp:408] ip7_relu7_0_split -> ip7_relu7_0_split_1
I0428 17:18:28.237576 20994 net.cpp:408] ip7_relu7_0_split -> ip7_relu7_0_split_2
I0428 17:18:28.237622 20994 net.cpp:150] Setting up ip7_relu7_0_split
I0428 17:18:28.237628 20994 net.cpp:157] Top shape: 5 512 7 7 (125440)
I0428 17:18:28.237632 20994 net.cpp:157] Top shape: 5 512 7 7 (125440)
I0428 17:18:28.237634 20994 net.cpp:157] Top shape: 5 512 7 7 (125440)
I0428 17:18:28.237637 20994 net.cpp:165] Memory required for data: 585052288
I0428 17:18:28.237639 20994 layer_factory.hpp:77] Creating layer ip7_mbox_loc
I0428 17:18:28.237645 20994 net.cpp:100] Creating Layer ip7_mbox_loc
I0428 17:18:28.237648 20994 net.cpp:434] ip7_mbox_loc <- ip7_relu7_0_split_0
I0428 17:18:28.237653 20994 net.cpp:408] ip7_mbox_loc -> ip7_mbox_loc
I0428 17:18:28.240775 20994 net.cpp:150] Setting up ip7_mbox_loc
I0428 17:18:28.240784 20994 net.cpp:157] Top shape: 5 24 7 7 (5880)
I0428 17:18:28.240787 20994 net.cpp:165] Memory required for data: 585075808
I0428 17:18:28.240792 20994 layer_factory.hpp:77] Creating layer ip7_mbox_loc_perm
I0428 17:18:28.240797 20994 net.cpp:100] Creating Layer ip7_mbox_loc_perm
I0428 17:18:28.240800 20994 net.cpp:434] ip7_mbox_loc_perm <- ip7_mbox_loc
I0428 17:18:28.240806 20994 net.cpp:408] ip7_mbox_loc_perm -> ip7_mbox_loc_perm
I0428 17:18:28.240898 20994 net.cpp:150] Setting up ip7_mbox_loc_perm
I0428 17:18:28.240903 20994 net.cpp:157] Top shape: 5 7 7 24 (5880)
I0428 17:18:28.240916 20994 net.cpp:165] Memory required for data: 585099328
I0428 17:18:28.240918 20994 layer_factory.hpp:77] Creating layer ip7_mbox_loc_flat
I0428 17:18:28.240926 20994 net.cpp:100] Creating Layer ip7_mbox_loc_flat
I0428 17:18:28.240928 20994 net.cpp:434] ip7_mbox_loc_flat <- ip7_mbox_loc_perm
I0428 17:18:28.240933 20994 net.cpp:408] ip7_mbox_loc_flat -> ip7_mbox_loc_flat
I0428 17:18:28.240955 20994 net.cpp:150] Setting up ip7_mbox_loc_flat
I0428 17:18:28.240959 20994 net.cpp:157] Top shape: 5 1176 (5880)
I0428 17:18:28.240962 20994 net.cpp:165] Memory required for data: 585122848
I0428 17:18:28.240963 20994 layer_factory.hpp:77] Creating layer ip7_mbox_conf
I0428 17:18:28.240972 20994 net.cpp:100] Creating Layer ip7_mbox_conf
I0428 17:18:28.240975 20994 net.cpp:434] ip7_mbox_conf <- ip7_relu7_0_split_1
I0428 17:18:28.240980 20994 net.cpp:408] ip7_mbox_conf -> ip7_mbox_conf
I0428 17:18:28.244045 20994 net.cpp:150] Setting up ip7_mbox_conf
I0428 17:18:28.244055 20994 net.cpp:157] Top shape: 5 42 7 7 (10290)
I0428 17:18:28.244057 20994 net.cpp:165] Memory required for data: 585164008
I0428 17:18:28.244061 20994 layer_factory.hpp:77] Creating layer ip7_mbox_conf_perm
I0428 17:18:28.244067 20994 net.cpp:100] Creating Layer ip7_mbox_conf_perm
I0428 17:18:28.244071 20994 net.cpp:434] ip7_mbox_conf_perm <- ip7_mbox_conf
I0428 17:18:28.244076 20994 net.cpp:408] ip7_mbox_conf_perm -> ip7_mbox_conf_perm
I0428 17:18:28.244174 20994 net.cpp:150] Setting up ip7_mbox_conf_perm
I0428 17:18:28.244179 20994 net.cpp:157] Top shape: 5 7 7 42 (10290)
I0428 17:18:28.244182 20994 net.cpp:165] Memory required for data: 585205168
I0428 17:18:28.244185 20994 layer_factory.hpp:77] Creating layer ip7_mbox_conf_flat
I0428 17:18:28.244189 20994 net.cpp:100] Creating Layer ip7_mbox_conf_flat
I0428 17:18:28.244191 20994 net.cpp:434] ip7_mbox_conf_flat <- ip7_mbox_conf_perm
I0428 17:18:28.244196 20994 net.cpp:408] ip7_mbox_conf_flat -> ip7_mbox_conf_flat
I0428 17:18:28.244220 20994 net.cpp:150] Setting up ip7_mbox_conf_flat
I0428 17:18:28.244225 20994 net.cpp:157] Top shape: 5 2058 (10290)
I0428 17:18:28.244227 20994 net.cpp:165] Memory required for data: 585246328
I0428 17:18:28.244230 20994 layer_factory.hpp:77] Creating layer ip7_mbox_priorbox
I0428 17:18:28.244236 20994 net.cpp:100] Creating Layer ip7_mbox_priorbox
I0428 17:18:28.244240 20994 net.cpp:434] ip7_mbox_priorbox <- ip7_relu7_0_split_2
I0428 17:18:28.244242 20994 net.cpp:434] ip7_mbox_priorbox <- data_data_0_split_1
I0428 17:18:28.244247 20994 net.cpp:408] ip7_mbox_priorbox -> ip7_mbox_priorbox
I0428 17:18:28.244271 20994 net.cpp:150] Setting up ip7_mbox_priorbox
I0428 17:18:28.244276 20994 net.cpp:157] Top shape: 1 2 1176 (2352)
I0428 17:18:28.244277 20994 net.cpp:165] Memory required for data: 585255736
I0428 17:18:28.244279 20994 layer_factory.hpp:77] Creating layer mbox_loc
I0428 17:18:28.244285 20994 net.cpp:100] Creating Layer mbox_loc
I0428 17:18:28.244288 20994 net.cpp:434] mbox_loc <- ip7_mbox_loc_flat
I0428 17:18:28.244292 20994 net.cpp:408] mbox_loc -> mbox_loc
I0428 17:18:28.244314 20994 net.cpp:150] Setting up mbox_loc
I0428 17:18:28.244319 20994 net.cpp:157] Top shape: 5 1176 (5880)
I0428 17:18:28.244321 20994 net.cpp:165] Memory required for data: 585279256
I0428 17:18:28.244323 20994 layer_factory.hpp:77] Creating layer mbox_conf
I0428 17:18:28.244328 20994 net.cpp:100] Creating Layer mbox_conf
I0428 17:18:28.244330 20994 net.cpp:434] mbox_conf <- ip7_mbox_conf_flat
I0428 17:18:28.244335 20994 net.cpp:408] mbox_conf -> mbox_conf
I0428 17:18:28.244354 20994 net.cpp:150] Setting up mbox_conf
I0428 17:18:28.244359 20994 net.cpp:157] Top shape: 5 2058 (10290)
I0428 17:18:28.244361 20994 net.cpp:165] Memory required for data: 585320416
I0428 17:18:28.244364 20994 layer_factory.hpp:77] Creating layer mbox_priorbox
I0428 17:18:28.244366 20994 net.cpp:100] Creating Layer mbox_priorbox
I0428 17:18:28.244369 20994 net.cpp:434] mbox_priorbox <- ip7_mbox_priorbox
I0428 17:18:28.244374 20994 net.cpp:408] mbox_priorbox -> mbox_priorbox
I0428 17:18:28.244392 20994 net.cpp:150] Setting up mbox_priorbox
I0428 17:18:28.244403 20994 net.cpp:157] Top shape: 1 2 1176 (2352)
I0428 17:18:28.244406 20994 net.cpp:165] Memory required for data: 585329824
I0428 17:18:28.244408 20994 layer_factory.hpp:77] Creating layer mbox_loss
I0428 17:18:28.244416 20994 net.cpp:100] Creating Layer mbox_loss
I0428 17:18:28.244419 20994 net.cpp:434] mbox_loss <- mbox_loc
I0428 17:18:28.244423 20994 net.cpp:434] mbox_loss <- mbox_conf
I0428 17:18:28.244426 20994 net.cpp:434] mbox_loss <- mbox_priorbox
…
  name: "data"
  type: "AnnotatedData"
  top: "data"
  top: "label"
  include {
    phase: TEST
  }
  transform_param {
    scale: 0.12156863
    resize_param {
      prob: 1
      resize_mode: WARP
      height: 224
      width: 224
      interp_mode: LINEAR
    }
  }
  data_param {
    source: "/home/zhangwanchun/data/VOCdevkit/VOC0712/lmdb/VOC0712_test_lmdb"
    batch_size: 10
    backend: LMDB
  }
  annotated_data_param {
    batch_sampler {
    }
    label_map_file: "/home/zhangwanchun/data/VOCdevkit/VOC0712/lmdb/labelmap_voc.prototxt"
  }
}
layer {
  name: "conv1_1"
  type: "QuantConvolution"
  bottom: "data"
  top: "conv1_1"
  convolution_param {
    num_output: 64
    pad: 1
    kernel_size: 3
    weight_filler {
      type: "xavier"
    }
    bias_filler {
      type: "constant"
      value: 0
    }
  }
  quant_convolution_param {
    coef_precision: FLOATING_POINT
    bw_params: 8
    shift_enable: false
  }
}
layer {
  name: "quant_relu1_1"
  type: "QuantReLU"
  bottom: "conv1_1"
  top: "conv1_1"
  param {
    lr_mult: 5
  }
  quant_relu_param {
    filler {
      type: "constant"
      value: 31
    }
    channel_shared: true
    act_bits: 5
    quant_enable: false
  }
}
layer {
  name: "conv1_2"
  type: "QuantConvolution"
  bottom: "conv1_1"
  top: "conv1_2"
  convolution_param {
    num_output: 64
    pad: 1
    kernel_size: 3
    weight_filler {
      type: "xavier"
    }
    bias_filler {
      type: "constant"
      value: 0
    }
  }
  quant_convolution_param {
    coef_precision: FLOATING_POINT
    bw_params: 8
    shift_enable: false
  }
}
layer {
  name: "quant_relu1_2"
  type: "QuantReLU"
  bottom: "conv1_2"
  top: "conv1_2"
  param {
    lr_mult: 5
  }
  quant_relu_param {
    filler {
      type: "constant"
      value: 31
    }
    channel_shared: true
    act_bits: 5
    quant_enable: false
  }
}
layer {
  name: "pool1"
  type: "Pooling"
  bottom: "conv1_2"
  top: "pool1"
  pooling_param {
    pool: MAX
    kernel_size: 2
    stride: 2
  }
}
layer {
  name: "conv2_1"
  type: "QuantConvolution"
  bottom: "pool1"
  top: "conv2_1"
  convolution_param {
    num_output: 128
    pad: 1
    kernel_size: 3
    weight_filler {
      type: "xavier"
    }
    bias_filler {
      type: "constant"
      value: 0
    }
  }
  quant_convolution_param {
    coef_precision: FLOATING_POINT
    bw_params: 8
    shift_enable: false
  }
}
layer {
  name: "quant_relu2_1"
  type: "QuantReLU"
  bottom: "conv2_1"
  top: "conv2_1"
  param {
    lr_mult: 5
  }
  quant_relu_param {
    filler {
      type: "constant"
      value: 65.934
    }
    channel_shared: true
    act_bits: 5
    quant_enable: false
  }
}
layer {
  name: "conv2_2"
  type: "QuantConvolution"
  bottom: "conv2_1"
  top: "conv2_2"
  convolution_param {
    num_output: 128
    pad: 1
    kernel_size: 3
    weight_filler {
      type: "xavier"
    }
    bias_filler {
      type: "constant"
      value: 0
    }
  }
  quant_convolution_param {
    coef_precision: FLOATING_POINT
    bw_params: 8
    shift_enable: false
  }
}
layer {
  name: "quant_relu2_2"
  type: "QuantReLU"
  bottom: "conv2_2"
  top: "conv2_2"
  param {
    lr_mult: 5
  }
  quant_relu_param {
    filler {
      type: "constant"
      value: 107.992
    }
    channel_shared: true
    act_bits: 5
    quant_enable: false
  }
}
layer {
  name: "pool2"
  type: "Pooling"
  bottom: "conv2_2"
  top: "pool2"
  pooling_param {
    pool: MAX
    kernel_size: 2
    stride: 2
  }
}
layer {
  name: "conv3_1"
  type: "QuantConvolution"
  bottom: "pool2"
  top: "conv3_1"
  convolution_param {
    num_output: 256
    pad: 1
    kernel_size: 3
    weight_filler {
      type: "xavier"
    }
    bias_filler {
      type: "constant"
      value: 0
    }
  }
  quant_convolution_param {
    coef_precision: FLOATING_POINT
    bw_params: 8
    shift_enable: false
  }
}
layer {
  name: "quant_relu3_1"
  type: "QuantReLU"
  bottom: "conv3_1"
  top: "conv3_1"
  param {
    lr_mult: 5
  }
  quant_relu_param {
    filler {
      type: "constant"
      value: 115.32
    }
    channel_shared: true
    act_bits: 5
    quant_enable: false
  }
}
layer {
  name: "conv3_2"
  type: "QuantConvolution"
  bottom: "conv3_1"
  top: "conv3_2"
  convolution_param {
    num_output: 256
    pad: 1
    kernel_size: 3
    weight_filler {
      type: "xavier"
    }
    bias_filler {
      type: "constant"
      value: 0
    }
  }
  quant_convolution_param {
    coef_precision: THREE_BITS
    bw_params: 8
    shift_enable: false
  }
}
layer {
  name: "quant_relu3_2"
  type: "QuantReLU"
  bottom: "conv3_2"
  top: "conv3_2"
  param {
    lr_mult: 0
  }
  quant_relu_param {
    filler {
      type: "constant"
      value: 31
    }
    channel_shared: true
    act_bits: 5
    quant_enable: false
  }
}
layer {
  name: "conv3_3"
  type: "QuantConvolution"
  bottom: "conv3_2"
  top: "conv3_3"
  convolution_param {
    num_output: 256
    pad: 1
    kernel_size: 3
    weight_filler {
      type: "xavier"
    }
    bias_filler {
      type: "constant"
      value: 0
    }
  }
  quant_convolution_param {
    coef_precision: THREE_BITS
    bw_params: 8
    shift_enable: false
  }
}
layer {
  name: "quant_relu3_3"
  type: "QuantReLU"
  bottom: "conv3_3"
  top: "conv3_3"
  param {
    lr_mult: 0
  }
  quant_relu_param {
    filler {
      type: "constant"
      value: 31
    }
    channel_shared: true
    act_bits: 5
    quant_enable: false
  }
}
layer {
  name: "pool3"
  type: "Pooling"
  bottom: "conv3_3"
  top: "pool3"
  pooling_param {
    pool: MAX
    kernel_size: 2
    stride: 2
  }
}
layer {
  name: "conv4_1"
  type: "QuantConvolution"
  bottom: "pool3"
  top: "conv4_1"
  convolution_param {
    num_output: 512
    pad: 1
    kernel_size: 3
    weight_filler {
      type: "xavier"
    }
    bias_filler {
      type: "constant"
      value: 0
    }
  }
  quant_convolution_param {
    coef_precision: ONE_BIT
    bw_params: 8
    shift_enable: false
  }
}
layer {
  name: "quant_relu4_1"
  type: "QuantReLU"
  bottom: "conv4_1"
  top: "conv4_1"
  param {
    lr_mult: 0
  }
  quant_relu_param {
    filler {
      type: "constant"
      value: 31
    }
    channel_shared: true
    act_bits: 5
    quant_enable: false
  }
}
layer {
  name: "conv4_2"
  type: "QuantConvolution"
  bottom: "conv4_1"
  top: "conv4_2"
  convolution_param {
    num_output: 512
    pad: 1
    kernel_size: 3
    weight_filler {
      type: "xavier"
    }
    bias_filler {
      type: "constant"
      value: 0
    }
  }
  quant_convolution_param {
    coef_precision: ONE_BIT
    bw_params: 8
    shift_enable: false
  }
}
layer {
  name: "quant_relu4_2"
  type: "QuantReLU"
  bottom: "conv4_2"
  top: "conv4_2"
  param {
    lr_mult: 0
  }
  quant_relu_param {
    filler {
      type: "constant"
      value: 31
    }
    channel_shared: true
    act_bits: 5
    quant_enable: false
  }
}
layer {
  name: "conv4_3"
  type: "QuantConvolution"
  bottom: "conv4_2"
  top: "conv4_3"
  convolution_param {
    num_output: 512
    pad: 1
    kernel_size: 3
    weight_filler {
      type: "xavier"
    }
    bias_filler {
      type: "constant"
      value: 0
    }
  }
  quant_convolution_param {
    coef_precision: ONE_BIT
    bw_params: 8
    shift_enable: false
  }
}
layer {
  name: "quant_relu4_3"
  type: "QuantReLU"
  bottom: "conv4_3"
  top: "conv4_3"
  param {
    lr_mult: 0
  }
  quant_relu_param {
    filler {
      type: "constant"
      value: 31
    }
    channel_shared: true
    act_bits: 5
    quant_enable: false
  }
}
layer {
  name: "pool4"
  type: "Pooling"
  bottom: "conv4_3"
  top: "pool4"
  pooling_param {
    pool: MAX
    kernel_size: 2
    stride: 2
  }
}
layer {
  name: "conv5_1"
  type: "QuantConvolution"
  bottom: "pool4"
  top: "conv5_1"
  convolution_param {
    num_output: 512
    pad: 1
    kernel_size: 3
    weight_filler {
      type: "xavier"
    }
    bias_filler {
      type: "constant"
      value: 0
    }
  }
  quant_convolution_param {
    coef_precision: ONE_BIT
    bw_params: 8
    shift_enable: false
  }
}
layer {
  name: "quant_relu5_1"
  type: "QuantReLU"
  bottom: "conv5_1"
  top: "conv5_1"
  param {
    lr_mult: 0
  }
  quant_relu_param {
    filler {
      type: "constant"
      value: 31
    }
    channel_shared: true
    act_bits: 5
    quant_enable: false
  }
}
layer {
  name: "conv5_2"
  type: "QuantConvolution"
  bottom: "conv5_1"
  top: "conv5_2"
  param {
    lr_mult: 1
    decay_mult: 0
  }
  param {
    lr_mult: 1
    decay_mult: 1
  }
  convolution_param {
    num_output: 512
    pad: 1
    kernel_size: 3
    weight_filler {
      type: "xavier"
    }
    bias_filler {
      type: "constant"
      value: 0
    }
  }
  quant_convolution_param {
    coef_precision: ONE_BIT
    bw_params: 8
    shift_enable: false
  }
}
layer {
  name: "quant_relu5_2"
  type: "QuantReLU"
  bottom: "conv5_2"
  top: "conv5_2"
  param {
    lr_mult: 0
  }
  quant_relu_param {
    filler {
      type: "constant"
      value: 31
    }
    channel_shared: true
    act_bits: 5
    quant_enable: false
  }
}
layer {
  name: "conv5_3"
  type: "QuantConvolution"
  bottom: "conv5_2"
  top: "conv5_3"
  param {
    lr_mult: 1
    decay_mult: 0
  }
  param {
    lr_mult: 1
    decay_mult: 200
  }
  convolution_param {
    num_output: 512
    pad: 1
    kernel_size: 3
    weight_filler {
      type: "xavier"
    }
    bias_filler {
      type: "constant"
      value: 0
    }
  }
  quant_convolution_param {
    coef_precision: ONE_BIT
    bw_params: 8
    shift_enable: false
  }
}
layer {
  name: "quant_relu5_3"
  type: "QuantReLU"
  bottom: "conv5_3"
  top: "conv5_3"
  param {
    lr_mult: 5
  }
  quant_relu_param {
    filler {
      type: "constant"
      value: 29.225
    }
    channel_shared: true
    act_bits: 5
    quant_enable: false
  }
}
layer {
  name: "pool5"
  type: "Pooling"
  bottom: "conv5_3"
  top: "pool5"
  pooling_param {
    pool: MAX
    kernel_size: 2
    stride: 2
  }
}
layer {
  name: "ip6"
  type: "Convolution"
  bottom: "pool5"
  top: "ip6"
  param {
    lr_mult: 1
    decay_mult: 1
  }
  param {
    lr_mult: 2
    decay_mult: 0
  }
  convolution_param {
    num_output: 512
    pad: 1
    kernel_size: 3
    weight_filler {
      type: "xavier"
    }
    bias_filler {
      type: "constant"
      value: 0
    }
  }
}
layer {
  name: "relu6"
  type: "ReLU"
  bottom: "ip6"
  top: "ip6"
}
layer {
  name: "ip7"
  type: "Convolution"
  bottom: "ip6"
  top: "ip7"
  param {
    lr_mult: 1
    decay_mult: 1
  }
  param {
    lr_mult: 2
    decay_mult: 0
  }
  convolution_param {
    num_output: 512
    kernel_size: 1
    weight_filler {
      type: "xavier"
    }
    bias_filler {
      type: "constant"
      value: 0
    }
  }
}
layer {
  name: "relu7"
  type: "ReLU"
  bottom: "ip7"
  top: "ip7"
}
layer {
  name: "ip7_mbox_loc"
  type: "Convolution"
  bottom: "ip7"
  top: "ip7_mbox_loc"
  param {
    lr_mult: 1
    decay_mult: 1
  }
  param {
    lr_mult: 2
    decay_mult: 0
  }
  convolution_param {
    num_output: 24
    pad: 1
    kernel_size: 3
    stride: 1
    weight_filler {
      type: "xavier"
    }
    bias_filler {
      type: "constant"
      value: 0
    }
  }
}
layer {
  name: "ip7_mbox_loc_perm"
  type: "Permute"
  bottom: "ip7_mbox_loc"
  top: "ip7_mbox_loc_perm"
  permute_param {
    order: 0
    order: 2
    order: 3
    order: 1
  }
}
layer {
  name: "ip7_mbox_loc_flat"
  type: "Flatten"
  bottom: "ip7_mbox_loc_perm"
  top: "ip7_mbox_loc_flat"
  flatten_param {
    axis: 1
  }
}
layer {
  name: "ip7_mbox_conf"
  type: "Convolution"
  bottom: "ip7"
  top: "ip7_mbox_conf"
  param {
    lr_mult: 1
    decay_mult: 1
  }
  param {
    lr_mult: 2
    decay_mult: 0
  }
  convolution_param {
    num_output: 42
    pad: 1
    kernel_size: 3
    stride: 1
    weight_filler {
      type: "xavier"
    }
    bias_filler {
      type: "constant"
      value: 0
    }
  }
}
layer {
  name: "ip7_mbox_conf_perm"
  type: "Permute"
  bottom: "ip7_mbox_conf"
  top: "ip7_mbox_conf_perm"
  permute_param {
    order: 0
    order: 2
    order: 3
    order: 1
  }
}
layer {
  name: "ip7_mbox_conf_flat"
  type: "Flatten"
  bottom: "ip7_mbox_conf_perm"
  top: "ip7_mbox_conf_flat"
  flatten_param {
    axis: 1
  }
}
layer {
  name: "ip7_mbox_priorbox"
  type: "PriorBox"
  bottom: "ip7"
  bottom: "data"
  top: "ip7_mbox_priorbox"
  prior_box_param {
    min_size: 20
    max_size: 210
    aspect_ratio: 2
    aspect_ratio: 3
    flip: true
    clip: false
    variance: 0.1
    variance: 0.1
    variance: 0.2
    variance: 0.2
    step: 32
    offset: 0.5
  }
}
layer {
  name: "mbox_loc"
  type: "Concat"
  bottom: "ip7_mbox_loc_flat"
  top: "mbox_loc"
  concat_param {
    axis: 1
  }
}
layer {
  name: "mbox_conf"
  type: "Concat"
  bottom: "ip7_mbox_conf_flat"
  top: "mbox_conf"
  concat_param {
    axis: 1
  }
}
layer {
  name: "mbox_priorbox"
  type: "Concat"
  bottom: "ip7_mbox_priorbox"
  top: "mbox_priorbox"
  concat_param {
    axis: 2
  }
}
layer {
  name: "mbox_conf_reshape"
  type: "Reshape"
  bottom: "mbox_conf"
  top: "mbox_conf_reshape"
  reshape_param {
    shape {
      dim: 0
      dim: -1
      dim: 7
    }
  }
}
layer {
  name: "mbox_conf_softmax"
  type: "Softmax"
  bottom: "mbox_conf_reshape"
  top: "mbox_conf_softmax"
  softmax_param {
    axis: 2
  }
}
layer {
  name: "mbox_conf_flatten"
  type: "Flatten"
  bottom: "mbox_conf_softmax"
  top: "mbox_conf_flatten"
  flatten_param {
    axis: 1
  }
}
layer {
  name: "detection_out"
  type: "DetectionOutput"
  bottom: "mbox_loc"
  bottom: "mbox_conf_flatten"
  bottom: "mbox_priorbox"
  top: "detection_out"
  include {
    phase: TEST
  }
  detection_output_param {
    num_classes: 7
    share_location: true
    background_label_id: 0
    nms_param {
      nms_threshold: 0.45
      top_k: 400
    }
    code_type: CENTER_SIZE
    keep_top_k: 200
    confidence_threshold: 0.01
  }
}
layer {
  name: "detection_eval"
  type: "DetectionEvaluate"
  bottom: "detection_out"
  bottom: "label"
  top: "detection_eval"
  include {
    phase: TEST
  }
  detection_evaluate_param {
    num_classes: 7
    background_label_id: 0
    overlap_threshold: 0.5
    evaluate_difficult_gt: false
    name_size_file: "/home/zhangwanchun/data/VOCdevkit/VOC0712/lmdb/test_name_size.txt"
  }
}
I0428 17:18:28.246148 20994 layer_factory.hpp:77] Creating layer data
I0428 17:18:28.246217 20994 net.cpp:100] Creating Layer data
I0428 17:18:28.246222 20994 net.cpp:408] data -> data
I0428 17:18:28.246232 20994 net.cpp:408] data -> label
I0428 17:18:28.247303 21034 db_lmdb.cpp:35] Opened lmdb /home/zhangwanchun/data/VOCdevkit/VOC0712/lmdb/VOC0712_test_lmdb
I0428 17:18:28.248010 20994 annotated_data_layer.cpp:62] output data size: 10,3,224,224
I0428 17:18:28.254052 20994 net.cpp:150] Setting up data
I0428 17:18:28.254068 20994 net.cpp:157] Top shape: 10 3 224 224 (1505280)
I0428 17:18:28.254072 20994 net.cpp:157] Top shape: 1 1 1 8 (8)
I0428 17:18:28.254089 20994 net.cpp:165] Memory required for data: 6021152
I0428 17:18:28.254094 20994 layer_factory.hpp:77] Creating layer data_data_0_split
I0428 17:18:28.254103 20994 net.cpp:100] Creating Layer data_data_0_split
I0428 17:18:28.254106 20994 net.cpp:434] data_data_0_split <- data
I0428 17:18:28.254112 20994 net.cpp:408] data_data_0_split -> data_data_0_split_0
I0428 17:18:28.254119 20994 net.cpp:408] data_data_0_split -> data_data_0_split_1
I0428 17:18:28.254161 20994 net.cpp:150] Setting up data_data_0_split
I0428 17:18:28.254166 20994 net.cpp:157] Top shape: 10 3 224 224 (1505280)
I0428 17:18:28.254170 20994 net.cpp:157] Top shape: 10 3 224 224 (1505280)
I0428 17:18:28.254173 20994 net.cpp:165] Memory required for data: 18063392
I0428 17:18:28.254174 20994 layer_factory.hpp:77] Creating layer conv1_1
I0428 17:18:28.254181 20994 net.cpp:100] Creating Layer conv1_1
I0428 17:18:28.254184 20994 net.cpp:434] conv1_1 <- data_data_0_split_0
I0428 17:18:28.254189 20994 net.cpp:408] conv1_1 -> conv1_1
I0428 17:18:28.254521 20994 net.cpp:150] Setting up conv1_1
I0428 17:18:28.254531 20994 net.cpp:157] Top shape: 10 64 224 224 (32112640)
I0428 17:18:28.254534 20994 net.cpp:165] Memory required for data: 146513952
I0428 17:18:28.254541 20994 layer_factory.hpp:77] Creating layer quant_relu1_1
I0428 17:18:28.254549 20994 net.cpp:100] Creating Layer quant_relu1_1
I0428 17:18:28.254551 20994 net.cpp:434] quant_relu1_1 <- conv1_1
I0428 17:18:28.254556 20994 net.cpp:395] quant_relu1_1 -> conv1_1 (in-place)
I0428 17:18:28.257925 20994 net.cpp:150] Setting up quant_relu1_1
I0428 17:18:28.257937 20994 net.cpp:157] Top shape: 10 64 224 224 (32112640)
I0428 17:18:28.257941 20994 net.cpp:165] Memory required for data: 274964512
I0428 17:18:28.257948 20994 layer_factory.hpp:77] Creating layer conv1_2
I0428 17:18:28.257956 20994 net.cpp:100] Creating Layer conv1_2
I0428 17:18:28.257961 20994 net.cpp:434] conv1_2 <- conv1_1
I0428 17:18:28.257966 20994 net.cpp:408] conv1_2 -> conv1_2
I0428 17:18:28.258826 20994 net.cpp:150] Setting up conv1_2
I0428 17:18:28.258832 20994 net.cpp:157] Top shape: 10 64 224 224 (32112640)
I0428 17:18:28.258836 20994 net.cpp:165] Memory required for data: 403415072
I0428 17:18:28.258841 20994 layer_factory.hpp:77] Creating layer quant_relu1_2
I0428 17:18:28.258846 20994 net.cpp:100] Creating Layer quant_relu1_2
I0428 17:18:28.258848 20994 net.cpp:434] quant_relu1_2 <- conv1_2
I0428 17:18:28.258852 20994 net.cpp:395] quant_relu1_2 -> conv1_2 (in-place)
I0428 17:18:28.262513 20994 net.cpp:150] Setting up quant_relu1_2
I0428 17:18:28.262533 20994 net.cpp:157] Top shape: 10 64 224 224 (32112640)
I0428 17:18:28.262537 20994 net.cpp:165] Memory required for data: 531865632
I0428 17:18:28.262543 20994 layer_factory.hpp:77] Creating layer pool1
I0428 17:18:28.262552 20994 net.cpp:100] Creating Layer pool1
I0428 17:18:28.262557 20994 net.cpp:434] pool1 <- conv1_2
I0428 17:18:28.262562 20994 net.cpp:408] pool1 -> pool1
I0428 17:18:28.262621 20994 net.cpp:150] Setting up pool1
I0428 17:18:28.262626 20994 net.cpp:157] Top shape: 10 64 112 112 (8028160)
I0428 17:18:28.262629 20994 net.cpp:165] Memory required for data: 563978272
I0428 17:18:28.262631 20994 layer_factory.hpp:77] Creating layer conv2_1
I0428 17:18:28.262637 20994 net.cpp:100] Creating Layer conv2_1
I0428 17:18:28.262639 20994 net.cpp:434] conv2_1 <- pool1
I0428 17:18:28.262643 20994 net.cpp:408] conv2_1 -> conv2_1
I0428 17:18:28.263131 20994 net.cpp:150] Setting up conv2_1
I0428 17:18:28.263137 20994 net.cpp:157] Top shape: 10 128 112 112 (16056320)
I0428 17:18:28.263139 20994 net.cpp:165] Memory required for data: 628203552
I0428 17:18:28.263144 20994 layer_factory.hpp:77] Creating layer quant_relu2_1
I0428 17:18:28.263149 20994 net.cpp:100] Creating Layer quant_relu2_1
I0428 17:18:28.263152 20994 net.cpp:434] quant_relu2_1 <- conv2_1
I0428 17:18:28.263155 20994 net.cpp:395] quant_relu2_1 -> conv2_1 (in-place)
I0428 17:18:28.265043 20994 net.cpp:150] Setting up quant_relu2_1
I0428 17:18:28.265054 20994 net.cpp:157] Top shape: 10 128 112 112 (16056320)
I0428 17:18:28.265071 20994 net.cpp:165] Memory required for data: 692428832
I0428 17:18:28.265079 20994 layer_factory.hpp:77] Creating layer conv2_2
I0428 17:18:28.265086 20994 net.cpp:100] Creating Layer conv2_2
I0428 17:18:28.265090 20994 net.cpp:434] conv2_2 <- conv2_1
I0428 17:18:28.265095 20994 net.cpp:408] conv2_2 -> conv2_2
I0428 17:18:28.265846 20994 net.cpp:150] Setting up conv2_2
I0428 17:18:28.265852 20994 net.cpp:157] Top shape: 10 128 112 112 (16056320)
I0428 17:18:28.265856 20994 net.cpp:165] Memory required for data: 756654112
I0428 17:18:28.265859 20994 layer_factory.hpp:77] Creating layer quant_relu2_2
I0428 17:18:28.265863 20994 net.cpp:100] Creating Layer quant_relu2_2
I0428 17:18:28.265866 20994 net.cpp:434] quant_relu2_2 <- conv2_2
I0428 17:18:28.265869 20994 net.cpp:395] quant_relu2_2 -> conv2_2 (in-place)
I0428 17:18:28.267663 20994 net.cpp:150] Setting up quant_relu2_2
I0428 17:18:28.267673 20994 net.cpp:157] Top shape: 10 128 112 112 (16056320)
I0428 17:18:28.267674 20994 net.cpp:165] Memory required for data: 820879392
I0428 17:18:28.267679 20994 layer_factory.hpp:77] Creating layer pool2
I0428 17:18:28.267685 20994 net.cpp:100] Creating Layer pool2
I0428 17:18:28.267688 20994 net.cpp:434] pool2 <- conv2_2
I0428 17:18:28.267693 20994 net.cpp:408] pool2 -> pool2
I0428 17:18:28.267729 20994 net.cpp:150] Setting up pool2
I0428 17:18:28.267733 20994 net.cpp:157] Top shape: 10 128 56 56 (4014080)
I0428 17:18:28.267735 20994 net.cpp:165] Memory required for data: 836935712
I0428 17:18:28.267737 20994 layer_factory.hpp:77] Creating layer conv3_1
I0428 17:18:28.267742 20994 net.cpp:100] Creating Layer conv3_1
I0428 17:18:28.267745 20994 net.cpp:434] conv3_1 <- pool2
I0428 17:18:28.267748 20994 net.cpp:408] conv3_1 -> conv3_1
I0428 17:18:28.269552 20994 net.cpp:150] Setting up conv3_1
I0428 17:18:28.269562 20994 net.cpp:157] Top shape: 10 256 56 56 (8028160)
I0428 17:18:28.269564 20994 net.cpp:165] Memory required for data: 869048352
I0428 17:18:28.269569 20994 layer_factory.hpp:77] Creating layer quant_relu3_1
I0428 17:18:28.269574 20994 net.cpp:100] Creating Layer quant_relu3_1
I0428 17:18:28.269577 20994 net.cpp:434] quant_relu3_1 <- conv3_1
I0428 17:18:28.269580 20994 net.cpp:395] quant_relu3_1 -> conv3_1 (in-place)
I0428 17:18:28.270609 20994 net.cpp:150] Setting up quant_relu3_1
I0428 17:18:28.270618 20994 net.cpp:157] Top shape: 10 256 56 56 (8028160)
I0428 17:18:28.270622 20994 net.cpp:165] Memory required for data: 901160992
I0428 17:18:28.270625 20994 layer_factory.hpp:77] Creating layer conv3_2
I0428 17:18:28.270632 20994 net.cpp:100] Creating Layer conv3_2
I0428 17:18:28.270634 20994 net.cpp:434] conv3_2 <- conv3_1
I0428 17:18:28.270639 20994 net.cpp:408] conv3_2 -> conv3_2
I0428 17:18:28.273520 20994 net.cpp:150] Setting up conv3_2
I0428 17:18:28.273530 20994 net.cpp:157] Top shape: 10 256 56 56 (8028160)
I0428 17:18:28.273532 20994 net.cpp:165] Memory required for data: 933273632
I0428 17:18:28.273540 20994 layer_factory.hpp:77] Creating layer quant_relu3_2
I0428 17:18:28.273545 20994 net.cpp:100] Creating Layer quant_relu3_2
I0428 17:18:28.273550 20994 net.cpp:434] quant_relu3_2 <- conv3_2
I0428 17:18:28.273553 20994 net.cpp:395] quant_relu3_2 -> conv3_2 (in-place)
I0428 17:18:28.274555 20994 net.cpp:150] Setting up quant_relu3_2
I0428 17:18:28.274564 20994 net.cpp:157] Top shape: 10 256 56 56 (8028160)
I0428 17:18:28.274566 20994 net.cpp:165] Memory required for data: 965386272
I0428 17:18:28.274569 20994 layer_factory.hpp:77] Creating layer conv3_3
I0428 17:18:28.274578 20994 net.cpp:100] Creating Layer conv3_3
I0428 17:18:28.274581 20994 net.cpp:434] conv3_3 <- conv3_2
I0428 17:18:28.274586 20994 net.cpp:408] conv3_3 -> conv3_3
I0428 17:18:28.277434 20994 net.cpp:150] Setting up conv3_3
I0428 17:18:28.277443 20994 net.cpp:157] Top shape: 10 256 56 56 (8028160)
I0428 17:18:28.277446 20994 net.cpp:165] Memory required for data: 997498912
I0428 17:18:28.277451 20994 layer_factory.hpp:77] Creating layer quant_relu3_3
I0428 17:18:28.277457 20994 net.cpp:100] Creating Layer quant_relu3_3
I0428 17:18:28.277472 20994 net.cpp:434] quant_relu3_3 <- conv3_3
I0428 17:18:28.277475 20994 net.cpp:395] quant_relu3_3 -> conv3_3 (in-place)
I0428 17:18:28.278510 20994 net.cpp:150] Setting up quant_relu3_3
I0428 17:18:28.278519 20994 net.cpp:157] Top shape: 10 256 56 56 (8028160)
I0428 17:18:28.278522 20994 net.cpp:165] Memory required for data: 1029611552
I0428 17:18:28.278527 20994 layer_factory.hpp:77] Creating layer pool3
I0428 17:18:28.278532 20994 net.cpp:100] Creating Layer pool3
I0428 17:18:28.278537 20994 net.cpp:434] pool3 <- conv3_3
I0428 17:18:28.278540 20994 net.cpp:408] pool3 -> pool3
I0428 17:18:28.278578 20994 net.cpp:150] Setting up pool3
I0428 17:18:28.278582 20994 net.cpp:157] Top shape: 10 256 28 28 (2007040)
I0428 17:18:28.278584 20994 net.cpp:165] Memory required for data: 1037639712
I0428 17:18:28.278587 20994 layer_factory.hpp:77] Creating layer conv4_1
I0428 17:18:28.278592 20994 net.cpp:100] Creating Layer conv4_1
I0428 17:18:28.278596 20994 net.cpp:434] conv4_1 <- pool3
I0428 17:18:28.278600 20994 net.cpp:408] conv4_1 -> conv4_1
I0428 17:18:28.284217 20994 net.cpp:150] Setting up conv4_1
I0428 17:18:28.284229 20994 net.cpp:157] Top shape: 10 512 28 28 (4014080)
I0428 17:18:28.284232 20994 net.cpp:165] Memory required for data: 1053696032
I0428 17:18:28.284237 20994 layer_factory.hpp:77] Creating layer quant_relu4_1
I0428 17:18:28.284245 20994 net.cpp:100] Creating Layer quant_relu4_1
I0428 17:18:28.284248 20994 net.cpp:434] quant_relu4_1 <- conv4_1
I0428 17:18:28.284253 20994 net.cpp:395] quant_relu4_1 -> conv4_1 (in-place)
I0428 17:18:28.284996 20994 net.cpp:150] Setting up quant_relu4_1
I0428 17:18:28.285003 20994 net.cpp:157] Top shape: 10 512 28 28 (4014080)
I0428 17:18:28.285006 20994 net.cpp:165] Memory required for data: 1069752352
I0428 17:18:28.285010 20994 layer_factory.hpp:77] Creating layer conv4_2
I0428 17:18:28.285017 20994 net.cpp:100] Creating Layer conv4_2
I0428 17:18:28.285020 20994 net.cpp:434] conv4_2 <- conv4_1
I0428 17:18:28.285025 20994 net.cpp:408] conv4_2 -> conv4_2
I0428 17:18:28.295383 20994 net.cpp:150] Setting up conv4_2
I0428 17:18:28.295399 20994 net.cpp:157] Top shape: 10 512 28 28 (4014080)
I0428 17:18:28.295403 20994 net.cpp:165] Memory required for data: 1085808672
I0428 17:18:28.295408 20994 layer_factory.hpp:77] Creating layer quant_relu4_2
I0428 17:18:28.295416 20994 net.cpp:100] Creating Layer quant_relu4_2
I0428 17:18:28.295420 20994 net.cpp:434] quant_relu4_2 <- conv4_2
I0428 17:18:28.295425 20994 net.cpp:395] quant_relu4_2 -> conv4_2 (in-place)
I0428 17:18:28.296412 20994 net.cpp:150] Setting up quant_relu4_2
I0428 17:18:28.296420 20994 net.cpp:157] Top shape: 10 512 28 28 (4014080)
I0428 17:18:28.296423 20994 net.cpp:165] Memory required for data: 1101864992
I0428 17:18:28.296428 20994 layer_factory.hpp:77] Creating layer conv4_3
I0428 17:18:28.296435 20994 net.cpp:100] Creating Layer conv4_3
I0428 17:18:28.296438 20994 net.cpp:434] conv4_3 <- conv4_2
I0428 17:18:28.296444 20994 net.cpp:408] conv4_3 -> conv4_3
I0428 17:18:28.306804 20994 net.cpp:150] Setting up conv4_3
I0428 17:18:28.306820 20994 net.cpp:157] Top shape: 10 512 28 28 (4014080)
I0428 17:18:28.306823 20994 net.cpp:165] Memory required for data: 1117921312
I0428 17:18:28.306829 20994 layer_factory.hpp:77] Creating layer quant_relu4_3
I0428 17:18:28.306838 20994 net.cpp:100] Creating Layer quant_relu4_3
I0428 17:18:28.306840 20994 net.cpp:434] quant_relu4_3 <- conv4_3
I0428 17:18:28.306846 20994 net.cpp:395] quant_relu4_3 -> conv4_3 (in-place)
I0428 17:18:28.307632 20994 net.cpp:150] Setting up quant_relu4_3
I0428 17:18:28.307641 20994 net.cpp:157] Top shape: 10 512 28 28 (4014080)
I0428 17:18:28.307643 20994 net.cpp:165] Memory required for data: 1133977632
I0428 17:18:28.307648 20994 layer_factory.hpp:77] Creating layer pool4
I0428 17:18:28.307653 20994 net.cpp:100] Creating Layer pool4
I0428 17:18:28.307657 20994 net.cpp:434] pool4 <- conv4_3
I0428 17:18:28.307662 20994 net.cpp:408] pool4 -> pool4
I0428 17:18:28.307700 20994 net.cpp:150] Setting up pool4
I0428 17:18:28.307704 20994 net.cpp:157] Top shape: 10 512 14 14 (1003520)
I0428 17:18:28.307718 20994 net.cpp:165] Memory required for data: 1137991712
I0428 17:18:28.307720 20994 layer_factory.hpp:77] Creating layer conv5_1
I0428 17:18:28.307729 20994 net.cpp:100] Creating Layer conv5_1
I0428 17:18:28.307732 20994 net.cpp:434] conv5_1 <- pool4
I0428 17:18:28.307736 20994 net.cpp:408] conv5_1 -> conv5_1
I0428 17:18:28.318092 20994 net.cpp:150] Setting up conv5_1
I0428 17:18:28.318106 20994 net.cpp:157] Top shape: 10 512 14 14 (1003520)
I0428 17:18:28.318109 20994 net.cpp:165] Memory required for data: 1142005792
I0428 17:18:28.318115 20994 layer_factory.hpp:77] Creating layer quant_relu5_1
I0428 17:18:28.318123 20994 net.cpp:100] Creating Layer quant_relu5_1
I0428 17:18:28.318127 20994 net.cpp:434] quant_relu5_1 <- conv5_1
I0428 17:18:28.318131 20994 net.cpp:395] quant_relu5_1 -> conv5_1 (in-place)
I0428 17:18:28.318253 20994 net.cpp:150] Setting up quant_relu5_1
I0428 17:18:28.318259 20994 net.cpp:157] Top shape: 10 512 14 14 (1003520)
I0428 17:18:28.318260 20994 net.cpp:165] Memory required for data: 1146019872
I0428 17:18:28.318269 20994 layer_factory.hpp:77] Creating layer conv5_2
I0428 17:18:28.318276 20994 net.cpp:100] Creating Layer conv5_2
I0428 17:18:28.318279 20994 net.cpp:434] conv5_2 <- conv5_1
I0428 17:18:28.318284 20994 net.cpp:408] conv5_2 -> conv5_2
I0428 17:18:28.328632 20994 net.cpp:150] Setting up conv5_2
I0428 17:18:28.328649 20994 net.cpp:157] Top shape: 10 512 14 14 (1003520)
I0428 17:18:28.328650 20994 net.cpp:165] Memory required for data: 1150033952
I0428 17:18:28.328656 20994 layer_factory.hpp:77] Creating layer quant_relu5_2
I0428 17:18:28.328663 20994 net.cpp:100] Creating Layer quant_relu5_2
I0428 17:18:28.328667 20994 net.cpp:434] quant_relu5_2 <- conv5_2
I0428 17:18:28.328673 20994 net.cpp:395] quant_relu5_2 -> conv5_2 (in-place)
I0428 17:18:28.328794 20994 net.cpp:150] Setting up quant_relu5_2
I0428 17:18:28.328799 20994 net.cpp:157] Top shape: 10 512 14 14 (1003520)
I0428 17:18:28.328801 20994 net.cpp:165] Memory required for data: 1154048032
I0428 17:18:28.328804 20994 layer_factory.hpp:77] Creating layer conv5_3
I0428 17:18:28.328811 20994 net.cpp:100] Creating Layer conv5_3
I0428 17:18:28.328814 20994 net.cpp:434] conv5_3 <- conv5_2
I0428 17:18:28.328820 20994 net.cpp:408] conv5_3 -> conv5_3
I0428 17:18:28.339519 20994 net.cpp:150] Setting up conv5_3
I0428 17:18:28.339534 20994 net.cpp:157] Top shape: 10 512 14 14 (1003520)
I0428 17:18:28.339536 20994 net.cpp:165] Memory required for data: 1158062112
I0428 17:18:28.339543 20994 layer_factory.hpp:77] Creating layer quant_relu5_3
I0428 17:18:28.339552 20994 net.cpp:100] Creating Layer quant_relu5_3
I0428 17:18:28.339555 20994 net.cpp:434] quant_relu5_3 <- conv5_3
I0428 17:18:28.339560 20994 net.cpp:395] quant_relu5_3 -> conv5_3 (in-place)
I0428 17:18:28.339681 20994 net.cpp:150] Setting up quant_relu5_3
I0428 17:18:28.339686 20994 net.cpp:157] Top shape: 10 512 14 14 (1003520)
I0428 17:18:28.339689 20994 net.cpp:165] Memory required for data: 1162076192
I0428 17:18:28.339692 20994 layer_factory.hpp:77] Creating layer pool5
I0428 17:18:28.339702 20994 net.cpp:100] Creating Layer pool5
I0428 17:18:28.339705 20994 net.cpp:434] pool5 <- conv5_3
I0428 17:18:28.339709 20994 net.cpp:408] pool5 -> pool5
I0428 17:18:28.339743 20994 net.cpp:150] Setting up pool5
I0428 17:18:28.339749 20994 net.cpp:157] Top shape: 10 512 7 7 (250880)
I0428 17:18:28.339752 20994 net.cpp:165] Memory required for data: 1163079712
I0428 17:18:28.339754 20994 layer_factory.hpp:77] Creating layer ip6
I0428 17:18:28.339761 20994 net.cpp:100] Creating Layer ip6
I0428 17:18:28.339764 20994 net.cpp:434] ip6 <- pool5
I0428 17:18:28.339769 20994 net.cpp:408] ip6 -> ip6
I0428 17:18:28.351776 20994 net.cpp:150] Setting up ip6
I0428 17:18:28.351794 20994 net.cpp:157] Top shape: 10 512 7 7 (250880)
I0428 17:18:28.351796 20994 net.cpp:165] Memory required for data: 1164083232
I0428 17:18:28.351802 20994 layer_factory.hpp:77] Creating layer relu6
I0428 17:18:28.351809 20994 net.cpp:100] Creating Layer relu6
I0428 17:18:28.351830 20994 net.cpp:434] relu6 <- ip6
I0428 17:18:28.351835 20994 net.cpp:395] relu6 -> ip6 (in-place)
I0428 17:18:28.352211 20994 net.cpp:150] Setting up relu6
I0428 17:18:28.352221 20994 net.cpp:157] Top shape: 10 512 7 7 (250880)
I0428 17:18:28.352222 20994 net.cpp:165] Memory required for data: 1165086752
I0428 17:18:28.352226 20994 layer_factory.hpp:77] Creating layer ip7
I0428 17:18:28.352233 20994 net.cpp:100] Creating Layer ip7
I0428 17:18:28.352236 20994 net.cpp:434] ip7 <- ip6
I0428 17:18:28.352242 20994 net.cpp:408] ip7 -> ip7
I0428 17:18:28.356531 20994 net.cpp:150] Setting up ip7
I0428 17:18:28.356541 20994 net.cpp:157] Top shape: 10 512 7 7 (250880)
I0428 17:18:28.356544 20994 net.cpp:165] Memory required for data: 1166090272
I0428 17:18:28.356549 20994 layer_factory.hpp:77] Creating layer relu7
I0428 17:18:28.356555 20994 net.cpp:100] Creating Layer relu7
I0428 17:18:28.356557 20994 net.cpp:434] relu7 <- ip7
I0428 17:18:28.356561 20994 net.cpp:395] relu7 -> ip7 (in-place)
I0428 17:18:28.356933 20994 net.cpp:150] Setting up relu7
I0428 17:18:28.356941 20994 net.cpp:157] Top shape: 10 512 7 7 (250880)
I0428 17:18:28.356945 20994 net.cpp:165] Memory required for data: 1167093792
I0428 17:18:28.356946 20994 layer_factory.hpp:77] Creating layer ip7_relu7_0_split
I0428 17:18:28.356951 20994 net.cpp:100] Creating Layer ip7_relu7_0_split
I0428 17:18:28.356954 20994 net.cpp:434] ip7_relu7_0_split <- ip7
I0428 17:18:28.356958 20994 net.cpp:408] ip7_relu7_0_split -> ip7_relu7_0_split_0
I0428 17:18:28.356964 20994 net.cpp:408] ip7_relu7_0_split -> ip7_relu7_0_split_1
I0428 17:18:28.356968 20994 net.cpp:408] ip7_relu7_0_split -> ip7_relu7_0_split_2
I0428 17:18:28.357018 20994 net.cpp:150] Setting up ip7_relu7_0_split
I0428 17:18:28.357023 20994 net.cpp:157] Top shape: 10 512 7 7 (250880)
I0428 17:18:28.357026 20994 net.cpp:157] Top shape: 10 512 7 7 (250880)
I0428 17:18:28.357029 20994 net.cpp:157] Top shape: 10 512 7 7 (250880)
I0428 17:18:28.357031 20994 net.cpp:165] Memory required for data: 1170104352
I0428 17:18:28.357034 20994 layer_factory.hpp:77] Creating layer ip7_mbox_loc
I0428 17:18:28.357041 20994 net.cpp:100] Creating Layer ip7_mbox_loc
I0428 17:18:28.357044 20994 net.cpp:434] ip7_mbox_loc <- ip7_relu7_0_split_0
I0428 17:18:28.357049 20994 net.cpp:408] ip7_mbox_loc -> ip7_mbox_loc
I0428 17:18:28.359366 20994 net.cpp:150] Setting up ip7_mbox_loc
I0428 17:18:28.359375 20994 net.cpp:157] Top shape: 10 24 7 7 (11760)
I0428 17:18:28.359378 20994 net.cpp:165] Memory required for data: 1170151392
I0428 17:18:28.359383 20994 layer_factory.hpp:77] Creating layer ip7_mbox_loc_perm
I0428 17:18:28.359390 20994 net.cpp:100] Creating Layer ip7_mbox_loc_perm
I0428 17:18:28.359391 20994 net.cpp:434] ip7_mbox_loc_perm <- ip7_mbox_loc
I0428 17:18:28.359396 20994 net.cpp:408] ip7_mbox_loc_perm -> ip7_mbox_loc_perm
I0428 17:18:28.359499 20994 net.cpp:150] Setting up ip7_mbox_loc_perm
I0428 17:18:28.359504 20994 net.cpp:157] Top shape: 10 7 7 24 (11760)
I0428 17:18:28.359506 20994 net.cpp:165] Memory required for data: 1170198432
I0428 17:18:28.359508 20994 layer_factory.hpp:77] Creating layer ip7_mbox_loc_flat
I0428 17:18:28.359513 20994 net.cpp:100] Creating Layer ip7_mbox_loc_flat
I0428 17:18:28.359515 20994 net.cpp:434] ip7_mbox_loc_flat <- ip7_mbox_loc_perm
I0428 17:18:28.359519 20994 net.cpp:408] ip7_mbox_loc_flat -> ip7_mbox_loc_flat
I0428 17:18:28.359540 20994 net.cpp:150] Setting up ip7_mbox_loc_flat
I0428 17:18:28.359545 20994 net.cpp:157] Top shape: 10 1176 (11760)
I0428 17:18:28.359547 20994 net.cpp:165] Memory required for data: 1170245472
I0428 17:18:28.359549 20994 layer_factory.hpp:77] Creating layer ip7_mbox_conf
I0428 17:18:28.359556 20994 net.cpp:100] Creating Layer ip7_mbox_conf
I0428 17:18:28.359560 20994 net.cpp:434] ip7_mbox_conf <- ip7_relu7_0_split_1
I0428 17:18:28.359565 20994 net.cpp:408] ip7_mbox_conf -> ip7_mbox_conf
I0428 17:18:28.362257 20994 net.cpp:150] Setting up ip7_mbox_conf
I0428 17:18:28.362270 20994 net.cpp:157] Top shape: 10 42 7 7 (20580)
I0428 17:18:28.362273 20994 net.cpp:165] Memory required for data: 1170327792
I0428 17:18:28.362288 20994 layer_factory.hpp:77] Creating layer ip7_mbox_conf_perm
I0428 17:18:28.362296 20994 net.cpp:100] Creating Layer ip7_mbox_conf_perm
I0428 17:18:28.362299 20994 net.cpp:434] ip7_mbox_conf_perm <- ip7_mbox_conf
I0428 17:18:28.362304 20994 net.cpp:408] ip7_mbox_conf_perm -> ip7_mbox_conf_perm
I0428 17:18:28.362416 20994 net.cpp:150] Setting up ip7_mbox_conf_perm
I0428 17:18:28.362422 20994 net.cpp:157] Top shape: 10 7 7 42 (20580)
I0428 17:18:28.362424 20994 net.cpp:165] Memory required for data: 1170410112
I0428 17:18:28.362427 20994 layer_factory.hpp:77] Creating layer ip7_mbox_conf_flat
I0428 17:18:28.362432 20994 net.cpp:100] Creating Layer ip7_mbox_conf_flat
I0428 17:18:28.362434 20994 net.cpp:434] ip7_mbox_conf_flat <- ip7_mbox_conf_perm
I0428 17:18:28.362438 20994 net.cpp:408] ip7_mbox_conf_flat -> ip7_mbox_conf_flat
I0428 17:18:28.362464 20994 net.cpp:150] Setting up ip7_mbox_conf_flat
I0428 17:18:28.362468 20994 net.cpp:157] Top shape: 10 2058 (20580)
I0428 17:18:28.362471 20994 net.cpp:165] Memory required for data: 1170492432
I0428 17:18:28.362473 20994 layer_factory.hpp:77] Creating layer ip7_mbox_priorbox
I0428 17:18:28.362478 20994 net.cpp:100] Creating Layer ip7_mbox_priorbox
I0428 17:18:28.362481 20994 net.cpp:434] ip7_mbox_priorbox <- ip7_relu7_0_split_2
I0428 17:18:28.362484 20994 net.cpp:434] ip7_mbox_priorbox <- data_data_0_split_1
I0428 17:18:28.362488 20994 net.cpp:408] ip7_mbox_priorbox -> ip7_mbox_priorbox
I0428 17:18:28.362514 20994 net.cpp:150] Setting up ip7_mbox_priorbox
I0428 17:18:28.362517 20994 net.cpp:157] Top shape: 1 2 1176 (2352)
I0428 17:18:28.362519 20994 net.cpp:165] Memory required for data: 1170501840
I0428 17:18:28.362521 20994 layer_factory.hpp:77] Creating layer mbox_loc
I0428 17:18:28.362526 20994 net.cpp:100] Creating Layer mbox_loc
I0428 17:18:28.362529 20994 net.cpp:434] mbox_loc <- ip7_mbox_loc_flat
I0428 17:18:28.362534 20994 net.cpp:408] mbox_loc -> mbox_loc
I0428 17:18:28.362557 20994 net.cpp:150] Setting up mbox_loc
I0428 17:18:28.362561 20994 net.cpp:157] Top shape: 10 1176 (11760)
I0428 17:18:28.362563 20994 net.cpp:165] Memory required for data: 1170548880
I0428 17:18:28.362565 20994 layer_factory.hpp:77] Creating layer mbox_conf
I0428 17:18:28.362568 20994 net.cpp:100] Creating Layer mbox_conf
I0428 17:18:28.362571 20994 net.cpp:434] mbox_conf <- ip7_mbox_conf_flat
I0428 17:18:28.362574 20994 net.cpp:408] mbox_conf -> mbox_conf
I0428 17:18:28.362594 20994 net.cpp:150] Setting up mbox_conf
I0428 17:18:28.362598 20994 net.cpp:157] Top shape: 10 2058 (20580)
I0428 17:18:28.362601 20994 net.cpp:165] Memory required for data: 1170631200
I0428 17:18:28.362602 20994 layer_factory.hpp:77] Creating layer mbox_priorbox
I0428 17:18:28.362605 20994 net.cpp:100] Creating Layer mbox_priorbox
I0428 17:18:28.362607 20994 net.cpp:434] mbox_priorbox <- ip7_mbox_priorbox
I0428 17:18:28.362612 20994 net.cpp:408] mbox_priorbox -> mbox_priorbox
I0428 17:18:28.362632 20994 net.cpp:150] Setting up mbox_priorbox
I0428 17:18:28.362634 20994 net.cpp:157] Top shape: 1 2 1176 (2352)
I0428 17:18:28.362637 20994 net.cpp:165] Memory required for data: 1170640608
I0428 17:18:28.362639 20994 layer_factory.hpp:77] Creating layer mbox_conf_reshape
I0428 17:18:28.362643 20994 net.cpp:100] Creating Layer mbox_conf_reshape
I0428 17:18:28.362645 20994 net.cpp:434] mbox_conf_reshape <- mbox_conf
I0428 17:18:28.362650 20994 net.cpp:408] mbox_conf_reshape -> mbox_conf_reshape
I0428 17:18:28.362675 20994 net.cpp:150] Setting up mbox_conf_reshape
I0428 17:18:28.362679 20994 net.cpp:157] Top shape: 10 294 7 (20580)
I0428 17:18:28.362681 20994 net.cpp:165] Memory required for data: 1170722928
I0428 17:18:28.362684 20994 layer_factory.hpp:77] Creating layer mbox_conf_softmax
I0428 17:18:28.362689 20994 net.cpp:100] Creating Layer mbox_conf_softmax
I0428 17:18:28.362690 20994 net.cpp:434] mbox_conf_softmax <- mbox_conf_reshape
I0428 17:18:28.362694 20994 net.cpp:408] mbox_conf_softmax -> mbox_conf_softmax
I0428 17:18:28.364368 20994 net.cpp:150] Setting up mbox_conf_softmax
I0428 17:18:28.364387 20994 net.cpp:157] Top shape: 10 294 7 (20580)
I0428 17:18:28.364390 20994 net.cpp:165] Memory required for data: 1170805248
I0428 17:18:28.364392 20994 layer_factory.hpp:77] Creating layer mbox_conf_flatten
I0428 17:18:28.364398 20994 net.cpp:100] Creating Layer mbox_conf_flatten
I0428 17:18:28.364401 20994 net.cpp:434] mbox_conf_flatten <- mbox_conf_softmax
I0428 17:18:28.364408 20994 net.cpp:408] mbox_conf_flatten -> mbox_conf_flatten
I0428 17:18:28.364432 20994 net.cpp:150] Setting up mbox_conf_flatten
I0428 17:18:28.364437 20994 net.cpp:157] Top shape: 10 2058 (20580)
I0428 17:18:28.364440 20994 net.cpp:165] Memory required for data: 1170887568
I0428 17:18:28.364442 20994 layer_factory.hpp:77] Creating layer detection_out
I0428 17:18:28.364456 20994 net.cpp:100] Creating Layer detection_out
I0428 17:18:28.364459 20994 net.cpp:434] detection_out <- mbox_loc
I0428 17:18:28.364464 20994 net.cpp:434] detection_out <- mbox_conf_flatten
I0428 17:18:28.364467 20994 net.cpp:434] detection_out <- mbox_priorbox
I0428 17:18:28.364472 20994 net.cpp:408] detection_out -> detection_out
11111
I0428 17:18:28.364537 20994 net.cpp:150] Setting up detection_out
I0428 17:18:28.364543 20994 net.cpp:157] Top shape: 1 1 1 7 (7)
I0428 17:18:28.364545 20994 net.cpp:165] Memory required for data: 1170887596
I0428 17:18:28.364547 20994 layer_factory.hpp:77] Creating layer detection_eval
I0428 17:18:28.364553 20994 net.cpp:100] Creating Layer detection_eval
I0428 17:18:28.364557 20994 net.cpp:434] detection_eval <- detection_out
I0428 17:18:28.364560 20994 net.cpp:434] detection_eval <- label
I0428 17:18:28.364564 20994 net.cpp:408] detection_eval -> detection_eval
I0428 17:18:28.364676 20994 net.cpp:150] Setting up detection_eval
I0428 17:18:28.364682 20994 net.cpp:157] Top shape: 1 1 7 5 (35)
I0428 17:18:28.364686 20994 net.cpp:165] Memory required for data: 1170887736
I0428 17:18:28.364687 20994 net.cpp:228] detection_eval does not need backward computation.
I0428 17:18:28.364691 20994 net.cpp:228] detection_out does not need backward computation.
I0428 17:18:28.364694 20994 net.cpp:228] mbox_conf_flatten does not need backward computation.
I0428 17:18:28.364698 20994 net.cpp:228] mbox_conf_softmax does not need backward computation.
…
