…
        max_scale: 1
        min_aspect_ratio: 0.5
        max_aspect_ratio: 2
      }
      sample_constraint {
        min_jaccard_overlap: 0.9
      }
      max_sample: 1
      max_trials: 50
    }
    batch_sampler {
      sampler {
        min_scale: 0.3
        max_scale: 1
        min_aspect_ratio: 0.5
        max_aspect_ratio: 2
      }
      sample_constraint {
        max_jaccard_overlap: 1
      }
      max_sample: 1
      max_trials: 50
    }
    label_map_file: "/home/zhangwanchun/data/VOCdevkit/VOC0712/lmdb/labelmap_voc.prototxt"
  }
}
layer {
  name: "conv1_1"
  type: "QuantConvolution"
  bottom: "data"
  top: "conv1_1"
  convolution_param {
    num_output: 64
    pad: 1
    kernel_size: 3
    weight_filler {
      type: "xavier"
    }
    bias_filler {
      type: "constant"
      value: 0
    }
  }
  quant_convolution_param {
    coef_precision: FLOATING_POINT
    bw_params: 8
    shift_enable: false
  }
}
layer {
  name: "quant_relu1_1"
  type: "QuantReLU"
  bottom: "conv1_1"
  top: "conv1_1"
  param {
    lr_mult: 5
  }
  quant_relu_param {
    filler {
      type: "constant"
      value: 31
    }
    channel_shared: true
    act_bits: 5
    quant_enable: false
  }
}
layer {
  name: "conv1_2"
  type: "QuantConvolution"
  bottom: "conv1_1"
  top: "conv1_2"
  convolution_param {
    num_output: 64
    pad: 1
    kernel_size: 3
    weight_filler {
      type: "xavier"
    }
    bias_filler {
      type: "constant"
      value: 0
    }
  }
  quant_convolution_param {
    coef_precision: FLOATING_POINT
    bw_params: 8
    shift_enable: false
  }
}
layer {
  name: "quant_relu1_2"
  type: "QuantReLU"
  bottom: "conv1_2"
  top: "conv1_2"
  param {
    lr_mult: 5
  }
  quant_relu_param {
    filler {
      type: "constant"
      value: 31
    }
    channel_shared: true
    act_bits: 5
    quant_enable: false
  }
}
layer {
  name: "pool1"
  type: "Pooling"
  bottom: "conv1_2"
  top: "pool1"
  pooling_param {
    pool: MAX
    kernel_size: 2
    stride: 2
  }
}
layer {
  name: "conv2_1"
  type: "QuantConvolution"
  bottom: "pool1"
  top: "conv2_1"
  convolution_param {
    num_output: 128
    pad: 1
    kernel_size: 3
    weight_filler {
      type: "xavier"
    }
    bias_filler {
      type: "constant"
      value: 0
    }
  }
  quant_convolution_param {
    coef_precision: FLOATING_POINT
    bw_params: 8
    shift_enable: false
  }
}
layer {
  name: "quant_relu2_1"
  type: "QuantReLU"
  bottom: "conv2_1"
  top: "conv2_1"
  param {
    lr_mult: 5
  }
  quant_relu_param {
    filler {
      type: "constant"
      value: 65.934
    }
    channel_shared: true
    act_bits: 5
    quant_enable: false
  }
}
layer {
  name: "conv2_2"
  type: "QuantConvolution"
  bottom: "conv2_1"
  top: "conv2_2"
  convolution_param {
    num_output: 128
    pad: 1
    kernel_size: 3
    weight_filler {
      type: "xavier"
    }
    bias_filler {
      type: "constant"
      value: 0
    }
  }
  quant_convolution_param {
    coef_precision: FLOATING_POINT
    bw_params: 8
    shift_enable: false
  }
}
layer {
  name: "quant_relu2_2"
  type: "QuantReLU"
  bottom: "conv2_2"
  top: "conv2_2"
  param {
    lr_mult: 5
  }
  quant_relu_param {
    filler {
      type: "constant"
      value: 107.992
    }
    channel_shared: true
    act_bits: 5
    quant_enable: false
  }
}
layer {
  name: "pool2"
  type: "Pooling"
  bottom: "conv2_2"
  top: "pool2"
  pooling_param {
    pool: MAX
    kernel_size: 2
    stride: 2
  }
}
layer {
  name: "conv3_1"
  type: "QuantConvolution"
  bottom: "pool2"
  top: "conv3_1"
  convolution_param {
    num_output: 256
    pad: 1
    kernel_size: 3
    weight_filler {
      type: "xavier"
    }
    bias_filler {
      type: "constant"
      value: 0
    }
  }
  quant_convolution_param {
    coef_precision: FLOATING_POINT
    bw_params: 8
    shift_enable: false
  }
}
layer {
  name: "quant_relu3_1"
  type: "QuantReLU"
  bottom: "conv3_1"
  top: "conv3_1"
  param {
    lr_mult: 5
  }
  quant_relu_param {
    filler {
      type: "constant"
      value: 115.32
    }
    channel_shared: true
    act_bits: 5
    quant_enable: false
  }
}
layer {
  name: "conv3_2"
  type: "QuantConvolution"
  bottom: "conv3_1"
  top: "conv3_2"
  convolution_param {
    num_output: 256
    pad: 1
    kernel_size: 3
    weight_filler {
      type: "xavier"
    }
    bias_filler {
      type: "constant"
      value: 0
    }
  }
  quant_convolution_param {
    coef_precision: THREE_BITS
    bw_params: 8
    shift_enable: false
  }
}
layer {
  name: "quant_relu3_2"
  type: "QuantReLU"
  bottom: "conv3_2"
  top: "conv3_2"
  param {
    lr_mult: 0
  }
  quant_relu_param {
    filler {
      type: "constant"
      value: 31
    }
    channel_shared: true
    act_bits: 5
    quant_enable: false
  }
}
layer {
  name: "conv3_3"
  type: "QuantConvolution"
  bottom: "conv3_2"
  top: "conv3_3"
  convolution_param {
    num_output: 256
    pad: 1
    kernel_size: 3
    weight_filler {
      type: "xavier"
    }
    bias_filler {
      type: "constant"
      value: 0
    }
  }
  quant_convolution_param {
    coef_precision: THREE_BITS
    bw_params: 8
    shift_enable: false
  }
}
layer {
  name: "quant_relu3_3"
  type: "QuantReLU"
  bottom: "conv3_3"
  top: "conv3_3"
  param {
    lr_mult: 0
  }
  quant_relu_param {
    filler {
      type: "constant"
      value: 31
    }
    channel_shared: true
    act_bits: 5
    quant_enable: false
  }
}
layer {
  name: "pool3"
  type: "Pooling"
  bottom: "conv3_3"
  top: "pool3"
  pooling_param {
    pool: MAX
    kernel_size: 2
    stride: 2
  }
}
layer {
  name: "conv4_1"
  type: "QuantConvolution"
  bottom: "pool3"
  top: "conv4_1"
  convolution_param {
    num_output: 512
    pad: 1
    kernel_size: 3
    weight_filler {
      type: "xavier"
    }
    bias_filler {
      type: "constant"
      value: 0
    }
  }
  quant_convolution_param {
    coef_precision: ONE_BIT
    bw_params: 8
    shift_enable: false
  }
}
layer {
  name: "quant_relu4_1"
  type: "QuantReLU"
  bottom: "conv4_1"
  top: "conv4_1"
  param {
    lr_mult: 0
  }
  quant_relu_param {
    filler {
      type: "constant"
      value: 31
    }
    channel_shared: true
    act_bits: 5
    quant_enable: false
  }
}
layer {
  name: "conv4_2"
  type: "QuantConvolution"
  bottom: "conv4_1"
  top: "conv4_2"
  convolution_param {
    num_output: 512
    pad: 1
    kernel_size: 3
    weight_filler {
      type: "xavier"
    }
    bias_filler {
      type: "constant"
      value: 0
    }
  }
  quant_convolution_param {
    coef_precision: ONE_BIT
    bw_params: 8
    shift_enable: false
  }
}
layer {
  name: "quant_relu4_2"
  type: "QuantReLU"
  bottom: "conv4_2"
  top: "conv4_2"
  param {
    lr_mult: 0
  }
  quant_relu_param {
    filler {
      type: "constant"
      value: 31
    }
    channel_shared: true
    act_bits: 5
    quant_enable: false
  }
}
layer {
  name: "conv4_3"
  type: "QuantConvolution"
  bottom: "conv4_2"
  top: "conv4_3"
  convolution_param {
    num_output: 512
    pad: 1
    kernel_size: 3
    weight_filler {
      type: "xavier"
    }
    bias_filler {
      type: "constant"
      value: 0
    }
  }
  quant_convolution_param {
    coef_precision: ONE_BIT
    bw_params: 8
    shift_enable: false
  }
}
layer {
  name: "quant_relu4_3"
  type: "QuantReLU"
  bottom: "conv4_3"
  top: "conv4_3"
  param {
    lr_mult: 0
  }
  quant_relu_param {
    filler {
      type: "constant"
      value: 31
    }
    channel_shared: true
    act_bits: 5
    quant_enable: false
  }
}
layer {
  name: "pool4"
  type: "Pooling"
  bottom: "conv4_3"
  top: "pool4"
  pooling_param {
    pool: MAX
    kernel_size: 2
    stride: 2
  }
}
layer {
  name: "conv5_1"
  type: "QuantConvolution"
  bottom: "pool4"
  top: "conv5_1"
  convolution_param {
    num_output: 512
    pad: 1
    kernel_size: 3
    weight_filler {
      type: "xavier"
    }
    bias_filler {
      type: "constant"
      value: 0
    }
  }
  quant_convolution_param {
    coef_precision: ONE_BIT
    bw_params: 8
    shift_enable: false
  }
}
layer {
  name: "quant_relu5_1"
  type: "QuantReLU"
  bottom: "conv5_1"
  top: "conv5_1"
  param {
    lr_mult: 0
  }
  quant_relu_param {
    filler {
      type: "constant"
      value: 31
    }
    channel_shared: true
    act_bits: 5
    quant_enable: false
  }
}
layer {
  name: "conv5_2"
  type: "QuantConvolution"
  bottom: "conv5_1"
  top: "conv5_2"
  param {
    lr_mult: 1
    decay_mult: 0
  }
  param {
    lr_mult: 1
    decay_mult: 1
  }
  convolution_param {
    num_output: 512
    pad: 1
    kernel_size: 3
    weight_filler {
      type: "xavier"
    }
    bias_filler {
      type: "constant"
      value: 0
    }
  }
  quant_convolution_param {
    coef_precision: ONE_BIT
    bw_params: 8
    shift_enable: false
  }
}
layer {
  name: "quant_relu5_2"
  type: "QuantReLU"
  bottom: "conv5_2"
  top: "conv5_2"
  param {
    lr_mult: 0
  }
  quant_relu_param {
    filler {
      type: "constant"
      value: 31
    }
    channel_shared: true
    act_bits: 5
    quant_enable: false
  }
}
layer {
  name: "conv5_3"
  type: "QuantConvolution"
  bottom: "conv5_2"
  top: "conv5_3"
  param {
    lr_mult: 1
    decay_mult: 0
  }
  param {
    lr_mult: 1
    decay_mult: 200
  }
  convolution_param {
    num_output: 512
    pad: 1
    kernel_size: 3
    weight_filler {
      type: "xavier"
    }
    bias_filler {
      type: "constant"
      value: 0
    }
  }
  quant_convolution_param {
    coef_precision: ONE_BIT
    bw_params: 8
    shift_enable: false
  }
}
layer {
  name: "quant_relu5_3"
  type: "QuantReLU"
  bottom: "conv5_3"
  top: "conv5_3"
  param {
    lr_mult: 5
  }
  quant_relu_param {
    filler {
      type: "constant"
      value: 29.225
    }
    channel_shared: true
    act_bits: 5
    quant_enable: false
  }
}
layer {
  name: "pool5"
  type: "Pooling"
  bottom: "conv5_3"
  top: "pool5"
  pooling_param {
    pool: MAX
    kernel_size: 2
    stride: 2
  }
}
layer {
  name: "ip6"
  type: "Convolution"
  bottom: "pool5"
  top: "ip6"
  param {
    lr_mult: 1
    decay_mult: 1
  }
  param {
    lr_mult: 2
    decay_mult: 0
  }
  convolution_param {
    num_output: 512
    pad: 1
    kernel_size: 3
    weight_filler {
      type: "xavier"
    }
    bias_filler {
      type: "constant"
      value: 0
    }
  }
}
layer {
  name: "relu6"
  type: "ReLU"
  bottom: "ip6"
  top: "ip6"
}
layer {
  name: "ip7"
  type: "Convolution"
  bottom: "ip6"
  top: "ip7"
  param {
    lr_mult: 1
    decay_mult: 1
  }
  param {
    lr_mult: 2
    decay_mult: 0
  }
  convolution_param {
    num_output: 512
    kernel_size: 1
    weight_filler {
      type: "xavier"
    }
    bias_filler {
      type: "constant"
      value: 0
    }
  }
}
layer {
  name: "relu7"
  type: "ReLU"
  bottom: "ip7"
  top: "ip7"
}
layer {
  name: "ip7_mbox_loc"
  type: "Convolution"
  bottom: "ip7"
  top: "ip7_mbox_loc"
  param {
    lr_mult: 1
    decay_mult: 1
  }
  param {
    lr_mult: 2
    decay_mult: 0
  }
  convolution_param {
    num_output: 24
    pad: 1
    kernel_size: 3
    stride: 1
    weight_filler {
      type: "xavier"
    }
    bias_filler {
      type: "constant"
      value: 0
    }
  }
}
layer {
  name: "ip7_mbox_loc_perm"
  type: "Permute"
  bottom: "ip7_mbox_loc"
  top: "ip7_mbox_loc_perm"
  permute_param {
    order: 0
    order: 2
    order: 3
    order: 1
  }
}
layer {
  name: "ip7_mbox_loc_flat"
  type: "Flatten"
  bottom: "ip7_mbox_loc_perm"
  top: "ip7_mbox_loc_flat"
  flatten_param {
    axis: 1
  }
}
layer {
  name: "ip7_mbox_conf"
  type: "Convolution"
  bottom: "ip7"
  top: "ip7_mbox_conf"
  param {
    lr_mult: 1
    decay_mult: 1
  }
  param {
    lr_mult: 2
    decay_mult: 0
  }
  convolution_param {
    num_output: 36
    pad: 1
    kernel_size: 3
    stride: 1
    weight_filler {
      type: "xavier"
    }
    bias_filler {
      type: "constant"
      value: 0
    }
  }
}
layer {
  name: "ip7_mbox_conf_perm"
  type: "Permute"
  bottom: "ip7_mbox_conf"
  top: "ip7_mbox_conf_perm"
  permute_param {
    order: 0
    order: 2
    order: 3
    order: 1
  }
}
layer {
  name: "ip7_mbox_conf_flat"
  type: "Flatten"
  bottom: "ip7_mbox_conf_perm"
  top: "ip7_mbox_conf_flat"
  flatten_param {
    axis: 1
  }
}
layer {
  name: "ip7_mbox_priorbox"
  type: "PriorBox"
  bottom: "ip7"
  bottom: "data"
  top: "ip7_mbox_priorbox"
  prior_box_param {
    min_size: 20
    max_size: 210
    aspect_ratio: 2
    aspect_ratio: 3
    flip: true
    clip: false
    variance: 0.1
    variance: 0.1
    variance: 0.2
    variance: 0.2
    step: 32
    offset: 0.5
  }
}
layer {
  name: "mbox_loc"
  type: "Concat"
  bottom: "ip7_mbox_loc_flat"
  top: "mbox_loc"
  concat_param {
    axis: 1
  }
}
layer {
  name: "mbox_conf"
  type: "Concat"
  bottom: "ip7_mbox_conf_flat"
  top: "mbox_conf"
  concat_param {
    axis: 1
  }
}
layer {
  name: "mbox_priorbox"
  type: "Concat"
  bottom: "ip7_mbox_priorbox"
  top: "mbox_priorbox"
  concat_param {
    axis: 2
  }
}
layer {
  name: "mbox_loss"
  type: "MultiBoxLoss"
  bottom: "mbox_loc"
  bottom: "mbox_conf"
  bottom: "mbox_priorbox"
  bottom: "label"
  top: "mbox_loss"
  include {
    phase: TRAIN
  }
  propagate_down: true
  propagate_down: true
  propagate_down: false
  propagate_down: false
  loss_param {
    normalization: VALID
  }
  multibox_loss_param {
    loc_loss_type: SMOOTH_L1
    conf_loss_type: SOFTMAX
    loc_weight: 1
    num_classes: 6
    share_location: true
    match_type: PER_PREDICTION
    overlap_threshold: 0.5
    use_prior_for_matching: true
    background_label_id: 0
    use_difficult_gt: true
    neg_pos_ratio: 3
    neg_overlap: 0.5
    code_type: CENTER_SIZE
    ignore_cross_boundary_bbox: false
    mining_type: MAX_NEGATIVE
  }
}
I0527 14:18:44.674285 30313 layer_factory.hpp:77] Creating layer data
I0527 14:18:44.674402 30313 net.cpp:100] Creating Layer data
I0527 14:18:44.674412 30313 net.cpp:408] data -> data
I0527 14:18:44.674433 30313 net.cpp:408] data -> label
I0527 14:18:44.675207 30336 db_lmdb.cpp:35] Opened lmdb /home/zhangwanchun/data/VOCdevkit/VOC0712/lmdb/VOC0712_trainval_lmdb
I0527 14:18:47.559190 30313 annotated_data_layer.cpp:62] output data size: 5,3,224,224
I0527 14:18:47.562541 30313 net.cpp:150] Setting up data
I0527 14:18:47.562554 30313 net.cpp:157] Top shape: 5 3 224 224 (752640)
I0527 14:18:47.562557 30313 net.cpp:157] Top shape: 1 1 1 8 (8)
I0527 14:18:47.562561 30313 net.cpp:165] Memory required for data: 3010592
I0527 14:18:47.562567 30313 layer_factory.hpp:77] Creating layer data_data_0_split
I0527 14:18:47.562577 30313 net.cpp:100] Creating Layer data_data_0_split
I0527 14:18:47.562580 30313 net.cpp:434] data_data_0_split <- data
I0527 14:18:47.562590 30313 net.cpp:408] data_data_0_split -> data_data_0_split_0
I0527 14:18:47.562598 30313 net.cpp:408] data_data_0_split -> data_data_0_split_1
I0527 14:18:47.562623 30313 net.cpp:150] Setting up data_data_0_split
I0527 14:18:47.562626 30313 net.cpp:157] Top shape: 5 3 224 224 (752640)
I0527 14:18:47.562630 30313 net.cpp:157] Top shape: 5 3 224 224 (752640)
I0527 14:18:47.562633 30313 net.cpp:165] Memory required for data: 9031712
I0527 14:18:47.562634 30313 layer_factory.hpp:77] Creating layer conv1_1
I0527 14:18:47.562641 30313 net.cpp:100] Creating Layer conv1_1
I0527 14:18:47.562647 30313 net.cpp:434] conv1_1 <- data_data_0_split_0
I0527 14:18:47.562650 30313 net.cpp:408] conv1_1 -> conv1_1
I0527 14:18:47.563783 30313 net.cpp:150] Setting up conv1_1
I0527 14:18:47.563792 30313 net.cpp:157] Top shape: 5 64 224 224 (16056320)
I0527 14:18:47.563796 30313 net.cpp:165] Memory required for data: 73256992
I0527 14:18:47.563805 30313 layer_factory.hpp:77] Creating layer quant_relu1_1
I0527 14:18:47.563812 30313 net.cpp:100] Creating Layer quant_relu1_1
I0527 14:18:47.563814 30313 net.cpp:434] quant_relu1_1 <- conv1_1
I0527 14:18:47.563818 30313 net.cpp:395] quant_relu1_1 -> conv1_1 (in-place)
I0527 14:18:47.567028 30313 net.cpp:150] Setting up quant_relu1_1
I0527 14:18:47.567039 30313 net.cpp:157] Top shape: 5 64 224 224 (16056320)
I0527 14:18:47.567040 30313 net.cpp:165] Memory required for data: 137482272
I0527 14:18:47.567047 30313 layer_factory.hpp:77] Creating layer conv1_2
I0527 14:18:47.567056 30313 net.cpp:100] Creating Layer conv1_2
I0527 14:18:47.567059 30313 net.cpp:434] conv1_2 <- conv1_1
I0527 14:18:47.567064 30313 net.cpp:408] conv1_2 -> conv1_2
I0527 14:18:47.567330 30313 net.cpp:150] Setting up conv1_2
I0527 14:18:47.567337 30313 net.cpp:157] Top shape: 5 64 224 224 (16056320)
I0527 14:18:47.567338 30313 net.cpp:165] Memory required for data: 201707552
I0527 14:18:47.567343 30313 layer_factory.hpp:77] Creating layer quant_relu1_2
I0527 14:18:47.567348 30313 net.cpp:100] Creating Layer quant_relu1_2
I0527 14:18:47.567350 30313 net.cpp:434] quant_relu1_2 <- conv1_2
I0527 14:18:47.567353 30313 net.cpp:395] quant_relu1_2 -> conv1_2 (in-place)
I0527 14:18:47.572402 30313 net.cpp:150] Setting up quant_relu1_2
I0527 14:18:47.572418 30313 net.cpp:157] Top shape: 5 64 224 224 (16056320)
I0527 14:18:47.572420 30313 net.cpp:165] Memory required for data: 265932832
I0527 14:18:47.572427 30313 layer_factory.hpp:77] Creating layer pool1
I0527 14:18:47.572435 30313 net.cpp:100] Creating Layer pool1
I0527 14:18:47.572438 30313 net.cpp:434] pool1 <- conv1_2
I0527 14:18:47.572443 30313 net.cpp:408] pool1 -> pool1
I0527 14:18:47.572494 30313 net.cpp:150] Setting up pool1
I0527 14:18:47.572499 30313 net.cpp:157] Top shape: 5 64 112 112 (4014080)
I0527 14:18:47.572500 30313 net.cpp:165] Memory required for data: 281989152
I0527 14:18:47.572502 30313 layer_factory.hpp:77] Creating layer conv2_1
I0527 14:18:47.572508 30313 net.cpp:100] Creating Layer conv2_1
I0527 14:18:47.572511 30313 net.cpp:434] conv2_1 <- pool1
I0527 14:18:47.572515 30313 net.cpp:408] conv2_1 -> conv2_1
I0527 14:18:47.573992 30313 net.cpp:150] Setting up conv2_1
I0527 14:18:47.573999 30313 net.cpp:157] Top shape: 5 128 112 112 (8028160)
I0527 14:18:47.574002 30313 net.cpp:165] Memory required for data: 314101792
I0527 14:18:47.574007 30313 layer_factory.hpp:77] Creating layer quant_relu2_1
I0527 14:18:47.574013 30313 net.cpp:100] Creating Layer quant_relu2_1
I0527 14:18:47.574015 30313 net.cpp:434] quant_relu2_1 <- conv2_1
I0527 14:18:47.574019 30313 net.cpp:395] quant_relu2_1 -> conv2_1 (in-place)
I0527 14:18:47.575703 30313 net.cpp:150] Setting up quant_relu2_1
I0527 14:18:47.575714 30313 net.cpp:157] Top shape: 5 128 112 112 (8028160)
I0527 14:18:47.575717 30313 net.cpp:165] Memory required for data: 346214432
I0527 14:18:47.575726 30313 layer_factory.hpp:77] Creating layer conv2_2
I0527 14:18:47.575731 30313 net.cpp:100] Creating Layer conv2_2
I0527 14:18:47.575734 30313 net.cpp:434] conv2_2 <- conv2_1
I0527 14:18:47.575738 30313 net.cpp:408] conv2_2 -> conv2_2
I0527 14:18:47.576503 30313 net.cpp:150] Setting up conv2_2
I0527 14:18:47.576508 30313 net.cpp:157] Top shape: 5 128 112 112 (8028160)
I0527 14:18:47.576510 30313 net.cpp:165] Memory required for data: 378327072
I0527 14:18:47.576514 30313 layer_factory.hpp:77] Creating layer quant_relu2_2
I0527 14:18:47.576519 30313 net.cpp:100] Creating Layer quant_relu2_2
I0527 14:18:47.576521 30313 net.cpp:434] quant_relu2_2 <- conv2_2
I0527 14:18:47.576524 30313 net.cpp:395] quant_relu2_2 -> conv2_2 (in-place)
I0527 14:18:47.578382 30313 net.cpp:150] Setting up quant_relu2_2
I0527 14:18:47.578392 30313 net.cpp:157] Top shape: 5 128 112 112 (8028160)
I0527 14:18:47.578395 30313 net.cpp:165] Memory required for data: 410439712
I0527 14:18:47.578399 30313 layer_factory.hpp:77] Creating layer pool2
I0527 14:18:47.578421 30313 net.cpp:100] Creating Layer pool2
I0527 14:18:47.578424 30313 net.cpp:434] pool2 <- conv2_2
I0527 14:18:47.578444 30313 net.cpp:408] pool2 -> pool2
I0527 14:18:47.578481 30313 net.cpp:150] Setting up pool2
I0527 14:18:47.578500 30313 net.cpp:157] Top shape: 5 128 56 56 (2007040)
I0527 14:18:47.578501 30313 net.cpp:165] Memory required for data: 418467872
I0527 14:18:47.578505 30313 layer_factory.hpp:77] Creating layer conv3_1
I0527 14:18:47.578510 30313 net.cpp:100] Creating Layer conv3_1
I0527 14:18:47.578536 30313 net.cpp:434] conv3_1 <- pool2
I0527 14:18:47.578539 30313 net.cpp:408] conv3_1 -> conv3_1
I0527 14:18:47.579768 30313 net.cpp:150] Setting up conv3_1
I0527 14:18:47.579773 30313 net.cpp:157] Top shape: 5 256 56 56 (4014080)
I0527 14:18:47.579775 30313 net.cpp:165] Memory required for data: 434524192
I0527 14:18:47.579795 30313 layer_factory.hpp:77] Creating layer quant_relu3_1
I0527 14:18:47.579802 30313 net.cpp:100] Creating Layer quant_relu3_1
I0527 14:18:47.579804 30313 net.cpp:434] quant_relu3_1 <- conv3_1
I0527 14:18:47.579807 30313 net.cpp:395] quant_relu3_1 -> conv3_1 (in-place)
I0527 14:18:47.581005 30313 net.cpp:150] Setting up quant_relu3_1
I0527 14:18:47.581018 30313 net.cpp:157] Top shape: 5 256 56 56 (4014080)
I0527 14:18:47.581020 30313 net.cpp:165] Memory required for data: 450580512
I0527 14:18:47.581024 30313 layer_factory.hpp:77] Creating layer conv3_2
I0527 14:18:47.581029 30313 net.cpp:100] Creating Layer conv3_2
I0527 14:18:47.581032 30313 net.cpp:434] conv3_2 <- conv3_1
I0527 14:18:47.581037 30313 net.cpp:408] conv3_2 -> conv3_2
I0527 14:18:47.583782 30313 net.cpp:150] Setting up conv3_2
I0527 14:18:47.583791 30313 net.cpp:157] Top shape: 5 256 56 56 (4014080)
I0527 14:18:47.583794 30313 net.cpp:165] Memory required for data: 466636832
I0527 14:18:47.583811 30313 layer_factory.hpp:77] Creating layer quant_relu3_2
I0527 14:18:47.583817 30313 net.cpp:100] Creating Layer quant_relu3_2
I0527 14:18:47.583819 30313 net.cpp:434] quant_relu3_2 <- conv3_2
I0527 14:18:47.583823 30313 net.cpp:395] quant_relu3_2 -> conv3_2 (in-place)
I0527 14:18:47.584756 30313 net.cpp:150] Setting up quant_relu3_2
I0527 14:18:47.584764 30313 net.cpp:157] Top shape: 5 256 56 56 (4014080)
I0527 14:18:47.584766 30313 net.cpp:165] Memory required for data: 482693152
I0527 14:18:47.584770 30313 layer_factory.hpp:77] Creating layer conv3_3
I0527 14:18:47.584777 30313 net.cpp:100] Creating Layer conv3_3
I0527 14:18:47.584779 30313 net.cpp:434] conv3_3 <- conv3_2
I0527 14:18:47.584784 30313 net.cpp:408] conv3_3 -> conv3_3
I0527 14:18:47.587592 30313 net.cpp:150] Setting up conv3_3
I0527 14:18:47.587600 30313 net.cpp:157] Top shape: 5 256 56 56 (4014080)
I0527 14:18:47.587604 30313 net.cpp:165] Memory required for data: 498749472
I0527 14:18:47.587607 30313 layer_factory.hpp:77] Creating layer quant_relu3_3
I0527 14:18:47.587612 30313 net.cpp:100] Creating Layer quant_relu3_3
I0527 14:18:47.587615 30313 net.cpp:434] quant_relu3_3 <- conv3_3
I0527 14:18:47.587618 30313 net.cpp:395] quant_relu3_3 -> conv3_3 (in-place)
I0527 14:18:47.588546 30313 net.cpp:150] Setting up quant_relu3_3
I0527 14:18:47.588555 30313 net.cpp:157] Top shape: 5 256 56 56 (4014080)
I0527 14:18:47.588557 30313 net.cpp:165] Memory required for data: 514805792
I0527 14:18:47.588560 30313 layer_factory.hpp:77] Creating layer pool3
I0527 14:18:47.588565 30313 net.cpp:100] Creating Layer pool3
I0527 14:18:47.588568 30313 net.cpp:434] pool3 <- conv3_3
I0527 14:18:47.588572 30313 net.cpp:408] pool3 -> pool3
I0527 14:18:47.588593 30313 net.cpp:150] Setting up pool3
I0527 14:18:47.588598 30313 net.cpp:157] Top shape: 5 256 28 28 (1003520)
I0527 14:18:47.588599 30313 net.cpp:165] Memory required for data: 518819872
I0527 14:18:47.588601 30313 layer_factory.hpp:77] Creating layer conv4_1
I0527 14:18:47.588605 30313 net.cpp:100] Creating Layer conv4_1
I0527 14:18:47.588608 30313 net.cpp:434] conv4_1 <- pool3
I0527 14:18:47.588611 30313 net.cpp:408] conv4_1 -> conv4_1
I0527 14:18:47.594403 30313 net.cpp:150] Setting up conv4_1
I0527 14:18:47.594416 30313 net.cpp:157] Top shape: 5 512 28 28 (2007040)
I0527 14:18:47.594419 30313 net.cpp:165] Memory required for data: 526848032
I0527 14:18:47.594424 30313 layer_factory.hpp:77] Creating layer quant_relu4_1
I0527 14:18:47.594431 30313 net.cpp:100] Creating Layer quant_relu4_1
I0527 14:18:47.594434 30313 net.cpp:434] quant_relu4_1 <- conv4_1
I0527 14:18:47.594439 30313 net.cpp:395] quant_relu4_1 -> conv4_1 (in-place)
I0527 14:18:47.595366 30313 net.cpp:150] Setting up quant_relu4_1
I0527 14:18:47.595374 30313 net.cpp:157] Top shape: 5 512 28 28 (2007040)
I0527 14:18:47.595376 30313 net.cpp:165] Memory required for data: 534876192
I0527 14:18:47.595381 30313 layer_factory.hpp:77] Creating layer conv4_2
I0527 14:18:47.595386 30313 net.cpp:100] Creating Layer conv4_2
I0527 14:18:47.595391 30313 net.cpp:434] conv4_2 <- conv4_1
I0527 14:18:47.595394 30313 net.cpp:408] conv4_2 -> conv4_2
I0527 14:18:47.605312 30313 net.cpp:150] Setting up conv4_2
I0527 14:18:47.605329 30313 net.cpp:157] Top shape: 5 512 28 28 (2007040)
I0527 14:18:47.605330 30313 net.cpp:165] Memory required for data: 542904352
I0527 14:18:47.605336 30313 layer_factory.hpp:77] Creating layer quant_relu4_2
I0527 14:18:47.605342 30313 net.cpp:100] Creating Layer quant_relu4_2
I0527 14:18:47.605345 30313 net.cpp:434] quant_relu4_2 <- conv4_2
I0527 14:18:47.605350 30313 net.cpp:395] quant_relu4_2 -> conv4_2 (in-place)
I0527 14:18:47.606045 30313 net.cpp:150] Setting up quant_relu4_2
I0527 14:18:47.606053 30313 net.cpp:157] Top shape: 5 512 28 28 (2007040)
I0527 14:18:47.606055 30313 net.cpp:165] Memory required for data: 550932512
I0527 14:18:47.606060 30313 layer_factory.hpp:77] Creating layer conv4_3
I0527 14:18:47.606065 30313 net.cpp:100] Creating Layer conv4_3
I0527 14:18:47.606067 30313 net.cpp:434] conv4_3 <- conv4_2
I0527 14:18:47.606081 30313 net.cpp:408] conv4_3 -> conv4_3
I0527 14:18:47.616261 30313 net.cpp:150] Setting up conv4_3
I0527 14:18:47.616278 30313 net.cpp:157] Top shape: 5 512 28 28 (2007040)
I0527 14:18:47.616281 30313 net.cpp:165] Memory required for data: 558960672
I0527 14:18:47.616286 30313 layer_factory.hpp:77] Creating layer quant_relu4_3
I0527 14:18:47.616293 30313 net.cpp:100] Creating Layer quant_relu4_3
I0527 14:18:47.616297 30313 net.cpp:434] quant_relu4_3 <- conv4_3
I0527 14:18:47.616300 30313 net.cpp:395] quant_relu4_3 -> conv4_3 (in-place)
I0527 14:18:47.617034 30313 net.cpp:150] Setting up quant_relu4_3
I0527 14:18:47.617043 30313 net.cpp:157] Top shape: 5 512 28 28 (2007040)
I0527 14:18:47.617044 30313 net.cpp:165] Memory required for data: 566988832
I0527 14:18:47.617048 30313 layer_factory.hpp:77] Creating layer pool4
I0527 14:18:47.617054 30313 net.cpp:100] Creating Layer pool4
I0527 14:18:47.617056 30313 net.cpp:434] pool4 <- conv4_3
I0527 14:18:47.617060 30313 net.cpp:408] pool4 -> pool4
I0527 14:18:47.617120 30313 net.cpp:150] Setting up pool4
I0527 14:18:47.617125 30313 net.cpp:157] Top shape: 5 512 14 14 (501760)
I0527 14:18:47.617126 30313 net.cpp:165] Memory required for data: 568995872
I0527 14:18:47.617128 30313 layer_factory.hpp:77] Creating layer conv5_1
I0527 14:18:47.617133 30313 net.cpp:100] Creating Layer conv5_1
I0527 14:18:47.617136 30313 net.cpp:434] conv5_1 <- pool4
I0527 14:18:47.617139 30313 net.cpp:408] conv5_1 -> conv5_1
I0527 14:18:47.627439 30313 net.cpp:150] Setting up conv5_1
I0527 14:18:47.627454 30313 net.cpp:157] Top shape: 5 512 14 14 (501760)
I0527 14:18:47.627456 30313 net.cpp:165] Memory required for data: 571002912
I0527 14:18:47.627461 30313 layer_factory.hpp:77] Creating layer quant_relu5_1
I0527 14:18:47.627468 30313 net.cpp:100] Creating Layer quant_relu5_1
I0527 14:18:47.627471 30313 net.cpp:434] quant_relu5_1 <- conv5_1
I0527 14:18:47.627475 30313 net.cpp:395] quant_relu5_1 -> conv5_1 (in-place)
I0527 14:18:47.627586 30313 net.cpp:150] Setting up quant_relu5_1
I0527 14:18:47.627591 30313 net.cpp:157] Top shape: 5 512 14 14 (501760)
I0527 14:18:47.627593 30313 net.cpp:165] Memory required for data: 573009952
I0527 14:18:47.627599 30313 layer_factory.hpp:77] Creating layer conv5_2
I0527 14:18:47.627605 30313 net.cpp:100] Creating Layer conv5_2
I0527 14:18:47.627607 30313 net.cpp:434] conv5_2 <- conv5_1
I0527 14:18:47.627611 30313 net.cpp:408] conv5_2 -> conv5_2
I0527 14:18:47.637598 30313 net.cpp:150] Setting up conv5_2
I0527 14:18:47.637612 30313 net.cpp:157] Top shape: 5 512 14 14 (501760)
I0527 14:18:47.637614 30313 net.cpp:165] Memory required for data: 575016992
I0527 14:18:47.637620 30313 layer_factory.hpp:77] Creating layer quant_relu5_2
I0527 14:18:47.637626 30313 net.cpp:100] Creating Layer quant_relu5_2
I0527 14:18:47.637629 30313 net.cpp:434] quant_relu5_2 <- conv5_2
I0527 14:18:47.637632 30313 net.cpp:395] quant_relu5_2 -> conv5_2 (in-place)
I0527 14:18:47.637713 30313 net.cpp:150] Setting up quant_relu5_2
I0527 14:18:47.637718 30313 net.cpp:157] Top shape: 5 512 14 14 (501760)
I0527 14:18:47.637720 30313 net.cpp:165] Memory required for data: 577024032
I0527 14:18:47.637723 30313 layer_factory.hpp:77] Creating layer conv5_3
I0527 14:18:47.637728 30313 net.cpp:100] Creating Layer conv5_3
I0527 14:18:47.637732 30313 net.cpp:434] conv5_3 <- conv5_2
I0527 14:18:47.637734 30313 net.cpp:408] conv5_3 -> conv5_3
I0527 14:18:47.647716 30313 net.cpp:150] Setting up conv5_3
I0527 14:18:47.647729 30313 net.cpp:157] Top shape: 5 512 14 14 (501760)
I0527 14:18:47.647732 30313 net.cpp:165] Memory required for data: 579031072
I0527 14:18:47.647737 30313 layer_factory.hpp:77] Creating layer quant_relu5_3
I0527 14:18:47.647743 30313 net.cpp:100] Creating Layer quant_relu5_3
I0527 14:18:47.647747 30313 net.cpp:434] quant_relu5_3 <- conv5_3
I0527 14:18:47.647750 30313 net.cpp:395] quant_relu5_3 -> conv5_3 (in-place)
I0527 14:18:47.647830 30313 net.cpp:150] Setting up quant_relu5_3
I0527 14:18:47.647835 30313 net.cpp:157] Top shape: 5 512 14 14 (501760)
I0527 14:18:47.647848 30313 net.cpp:165] Memory required for data: 581038112
I0527 14:18:47.647851 30313 layer_factory.hpp:77] Creating layer pool5
I0527 14:18:47.647858 30313 net.cpp:100] Creating Layer pool5
I0527 14:18:47.647861 30313 net.cpp:434] pool5 <- conv5_3
I0527 14:18:47.647864 30313 net.cpp:408] pool5 -> pool5
I0527 14:18:47.647886 30313 net.cpp:150] Setting up pool5
I0527 14:18:47.647908 30313 net.cpp:157] Top shape: 5 512 7 7 (125440)
I0527 14:18:47.647910 30313 net.cpp:165] Memory required for data: 581539872
I0527 14:18:47.647912 30313 layer_factory.hpp:77] Creating layer ip6
I0527 14:18:47.647933 30313 net.cpp:100] Creating Layer ip6
I0527 14:18:47.647935 30313 net.cpp:434] ip6 <- pool5
I0527 14:18:47.647939 30313 net.cpp:408] ip6 -> ip6
I0527 14:18:48.387512 30313 net.cpp:150] Setting up ip6
I0527 14:18:48.387531 30313 net.cpp:157] Top shape: 5 512 7 7 (125440)
I0527 14:18:48.387532 30313 net.cpp:165] Memory required for data: 582041632
I0527 14:18:48.387540 30313 layer_factory.hpp:77] Creating layer relu6
I0527 14:18:48.387547 30313 net.cpp:100] Creating Layer relu6
I0527 14:18:48.387550 30313 net.cpp:434] relu6 <- ip6
I0527 14:18:48.387554 30313 net.cpp:395] relu6 -> ip6 (in-place)
I0527 14:18:48.387850 30313 net.cpp:150] Setting up relu6
I0527 14:18:48.387859 30313 net.cpp:157] Top shape: 5 512 7 7 (125440)
I0527 14:18:48.387861 30313 net.cpp:165] Memory required for data: 582543392
I0527 14:18:48.387863 30313 layer_factory.hpp:77] Creating layer ip7
I0527 14:18:48.387872 30313 net.cpp:100] Creating Layer ip7
I0527 14:18:48.387874 30313 net.cpp:434] ip7 <- ip6
I0527 14:18:48.387878 30313 net.cpp:408] ip7 -> ip7
I0527 14:18:48.390980 30313 net.cpp:150] Setting up ip7
I0527 14:18:48.390988 30313 net.cpp:157] Top shape: 5 512 7 7 (125440)
I0527 14:18:48.390991 30313 net.cpp:165] Memory required for data: 583045152
I0527 14:18:48.390996 30313 layer_factory.hpp:77] Creating layer relu7
I0527 14:18:48.391001 30313 net.cpp:100] Creating Layer relu7
I0527 14:18:48.391003 30313 net.cpp:434] relu7 <- ip7
I0527 14:18:48.391007 30313 net.cpp:395] relu7 -> ip7 (in-place)
I0527 14:18:48.391360 30313 net.cpp:150] Setting up relu7
I0527 14:18:48.391366 30313 net.cpp:157] Top shape: 5 512 7 7 (125440)
I0527 14:18:48.391369 30313 net.cpp:165] Memory required for data: 583546912
I0527 14:18:48.391371 30313 layer_factory.hpp:77] Creating layer ip7_relu7_0_split
I0527 14:18:48.391376 30313 net.cpp:100] Creating Layer ip7_relu7_0_split
I0527 14:18:48.391377 30313 net.cpp:434] ip7_relu7_0_split <- ip7
I0527 14:18:48.391381 30313 net.cpp:408] ip7_relu7_0_split -> ip7_relu7_0_split_0
I0527 14:18:48.391386 30313 net.cpp:408] ip7_relu7_0_split -> ip7_relu7_0_split_1
I0527 14:18:48.391391 30313 net.cpp:408] ip7_relu7_0_split -> ip7_relu7_0_split_2
I0527 14:18:48.391433 30313 net.cpp:150] Setting up ip7_relu7_0_split
I0527 14:18:48.391438 30313 net.cpp:157] Top shape: 5 512 7 7 (125440)
I0527 14:18:48.391440 30313 net.cpp:157] Top shape: 5 512 7 7 (125440)
I0527 14:18:48.391443 30313 net.cpp:157] Top shape: 5 512 7 7 (125440)
I0527 14:18:48.391445 30313 net.cpp:165] Memory required for data: 585052192
I0527 14:18:48.391448 30313 layer_factory.hpp:77] Creating layer ip7_mbox_loc
I0527 14:18:48.391453 30313 net.cpp:100] Creating Layer ip7_mbox_loc
I0527 14:18:48.391455 30313 net.cpp:434] ip7_mbox_loc <- ip7_relu7_0_split_0
I0527 14:18:48.391460 30313 net.cpp:408] ip7_mbox_loc -> ip7_mbox_loc
I0527 14:18:48.394531 30313 net.cpp:150] Setting up ip7_mbox_loc
I0527 14:18:48.394541 30313 net.cpp:157] Top shape: 5 24 7 7 (5880)
I0527 14:18:48.394542 30313 net.cpp:165] Memory required for data: 585075712
I0527 14:18:48.394547 30313 layer_factory.hpp:77] Creating layer ip7_mbox_loc_perm
I0527 14:18:48.394552 30313 net.cpp:100] Creating Layer ip7_mbox_loc_perm
I0527 14:18:48.394554 30313 net.cpp:434] ip7_mbox_loc_perm <- ip7_mbox_loc
I0527 14:18:48.394558 30313 net.cpp:408] ip7_mbox_loc_perm -> ip7_mbox_loc_perm
I0527 14:18:48.394647 30313 net.cpp:150] Setting up ip7_mbox_loc_perm
I0527 14:18:48.394652 30313 net.cpp:157] Top shape: 5 7 7 24 (5880)
I0527 14:18:48.394665 30313 net.cpp:165] Memory required for data: 585099232
I0527 14:18:48.394666 30313 layer_factory.hpp:77] Creating layer ip7_mbox_loc_flat
I0527 14:18:48.394671 30313 net.cpp:100] Creating Layer ip7_mbox_loc_flat
I0527 14:18:48.394675 30313 net.cpp:434] ip7_mbox_loc_flat <- ip7_mbox_loc_perm
I0527 14:18:48.394677 30313 net.cpp:408] ip7_mbox_loc_flat -> ip7_mbox_loc_flat
I0527 14:18:48.394698 30313 net.cpp:150] Setting up ip7_mbox_loc_flat
I0527 14:18:48.394702 30313 net.cpp:157] Top shape: 5 1176 (5880)
I0527 14:18:48.394704 30313 net.cpp:165] Memory required for data: 585122752
I0527 14:18:48.394706 30313 layer_factory.hpp:77] Creating layer ip7_mbox_conf
I0527 14:18:48.394712 30313 net.cpp:100] Creating Layer ip7_mbox_conf
I0527 14:18:48.394716 30313 net.cpp:434] ip7_mbox_conf <- ip7_relu7_0_split_1
I0527 14:18:48.394719 30313 net.cpp:408] ip7_mbox_conf -> ip7_mbox_conf
I0527 14:18:48.397646 30313 net.cpp:150] Setting up ip7_mbox_conf
I0527 14:18:48.397655 30313 net.cpp:157] Top shape: 5 36 7 7 (8820)
I0527 14:18:48.397657 30313 net.cpp:165] Memory required for data: 585158032
I0527 14:18:48.397661 30313 layer_factory.hpp:77] Creating layer ip7_mbox_conf_perm
I0527 14:18:48.397666 30313 net.cpp:100] Creating Layer ip7_mbox_conf_perm
I0527 14:18:48.397668 30313 net.cpp:434] ip7_mbox_conf_perm <- ip7_mbox_conf
I0527 14:18:48.397673 30313 net.cpp:408] ip7_mbox_conf_perm -> ip7_mbox_conf_perm
I0527 14:18:48.397760 30313 net.cpp:150] Setting up ip7_mbox_conf_perm
I0527 14:18:48.397764 30313 net.cpp:157] Top shape: 5 7 7 36 (8820)
I0527 14:18:48.397766 30313 net.cpp:165] Memory required for data: 585193312
I0527 14:18:48.397768 30313 layer_factory.hpp:77] Creating layer ip7_mbox_conf_flat
I0527 14:18:48.397773 30313 net.cpp:100] Creating Layer ip7_mbox_conf_flat
I0527 14:18:48.397774 30313 net.cpp:434] ip7_mbox_conf_flat <- ip7_mbox_conf_perm
I0527 14:18:48.397778 30313 net.cpp:408] ip7_mbox_conf_flat -> ip7_mbox_conf_flat
I0527 14:18:48.397799 30313 net.cpp:150] Setting up ip7_mbox_conf_flat
I0527 14:18:48.397804 30313 net.cpp:157] Top shape: 5 1764 (8820)
I0527 14:18:48.397806 30313 net.cpp:165] Memory required for data: 585228592
I0527 14:18:48.397809 30313 layer_factory.hpp:77] Creating layer ip7_mbox_priorbox
I0527 14:18:48.397815 30313 net.cpp:100] Creating Layer ip7_mbox_priorbox
I0527 14:18:48.397819 30313 net.cpp:434] ip7_mbox_priorbox <- ip7_relu7_0_split_2
I0527 14:18:48.397821 30313 net.cpp:434] ip7_mbox_priorbox <- data_data_0_split_1
I0527 14:18:48.397826 30313 net.cpp:408] ip7_mbox_priorbox -> ip7_mbox_priorbox
I0527 14:18:48.397846 30313 net.cpp:150] Setting up ip7_mbox_priorbox
I0527 14:18:48.397850 30313 net.cpp:157] Top shape: 1 2 1176 (2352)
I0527 14:18:48.397852 30313 net.cpp:165] Memory required for data: 585238000
I0527 14:18:48.397855 30313 layer_factory.hpp:77] Creating layer mbox_loc
I0527 14:18:48.397858 30313 net.cpp:100] Creating Layer mbox_loc
I0527 14:18:48.397861 30313 net.cpp:434] mbox_loc <- ip7_mbox_loc_flat
I0527 14:18:48.397864 30313 net.cpp:408] mbox_loc -> mbox_loc
I0527 14:18:48.397884 30313 net.cpp:150] Setting up mbox_loc
I0527 14:18:48.397887 30313 net.cpp:157] Top shape: 5 1176 (5880)
I0527 14:18:48.397891 30313 net.cpp:165] Memory required for data: 585261520
I0527 14:18:48.397892 30313 layer_factory.hpp:77] Creating layer mbox_conf
I0527 14:18:48.397894 30313 net.cpp:100] Creating Layer mbox_conf
I0527 14:18:48.397897 30313 net.cpp:434] mbox_conf <- ip7_mbox_conf_flat
I0527 14:18:48.397902 30313 net.cpp:408] mbox_conf -> mbox_conf
I0527 14:18:48.397917 30313 net.cpp:150] Setting up mbox_conf
I0527 14:18:48.397920 30313 net.cpp:157] Top shape: 5 1764 (8820)
I0527 14:18:48.397922 30313 net.cpp:165] Memory required for data: 585296800
I0527 14:18:48.397925 30313 layer_factory.hpp:77] Creating layer mbox_priorbox
I0527 14:18:48.397927 30313 net.cpp:100] Creating Layer mbox_priorbox
I0527 14:18:48.397929 30313 net.cpp:434] mbox_priorbox <- ip7_mbox_priorbox
I0527 14:18:48.397933 30313 net.cpp:408] mbox_priorbox -> mbox_priorbox
I0527 14:18:48.397951 30313 net.cpp:150] Setting up mbox_priorbox
I0527 14:18:48.397964 30313 net.cpp:157] Top shape: 1 2 1176 (2352)
I0527 14:18:48.397965 30313 net.cpp:165] Memory required for data: 585306208
I0527 14:18:48.397967 30313 layer_factory.hpp:77] Creating layer mbox_loss
I0527 14:18:48.397974 30313 net.cpp:100] Creating Layer mbox_loss
I0527 14:18:48.397975 30313 net.cpp:434] mbox_loss <- mbox_loc
I0527 14:18:48.397979 30313 net.cpp:434] mbox_loss <- mbox_conf
I0527 14:18:48.397980 30313 net.cpp:434] mbox_loss <- mbox_priorbox
…
  name: "data"
  type: "AnnotatedData"
  top: "data"
  top: "label"
  include {
    phase: TEST
  }
  transform_param {
    scale: 0.12156863
    resize_param {
      prob: 1
      resize_mode: WARP
      height: 224
      width: 224
      interp_mode: LINEAR
    }
  }
  data_param {
    source: "/home/zhangwanchun/data/VOCdevkit/VOC0712/lmdb/VOC0712_test_lmdb"
    batch_size: 10
    backend: LMDB
  }
  annotated_data_param {
    batch_sampler {
    }
    label_map_file: "/home/zhangwanchun/data/VOCdevkit/VOC0712/lmdb/labelmap_voc.prototxt"
  }
}
layer {
  name: "conv1_1"
  type: "QuantConvolution"
  bottom: "data"
  top: "conv1_1"
  convolution_param {
    num_output: 64
    pad: 1
    kernel_size: 3
    weight_filler {
      type: "xavier"
    }
    bias_filler {
      type: "constant"
      value: 0
    }
  }
  quant_convolution_param {
    coef_precision: FLOATING_POINT
    bw_params: 8
    shift_enable: false
  }
}
layer {
  name: "quant_relu1_1"
  type: "QuantReLU"
  bottom: "conv1_1"
  top: "conv1_1"
  param {
    lr_mult: 5
  }
  quant_relu_param {
    filler {
      type: "constant"
      value: 31
    }
    channel_shared: true
    act_bits: 5
    quant_enable: false
  }
}
layer {
  name: "conv1_2"
  type: "QuantConvolution"
  bottom: "conv1_1"
  top: "conv1_2"
  convolution_param {
    num_output: 64
    pad: 1
    kernel_size: 3
    weight_filler {
      type: "xavier"
    }
    bias_filler {
      type: "constant"
      value: 0
    }
  }
  quant_convolution_param {
    coef_precision: FLOATING_POINT
    bw_params: 8
    shift_enable: false
  }
}
layer {
  name: "quant_relu1_2"
  type: "QuantReLU"
  bottom: "conv1_2"
  top: "conv1_2"
  param {
    lr_mult: 5
  }
  quant_relu_param {
    filler {
      type: "constant"
      value: 31
    }
    channel_shared: true
    act_bits: 5
    quant_enable: false
  }
}
layer {
  name: "pool1"
  type: "Pooling"
  bottom: "conv1_2"
  top: "pool1"
  pooling_param {
    pool: MAX
    kernel_size: 2
    stride: 2
  }
}
layer {
  name: "conv2_1"
  type: "QuantConvolution"
  bottom: "pool1"
  top: "conv2_1"
  convolution_param {
    num_output: 128
    pad: 1
    kernel_size: 3
    weight_filler {
      type: "xavier"
    }
    bias_filler {
      type: "constant"
      value: 0
    }
  }
  quant_convolution_param {
    coef_precision: FLOATING_POINT
    bw_params: 8
    shift_enable: false
  }
}
layer {
  name: "quant_relu2_1"
  type: "QuantReLU"
  bottom: "conv2_1"
  top: "conv2_1"
  param {
    lr_mult: 5
  }
  quant_relu_param {
    filler {
      type: "constant"
      value: 65.934
    }
    channel_shared: true
    act_bits: 5
    quant_enable: false
  }
}
layer {
  name: "conv2_2"
  type: "QuantConvolution"
  bottom: "conv2_1"
  top: "conv2_2"
  convolution_param {
    num_output: 128
    pad: 1
    kernel_size: 3
    weight_filler {
      type: "xavier"
    }
    bias_filler {
      type: "constant"
      value: 0
    }
  }
  quant_convolution_param {
    coef_precision: FLOATING_POINT
    bw_params: 8
    shift_enable: false
  }
}
layer {
  name: "quant_relu2_2"
  type: "QuantReLU"
  bottom: "conv2_2"
  top: "conv2_2"
  param {
    lr_mult: 5
  }
  quant_relu_param {
    filler {
      type: "constant"
      value: 107.992
    }
    channel_shared: true
    act_bits: 5
    quant_enable: false
  }
}
layer {
  name: "pool2"
  type: "Pooling"
  bottom: "conv2_2"
  top: "pool2"
  pooling_param {
    pool: MAX
    kernel_size: 2
    stride: 2
  }
}
layer {
  name: "conv3_1"
  type: "QuantConvolution"
  bottom: "pool2"
  top: "conv3_1"
  convolution_param {
    num_output: 256
    pad: 1
    kernel_size: 3
    weight_filler {
      type: "xavier"
    }
    bias_filler {
      type: "constant"
      value: 0
    }
  }
  quant_convolution_param {
    coef_precision: FLOATING_POINT
    bw_params: 8
    shift_enable: false
  }
}
layer {
  name: "quant_relu3_1"
  type: "QuantReLU"
  bottom: "conv3_1"
  top: "conv3_1"
  param {
    lr_mult: 5
  }
  quant_relu_param {
    filler {
      type: "constant"
      value: 115.32
    }
    channel_shared: true
    act_bits: 5
    quant_enable: false
  }
}
layer {
  name: "conv3_2"
  type: "QuantConvolution"
  bottom: "conv3_1"
  top: "conv3_2"
  convolution_param {
    num_output: 256
    pad: 1
    kernel_size: 3
    weight_filler {
      type: "xavier"
    }
    bias_filler {
      type: "constant"
      value: 0
    }
  }
  quant_convolution_param {
    coef_precision: THREE_BITS
    bw_params: 8
    shift_enable: false
  }
}
layer {
  name: "quant_relu3_2"
  type: "QuantReLU"
  bottom: "conv3_2"
  top: "conv3_2"
  param {
    lr_mult: 0
  }
  quant_relu_param {
    filler {
      type: "constant"
      value: 31
    }
    channel_shared: true
    act_bits: 5
    quant_enable: false
  }
}
layer {
  name: "conv3_3"
  type: "QuantConvolution"
  bottom: "conv3_2"
  top: "conv3_3"
  convolution_param {
    num_output: 256
    pad: 1
    kernel_size: 3
    weight_filler {
      type: "xavier"
    }
    bias_filler {
      type: "constant"
      value: 0
    }
  }
  quant_convolution_param {
    coef_precision: THREE_BITS
    bw_params: 8
    shift_enable: false
  }
}
layer {
  name: "quant_relu3_3"
  type: "QuantReLU"
  bottom: "conv3_3"
  top: "conv3_3"
  param {
    lr_mult: 0
  }
  quant_relu_param {
    filler {
      type: "constant"
      value: 31
    }
    channel_shared: true
    act_bits: 5
    quant_enable: false
  }
}
layer {
  name: "pool3"
  type: "Pooling"
  bottom: "conv3_3"
  top: "pool3"
  pooling_param {
    pool: MAX
    kernel_size: 2
    stride: 2
  }
}
layer {
  name: "conv4_1"
  type: "QuantConvolution"
  bottom: "pool3"
  top: "conv4_1"
  convolution_param {
    num_output: 512
    pad: 1
    kernel_size: 3
    weight_filler {
      type: "xavier"
    }
    bias_filler {
      type: "constant"
      value: 0
    }
  }
  quant_convolution_param {
    coef_precision: ONE_BIT
    bw_params: 8
    shift_enable: false
  }
}
layer {
  name: "quant_relu4_1"
  type: "QuantReLU"
  bottom: "conv4_1"
  top: "conv4_1"
  param {
    lr_mult: 0
  }
  quant_relu_param {
    filler {
      type: "constant"
      value: 31
    }
    channel_shared: true
    act_bits: 5
    quant_enable: false
  }
}
layer {
  name: "conv4_2"
  type: "QuantConvolution"
  bottom: "conv4_1"
  top: "conv4_2"
  convolution_param {
    num_output: 512
    pad: 1
    kernel_size: 3
    weight_filler {
      type: "xavier"
    }
    bias_filler {
      type: "constant"
      value: 0
    }
  }
  quant_convolution_param {
    coef_precision: ONE_BIT
    bw_params: 8
    shift_enable: false
  }
}
layer {
  name: "quant_relu4_2"
  type: "QuantReLU"
  bottom: "conv4_2"
  top: "conv4_2"
  param {
    lr_mult: 0
  }
  quant_relu_param {
    filler {
      type: "constant"
      value: 31
    }
    channel_shared: true
    act_bits: 5
    quant_enable: false
  }
}
layer {
  name: "conv4_3"
  type: "QuantConvolution"
  bottom: "conv4_2"
  top: "conv4_3"
  convolution_param {
    num_output: 512
    pad: 1
    kernel_size: 3
    weight_filler {
      type: "xavier"
    }
    bias_filler {
      type: "constant"
      value: 0
    }
  }
  quant_convolution_param {
    coef_precision: ONE_BIT
    bw_params: 8
    shift_enable: false
  }
}
layer {
  name: "quant_relu4_3"
  type: "QuantReLU"
  bottom: "conv4_3"
  top: "conv4_3"
  param {
    lr_mult: 0
  }
  quant_relu_param {
    filler {
      type: "constant"
      value: 31
    }
    channel_shared: true
    act_bits: 5
    quant_enable: false
  }
}
layer {
  name: "pool4"
  type: "Pooling"
  bottom: "conv4_3"
  top: "pool4"
  pooling_param {
    pool: MAX
    kernel_size: 2
    stride: 2
  }
}
layer {
  name: "conv5_1"
  type: "QuantConvolution"
  bottom: "pool4"
  top: "conv5_1"
  convolution_param {
    num_output: 512
    pad: 1
    kernel_size: 3
    weight_filler {
      type: "xavier"
    }
    bias_filler {
      type: "constant"
      value: 0
    }
  }
  quant_convolution_param {
    coef_precision: ONE_BIT
    bw_params: 8
    shift_enable: false
  }
}
layer {
  name: "quant_relu5_1"
  type: "QuantReLU"
  bottom: "conv5_1"
  top: "conv5_1"
  param {
    lr_mult: 0
  }
  quant_relu_param {
    filler {
      type: "constant"
      value: 31
    }
    channel_shared: true
    act_bits: 5
    quant_enable: false
  }
}
layer {
  name: "conv5_2"
  type: "QuantConvolution"
  bottom: "conv5_1"
  top: "conv5_2"
  param {
    lr_mult: 1
    decay_mult: 0
  }
  param {
    lr_mult: 1
    decay_mult: 1
  }
  convolution_param {
    num_output: 512
    pad: 1
    kernel_size: 3
    weight_filler {
      type: "xavier"
    }
    bias_filler {
      type: "constant"
      value: 0
    }
  }
  quant_convolution_param {
    coef_precision: ONE_BIT
    bw_params: 8
    shift_enable: false
  }
}
layer {
  name: "quant_relu5_2"
  type: "QuantReLU"
  bottom: "conv5_2"
  top: "conv5_2"
  param {
    lr_mult: 0
  }
  quant_relu_param {
    filler {
      type: "constant"
      value: 31
    }
    channel_shared: true
    act_bits: 5
    quant_enable: false
  }
}
layer {
  name: "conv5_3"
  type: "QuantConvolution"
  bottom: "conv5_2"
  top: "conv5_3"
  param {
    lr_mult: 1
    decay_mult: 0
  }
  param {
    lr_mult: 1
    decay_mult: 200
  }
  convolution_param {
    num_output: 512
    pad: 1
    kernel_size: 3
    weight_filler {
      type: "xavier"
    }
    bias_filler {
      type: "constant"
      value: 0
    }
  }
  quant_convolution_param {
    coef_precision: ONE_BIT
    bw_params: 8
    shift_enable: false
  }
}
layer {
  name: "quant_relu5_3"
  type: "QuantReLU"
  bottom: "conv5_3"
  top: "conv5_3"
  param {
    lr_mult: 5
  }
  quant_relu_param {
    filler {
      type: "constant"
      value: 29.225
    }
    channel_shared: true
    act_bits: 5
    quant_enable: false
  }
}
layer {
  name: "pool5"
  type: "Pooling"
  bottom: "conv5_3"
  top: "pool5"
  pooling_param {
    pool: MAX
    kernel_size: 2
    stride: 2
  }
}
layer {
  name: "ip6"
  type: "Convolution"
  bottom: "pool5"
  top: "ip6"
  param {
    lr_mult: 1
    decay_mult: 1
  }
  param {
    lr_mult: 2
    decay_mult: 0
  }
  convolution_param {
    num_output: 512
    pad: 1
    kernel_size: 3
    weight_filler {
      type: "xavier"
    }
    bias_filler {
      type: "constant"
      value: 0
    }
  }
}
layer {
  name: "relu6"
  type: "ReLU"
  bottom: "ip6"
  top: "ip6"
}
layer {
  name: "ip7"
  type: "Convolution"
  bottom: "ip6"
  top: "ip7"
  param {
    lr_mult: 1
    decay_mult: 1
  }
  param {
    lr_mult: 2
    decay_mult: 0
  }
  convolution_param {
    num_output: 512
    kernel_size: 1
    weight_filler {
      type: "xavier"
    }
    bias_filler {
      type: "constant"
      value: 0
    }
  }
}
layer {
  name: "relu7"
  type: "ReLU"
  bottom: "ip7"
  top: "ip7"
}
layer {
  name: "ip7_mbox_loc"
  type: "Convolution"
  bottom: "ip7"
  top: "ip7_mbox_loc"
  param {
    lr_mult: 1
    decay_mult: 1
  }
  param {
    lr_mult: 2
    decay_mult: 0
  }
  convolution_param {
    num_output: 24
    pad: 1
    kernel_size: 3
    stride: 1
    weight_filler {
      type: "xavier"
    }
    bias_filler {
      type: "constant"
      value: 0
    }
  }
}
layer {
  name: "ip7_mbox_loc_perm"
  type: "Permute"
  bottom: "ip7_mbox_loc"
  top: "ip7_mbox_loc_perm"
  permute_param {
    order: 0
    order: 2
    order: 3
    order: 1
  }
}
layer {
  name: "ip7_mbox_loc_flat"
  type: "Flatten"
  bottom: "ip7_mbox_loc_perm"
  top: "ip7_mbox_loc_flat"
  flatten_param {
    axis: 1
  }
}
layer {
  name: "ip7_mbox_conf"
  type: "Convolution"
  bottom: "ip7"
  top: "ip7_mbox_conf"
  param {
    lr_mult: 1
    decay_mult: 1
  }
  param {
    lr_mult: 2
    decay_mult: 0
  }
  convolution_param {
    num_output: 36
    pad: 1
    kernel_size: 3
    stride: 1
    weight_filler {
      type: "xavier"
    }
    bias_filler {
      type: "constant"
      value: 0
    }
  }
}
layer {
  name: "ip7_mbox_conf_perm"
  type: "Permute"
  bottom: "ip7_mbox_conf"
  top: "ip7_mbox_conf_perm"
  permute_param {
    order: 0
    order: 2
    order: 3
    order: 1
  }
}
layer {
  name: "ip7_mbox_conf_flat"
  type: "Flatten"
  bottom: "ip7_mbox_conf_perm"
  top: "ip7_mbox_conf_flat"
  flatten_param {
    axis: 1
  }
}
layer {
  name: "ip7_mbox_priorbox"
  type: "PriorBox"
  bottom: "ip7"
  bottom: "data"
  top: "ip7_mbox_priorbox"
  prior_box_param {
    min_size: 20
    max_size: 210
    aspect_ratio: 2
    aspect_ratio: 3
    flip: true
    clip: false
    variance: 0.1
    variance: 0.1
    variance: 0.2
    variance: 0.2
    step: 32
    offset: 0.5
  }
}
layer {
  name: "mbox_loc"
  type: "Concat"
  bottom: "ip7_mbox_loc_flat"
  top: "mbox_loc"
  concat_param {
    axis: 1
  }
}
layer {
  name: "mbox_conf"
  type: "Concat"
  bottom: "ip7_mbox_conf_flat"
  top: "mbox_conf"
  concat_param {
    axis: 1
  }
}
layer {
  name: "mbox_priorbox"
  type: "Concat"
  bottom: "ip7_mbox_priorbox"
  top: "mbox_priorbox"
  concat_param {
    axis: 2
  }
}
layer {
  name: "mbox_conf_reshape"
  type: "Reshape"
  bottom: "mbox_conf"
  top: "mbox_conf_reshape"
  reshape_param {
    shape {
      dim: 0
      dim: -1
      dim: 6
    }
  }
}
layer {
  name: "mbox_conf_softmax"
  type: "Softmax"
  bottom: "mbox_conf_reshape"
  top: "mbox_conf_softmax"
  softmax_param {
    axis: 2
  }
}
layer {
  name: "mbox_conf_flatten"
  type: "Flatten"
  bottom: "mbox_conf_softmax"
  top: "mbox_conf_flatten"
  flatten_param {
    axis: 1
  }
}
layer {
  name: "detection_out"
  type: "DetectionOutput"
  bottom: "mbox_loc"
  bottom: "mbox_conf_flatten"
  bottom: "mbox_priorbox"
  top: "detection_out"
  include {
    phase: TEST
  }
  detection_output_param {
    num_classes: 6
    share_location: true
    background_label_id: 0
    nms_param {
      nms_threshold: 0.45
      top_k: 400
    }
    code_type: CENTER_SIZE
    keep_top_k: 200
    confidence_threshold: 0.01
  }
}
layer {
  name: "detection_eval"
  type: "DetectionEvaluate"
  bottom: "detection_out"
  bottom: "label"
  top: "detection_eval"
  include {
    phase: TEST
  }
  detection_evaluate_param {
    num_classes: 6
    background_label_id: 0
    overlap_threshold: 0.5
    evaluate_difficult_gt: false
    name_size_file: "/home/zhangwanchun/data/VOCdevkit/VOC0712/lmdb/test_name_size.txt"
  }
}
I0527 14:18:48.399827 30313 layer_factory.hpp:77] Creating layer data
I0527 14:18:48.399875 30313 net.cpp:100] Creating Layer data
I0527 14:18:48.399883 30313 net.cpp:408] data -> data
I0527 14:18:48.399888 30313 net.cpp:408] data -> label
I0527 14:18:48.401111 30401 db_lmdb.cpp:35] Opened lmdb /home/zhangwanchun/data/VOCdevkit/VOC0712/lmdb/VOC0712_test_lmdb
I0527 14:18:48.402606 30313 annotated_data_layer.cpp:62] output data size: 10,3,224,224
I0527 14:18:48.408545 30313 net.cpp:150] Setting up data
I0527 14:18:48.408565 30313 net.cpp:157] Top shape: 10 3 224 224 (1505280)
I0527 14:18:48.408567 30313 net.cpp:157] Top shape: 1 1 1 8 (8)
I0527 14:18:48.408581 30313 net.cpp:165] Memory required for data: 6021152
I0527 14:18:48.408586 30313 layer_factory.hpp:77] Creating layer data_data_0_split
I0527 14:18:48.408594 30313 net.cpp:100] Creating Layer data_data_0_split
I0527 14:18:48.408596 30313 net.cpp:434] data_data_0_split <- data
I0527 14:18:48.408601 30313 net.cpp:408] data_data_0_split -> data_data_0_split_0
I0527 14:18:48.408608 30313 net.cpp:408] data_data_0_split -> data_data_0_split_1
I0527 14:18:48.408648 30313 net.cpp:150] Setting up data_data_0_split
I0527 14:18:48.408653 30313 net.cpp:157] Top shape: 10 3 224 224 (1505280)
I0527 14:18:48.408655 30313 net.cpp:157] Top shape: 10 3 224 224 (1505280)
I0527 14:18:48.408658 30313 net.cpp:165] Memory required for data: 18063392
I0527 14:18:48.408660 30313 layer_factory.hpp:77] Creating layer conv1_1
I0527 14:18:48.408666 30313 net.cpp:100] Creating Layer conv1_1
I0527 14:18:48.408668 30313 net.cpp:434] conv1_1 <- data_data_0_split_0
I0527 14:18:48.408672 30313 net.cpp:408] conv1_1 -> conv1_1
I0527 14:18:48.409018 30313 net.cpp:150] Setting up conv1_1
I0527 14:18:48.409024 30313 net.cpp:157] Top shape: 10 64 224 224 (32112640)
I0527 14:18:48.409025 30313 net.cpp:165] Memory required for data: 146513952
I0527 14:18:48.409032 30313 layer_factory.hpp:77] Creating layer quant_relu1_1
I0527 14:18:48.409036 30313 net.cpp:100] Creating Layer quant_relu1_1
I0527 14:18:48.409039 30313 net.cpp:434] quant_relu1_1 <- conv1_1
I0527 14:18:48.409042 30313 net.cpp:395] quant_relu1_1 -> conv1_1 (in-place)
I0527 14:18:48.412402 30313 net.cpp:150] Setting up quant_relu1_1
I0527 14:18:48.412415 30313 net.cpp:157] Top shape: 10 64 224 224 (32112640)
I0527 14:18:48.412417 30313 net.cpp:165] Memory required for data: 274964512
I0527 14:18:48.412425 30313 layer_factory.hpp:77] Creating layer conv1_2
I0527 14:18:48.412433 30313 net.cpp:100] Creating Layer conv1_2
I0527 14:18:48.412436 30313 net.cpp:434] conv1_2 <- conv1_1
I0527 14:18:48.412441 30313 net.cpp:408] conv1_2 -> conv1_2
I0527 14:18:48.412868 30313 net.cpp:150] Setting up conv1_2
I0527 14:18:48.412875 30313 net.cpp:157] Top shape: 10 64 224 224 (32112640)
I0527 14:18:48.412878 30313 net.cpp:165] Memory required for data: 403415072
I0527 14:18:48.412883 30313 layer_factory.hpp:77] Creating layer quant_relu1_2
I0527 14:18:48.412887 30313 net.cpp:100] Creating Layer quant_relu1_2
I0527 14:18:48.412890 30313 net.cpp:434] quant_relu1_2 <- conv1_2
I0527 14:18:48.412894 30313 net.cpp:395] quant_relu1_2 -> conv1_2 (in-place)
I0527 14:18:48.417554 30313 net.cpp:150] Setting up quant_relu1_2
I0527 14:18:48.417583 30313 net.cpp:157] Top shape: 10 64 224 224 (32112640)
I0527 14:18:48.417585 30313 net.cpp:165] Memory required for data: 531865632
I0527 14:18:48.417593 30313 layer_factory.hpp:77] Creating layer pool1
I0527 14:18:48.417604 30313 net.cpp:100] Creating Layer pool1
I0527 14:18:48.417608 30313 net.cpp:434] pool1 <- conv1_2
I0527 14:18:48.417613 30313 net.cpp:408] pool1 -> pool1
I0527 14:18:48.417680 30313 net.cpp:150] Setting up pool1
I0527 14:18:48.417685 30313 net.cpp:157] Top shape: 10 64 112 112 (8028160)
I0527 14:18:48.417688 30313 net.cpp:165] Memory required for data: 563978272
I0527 14:18:48.417690 30313 layer_factory.hpp:77] Creating layer conv2_1
I0527 14:18:48.417696 30313 net.cpp:100] Creating Layer conv2_1
I0527 14:18:48.417699 30313 net.cpp:434] conv2_1 <- pool1
I0527 14:18:48.417704 30313 net.cpp:408] conv2_1 -> conv2_1
I0527 14:18:48.418186 30313 net.cpp:150] Setting up conv2_1
I0527 14:18:48.418192 30313 net.cpp:157] Top shape: 10 128 112 112 (16056320)
I0527 14:18:48.418195 30313 net.cpp:165] Memory required for data: 628203552
I0527 14:18:48.418198 30313 layer_factory.hpp:77] Creating layer quant_relu2_1
I0527 14:18:48.418205 30313 net.cpp:100] Creating Layer quant_relu2_1
I0527 14:18:48.418207 30313 net.cpp:434] quant_relu2_1 <- conv2_1
I0527 14:18:48.418211 30313 net.cpp:395] quant_relu2_1 -> conv2_1 (in-place)
I0527 14:18:48.420004 30313 net.cpp:150] Setting up quant_relu2_1
I0527 14:18:48.420012 30313 net.cpp:157] Top shape: 10 128 112 112 (16056320)
I0527 14:18:48.420025 30313 net.cpp:165] Memory required for data: 692428832
I0527 14:18:48.420033 30313 layer_factory.hpp:77] Creating layer conv2_2
I0527 14:18:48.420038 30313 net.cpp:100] Creating Layer conv2_2
I0527 14:18:48.420042 30313 net.cpp:434] conv2_2 <- conv2_1
I0527 14:18:48.420045 30313 net.cpp:408] conv2_2 -> conv2_2
I0527 14:18:48.420758 30313 net.cpp:150] Setting up conv2_2
I0527 14:18:48.420763 30313 net.cpp:157] Top shape: 10 128 112 112 (16056320)
I0527 14:18:48.420765 30313 net.cpp:165] Memory required for data: 756654112
I0527 14:18:48.420768 30313 layer_factory.hpp:77] Creating layer quant_relu2_2
I0527 14:18:48.420773 30313 net.cpp:100] Creating Layer quant_relu2_2
I0527 14:18:48.420776 30313 net.cpp:434] quant_relu2_2 <- conv2_2
I0527 14:18:48.420780 30313 net.cpp:395] quant_relu2_2 -> conv2_2 (in-place)
I0527 14:18:48.422540 30313 net.cpp:150] Setting up quant_relu2_2
I0527 14:18:48.422550 30313 net.cpp:157] Top shape: 10 128 112 112 (16056320)
I0527 14:18:48.422554 30313 net.cpp:165] Memory required for data: 820879392
I0527 14:18:48.422557 30313 layer_factory.hpp:77] Creating layer pool2
I0527 14:18:48.422562 30313 net.cpp:100] Creating Layer pool2
I0527 14:18:48.422565 30313 net.cpp:434] pool2 <- conv2_2
I0527 14:18:48.422571 30313 net.cpp:408] pool2 -> pool2
I0527 14:18:48.422605 30313 net.cpp:150] Setting up pool2
I0527 14:18:48.422610 30313 net.cpp:157] Top shape: 10 128 56 56 (4014080)
I0527 14:18:48.422611 30313 net.cpp:165] Memory required for data: 836935712
I0527 14:18:48.422614 30313 layer_factory.hpp:77] Creating layer conv3_1
I0527 14:18:48.422618 30313 net.cpp:100] Creating Layer conv3_1
I0527 14:18:48.422621 30313 net.cpp:434] conv3_1 <- pool2
I0527 14:18:48.422624 30313 net.cpp:408] conv3_1 -> conv3_1
I0527 14:18:48.424731 30313 net.cpp:150] Setting up conv3_1
I0527 14:18:48.424743 30313 net.cpp:157] Top shape: 10 256 56 56 (8028160)
I0527 14:18:48.424746 30313 net.cpp:165] Memory required for data: 869048352
I0527 14:18:48.424751 30313 layer_factory.hpp:77] Creating layer quant_relu3_1
I0527 14:18:48.424772 30313 net.cpp:100] Creating Layer quant_relu3_1
I0527 14:18:48.424775 30313 net.cpp:434] quant_relu3_1 <- conv3_1
I0527 14:18:48.424779 30313 net.cpp:395] quant_relu3_1 -> conv3_1 (in-place)
I0527 14:18:48.425873 30313 net.cpp:150] Setting up quant_relu3_1
I0527 14:18:48.425884 30313 net.cpp:157] Top shape: 10 256 56 56 (8028160)
I0527 14:18:48.425885 30313 net.cpp:165] Memory required for data: 901160992
I0527 14:18:48.425890 30313 layer_factory.hpp:77] Creating layer conv3_2
I0527 14:18:48.425897 30313 net.cpp:100] Creating Layer conv3_2
I0527 14:18:48.425899 30313 net.cpp:434] conv3_2 <- conv3_1
I0527 14:18:48.425904 30313 net.cpp:408] conv3_2 -> conv3_2
I0527 14:18:48.429023 30313 net.cpp:150] Setting up conv3_2
I0527 14:18:48.429033 30313 net.cpp:157] Top shape: 10 256 56 56 (8028160)
I0527 14:18:48.429034 30313 net.cpp:165] Memory required for data: 933273632
I0527 14:18:48.429042 30313 layer_factory.hpp:77] Creating layer quant_relu3_2
I0527 14:18:48.429047 30313 net.cpp:100] Creating Layer quant_relu3_2
I0527 14:18:48.429049 30313 net.cpp:434] quant_relu3_2 <- conv3_2
I0527 14:18:48.429054 30313 net.cpp:395] quant_relu3_2 -> conv3_2 (in-place)
I0527 14:18:48.430394 30313 net.cpp:150] Setting up quant_relu3_2
I0527 14:18:48.430402 30313 net.cpp:157] Top shape: 10 256 56 56 (8028160)
I0527 14:18:48.430404 30313 net.cpp:165] Memory required for data: 965386272
I0527 14:18:48.430408 30313 layer_factory.hpp:77] Creating layer conv3_3
I0527 14:18:48.430415 30313 net.cpp:100] Creating Layer conv3_3
I0527 14:18:48.430418 30313 net.cpp:434] conv3_3 <- conv3_2
I0527 14:18:48.430421 30313 net.cpp:408] conv3_3 -> conv3_3
I0527 14:18:48.433240 30313 net.cpp:150] Setting up conv3_3
I0527 14:18:48.433248 30313 net.cpp:157] Top shape: 10 256 56 56 (8028160)
I0527 14:18:48.433250 30313 net.cpp:165] Memory required for data: 997498912
I0527 14:18:48.433255 30313 layer_factory.hpp:77] Creating layer quant_relu3_3
I0527 14:18:48.433259 30313 net.cpp:100] Creating Layer quant_relu3_3
I0527 14:18:48.433270 30313 net.cpp:434] quant_relu3_3 <- conv3_3
I0527 14:18:48.433274 30313 net.cpp:395] quant_relu3_3 -> conv3_3 (in-place)
I0527 14:18:48.434278 30313 net.cpp:150] Setting up quant_relu3_3
I0527 14:18:48.434285 30313 net.cpp:157] Top shape: 10 256 56 56 (8028160)
I0527 14:18:48.434288 30313 net.cpp:165] Memory required for data: 1029611552
I0527 14:18:48.434290 30313 layer_factory.hpp:77] Creating layer pool3
I0527 14:18:48.434296 30313 net.cpp:100] Creating Layer pool3
I0527 14:18:48.434298 30313 net.cpp:434] pool3 <- conv3_3
I0527 14:18:48.434301 30313 net.cpp:408] pool3 -> pool3
I0527 14:18:48.434332 30313 net.cpp:150] Setting up pool3
I0527 14:18:48.434337 30313 net.cpp:157] Top shape: 10 256 28 28 (2007040)
I0527 14:18:48.434340 30313 net.cpp:165] Memory required for data: 1037639712
I0527 14:18:48.434341 30313 layer_factory.hpp:77] Creating layer conv4_1
I0527 14:18:48.434345 30313 net.cpp:100] Creating Layer conv4_1
I0527 14:18:48.434347 30313 net.cpp:434] conv4_1 <- pool3
I0527 14:18:48.434351 30313 net.cpp:408] conv4_1 -> conv4_1
I0527 14:18:48.439764 30313 net.cpp:150] Setting up conv4_1
I0527 14:18:48.439772 30313 net.cpp:157] Top shape: 10 512 28 28 (4014080)
I0527 14:18:48.439774 30313 net.cpp:165] Memory required for data: 1053696032
I0527 14:18:48.439779 30313 layer_factory.hpp:77] Creating layer quant_relu4_1
I0527 14:18:48.439783 30313 net.cpp:100] Creating Layer quant_relu4_1
I0527 14:18:48.439786 30313 net.cpp:434] quant_relu4_1 <- conv4_1
I0527 14:18:48.439790 30313 net.cpp:395] quant_relu4_1 -> conv4_1 (in-place)
I0527 14:18:48.440479 30313 net.cpp:150] Setting up quant_relu4_1
I0527 14:18:48.440487 30313 net.cpp:157] Top shape: 10 512 28 28 (4014080)
I0527 14:18:48.440490 30313 net.cpp:165] Memory required for data: 1069752352
I0527 14:18:48.440495 30313 layer_factory.hpp:77] Creating layer conv4_2
I0527 14:18:48.440500 30313 net.cpp:100] Creating Layer conv4_2
I0527 14:18:48.440501 30313 net.cpp:434] conv4_2 <- conv4_1
I0527 14:18:48.440505 30313 net.cpp:408] conv4_2 -> conv4_2
I0527 14:18:48.450716 30313 net.cpp:150] Setting up conv4_2
I0527 14:18:48.450729 30313 net.cpp:157] Top shape: 10 512 28 28 (4014080)
I0527 14:18:48.450731 30313 net.cpp:165] Memory required for data: 1085808672
I0527 14:18:48.450737 30313 layer_factory.hpp:77] Creating layer quant_relu4_2
I0527 14:18:48.450742 30313 net.cpp:100] Creating Layer quant_relu4_2
I0527 14:18:48.450745 30313 net.cpp:434] quant_relu4_2 <- conv4_2
I0527 14:18:48.450749 30313 net.cpp:395] quant_relu4_2 -> conv4_2 (in-place)
I0527 14:18:48.451494 30313 net.cpp:150] Setting up quant_relu4_2
I0527 14:18:48.451503 30313 net.cpp:157] Top shape: 10 512 28 28 (4014080)
I0527 14:18:48.451505 30313 net.cpp:165] Memory required for data: 1101864992
I0527 14:18:48.451509 30313 layer_factory.hpp:77] Creating layer conv4_3
I0527 14:18:48.451514 30313 net.cpp:100] Creating Layer conv4_3
I0527 14:18:48.451516 30313 net.cpp:434] conv4_3 <- conv4_2
I0527 14:18:48.451520 30313 net.cpp:408] conv4_3 -> conv4_3
I0527 14:18:48.461962 30313 net.cpp:150] Setting up conv4_3
I0527 14:18:48.461977 30313 net.cpp:157] Top shape: 10 512 28 28 (4014080)
I0527 14:18:48.461979 30313 net.cpp:165] Memory required for data: 1117921312
I0527 14:18:48.461984 30313 layer_factory.hpp:77] Creating layer quant_relu4_3
I0527 14:18:48.461992 30313 net.cpp:100] Creating Layer quant_relu4_3
I0527 14:18:48.461993 30313 net.cpp:434] quant_relu4_3 <- conv4_3
I0527 14:18:48.461997 30313 net.cpp:395] quant_relu4_3 -> conv4_3 (in-place)
I0527 14:18:48.462790 30313 net.cpp:150] Setting up quant_relu4_3
I0527 14:18:48.462798 30313 net.cpp:157] Top shape: 10 512 28 28 (4014080)
I0527 14:18:48.462801 30313 net.cpp:165] Memory required for data: 1133977632
I0527 14:18:48.462805 30313 layer_factory.hpp:77] Creating layer pool4
I0527 14:18:48.462810 30313 net.cpp:100] Creating Layer pool4
I0527 14:18:48.462811 30313 net.cpp:434] pool4 <- conv4_3
I0527 14:18:48.462815 30313 net.cpp:408] pool4 -> pool4
I0527 14:18:48.462847 30313 net.cpp:150] Setting up pool4
I0527 14:18:48.462852 30313 net.cpp:157] Top shape: 10 512 14 14 (1003520)
I0527 14:18:48.462863 30313 net.cpp:165] Memory required for data: 1137991712
I0527 14:18:48.462865 30313 layer_factory.hpp:77] Creating layer conv5_1
I0527 14:18:48.462872 30313 net.cpp:100] Creating Layer conv5_1
I0527 14:18:48.462872 30313 net.cpp:434] conv5_1 <- pool4
I0527 14:18:48.462877 30313 net.cpp:408] conv5_1 -> conv5_1
I0527 14:18:48.472954 30313 net.cpp:150] Setting up conv5_1
I0527 14:18:48.472965 30313 net.cpp:157] Top shape: 10 512 14 14 (1003520)
I0527 14:18:48.472966 30313 net.cpp:165] Memory required for data: 1142005792
I0527 14:18:48.472971 30313 layer_factory.hpp:77] Creating layer quant_relu5_1
I0527 14:18:48.472977 30313 net.cpp:100] Creating Layer quant_relu5_1
I0527 14:18:48.472980 30313 net.cpp:434] quant_relu5_1 <- conv5_1
I0527 14:18:48.472985 30313 net.cpp:395] quant_relu5_1 -> conv5_1 (in-place)
I0527 14:18:48.473093 30313 net.cpp:150] Setting up quant_relu5_1
I0527 14:18:48.473098 30313 net.cpp:157] Top shape: 10 512 14 14 (1003520)
I0527 14:18:48.473100 30313 net.cpp:165] Memory required for data: 1146019872
I0527 14:18:48.473106 30313 layer_factory.hpp:77] Creating layer conv5_2
I0527 14:18:48.473112 30313 net.cpp:100] Creating Layer conv5_2
I0527 14:18:48.473115 30313 net.cpp:434] conv5_2 <- conv5_1
I0527 14:18:48.473120 30313 net.cpp:408] conv5_2 -> conv5_2
I0527 14:18:48.483381 30313 net.cpp:150] Setting up conv5_2
I0527 14:18:48.483392 30313 net.cpp:157] Top shape: 10 512 14 14 (1003520)
I0527 14:18:48.483394 30313 net.cpp:165] Memory required for data: 1150033952
I0527 14:18:48.483400 30313 layer_factory.hpp:77] Creating layer quant_relu5_2
I0527 14:18:48.483407 30313 net.cpp:100] Creating Layer quant_relu5_2
I0527 14:18:48.483410 30313 net.cpp:434] quant_relu5_2 <- conv5_2
I0527 14:18:48.483413 30313 net.cpp:395] quant_relu5_2 -> conv5_2 (in-place)
I0527 14:18:48.483525 30313 net.cpp:150] Setting up quant_relu5_2
I0527 14:18:48.483530 30313 net.cpp:157] Top shape: 10 512 14 14 (1003520)
I0527 14:18:48.483531 30313 net.cpp:165] Memory required for data: 1154048032
I0527 14:18:48.483534 30313 layer_factory.hpp:77] Creating layer conv5_3
I0527 14:18:48.483541 30313 net.cpp:100] Creating Layer conv5_3
I0527 14:18:48.483542 30313 net.cpp:434] conv5_3 <- conv5_2
I0527 14:18:48.483547 30313 net.cpp:408] conv5_3 -> conv5_3
I0527 14:18:48.493870 30313 net.cpp:150] Setting up conv5_3
I0527 14:18:48.493885 30313 net.cpp:157] Top shape: 10 512 14 14 (1003520)
I0527 14:18:48.493887 30313 net.cpp:165] Memory required for data: 1158062112
I0527 14:18:48.493892 30313 layer_factory.hpp:77] Creating layer quant_relu5_3
I0527 14:18:48.493901 30313 net.cpp:100] Creating Layer quant_relu5_3
I0527 14:18:48.493904 30313 net.cpp:434] quant_relu5_3 <- conv5_3
I0527 14:18:48.493909 30313 net.cpp:395] quant_relu5_3 -> conv5_3 (in-place)
I0527 14:18:48.494029 30313 net.cpp:150] Setting up quant_relu5_3
I0527 14:18:48.494035 30313 net.cpp:157] Top shape: 10 512 14 14 (1003520)
I0527 14:18:48.494037 30313 net.cpp:165] Memory required for data: 1162076192
I0527 14:18:48.494040 30313 layer_factory.hpp:77] Creating layer pool5
I0527 14:18:48.494050 30313 net.cpp:100] Creating Layer pool5
I0527 14:18:48.494052 30313 net.cpp:434] pool5 <- conv5_3
I0527 14:18:48.494056 30313 net.cpp:408] pool5 -> pool5
I0527 14:18:48.494091 30313 net.cpp:150] Setting up pool5
I0527 14:18:48.494096 30313 net.cpp:157] Top shape: 10 512 7 7 (250880)
I0527 14:18:48.494097 30313 net.cpp:165] Memory required for data: 1163079712
I0527 14:18:48.494102 30313 layer_factory.hpp:77] Creating layer ip6
I0527 14:18:48.494107 30313 net.cpp:100] Creating Layer ip6
I0527 14:18:48.494110 30313 net.cpp:434] ip6 <- pool5
I0527 14:18:48.494115 30313 net.cpp:408] ip6 -> ip6
I0527 14:18:48.506093 30313 net.cpp:150] Setting up ip6
I0527 14:18:48.506105 30313 net.cpp:157] Top shape: 10 512 7 7 (250880)
I0527 14:18:48.506108 30313 net.cpp:165] Memory required for data: 1164083232
I0527 14:18:48.506114 30313 layer_factory.hpp:77] Creating layer relu6
I0527 14:18:48.506119 30313 net.cpp:100] Creating Layer relu6
I0527 14:18:48.506134 30313 net.cpp:434] relu6 <- ip6
I0527 14:18:48.506139 30313 net.cpp:395] relu6 -> ip6 (in-place)
I0527 14:18:48.506500 30313 net.cpp:150] Setting up relu6
I0527 14:18:48.506508 30313 net.cpp:157] Top shape: 10 512 7 7 (250880)
I0527 14:18:48.506511 30313 net.cpp:165] Memory required for data: 1165086752
I0527 14:18:48.506513 30313 layer_factory.hpp:77] Creating layer ip7
I0527 14:18:48.506521 30313 net.cpp:100] Creating Layer ip7
I0527 14:18:48.506525 30313 net.cpp:434] ip7 <- ip6
I0527 14:18:48.506528 30313 net.cpp:408] ip7 -> ip7
I0527 14:18:48.510787 30313 net.cpp:150] Setting up ip7
I0527 14:18:48.510797 30313 net.cpp:157] Top shape: 10 512 7 7 (250880)
I0527 14:18:48.510799 30313 net.cpp:165] Memory required for data: 1166090272
I0527 14:18:48.510803 30313 layer_factory.hpp:77] Creating layer relu7
I0527 14:18:48.510807 30313 net.cpp:100] Creating Layer relu7
I0527 14:18:48.510810 30313 net.cpp:434] relu7 <- ip7
I0527 14:18:48.510815 30313 net.cpp:395] relu7 -> ip7 (in-place)
I0527 14:18:48.511173 30313 net.cpp:150] Setting up relu7
I0527 14:18:48.511179 30313 net.cpp:157] Top shape: 10 512 7 7 (250880)
I0527 14:18:48.511181 30313 net.cpp:165] Memory required for data: 1167093792
I0527 14:18:48.511183 30313 layer_factory.hpp:77] Creating layer ip7_relu7_0_split
I0527 14:18:48.511188 30313 net.cpp:100] Creating Layer ip7_relu7_0_split
I0527 14:18:48.511191 30313 net.cpp:434] ip7_relu7_0_split <- ip7
I0527 14:18:48.511195 30313 net.cpp:408] ip7_relu7_0_split -> ip7_relu7_0_split_0
I0527 14:18:48.511200 30313 net.cpp:408] ip7_relu7_0_split -> ip7_relu7_0_split_1
I0527 14:18:48.511204 30313 net.cpp:408] ip7_relu7_0_split -> ip7_relu7_0_split_2
I0527 14:18:48.511260 30313 net.cpp:150] Setting up ip7_relu7_0_split
I0527 14:18:48.511266 30313 net.cpp:157] Top shape: 10 512 7 7 (250880)
I0527 14:18:48.511271 30313 net.cpp:157] Top shape: 10 512 7 7 (250880)
I0527 14:18:48.511274 30313 net.cpp:157] Top shape: 10 512 7 7 (250880)
I0527 14:18:48.511276 30313 net.cpp:165] Memory required for data: 1170104352
I0527 14:18:48.511278 30313 layer_factory.hpp:77] Creating layer ip7_mbox_loc
I0527 14:18:48.511286 30313 net.cpp:100] Creating Layer ip7_mbox_loc
I0527 14:18:48.511287 30313 net.cpp:434] ip7_mbox_loc <- ip7_relu7_0_split_0
I0527 14:18:48.511292 30313 net.cpp:408] ip7_mbox_loc -> ip7_mbox_loc
I0527 14:18:48.513635 30313 net.cpp:150] Setting up ip7_mbox_loc
I0527 14:18:48.513644 30313 net.cpp:157] Top shape: 10 24 7 7 (11760)
I0527 14:18:48.513648 30313 net.cpp:165] Memory required for data: 1170151392
I0527 14:18:48.513651 30313 layer_factory.hpp:77] Creating layer ip7_mbox_loc_perm
I0527 14:18:48.513658 30313 net.cpp:100] Creating Layer ip7_mbox_loc_perm
I0527 14:18:48.513660 30313 net.cpp:434] ip7_mbox_loc_perm <- ip7_mbox_loc
I0527 14:18:48.513664 30313 net.cpp:408] ip7_mbox_loc_perm -> ip7_mbox_loc_perm
I0527 14:18:48.513762 30313 net.cpp:150] Setting up ip7_mbox_loc_perm
I0527 14:18:48.513767 30313 net.cpp:157] Top shape: 10 7 7 24 (11760)
I0527 14:18:48.513769 30313 net.cpp:165] Memory required for data: 1170198432
I0527 14:18:48.513772 30313 layer_factory.hpp:77] Creating layer ip7_mbox_loc_flat
I0527 14:18:48.513777 30313 net.cpp:100] Creating Layer ip7_mbox_loc_flat
I0527 14:18:48.513779 30313 net.cpp:434] ip7_mbox_loc_flat <- ip7_mbox_loc_perm
I0527 14:18:48.513782 30313 net.cpp:408] ip7_mbox_loc_flat -> ip7_mbox_loc_flat
I0527 14:18:48.513803 30313 net.cpp:150] Setting up ip7_mbox_loc_flat
I0527 14:18:48.513806 30313 net.cpp:157] Top shape: 10 1176 (11760)
I0527 14:18:48.513808 30313 net.cpp:165] Memory required for data: 1170245472
I0527 14:18:48.513810 30313 layer_factory.hpp:77] Creating layer ip7_mbox_conf
I0527 14:18:48.513818 30313 net.cpp:100] Creating Layer ip7_mbox_conf
I0527 14:18:48.513821 30313 net.cpp:434] ip7_mbox_conf <- ip7_relu7_0_split_1
I0527 14:18:48.513826 30313 net.cpp:408] ip7_mbox_conf -> ip7_mbox_conf
I0527 14:18:48.516325 30313 net.cpp:150] Setting up ip7_mbox_conf
I0527 14:18:48.516338 30313 net.cpp:157] Top shape: 10 36 7 7 (17640)
I0527 14:18:48.516340 30313 net.cpp:165] Memory required for data: 1170316032
I0527 14:18:48.516353 30313 layer_factory.hpp:77] Creating layer ip7_mbox_conf_perm
I0527 14:18:48.516360 30313 net.cpp:100] Creating Layer ip7_mbox_conf_perm
I0527 14:18:48.516361 30313 net.cpp:434] ip7_mbox_conf_perm <- ip7_mbox_conf
I0527 14:18:48.516367 30313 net.cpp:408] ip7_mbox_conf_perm -> ip7_mbox_conf_perm
I0527 14:18:48.516464 30313 net.cpp:150] Setting up ip7_mbox_conf_perm
I0527 14:18:48.516470 30313 net.cpp:157] Top shape: 10 7 7 36 (17640)
I0527 14:18:48.516472 30313 net.cpp:165] Memory required for data: 1170386592
I0527 14:18:48.516474 30313 layer_factory.hpp:77] Creating layer ip7_mbox_conf_flat
I0527 14:18:48.516479 30313 net.cpp:100] Creating Layer ip7_mbox_conf_flat
I0527 14:18:48.516480 30313 net.cpp:434] ip7_mbox_conf_flat <- ip7_mbox_conf_perm
I0527 14:18:48.516484 30313 net.cpp:408] ip7_mbox_conf_flat -> ip7_mbox_conf_flat
I0527 14:18:48.516508 30313 net.cpp:150] Setting up ip7_mbox_conf_flat
I0527 14:18:48.516512 30313 net.cpp:157] Top shape: 10 1764 (17640)
I0527 14:18:48.516515 30313 net.cpp:165] Memory required for data: 1170457152
I0527 14:18:48.516516 30313 layer_factory.hpp:77] Creating layer ip7_mbox_priorbox
I0527 14:18:48.516522 30313 net.cpp:100] Creating Layer ip7_mbox_priorbox
I0527 14:18:48.516525 30313 net.cpp:434] ip7_mbox_priorbox <- ip7_relu7_0_split_2
I0527 14:18:48.516527 30313 net.cpp:434] ip7_mbox_priorbox <- data_data_0_split_1
I0527 14:18:48.516532 30313 net.cpp:408] ip7_mbox_priorbox -> ip7_mbox_priorbox
I0527 14:18:48.516553 30313 net.cpp:150] Setting up ip7_mbox_priorbox
I0527 14:18:48.516556 30313 net.cpp:157] Top shape: 1 2 1176 (2352)
I0527 14:18:48.516558 30313 net.cpp:165] Memory required for data: 1170466560
I0527 14:18:48.516561 30313 layer_factory.hpp:77] Creating layer mbox_loc
I0527 14:18:48.516566 30313 net.cpp:100] Creating Layer mbox_loc
I0527 14:18:48.516567 30313 net.cpp:434] mbox_loc <- ip7_mbox_loc_flat
I0527 14:18:48.516571 30313 net.cpp:408] mbox_loc -> mbox_loc
I0527 14:18:48.516590 30313 net.cpp:150] Setting up mbox_loc
I0527 14:18:48.516594 30313 net.cpp:157] Top shape: 10 1176 (11760)
I0527 14:18:48.516597 30313 net.cpp:165] Memory required for data: 1170513600
I0527 14:18:48.516598 30313 layer_factory.hpp:77] Creating layer mbox_conf
I0527 14:18:48.516602 30313 net.cpp:100] Creating Layer mbox_conf
I0527 14:18:48.516603 30313 net.cpp:434] mbox_conf <- ip7_mbox_conf_flat
I0527 14:18:48.516607 30313 net.cpp:408] mbox_conf -> mbox_conf
I0527 14:18:48.516625 30313 net.cpp:150] Setting up mbox_conf
I0527 14:18:48.516628 30313 net.cpp:157] Top shape: 10 1764 (17640)
I0527 14:18:48.516630 30313 net.cpp:165] Memory required for data: 1170584160
I0527 14:18:48.516633 30313 layer_factory.hpp:77] Creating layer mbox_priorbox
I0527 14:18:48.516635 30313 net.cpp:100] Creating Layer mbox_priorbox
I0527 14:18:48.516638 30313 net.cpp:434] mbox_priorbox <- ip7_mbox_priorbox
I0527 14:18:48.516640 30313 net.cpp:408] mbox_priorbox -> mbox_priorbox
I0527 14:18:48.516661 30313 net.cpp:150] Setting up mbox_priorbox
I0527 14:18:48.516664 30313 net.cpp:157] Top shape: 1 2 1176 (2352)
I0527 14:18:48.516666 30313 net.cpp:165] Memory required for data: 1170593568
I0527 14:18:48.516669 30313 layer_factory.hpp:77] Creating layer mbox_conf_reshape
I0527 14:18:48.516674 30313 net.cpp:100] Creating Layer mbox_conf_reshape
I0527 14:18:48.516676 30313 net.cpp:434] mbox_conf_reshape <- mbox_conf
I0527 14:18:48.516680 30313 net.cpp:408] mbox_conf_reshape -> mbox_conf_reshape
I0527 14:18:48.516703 30313 net.cpp:150] Setting up mbox_conf_reshape
I0527 14:18:48.516707 30313 net.cpp:157] Top shape: 10 294 6 (17640)
I0527 14:18:48.516710 30313 net.cpp:165] Memory required for data: 1170664128
I0527 14:18:48.516711 30313 layer_factory.hpp:77] Creating layer mbox_conf_softmax
I0527 14:18:48.516717 30313 net.cpp:100] Creating Layer mbox_conf_softmax
I0527 14:18:48.516721 30313 net.cpp:434] mbox_conf_softmax <- mbox_conf_reshape
I0527 14:18:48.516723 30313 net.cpp:408] mbox_conf_softmax -> mbox_conf_softmax
I0527 14:18:48.518208 30313 net.cpp:150] Setting up mbox_conf_softmax
I0527 14:18:48.518221 30313 net.cpp:157] Top shape: 10 294 6 (17640)
I0527 14:18:48.518224 30313 net.cpp:165] Memory required for data: 1170734688
I0527 14:18:48.518226 30313 layer_factory.hpp:77] Creating layer mbox_conf_flatten
I0527 14:18:48.518232 30313 net.cpp:100] Creating Layer mbox_conf_flatten
I0527 14:18:48.518236 30313 net.cpp:434] mbox_conf_flatten <- mbox_conf_softmax
I0527 14:18:48.518240 30313 net.cpp:408] mbox_conf_flatten -> mbox_conf_flatten
I0527 14:18:48.518263 30313 net.cpp:150] Setting up mbox_conf_flatten
I0527 14:18:48.518267 30313 net.cpp:157] Top shape: 10 1764 (17640)
I0527 14:18:48.518270 30313 net.cpp:165] Memory required for data: 1170805248
I0527 14:18:48.518272 30313 layer_factory.hpp:77] Creating layer detection_out
I0527 14:18:48.518285 30313 net.cpp:100] Creating Layer detection_out
I0527 14:18:48.518288 30313 net.cpp:434] detection_out <- mbox_loc
I0527 14:18:48.518292 30313 net.cpp:434] detection_out <- mbox_conf_flatten
I0527 14:18:48.518296 30313 net.cpp:434] detection_out <- mbox_priorbox
I0527 14:18:48.518299 30313 net.cpp:408] detection_out -> detection_out
11111
I0527 14:18:48.518362 30313 net.cpp:150] Setting up detection_out
I0527 14:18:48.518366 30313 net.cpp:157] Top shape: 1 1 1 7 (7)
I0527 14:18:48.518368 30313 net.cpp:165] Memory required for data: 1170805276
I0527 14:18:48.518370 30313 layer_factory.hpp:77] Creating layer detection_eval
I0527 14:18:48.518375 30313 net.cpp:100] Creating Layer detection_eval
I0527 14:18:48.518378 30313 net.cpp:434] detection_eval <- detection_out
I0527 14:18:48.518381 30313 net.cpp:434] detection_eval <- label
I0527 14:18:48.518385 30313 net.cpp:408] detection_eval -> detection_eval
I0527 14:18:48.519647 30313 net.cpp:150] Setting up detection_eval
I0527 14:18:48.519654 30313 net.cpp:157] Top shape: 1 1 6 5 (30)
I0527 14:18:48.519656 30313 net.cpp:165] Memory required for data: 1170805396
I0527 14:18:48.519659 30313 net.cpp:228] detection_eval does not need backward computation.
I0527 14:18:48.519661 30313 net.cpp:228] detection_out does not need backward computation.
I0527 14:18:48.519663 30313 net.cpp:228] mbox_conf_flatten does not need backward computation.
I0527 14:18:48.519666 30313 net.cpp:228] mbox_conf_softmax does not need backward computation.
…
