…
        max_scale: 1
        min_aspect_ratio: 0.5
        max_aspect_ratio: 2
      }
      sample_constraint {
        min_jaccard_overlap: 0.9
      }
      max_sample: 1
      max_trials: 50
    }
    batch_sampler {
      sampler {
        min_scale: 0.3
        max_scale: 1
        min_aspect_ratio: 0.5
        max_aspect_ratio: 2
      }
      sample_constraint {
        max_jaccard_overlap: 1
      }
      max_sample: 1
      max_trials: 50
    }
    label_map_file: "/home/zhangwanchun/data/VOCdevkit/VOC0712/lmdb/labelmap_voc.prototxt"
  }
}
layer {
  name: "conv1_1"
  type: "QuantConvolution"
  bottom: "data"
  top: "conv1_1"
  convolution_param {
    num_output: 64
    pad: 1
    kernel_size: 3
    weight_filler {
      type: "xavier"
    }
    bias_filler {
      type: "constant"
      value: 0
    }
  }
  quant_convolution_param {
    coef_precision: FLOATING_POINT
    bw_params: 8
    shift_enable: false
  }
}
layer {
  name: "quant_relu1_1"
  type: "QuantReLU"
  bottom: "conv1_1"
  top: "conv1_1"
  param {
    lr_mult: 5
  }
  quant_relu_param {
    filler {
      type: "constant"
      value: 31
    }
    channel_shared: true
    act_bits: 5
    quant_enable: false
  }
}
layer {
  name: "conv1_2"
  type: "QuantConvolution"
  bottom: "conv1_1"
  top: "conv1_2"
  convolution_param {
    num_output: 64
    pad: 1
    kernel_size: 3
    weight_filler {
      type: "xavier"
    }
    bias_filler {
      type: "constant"
      value: 0
    }
  }
  quant_convolution_param {
    coef_precision: FLOATING_POINT
    bw_params: 8
    shift_enable: false
  }
}
layer {
  name: "quant_relu1_2"
  type: "QuantReLU"
  bottom: "conv1_2"
  top: "conv1_2"
  param {
    lr_mult: 5
  }
  quant_relu_param {
    filler {
      type: "constant"
      value: 31
    }
    channel_shared: true
    act_bits: 5
    quant_enable: false
  }
}
layer {
  name: "pool1"
  type: "Pooling"
  bottom: "conv1_2"
  top: "pool1"
  pooling_param {
    pool: MAX
    kernel_size: 2
    stride: 2
  }
}
layer {
  name: "conv2_1"
  type: "QuantConvolution"
  bottom: "pool1"
  top: "conv2_1"
  convolution_param {
    num_output: 128
    pad: 1
    kernel_size: 3
    weight_filler {
      type: "xavier"
    }
    bias_filler {
      type: "constant"
      value: 0
    }
  }
  quant_convolution_param {
    coef_precision: FLOATING_POINT
    bw_params: 8
    shift_enable: false
  }
}
layer {
  name: "quant_relu2_1"
  type: "QuantReLU"
  bottom: "conv2_1"
  top: "conv2_1"
  param {
    lr_mult: 5
  }
  quant_relu_param {
    filler {
      type: "constant"
      value: 65.934
    }
    channel_shared: true
    act_bits: 5
    quant_enable: false
  }
}
layer {
  name: "conv2_2"
  type: "QuantConvolution"
  bottom: "conv2_1"
  top: "conv2_2"
  convolution_param {
    num_output: 128
    pad: 1
    kernel_size: 3
    weight_filler {
      type: "xavier"
    }
    bias_filler {
      type: "constant"
      value: 0
    }
  }
  quant_convolution_param {
    coef_precision: FLOATING_POINT
    bw_params: 8
    shift_enable: false
  }
}
layer {
  name: "quant_relu2_2"
  type: "QuantReLU"
  bottom: "conv2_2"
  top: "conv2_2"
  param {
    lr_mult: 5
  }
  quant_relu_param {
    filler {
      type: "constant"
      value: 107.992
    }
    channel_shared: true
    act_bits: 5
    quant_enable: false
  }
}
layer {
  name: "pool2"
  type: "Pooling"
  bottom: "conv2_2"
  top: "pool2"
  pooling_param {
    pool: MAX
    kernel_size: 2
    stride: 2
  }
}
layer {
  name: "conv3_1"
  type: "QuantConvolution"
  bottom: "pool2"
  top: "conv3_1"
  convolution_param {
    num_output: 256
    pad: 1
    kernel_size: 3
    weight_filler {
      type: "xavier"
    }
    bias_filler {
      type: "constant"
      value: 0
    }
  }
  quant_convolution_param {
    coef_precision: FLOATING_POINT
    bw_params: 8
    shift_enable: false
  }
}
layer {
  name: "quant_relu3_1"
  type: "QuantReLU"
  bottom: "conv3_1"
  top: "conv3_1"
  param {
    lr_mult: 5
  }
  quant_relu_param {
    filler {
      type: "constant"
      value: 115.32
    }
    channel_shared: true
    act_bits: 5
    quant_enable: false
  }
}
layer {
  name: "conv3_2"
  type: "QuantConvolution"
  bottom: "conv3_1"
  top: "conv3_2"
  convolution_param {
    num_output: 256
    pad: 1
    kernel_size: 3
    weight_filler {
      type: "xavier"
    }
    bias_filler {
      type: "constant"
      value: 0
    }
  }
  quant_convolution_param {
    coef_precision: THREE_BITS
    bw_params: 8
    shift_enable: false
  }
}
layer {
  name: "quant_relu3_2"
  type: "QuantReLU"
  bottom: "conv3_2"
  top: "conv3_2"
  param {
    lr_mult: 0
  }
  quant_relu_param {
    filler {
      type: "constant"
      value: 31
    }
    channel_shared: true
    act_bits: 5
    quant_enable: false
  }
}
layer {
  name: "conv3_3"
  type: "QuantConvolution"
  bottom: "conv3_2"
  top: "conv3_3"
  convolution_param {
    num_output: 256
    pad: 1
    kernel_size: 3
    weight_filler {
      type: "xavier"
    }
    bias_filler {
      type: "constant"
      value: 0
    }
  }
  quant_convolution_param {
    coef_precision: THREE_BITS
    bw_params: 8
    shift_enable: false
  }
}
layer {
  name: "quant_relu3_3"
  type: "QuantReLU"
  bottom: "conv3_3"
  top: "conv3_3"
  param {
    lr_mult: 0
  }
  quant_relu_param {
    filler {
      type: "constant"
      value: 31
    }
    channel_shared: true
    act_bits: 5
    quant_enable: false
  }
}
layer {
  name: "pool3"
  type: "Pooling"
  bottom: "conv3_3"
  top: "pool3"
  pooling_param {
    pool: MAX
    kernel_size: 2
    stride: 2
  }
}
layer {
  name: "conv4_1"
  type: "QuantConvolution"
  bottom: "pool3"
  top: "conv4_1"
  convolution_param {
    num_output: 512
    pad: 1
    kernel_size: 3
    weight_filler {
      type: "xavier"
    }
    bias_filler {
      type: "constant"
      value: 0
    }
  }
  quant_convolution_param {
    coef_precision: ONE_BIT
    bw_params: 8
    shift_enable: false
  }
}
layer {
  name: "quant_relu4_1"
  type: "QuantReLU"
  bottom: "conv4_1"
  top: "conv4_1"
  param {
    lr_mult: 0
  }
  quant_relu_param {
    filler {
      type: "constant"
      value: 31
    }
    channel_shared: true
    act_bits: 5
    quant_enable: false
  }
}
layer {
  name: "conv4_2"
  type: "QuantConvolution"
  bottom: "conv4_1"
  top: "conv4_2"
  convolution_param {
    num_output: 512
    pad: 1
    kernel_size: 3
    weight_filler {
      type: "xavier"
    }
    bias_filler {
      type: "constant"
      value: 0
    }
  }
  quant_convolution_param {
    coef_precision: ONE_BIT
    bw_params: 8
    shift_enable: false
  }
}
layer {
  name: "quant_relu4_2"
  type: "QuantReLU"
  bottom: "conv4_2"
  top: "conv4_2"
  param {
    lr_mult: 0
  }
  quant_relu_param {
    filler {
      type: "constant"
      value: 31
    }
    channel_shared: true
    act_bits: 5
    quant_enable: false
  }
}
layer {
  name: "conv4_3"
  type: "QuantConvolution"
  bottom: "conv4_2"
  top: "conv4_3"
  convolution_param {
    num_output: 512
    pad: 1
    kernel_size: 3
    weight_filler {
      type: "xavier"
    }
    bias_filler {
      type: "constant"
      value: 0
    }
  }
  quant_convolution_param {
    coef_precision: ONE_BIT
    bw_params: 8
    shift_enable: false
  }
}
layer {
  name: "quant_relu4_3"
  type: "QuantReLU"
  bottom: "conv4_3"
  top: "conv4_3"
  param {
    lr_mult: 0
  }
  quant_relu_param {
    filler {
      type: "constant"
      value: 31
    }
    channel_shared: true
    act_bits: 5
    quant_enable: false
  }
}
layer {
  name: "pool4"
  type: "Pooling"
  bottom: "conv4_3"
  top: "pool4"
  pooling_param {
    pool: MAX
    kernel_size: 2
    stride: 2
  }
}
layer {
  name: "conv5_1"
  type: "QuantConvolution"
  bottom: "pool4"
  top: "conv5_1"
  convolution_param {
    num_output: 512
    pad: 1
    kernel_size: 3
    weight_filler {
      type: "xavier"
    }
    bias_filler {
      type: "constant"
      value: 0
    }
  }
  quant_convolution_param {
    coef_precision: ONE_BIT
    bw_params: 8
    shift_enable: false
  }
}
layer {
  name: "quant_relu5_1"
  type: "QuantReLU"
  bottom: "conv5_1"
  top: "conv5_1"
  param {
    lr_mult: 0
  }
  quant_relu_param {
    filler {
      type: "constant"
      value: 31
    }
    channel_shared: true
    act_bits: 5
    quant_enable: false
  }
}
layer {
  name: "conv5_2"
  type: "QuantConvolution"
  bottom: "conv5_1"
  top: "conv5_2"
  param {
    lr_mult: 1
    decay_mult: 0
  }
  param {
    lr_mult: 1
    decay_mult: 1
  }
  convolution_param {
    num_output: 512
    pad: 1
    kernel_size: 3
    weight_filler {
      type: "xavier"
    }
    bias_filler {
      type: "constant"
      value: 0
    }
  }
  quant_convolution_param {
    coef_precision: ONE_BIT
    bw_params: 8
    shift_enable: false
  }
}
layer {
  name: "quant_relu5_2"
  type: "QuantReLU"
  bottom: "conv5_2"
  top: "conv5_2"
  param {
    lr_mult: 0
  }
  quant_relu_param {
    filler {
      type: "constant"
      value: 31
    }
    channel_shared: true
    act_bits: 5
    quant_enable: false
  }
}
layer {
  name: "conv5_3"
  type: "QuantConvolution"
  bottom: "conv5_2"
  top: "conv5_3"
  param {
    lr_mult: 1
    decay_mult: 0
  }
  param {
    lr_mult: 1
    decay_mult: 200
  }
  convolution_param {
    num_output: 512
    pad: 1
    kernel_size: 3
    weight_filler {
      type: "xavier"
    }
    bias_filler {
      type: "constant"
      value: 0
    }
  }
  quant_convolution_param {
    coef_precision: ONE_BIT
    bw_params: 8
    shift_enable: false
  }
}
layer {
  name: "quant_relu5_3"
  type: "QuantReLU"
  bottom: "conv5_3"
  top: "conv5_3"
  param {
    lr_mult: 5
  }
  quant_relu_param {
    filler {
      type: "constant"
      value: 29.225
    }
    channel_shared: true
    act_bits: 5
    quant_enable: false
  }
}
layer {
  name: "pool5"
  type: "Pooling"
  bottom: "conv5_3"
  top: "pool5"
  pooling_param {
    pool: MAX
    kernel_size: 2
    stride: 2
  }
}
layer {
  name: "ip6"
  type: "Convolution"
  bottom: "pool5"
  top: "ip6"
  param {
    lr_mult: 1
    decay_mult: 1
  }
  param {
    lr_mult: 2
    decay_mult: 0
  }
  convolution_param {
    num_output: 512
    pad: 1
    kernel_size: 3
    weight_filler {
      type: "xavier"
    }
    bias_filler {
      type: "constant"
      value: 0
    }
  }
}
layer {
  name: "relu6"
  type: "ReLU"
  bottom: "ip6"
  top: "ip6"
}
layer {
  name: "ip7"
  type: "Convolution"
  bottom: "ip6"
  top: "ip7"
  param {
    lr_mult: 1
    decay_mult: 1
  }
  param {
    lr_mult: 2
    decay_mult: 0
  }
  convolution_param {
    num_output: 512
    kernel_size: 1
    weight_filler {
      type: "xavier"
    }
    bias_filler {
      type: "constant"
      value: 0
    }
  }
}
layer {
  name: "relu7"
  type: "ReLU"
  bottom: "ip7"
  top: "ip7"
}
layer {
  name: "ip7_mbox_loc"
  type: "Convolution"
  bottom: "ip7"
  top: "ip7_mbox_loc"
  param {
    lr_mult: 1
    decay_mult: 1
  }
  param {
    lr_mult: 2
    decay_mult: 0
  }
  convolution_param {
    num_output: 24
    pad: 1
    kernel_size: 3
    stride: 1
    weight_filler {
      type: "xavier"
    }
    bias_filler {
      type: "constant"
      value: 0
    }
  }
}
layer {
  name: "ip7_mbox_loc_perm"
  type: "Permute"
  bottom: "ip7_mbox_loc"
  top: "ip7_mbox_loc_perm"
  permute_param {
    order: 0
    order: 2
    order: 3
    order: 1
  }
}
layer {
  name: "ip7_mbox_loc_flat"
  type: "Flatten"
  bottom: "ip7_mbox_loc_perm"
  top: "ip7_mbox_loc_flat"
  flatten_param {
    axis: 1
  }
}
layer {
  name: "ip7_mbox_conf"
  type: "Convolution"
  bottom: "ip7"
  top: "ip7_mbox_conf"
  param {
    lr_mult: 1
    decay_mult: 1
  }
  param {
    lr_mult: 2
    decay_mult: 0
  }
  convolution_param {
    num_output: 36
    pad: 1
    kernel_size: 3
    stride: 1
    weight_filler {
      type: "xavier"
    }
    bias_filler {
      type: "constant"
      value: 0
    }
  }
}
layer {
  name: "ip7_mbox_conf_perm"
  type: "Permute"
  bottom: "ip7_mbox_conf"
  top: "ip7_mbox_conf_perm"
  permute_param {
    order: 0
    order: 2
    order: 3
    order: 1
  }
}
layer {
  name: "ip7_mbox_conf_flat"
  type: "Flatten"
  bottom: "ip7_mbox_conf_perm"
  top: "ip7_mbox_conf_flat"
  flatten_param {
    axis: 1
  }
}
layer {
  name: "ip7_mbox_priorbox"
  type: "PriorBox"
  bottom: "ip7"
  bottom: "data"
  top: "ip7_mbox_priorbox"
  prior_box_param {
    min_size: 20
    max_size: 210
    aspect_ratio: 2
    aspect_ratio: 3
    flip: true
    clip: false
    variance: 0.1
    variance: 0.1
    variance: 0.2
    variance: 0.2
    step: 32
    offset: 0.5
  }
}
layer {
  name: "mbox_loc"
  type: "Concat"
  bottom: "ip7_mbox_loc_flat"
  top: "mbox_loc"
  concat_param {
    axis: 1
  }
}
layer {
  name: "mbox_conf"
  type: "Concat"
  bottom: "ip7_mbox_conf_flat"
  top: "mbox_conf"
  concat_param {
    axis: 1
  }
}
layer {
  name: "mbox_priorbox"
  type: "Concat"
  bottom: "ip7_mbox_priorbox"
  top: "mbox_priorbox"
  concat_param {
    axis: 2
  }
}
layer {
  name: "mbox_loss"
  type: "MultiBoxLoss"
  bottom: "mbox_loc"
  bottom: "mbox_conf"
  bottom: "mbox_priorbox"
  bottom: "label"
  top: "mbox_loss"
  include {
    phase: TRAIN
  }
  propagate_down: true
  propagate_down: true
  propagate_down: false
  propagate_down: false
  loss_param {
    normalization: VALID
  }
  multibox_loss_param {
    loc_loss_type: SMOOTH_L1
    conf_loss_type: SOFTMAX
    loc_weight: 1
    num_classes: 6
    share_location: true
    match_type: PER_PREDICTION
    overlap_threshold: 0.5
    use_prior_for_matching: true
    background_label_id: 0
    use_difficult_gt: true
    neg_pos_ratio: 3
    neg_overlap: 0.5
    code_type: CENTER_SIZE
    ignore_cross_boundary_bbox: false
    mining_type: MAX_NEGATIVE
  }
}
I0512 21:25:35.744626 17115 layer_factory.hpp:77] Creating layer data
I0512 21:25:35.744731 17115 net.cpp:100] Creating Layer data
I0512 21:25:35.744740 17115 net.cpp:408] data -> data
I0512 21:25:35.744762 17115 net.cpp:408] data -> label
I0512 21:25:35.745545 17138 db_lmdb.cpp:35] Opened lmdb /home/zhangwanchun/data/VOCdevkit/VOC0712/lmdb/VOC0712_trainval_lmdb
I0512 21:25:38.607350 17115 annotated_data_layer.cpp:62] output data size: 5,3,224,224
I0512 21:25:38.610817 17115 net.cpp:150] Setting up data
I0512 21:25:38.610831 17115 net.cpp:157] Top shape: 5 3 224 224 (752640)
I0512 21:25:38.610834 17115 net.cpp:157] Top shape: 1 1 1 8 (8)
I0512 21:25:38.610836 17115 net.cpp:165] Memory required for data: 3010592
I0512 21:25:38.610842 17115 layer_factory.hpp:77] Creating layer data_data_0_split
I0512 21:25:38.610850 17115 net.cpp:100] Creating Layer data_data_0_split
I0512 21:25:38.610855 17115 net.cpp:434] data_data_0_split <- data
I0512 21:25:38.610864 17115 net.cpp:408] data_data_0_split -> data_data_0_split_0
I0512 21:25:38.610872 17115 net.cpp:408] data_data_0_split -> data_data_0_split_1
I0512 21:25:38.610913 17115 net.cpp:150] Setting up data_data_0_split
I0512 21:25:38.610918 17115 net.cpp:157] Top shape: 5 3 224 224 (752640)
I0512 21:25:38.610920 17115 net.cpp:157] Top shape: 5 3 224 224 (752640)
I0512 21:25:38.610922 17115 net.cpp:165] Memory required for data: 9031712
I0512 21:25:38.610946 17115 layer_factory.hpp:77] Creating layer conv1_1
I0512 21:25:38.610971 17115 net.cpp:100] Creating Layer conv1_1
I0512 21:25:38.610975 17115 net.cpp:434] conv1_1 <- data_data_0_split_0
I0512 21:25:38.610977 17115 net.cpp:408] conv1_1 -> conv1_1
I0512 21:25:38.612123 17115 net.cpp:150] Setting up conv1_1
I0512 21:25:38.612130 17115 net.cpp:157] Top shape: 5 64 224 224 (16056320)
I0512 21:25:38.612133 17115 net.cpp:165] Memory required for data: 73256992
I0512 21:25:38.612143 17115 layer_factory.hpp:77] Creating layer quant_relu1_1
I0512 21:25:38.612149 17115 net.cpp:100] Creating Layer quant_relu1_1
I0512 21:25:38.612151 17115 net.cpp:434] quant_relu1_1 <- conv1_1
I0512 21:25:38.612154 17115 net.cpp:395] quant_relu1_1 -> conv1_1 (in-place)
I0512 21:25:38.615347 17115 net.cpp:150] Setting up quant_relu1_1
I0512 21:25:38.615360 17115 net.cpp:157] Top shape: 5 64 224 224 (16056320)
I0512 21:25:38.615362 17115 net.cpp:165] Memory required for data: 137482272
I0512 21:25:38.615368 17115 layer_factory.hpp:77] Creating layer conv1_2
I0512 21:25:38.615377 17115 net.cpp:100] Creating Layer conv1_2
I0512 21:25:38.615379 17115 net.cpp:434] conv1_2 <- conv1_1
I0512 21:25:38.615384 17115 net.cpp:408] conv1_2 -> conv1_2
I0512 21:25:38.615679 17115 net.cpp:150] Setting up conv1_2
I0512 21:25:38.615684 17115 net.cpp:157] Top shape: 5 64 224 224 (16056320)
I0512 21:25:38.615686 17115 net.cpp:165] Memory required for data: 201707552
I0512 21:25:38.615691 17115 layer_factory.hpp:77] Creating layer quant_relu1_2
I0512 21:25:38.615695 17115 net.cpp:100] Creating Layer quant_relu1_2
I0512 21:25:38.615697 17115 net.cpp:434] quant_relu1_2 <- conv1_2
I0512 21:25:38.615701 17115 net.cpp:395] quant_relu1_2 -> conv1_2 (in-place)
I0512 21:25:38.619931 17115 net.cpp:150] Setting up quant_relu1_2
I0512 21:25:38.619966 17115 net.cpp:157] Top shape: 5 64 224 224 (16056320)
I0512 21:25:38.619969 17115 net.cpp:165] Memory required for data: 265932832
I0512 21:25:38.619976 17115 layer_factory.hpp:77] Creating layer pool1
I0512 21:25:38.619989 17115 net.cpp:100] Creating Layer pool1
I0512 21:25:38.619992 17115 net.cpp:434] pool1 <- conv1_2
I0512 21:25:38.619997 17115 net.cpp:408] pool1 -> pool1
I0512 21:25:38.620105 17115 net.cpp:150] Setting up pool1
I0512 21:25:38.620110 17115 net.cpp:157] Top shape: 5 64 112 112 (4014080)
I0512 21:25:38.620112 17115 net.cpp:165] Memory required for data: 281989152
I0512 21:25:38.620115 17115 layer_factory.hpp:77] Creating layer conv2_1
I0512 21:25:38.620136 17115 net.cpp:100] Creating Layer conv2_1
I0512 21:25:38.620137 17115 net.cpp:434] conv2_1 <- pool1
I0512 21:25:38.620141 17115 net.cpp:408] conv2_1 -> conv2_1
I0512 21:25:38.622005 17115 net.cpp:150] Setting up conv2_1
I0512 21:25:38.622032 17115 net.cpp:157] Top shape: 5 128 112 112 (8028160)
I0512 21:25:38.622051 17115 net.cpp:165] Memory required for data: 314101792
I0512 21:25:38.622056 17115 layer_factory.hpp:77] Creating layer quant_relu2_1
I0512 21:25:38.622081 17115 net.cpp:100] Creating Layer quant_relu2_1
I0512 21:25:38.622082 17115 net.cpp:434] quant_relu2_1 <- conv2_1
I0512 21:25:38.622087 17115 net.cpp:395] quant_relu2_1 -> conv2_1 (in-place)
I0512 21:25:38.624024 17115 net.cpp:150] Setting up quant_relu2_1
I0512 21:25:38.624038 17115 net.cpp:157] Top shape: 5 128 112 112 (8028160)
I0512 21:25:38.624042 17115 net.cpp:165] Memory required for data: 346214432
I0512 21:25:38.624048 17115 layer_factory.hpp:77] Creating layer conv2_2
I0512 21:25:38.624056 17115 net.cpp:100] Creating Layer conv2_2
I0512 21:25:38.624058 17115 net.cpp:434] conv2_2 <- conv2_1
I0512 21:25:38.624063 17115 net.cpp:408] conv2_2 -> conv2_2
I0512 21:25:38.624950 17115 net.cpp:150] Setting up conv2_2
I0512 21:25:38.624958 17115 net.cpp:157] Top shape: 5 128 112 112 (8028160)
I0512 21:25:38.624960 17115 net.cpp:165] Memory required for data: 378327072
I0512 21:25:38.624964 17115 layer_factory.hpp:77] Creating layer quant_relu2_2
I0512 21:25:38.624969 17115 net.cpp:100] Creating Layer quant_relu2_2
I0512 21:25:38.624972 17115 net.cpp:434] quant_relu2_2 <- conv2_2
I0512 21:25:38.624976 17115 net.cpp:395] quant_relu2_2 -> conv2_2 (in-place)
I0512 21:25:38.626899 17115 net.cpp:150] Setting up quant_relu2_2
I0512 21:25:38.626909 17115 net.cpp:157] Top shape: 5 128 112 112 (8028160)
I0512 21:25:38.626912 17115 net.cpp:165] Memory required for data: 410439712
I0512 21:25:38.626916 17115 layer_factory.hpp:77] Creating layer pool2
I0512 21:25:38.626924 17115 net.cpp:100] Creating Layer pool2
I0512 21:25:38.626926 17115 net.cpp:434] pool2 <- conv2_2
I0512 21:25:38.626930 17115 net.cpp:408] pool2 -> pool2
I0512 21:25:38.626955 17115 net.cpp:150] Setting up pool2
I0512 21:25:38.626958 17115 net.cpp:157] Top shape: 5 128 56 56 (2007040)
I0512 21:25:38.626961 17115 net.cpp:165] Memory required for data: 418467872
I0512 21:25:38.626963 17115 layer_factory.hpp:77] Creating layer conv3_1
I0512 21:25:38.626967 17115 net.cpp:100] Creating Layer conv3_1
I0512 21:25:38.626971 17115 net.cpp:434] conv3_1 <- pool2
I0512 21:25:38.626974 17115 net.cpp:408] conv3_1 -> conv3_1
I0512 21:25:38.628145 17115 net.cpp:150] Setting up conv3_1
I0512 21:25:38.628151 17115 net.cpp:157] Top shape: 5 256 56 56 (4014080)
I0512 21:25:38.628154 17115 net.cpp:165] Memory required for data: 434524192
I0512 21:25:38.628157 17115 layer_factory.hpp:77] Creating layer quant_relu3_1
I0512 21:25:38.628162 17115 net.cpp:100] Creating Layer quant_relu3_1
I0512 21:25:38.628165 17115 net.cpp:434] quant_relu3_1 <- conv3_1
I0512 21:25:38.628167 17115 net.cpp:395] quant_relu3_1 -> conv3_1 (in-place)
I0512 21:25:38.629173 17115 net.cpp:150] Setting up quant_relu3_1
I0512 21:25:38.629181 17115 net.cpp:157] Top shape: 5 256 56 56 (4014080)
I0512 21:25:38.629184 17115 net.cpp:165] Memory required for data: 450580512
I0512 21:25:38.629187 17115 layer_factory.hpp:77] Creating layer conv3_2
I0512 21:25:38.629192 17115 net.cpp:100] Creating Layer conv3_2
I0512 21:25:38.629194 17115 net.cpp:434] conv3_2 <- conv3_1
I0512 21:25:38.629199 17115 net.cpp:408] conv3_2 -> conv3_2
I0512 21:25:38.631964 17115 net.cpp:150] Setting up conv3_2
I0512 21:25:38.631973 17115 net.cpp:157] Top shape: 5 256 56 56 (4014080)
I0512 21:25:38.631976 17115 net.cpp:165] Memory required for data: 466636832
I0512 21:25:38.631994 17115 layer_factory.hpp:77] Creating layer quant_relu3_2
I0512 21:25:38.631999 17115 net.cpp:100] Creating Layer quant_relu3_2
I0512 21:25:38.632001 17115 net.cpp:434] quant_relu3_2 <- conv3_2
I0512 21:25:38.632005 17115 net.cpp:395] quant_relu3_2 -> conv3_2 (in-place)
I0512 21:25:38.632994 17115 net.cpp:150] Setting up quant_relu3_2
I0512 21:25:38.633003 17115 net.cpp:157] Top shape: 5 256 56 56 (4014080)
I0512 21:25:38.633005 17115 net.cpp:165] Memory required for data: 482693152
I0512 21:25:38.633009 17115 layer_factory.hpp:77] Creating layer conv3_3
I0512 21:25:38.633015 17115 net.cpp:100] Creating Layer conv3_3
I0512 21:25:38.633018 17115 net.cpp:434] conv3_3 <- conv3_2
I0512 21:25:38.633023 17115 net.cpp:408] conv3_3 -> conv3_3
I0512 21:25:38.636145 17115 net.cpp:150] Setting up conv3_3
I0512 21:25:38.636154 17115 net.cpp:157] Top shape: 5 256 56 56 (4014080)
I0512 21:25:38.636173 17115 net.cpp:165] Memory required for data: 498749472
I0512 21:25:38.636178 17115 layer_factory.hpp:77] Creating layer quant_relu3_3
I0512 21:25:38.636183 17115 net.cpp:100] Creating Layer quant_relu3_3
I0512 21:25:38.636186 17115 net.cpp:434] quant_relu3_3 <- conv3_3
I0512 21:25:38.636189 17115 net.cpp:395] quant_relu3_3 -> conv3_3 (in-place)
I0512 21:25:38.637255 17115 net.cpp:150] Setting up quant_relu3_3
I0512 21:25:38.637264 17115 net.cpp:157] Top shape: 5 256 56 56 (4014080)
I0512 21:25:38.637266 17115 net.cpp:165] Memory required for data: 514805792
I0512 21:25:38.637270 17115 layer_factory.hpp:77] Creating layer pool3
I0512 21:25:38.637276 17115 net.cpp:100] Creating Layer pool3
I0512 21:25:38.637279 17115 net.cpp:434] pool3 <- conv3_3
I0512 21:25:38.637282 17115 net.cpp:408] pool3 -> pool3
I0512 21:25:38.637322 17115 net.cpp:150] Setting up pool3
I0512 21:25:38.637327 17115 net.cpp:157] Top shape: 5 256 28 28 (1003520)
I0512 21:25:38.637329 17115 net.cpp:165] Memory required for data: 518819872
I0512 21:25:38.637331 17115 layer_factory.hpp:77] Creating layer conv4_1
I0512 21:25:38.637336 17115 net.cpp:100] Creating Layer conv4_1
I0512 21:25:38.637339 17115 net.cpp:434] conv4_1 <- pool3
I0512 21:25:38.637343 17115 net.cpp:408] conv4_1 -> conv4_1
I0512 21:25:38.643309 17115 net.cpp:150] Setting up conv4_1
I0512 21:25:38.643322 17115 net.cpp:157] Top shape: 5 512 28 28 (2007040)
I0512 21:25:38.643326 17115 net.cpp:165] Memory required for data: 526848032
I0512 21:25:38.643330 17115 layer_factory.hpp:77] Creating layer quant_relu4_1
I0512 21:25:38.643337 17115 net.cpp:100] Creating Layer quant_relu4_1
I0512 21:25:38.643339 17115 net.cpp:434] quant_relu4_1 <- conv4_1
I0512 21:25:38.643344 17115 net.cpp:395] quant_relu4_1 -> conv4_1 (in-place)
I0512 21:25:38.644042 17115 net.cpp:150] Setting up quant_relu4_1
I0512 21:25:38.644049 17115 net.cpp:157] Top shape: 5 512 28 28 (2007040)
I0512 21:25:38.644068 17115 net.cpp:165] Memory required for data: 534876192
I0512 21:25:38.644071 17115 layer_factory.hpp:77] Creating layer conv4_2
I0512 21:25:38.644076 17115 net.cpp:100] Creating Layer conv4_2
I0512 21:25:38.644079 17115 net.cpp:434] conv4_2 <- conv4_1
I0512 21:25:38.644083 17115 net.cpp:408] conv4_2 -> conv4_2
I0512 21:25:38.654199 17115 net.cpp:150] Setting up conv4_2
I0512 21:25:38.654214 17115 net.cpp:157] Top shape: 5 512 28 28 (2007040)
I0512 21:25:38.654217 17115 net.cpp:165] Memory required for data: 542904352
I0512 21:25:38.654222 17115 layer_factory.hpp:77] Creating layer quant_relu4_2
I0512 21:25:38.654230 17115 net.cpp:100] Creating Layer quant_relu4_2
I0512 21:25:38.654233 17115 net.cpp:434] quant_relu4_2 <- conv4_2
I0512 21:25:38.654238 17115 net.cpp:395] quant_relu4_2 -> conv4_2 (in-place)
I0512 21:25:38.654970 17115 net.cpp:150] Setting up quant_relu4_2
I0512 21:25:38.654980 17115 net.cpp:157] Top shape: 5 512 28 28 (2007040)
I0512 21:25:38.654983 17115 net.cpp:165] Memory required for data: 550932512
I0512 21:25:38.654986 17115 layer_factory.hpp:77] Creating layer conv4_3
I0512 21:25:38.654992 17115 net.cpp:100] Creating Layer conv4_3
I0512 21:25:38.654995 17115 net.cpp:434] conv4_3 <- conv4_2
I0512 21:25:38.655010 17115 net.cpp:408] conv4_3 -> conv4_3
I0512 21:25:38.665237 17115 net.cpp:150] Setting up conv4_3
I0512 21:25:38.665251 17115 net.cpp:157] Top shape: 5 512 28 28 (2007040)
I0512 21:25:38.665254 17115 net.cpp:165] Memory required for data: 558960672
I0512 21:25:38.665261 17115 layer_factory.hpp:77] Creating layer quant_relu4_3
I0512 21:25:38.665266 17115 net.cpp:100] Creating Layer quant_relu4_3
I0512 21:25:38.665269 17115 net.cpp:434] quant_relu4_3 <- conv4_3
I0512 21:25:38.665274 17115 net.cpp:395] quant_relu4_3 -> conv4_3 (in-place)
I0512 21:25:38.665997 17115 net.cpp:150] Setting up quant_relu4_3
I0512 21:25:38.666004 17115 net.cpp:157] Top shape: 5 512 28 28 (2007040)
I0512 21:25:38.666007 17115 net.cpp:165] Memory required for data: 566988832
I0512 21:25:38.666010 17115 layer_factory.hpp:77] Creating layer pool4
I0512 21:25:38.666015 17115 net.cpp:100] Creating Layer pool4
I0512 21:25:38.666018 17115 net.cpp:434] pool4 <- conv4_3
I0512 21:25:38.666021 17115 net.cpp:408] pool4 -> pool4
I0512 21:25:38.666043 17115 net.cpp:150] Setting up pool4
I0512 21:25:38.666049 17115 net.cpp:157] Top shape: 5 512 14 14 (501760)
I0512 21:25:38.666050 17115 net.cpp:165] Memory required for data: 568995872
I0512 21:25:38.666052 17115 layer_factory.hpp:77] Creating layer conv5_1
I0512 21:25:38.666057 17115 net.cpp:100] Creating Layer conv5_1
I0512 21:25:38.666059 17115 net.cpp:434] conv5_1 <- pool4
I0512 21:25:38.666064 17115 net.cpp:408] conv5_1 -> conv5_1
I0512 21:25:38.676240 17115 net.cpp:150] Setting up conv5_1
I0512 21:25:38.676256 17115 net.cpp:157] Top shape: 5 512 14 14 (501760)
I0512 21:25:38.676259 17115 net.cpp:165] Memory required for data: 571002912
I0512 21:25:38.676265 17115 layer_factory.hpp:77] Creating layer quant_relu5_1
I0512 21:25:38.676271 17115 net.cpp:100] Creating Layer quant_relu5_1
I0512 21:25:38.676275 17115 net.cpp:434] quant_relu5_1 <- conv5_1
I0512 21:25:38.676280 17115 net.cpp:395] quant_relu5_1 -> conv5_1 (in-place)
I0512 21:25:38.676360 17115 net.cpp:150] Setting up quant_relu5_1
I0512 21:25:38.676365 17115 net.cpp:157] Top shape: 5 512 14 14 (501760)
I0512 21:25:38.676368 17115 net.cpp:165] Memory required for data: 573009952
I0512 21:25:38.676375 17115 layer_factory.hpp:77] Creating layer conv5_2
I0512 21:25:38.676380 17115 net.cpp:100] Creating Layer conv5_2
I0512 21:25:38.676383 17115 net.cpp:434] conv5_2 <- conv5_1
I0512 21:25:38.676388 17115 net.cpp:408] conv5_2 -> conv5_2
I0512 21:25:38.686516 17115 net.cpp:150] Setting up conv5_2
I0512 21:25:38.686528 17115 net.cpp:157] Top shape: 5 512 14 14 (501760)
I0512 21:25:38.686530 17115 net.cpp:165] Memory required for data: 575016992
I0512 21:25:38.686537 17115 layer_factory.hpp:77] Creating layer quant_relu5_2
I0512 21:25:38.686542 17115 net.cpp:100] Creating Layer quant_relu5_2
I0512 21:25:38.686544 17115 net.cpp:434] quant_relu5_2 <- conv5_2
I0512 21:25:38.686548 17115 net.cpp:395] quant_relu5_2 -> conv5_2 (in-place)
I0512 21:25:38.686630 17115 net.cpp:150] Setting up quant_relu5_2
I0512 21:25:38.686635 17115 net.cpp:157] Top shape: 5 512 14 14 (501760)
I0512 21:25:38.686637 17115 net.cpp:165] Memory required for data: 577024032
I0512 21:25:38.686640 17115 layer_factory.hpp:77] Creating layer conv5_3
I0512 21:25:38.686645 17115 net.cpp:100] Creating Layer conv5_3
I0512 21:25:38.686648 17115 net.cpp:434] conv5_3 <- conv5_2
I0512 21:25:38.686651 17115 net.cpp:408] conv5_3 -> conv5_3
I0512 21:25:38.696846 17115 net.cpp:150] Setting up conv5_3
I0512 21:25:38.696864 17115 net.cpp:157] Top shape: 5 512 14 14 (501760)
I0512 21:25:38.696866 17115 net.cpp:165] Memory required for data: 579031072
I0512 21:25:38.696872 17115 layer_factory.hpp:77] Creating layer quant_relu5_3
I0512 21:25:38.696879 17115 net.cpp:100] Creating Layer quant_relu5_3
I0512 21:25:38.696882 17115 net.cpp:434] quant_relu5_3 <- conv5_3
I0512 21:25:38.696887 17115 net.cpp:395] quant_relu5_3 -> conv5_3 (in-place)
I0512 21:25:38.696969 17115 net.cpp:150] Setting up quant_relu5_3
I0512 21:25:38.696974 17115 net.cpp:157] Top shape: 5 512 14 14 (501760)
I0512 21:25:38.696988 17115 net.cpp:165] Memory required for data: 581038112
I0512 21:25:38.696991 17115 layer_factory.hpp:77] Creating layer pool5
I0512 21:25:38.697000 17115 net.cpp:100] Creating Layer pool5
I0512 21:25:38.697002 17115 net.cpp:434] pool5 <- conv5_3
I0512 21:25:38.697006 17115 net.cpp:408] pool5 -> pool5
I0512 21:25:38.697027 17115 net.cpp:150] Setting up pool5
I0512 21:25:38.697032 17115 net.cpp:157] Top shape: 5 512 7 7 (125440)
I0512 21:25:38.697034 17115 net.cpp:165] Memory required for data: 581539872
I0512 21:25:38.697036 17115 layer_factory.hpp:77] Creating layer ip6
I0512 21:25:38.697042 17115 net.cpp:100] Creating Layer ip6
I0512 21:25:38.697044 17115 net.cpp:434] ip6 <- pool5
I0512 21:25:38.697048 17115 net.cpp:408] ip6 -> ip6
I0512 21:25:39.430110 17115 net.cpp:150] Setting up ip6
I0512 21:25:39.430128 17115 net.cpp:157] Top shape: 5 512 7 7 (125440)
I0512 21:25:39.430131 17115 net.cpp:165] Memory required for data: 582041632
I0512 21:25:39.430138 17115 layer_factory.hpp:77] Creating layer relu6
I0512 21:25:39.430145 17115 net.cpp:100] Creating Layer relu6
I0512 21:25:39.430148 17115 net.cpp:434] relu6 <- ip6
I0512 21:25:39.430153 17115 net.cpp:395] relu6 -> ip6 (in-place)
I0512 21:25:39.430506 17115 net.cpp:150] Setting up relu6
I0512 21:25:39.430516 17115 net.cpp:157] Top shape: 5 512 7 7 (125440)
I0512 21:25:39.430517 17115 net.cpp:165] Memory required for data: 582543392
I0512 21:25:39.430519 17115 layer_factory.hpp:77] Creating layer ip7
I0512 21:25:39.430529 17115 net.cpp:100] Creating Layer ip7
I0512 21:25:39.430532 17115 net.cpp:434] ip7 <- ip6
I0512 21:25:39.430537 17115 net.cpp:408] ip7 -> ip7
I0512 21:25:39.433807 17115 net.cpp:150] Setting up ip7
I0512 21:25:39.433816 17115 net.cpp:157] Top shape: 5 512 7 7 (125440)
I0512 21:25:39.433820 17115 net.cpp:165] Memory required for data: 583045152
I0512 21:25:39.433823 17115 layer_factory.hpp:77] Creating layer relu7
I0512 21:25:39.433827 17115 net.cpp:100] Creating Layer relu7
I0512 21:25:39.433830 17115 net.cpp:434] relu7 <- ip7
I0512 21:25:39.433835 17115 net.cpp:395] relu7 -> ip7 (in-place)
I0512 21:25:39.434180 17115 net.cpp:150] Setting up relu7
I0512 21:25:39.434187 17115 net.cpp:157] Top shape: 5 512 7 7 (125440)
I0512 21:25:39.434190 17115 net.cpp:165] Memory required for data: 583546912
I0512 21:25:39.434192 17115 layer_factory.hpp:77] Creating layer ip7_relu7_0_split
I0512 21:25:39.434197 17115 net.cpp:100] Creating Layer ip7_relu7_0_split
I0512 21:25:39.434199 17115 net.cpp:434] ip7_relu7_0_split <- ip7
I0512 21:25:39.434203 17115 net.cpp:408] ip7_relu7_0_split -> ip7_relu7_0_split_0
I0512 21:25:39.434208 17115 net.cpp:408] ip7_relu7_0_split -> ip7_relu7_0_split_1
I0512 21:25:39.434212 17115 net.cpp:408] ip7_relu7_0_split -> ip7_relu7_0_split_2
I0512 21:25:39.434255 17115 net.cpp:150] Setting up ip7_relu7_0_split
I0512 21:25:39.434260 17115 net.cpp:157] Top shape: 5 512 7 7 (125440)
I0512 21:25:39.434264 17115 net.cpp:157] Top shape: 5 512 7 7 (125440)
I0512 21:25:39.434267 17115 net.cpp:157] Top shape: 5 512 7 7 (125440)
I0512 21:25:39.434268 17115 net.cpp:165] Memory required for data: 585052192
I0512 21:25:39.434270 17115 layer_factory.hpp:77] Creating layer ip7_mbox_loc
I0512 21:25:39.434276 17115 net.cpp:100] Creating Layer ip7_mbox_loc
I0512 21:25:39.434279 17115 net.cpp:434] ip7_mbox_loc <- ip7_relu7_0_split_0
I0512 21:25:39.434283 17115 net.cpp:408] ip7_mbox_loc -> ip7_mbox_loc
I0512 21:25:39.437351 17115 net.cpp:150] Setting up ip7_mbox_loc
I0512 21:25:39.437361 17115 net.cpp:157] Top shape: 5 24 7 7 (5880)
I0512 21:25:39.437363 17115 net.cpp:165] Memory required for data: 585075712
I0512 21:25:39.437367 17115 layer_factory.hpp:77] Creating layer ip7_mbox_loc_perm
I0512 21:25:39.437372 17115 net.cpp:100] Creating Layer ip7_mbox_loc_perm
I0512 21:25:39.437376 17115 net.cpp:434] ip7_mbox_loc_perm <- ip7_mbox_loc
I0512 21:25:39.437381 17115 net.cpp:408] ip7_mbox_loc_perm -> ip7_mbox_loc_perm
I0512 21:25:39.437467 17115 net.cpp:150] Setting up ip7_mbox_loc_perm
I0512 21:25:39.437472 17115 net.cpp:157] Top shape: 5 7 7 24 (5880)
I0512 21:25:39.437485 17115 net.cpp:165] Memory required for data: 585099232
I0512 21:25:39.437487 17115 layer_factory.hpp:77] Creating layer ip7_mbox_loc_flat
I0512 21:25:39.437491 17115 net.cpp:100] Creating Layer ip7_mbox_loc_flat
I0512 21:25:39.437494 17115 net.cpp:434] ip7_mbox_loc_flat <- ip7_mbox_loc_perm
I0512 21:25:39.437499 17115 net.cpp:408] ip7_mbox_loc_flat -> ip7_mbox_loc_flat
I0512 21:25:39.437520 17115 net.cpp:150] Setting up ip7_mbox_loc_flat
I0512 21:25:39.437525 17115 net.cpp:157] Top shape: 5 1176 (5880)
I0512 21:25:39.437526 17115 net.cpp:165] Memory required for data: 585122752
I0512 21:25:39.437528 17115 layer_factory.hpp:77] Creating layer ip7_mbox_conf
I0512 21:25:39.437534 17115 net.cpp:100] Creating Layer ip7_mbox_conf
I0512 21:25:39.437537 17115 net.cpp:434] ip7_mbox_conf <- ip7_relu7_0_split_1
I0512 21:25:39.437541 17115 net.cpp:408] ip7_mbox_conf -> ip7_mbox_conf
I0512 21:25:39.440441 17115 net.cpp:150] Setting up ip7_mbox_conf
I0512 21:25:39.440451 17115 net.cpp:157] Top shape: 5 36 7 7 (8820)
I0512 21:25:39.440454 17115 net.cpp:165] Memory required for data: 585158032
I0512 21:25:39.440457 17115 layer_factory.hpp:77] Creating layer ip7_mbox_conf_perm
I0512 21:25:39.440462 17115 net.cpp:100] Creating Layer ip7_mbox_conf_perm
I0512 21:25:39.440465 17115 net.cpp:434] ip7_mbox_conf_perm <- ip7_mbox_conf
I0512 21:25:39.440470 17115 net.cpp:408] ip7_mbox_conf_perm -> ip7_mbox_conf_perm
I0512 21:25:39.440557 17115 net.cpp:150] Setting up ip7_mbox_conf_perm
I0512 21:25:39.440562 17115 net.cpp:157] Top shape: 5 7 7 36 (8820)
I0512 21:25:39.440563 17115 net.cpp:165] Memory required for data: 585193312
I0512 21:25:39.440565 17115 layer_factory.hpp:77] Creating layer ip7_mbox_conf_flat
I0512 21:25:39.440569 17115 net.cpp:100] Creating Layer ip7_mbox_conf_flat
I0512 21:25:39.440573 17115 net.cpp:434] ip7_mbox_conf_flat <- ip7_mbox_conf_perm
I0512 21:25:39.440578 17115 net.cpp:408] ip7_mbox_conf_flat -> ip7_mbox_conf_flat
I0512 21:25:39.440600 17115 net.cpp:150] Setting up ip7_mbox_conf_flat
I0512 21:25:39.440606 17115 net.cpp:157] Top shape: 5 1764 (8820)
I0512 21:25:39.440609 17115 net.cpp:165] Memory required for data: 585228592
I0512 21:25:39.440611 17115 layer_factory.hpp:77] Creating layer ip7_mbox_priorbox
I0512 21:25:39.440616 17115 net.cpp:100] Creating Layer ip7_mbox_priorbox
I0512 21:25:39.440619 17115 net.cpp:434] ip7_mbox_priorbox <- ip7_relu7_0_split_2
I0512 21:25:39.440623 17115 net.cpp:434] ip7_mbox_priorbox <- data_data_0_split_1
I0512 21:25:39.440626 17115 net.cpp:408] ip7_mbox_priorbox -> ip7_mbox_priorbox
I0512 21:25:39.440673 17115 net.cpp:150] Setting up ip7_mbox_priorbox
I0512 21:25:39.440694 17115 net.cpp:157] Top shape: 1 2 1176 (2352)
I0512 21:25:39.440696 17115 net.cpp:165] Memory required for data: 585238000
I0512 21:25:39.440698 17115 layer_factory.hpp:77] Creating layer mbox_loc
I0512 21:25:39.440701 17115 net.cpp:100] Creating Layer mbox_loc
I0512 21:25:39.440703 17115 net.cpp:434] mbox_loc <- ip7_mbox_loc_flat
I0512 21:25:39.440707 17115 net.cpp:408] mbox_loc -> mbox_loc
I0512 21:25:39.440730 17115 net.cpp:150] Setting up mbox_loc
I0512 21:25:39.440734 17115 net.cpp:157] Top shape: 5 1176 (5880)
I0512 21:25:39.440737 17115 net.cpp:165] Memory required for data: 585261520
I0512 21:25:39.440738 17115 layer_factory.hpp:77] Creating layer mbox_conf
I0512 21:25:39.440742 17115 net.cpp:100] Creating Layer mbox_conf
I0512 21:25:39.440743 17115 net.cpp:434] mbox_conf <- ip7_mbox_conf_flat
I0512 21:25:39.440747 17115 net.cpp:408] mbox_conf -> mbox_conf
I0512 21:25:39.440763 17115 net.cpp:150] Setting up mbox_conf
I0512 21:25:39.440768 17115 net.cpp:157] Top shape: 5 1764 (8820)
I0512 21:25:39.440769 17115 net.cpp:165] Memory required for data: 585296800
I0512 21:25:39.440771 17115 layer_factory.hpp:77] Creating layer mbox_priorbox
I0512 21:25:39.440776 17115 net.cpp:100] Creating Layer mbox_priorbox
I0512 21:25:39.440779 17115 net.cpp:434] mbox_priorbox <- ip7_mbox_priorbox
I0512 21:25:39.440783 17115 net.cpp:408] mbox_priorbox -> mbox_priorbox
I0512 21:25:39.440799 17115 net.cpp:150] Setting up mbox_priorbox
I0512 21:25:39.440810 17115 net.cpp:157] Top shape: 1 2 1176 (2352)
I0512 21:25:39.440814 17115 net.cpp:165] Memory required for data: 585306208
I0512 21:25:39.440814 17115 layer_factory.hpp:77] Creating layer mbox_loss
I0512 21:25:39.440822 17115 net.cpp:100] Creating Layer mbox_loss
I0512 21:25:39.440825 17115 net.cpp:434] mbox_loss <- mbox_loc
I0512 21:25:39.440829 17115 net.cpp:434] mbox_loss <- mbox_conf
I0512 21:25:39.440830 17115 net.cpp:434] mbox_loss <- mbox_priorbox
…
  name: "data"
  type: "AnnotatedData"
  top: "data"
  top: "label"
  include {
    phase: TEST
  }
  transform_param {
    scale: 0.12156863
    resize_param {
      prob: 1
      resize_mode: WARP
      height: 224
      width: 224
      interp_mode: LINEAR
    }
  }
  data_param {
    source: "/home/zhangwanchun/data/VOCdevkit/VOC0712/lmdb/VOC0712_test_lmdb"
    batch_size: 10
    backend: LMDB
  }
  annotated_data_param {
    batch_sampler {
    }
    label_map_file: "/home/zhangwanchun/data/VOCdevkit/VOC0712/lmdb/labelmap_voc.prototxt"
  }
}
layer {
  name: "conv1_1"
  type: "QuantConvolution"
  bottom: "data"
  top: "conv1_1"
  convolution_param {
    num_output: 64
    pad: 1
    kernel_size: 3
    weight_filler {
      type: "xavier"
    }
    bias_filler {
      type: "constant"
      value: 0
    }
  }
  quant_convolution_param {
    coef_precision: FLOATING_POINT
    bw_params: 8
    shift_enable: false
  }
}
layer {
  name: "quant_relu1_1"
  type: "QuantReLU"
  bottom: "conv1_1"
  top: "conv1_1"
  param {
    lr_mult: 5
  }
  quant_relu_param {
    filler {
      type: "constant"
      value: 31
    }
    channel_shared: true
    act_bits: 5
    quant_enable: false
  }
}
layer {
  name: "conv1_2"
  type: "QuantConvolution"
  bottom: "conv1_1"
  top: "conv1_2"
  convolution_param {
    num_output: 64
    pad: 1
    kernel_size: 3
    weight_filler {
      type: "xavier"
    }
    bias_filler {
      type: "constant"
      value: 0
    }
  }
  quant_convolution_param {
    coef_precision: FLOATING_POINT
    bw_params: 8
    shift_enable: false
  }
}
layer {
  name: "quant_relu1_2"
  type: "QuantReLU"
  bottom: "conv1_2"
  top: "conv1_2"
  param {
    lr_mult: 5
  }
  quant_relu_param {
    filler {
      type: "constant"
      value: 31
    }
    channel_shared: true
    act_bits: 5
    quant_enable: false
  }
}
layer {
  name: "pool1"
  type: "Pooling"
  bottom: "conv1_2"
  top: "pool1"
  pooling_param {
    pool: MAX
    kernel_size: 2
    stride: 2
  }
}
layer {
  name: "conv2_1"
  type: "QuantConvolution"
  bottom: "pool1"
  top: "conv2_1"
  convolution_param {
    num_output: 128
    pad: 1
    kernel_size: 3
    weight_filler {
      type: "xavier"
    }
    bias_filler {
      type: "constant"
      value: 0
    }
  }
  quant_convolution_param {
    coef_precision: FLOATING_POINT
    bw_params: 8
    shift_enable: false
  }
}
layer {
  name: "quant_relu2_1"
  type: "QuantReLU"
  bottom: "conv2_1"
  top: "conv2_1"
  param {
    lr_mult: 5
  }
  quant_relu_param {
    filler {
      type: "constant"
      value: 65.934
    }
    channel_shared: true
    act_bits: 5
    quant_enable: false
  }
}
layer {
  name: "conv2_2"
  type: "QuantConvolution"
  bottom: "conv2_1"
  top: "conv2_2"
  convolution_param {
    num_output: 128
    pad: 1
    kernel_size: 3
    weight_filler {
      type: "xavier"
    }
    bias_filler {
      type: "constant"
      value: 0
    }
  }
  quant_convolution_param {
    coef_precision: FLOATING_POINT
    bw_params: 8
    shift_enable: false
  }
}
layer {
  name: "quant_relu2_2"
  type: "QuantReLU"
  bottom: "conv2_2"
  top: "conv2_2"
  param {
    lr_mult: 5
  }
  quant_relu_param {
    filler {
      type: "constant"
      value: 107.992
    }
    channel_shared: true
    act_bits: 5
    quant_enable: false
  }
}
layer {
  name: "pool2"
  type: "Pooling"
  bottom: "conv2_2"
  top: "pool2"
  pooling_param {
    pool: MAX
    kernel_size: 2
    stride: 2
  }
}
layer {
  name: "conv3_1"
  type: "QuantConvolution"
  bottom: "pool2"
  top: "conv3_1"
  convolution_param {
    num_output: 256
    pad: 1
    kernel_size: 3
    weight_filler {
      type: "xavier"
    }
    bias_filler {
      type: "constant"
      value: 0
    }
  }
  quant_convolution_param {
    coef_precision: FLOATING_POINT
    bw_params: 8
    shift_enable: false
  }
}
layer {
  name: "quant_relu3_1"
  type: "QuantReLU"
  bottom: "conv3_1"
  top: "conv3_1"
  param {
    lr_mult: 5
  }
  quant_relu_param {
    filler {
      type: "constant"
      value: 115.32
    }
    channel_shared: true
    act_bits: 5
    quant_enable: false
  }
}
layer {
  name: "conv3_2"
  type: "QuantConvolution"
  bottom: "conv3_1"
  top: "conv3_2"
  convolution_param {
    num_output: 256
    pad: 1
    kernel_size: 3
    weight_filler {
      type: "xavier"
    }
    bias_filler {
      type: "constant"
      value: 0
    }
  }
  quant_convolution_param {
    coef_precision: THREE_BITS
    bw_params: 8
    shift_enable: false
  }
}
layer {
  name: "quant_relu3_2"
  type: "QuantReLU"
  bottom: "conv3_2"
  top: "conv3_2"
  param {
    lr_mult: 0
  }
  quant_relu_param {
    filler {
      type: "constant"
      value: 31
    }
    channel_shared: true
    act_bits: 5
    quant_enable: false
  }
}
layer {
  name: "conv3_3"
  type: "QuantConvolution"
  bottom: "conv3_2"
  top: "conv3_3"
  convolution_param {
    num_output: 256
    pad: 1
    kernel_size: 3
    weight_filler {
      type: "xavier"
    }
    bias_filler {
      type: "constant"
      value: 0
    }
  }
  quant_convolution_param {
    coef_precision: THREE_BITS
    bw_params: 8
    shift_enable: false
  }
}
layer {
  name: "quant_relu3_3"
  type: "QuantReLU"
  bottom: "conv3_3"
  top: "conv3_3"
  param {
    lr_mult: 0
  }
  quant_relu_param {
    filler {
      type: "constant"
      value: 31
    }
    channel_shared: true
    act_bits: 5
    quant_enable: false
  }
}
layer {
  name: "pool3"
  type: "Pooling"
  bottom: "conv3_3"
  top: "pool3"
  pooling_param {
    pool: MAX
    kernel_size: 2
    stride: 2
  }
}
layer {
  name: "conv4_1"
  type: "QuantConvolution"
  bottom: "pool3"
  top: "conv4_1"
  convolution_param {
    num_output: 512
    pad: 1
    kernel_size: 3
    weight_filler {
      type: "xavier"
    }
    bias_filler {
      type: "constant"
      value: 0
    }
  }
  quant_convolution_param {
    coef_precision: ONE_BIT
    bw_params: 8
    shift_enable: false
  }
}
layer {
  name: "quant_relu4_1"
  type: "QuantReLU"
  bottom: "conv4_1"
  top: "conv4_1"
  param {
    lr_mult: 0
  }
  quant_relu_param {
    filler {
      type: "constant"
      value: 31
    }
    channel_shared: true
    act_bits: 5
    quant_enable: false
  }
}
layer {
  name: "conv4_2"
  type: "QuantConvolution"
  bottom: "conv4_1"
  top: "conv4_2"
  convolution_param {
    num_output: 512
    pad: 1
    kernel_size: 3
    weight_filler {
      type: "xavier"
    }
    bias_filler {
      type: "constant"
      value: 0
    }
  }
  quant_convolution_param {
    coef_precision: ONE_BIT
    bw_params: 8
    shift_enable: false
  }
}
layer {
  name: "quant_relu4_2"
  type: "QuantReLU"
  bottom: "conv4_2"
  top: "conv4_2"
  param {
    lr_mult: 0
  }
  quant_relu_param {
    filler {
      type: "constant"
      value: 31
    }
    channel_shared: true
    act_bits: 5
    quant_enable: false
  }
}
layer {
  name: "conv4_3"
  type: "QuantConvolution"
  bottom: "conv4_2"
  top: "conv4_3"
  convolution_param {
    num_output: 512
    pad: 1
    kernel_size: 3
    weight_filler {
      type: "xavier"
    }
    bias_filler {
      type: "constant"
      value: 0
    }
  }
  quant_convolution_param {
    coef_precision: ONE_BIT
    bw_params: 8
    shift_enable: false
  }
}
layer {
  name: "quant_relu4_3"
  type: "QuantReLU"
  bottom: "conv4_3"
  top: "conv4_3"
  param {
    lr_mult: 0
  }
  quant_relu_param {
    filler {
      type: "constant"
      value: 31
    }
    channel_shared: true
    act_bits: 5
    quant_enable: false
  }
}
layer {
  name: "pool4"
  type: "Pooling"
  bottom: "conv4_3"
  top: "pool4"
  pooling_param {
    pool: MAX
    kernel_size: 2
    stride: 2
  }
}
layer {
  name: "conv5_1"
  type: "QuantConvolution"
  bottom: "pool4"
  top: "conv5_1"
  convolution_param {
    num_output: 512
    pad: 1
    kernel_size: 3
    weight_filler {
      type: "xavier"
    }
    bias_filler {
      type: "constant"
      value: 0
    }
  }
  quant_convolution_param {
    coef_precision: ONE_BIT
    bw_params: 8
    shift_enable: false
  }
}
layer {
  name: "quant_relu5_1"
  type: "QuantReLU"
  bottom: "conv5_1"
  top: "conv5_1"
  param {
    lr_mult: 0
  }
  quant_relu_param {
    filler {
      type: "constant"
      value: 31
    }
    channel_shared: true
    act_bits: 5
    quant_enable: false
  }
}
layer {
  name: "conv5_2"
  type: "QuantConvolution"
  bottom: "conv5_1"
  top: "conv5_2"
  param {
    lr_mult: 1
    decay_mult: 0
  }
  param {
    lr_mult: 1
    decay_mult: 1
  }
  convolution_param {
    num_output: 512
    pad: 1
    kernel_size: 3
    weight_filler {
      type: "xavier"
    }
    bias_filler {
      type: "constant"
      value: 0
    }
  }
  quant_convolution_param {
    coef_precision: ONE_BIT
    bw_params: 8
    shift_enable: false
  }
}
layer {
  name: "quant_relu5_2"
  type: "QuantReLU"
  bottom: "conv5_2"
  top: "conv5_2"
  param {
    lr_mult: 0
  }
  quant_relu_param {
    filler {
      type: "constant"
      value: 31
    }
    channel_shared: true
    act_bits: 5
    quant_enable: false
  }
}
layer {
  name: "conv5_3"
  type: "QuantConvolution"
  bottom: "conv5_2"
  top: "conv5_3"
  param {
    lr_mult: 1
    decay_mult: 0
  }
  param {
    lr_mult: 1
    decay_mult: 200
  }
  convolution_param {
    num_output: 512
    pad: 1
    kernel_size: 3
    weight_filler {
      type: "xavier"
    }
    bias_filler {
      type: "constant"
      value: 0
    }
  }
  quant_convolution_param {
    coef_precision: ONE_BIT
    bw_params: 8
    shift_enable: false
  }
}
layer {
  name: "quant_relu5_3"
  type: "QuantReLU"
  bottom: "conv5_3"
  top: "conv5_3"
  param {
    lr_mult: 5
  }
  quant_relu_param {
    filler {
      type: "constant"
      value: 29.225
    }
    channel_shared: true
    act_bits: 5
    quant_enable: false
  }
}
layer {
  name: "pool5"
  type: "Pooling"
  bottom: "conv5_3"
  top: "pool5"
  pooling_param {
    pool: MAX
    kernel_size: 2
    stride: 2
  }
}
layer {
  name: "ip6"
  type: "Convolution"
  bottom: "pool5"
  top: "ip6"
  param {
    lr_mult: 1
    decay_mult: 1
  }
  param {
    lr_mult: 2
    decay_mult: 0
  }
  convolution_param {
    num_output: 512
    pad: 1
    kernel_size: 3
    weight_filler {
      type: "xavier"
    }
    bias_filler {
      type: "constant"
      value: 0
    }
  }
}
layer {
  name: "relu6"
  type: "ReLU"
  bottom: "ip6"
  top: "ip6"
}
layer {
  name: "ip7"
  type: "Convolution"
  bottom: "ip6"
  top: "ip7"
  param {
    lr_mult: 1
    decay_mult: 1
  }
  param {
    lr_mult: 2
    decay_mult: 0
  }
  convolution_param {
    num_output: 512
    kernel_size: 1
    weight_filler {
      type: "xavier"
    }
    bias_filler {
      type: "constant"
      value: 0
    }
  }
}
layer {
  name: "relu7"
  type: "ReLU"
  bottom: "ip7"
  top: "ip7"
}
layer {
  name: "ip7_mbox_loc"
  type: "Convolution"
  bottom: "ip7"
  top: "ip7_mbox_loc"
  param {
    lr_mult: 1
    decay_mult: 1
  }
  param {
    lr_mult: 2
    decay_mult: 0
  }
  convolution_param {
    num_output: 24
    pad: 1
    kernel_size: 3
    stride: 1
    weight_filler {
      type: "xavier"
    }
    bias_filler {
      type: "constant"
      value: 0
    }
  }
}
layer {
  name: "ip7_mbox_loc_perm"
  type: "Permute"
  bottom: "ip7_mbox_loc"
  top: "ip7_mbox_loc_perm"
  permute_param {
    order: 0
    order: 2
    order: 3
    order: 1
  }
}
layer {
  name: "ip7_mbox_loc_flat"
  type: "Flatten"
  bottom: "ip7_mbox_loc_perm"
  top: "ip7_mbox_loc_flat"
  flatten_param {
    axis: 1
  }
}
layer {
  name: "ip7_mbox_conf"
  type: "Convolution"
  bottom: "ip7"
  top: "ip7_mbox_conf"
  param {
    lr_mult: 1
    decay_mult: 1
  }
  param {
    lr_mult: 2
    decay_mult: 0
  }
  convolution_param {
    num_output: 36
    pad: 1
    kernel_size: 3
    stride: 1
    weight_filler {
      type: "xavier"
    }
    bias_filler {
      type: "constant"
      value: 0
    }
  }
}
layer {
  name: "ip7_mbox_conf_perm"
  type: "Permute"
  bottom: "ip7_mbox_conf"
  top: "ip7_mbox_conf_perm"
  permute_param {
    order: 0
    order: 2
    order: 3
    order: 1
  }
}
layer {
  name: "ip7_mbox_conf_flat"
  type: "Flatten"
  bottom: "ip7_mbox_conf_perm"
  top: "ip7_mbox_conf_flat"
  flatten_param {
    axis: 1
  }
}
layer {
  name: "ip7_mbox_priorbox"
  type: "PriorBox"
  bottom: "ip7"
  bottom: "data"
  top: "ip7_mbox_priorbox"
  prior_box_param {
    min_size: 20
    max_size: 210
    aspect_ratio: 2
    aspect_ratio: 3
    flip: true
    clip: false
    variance: 0.1
    variance: 0.1
    variance: 0.2
    variance: 0.2
    step: 32
    offset: 0.5
  }
}
layer {
  name: "mbox_loc"
  type: "Concat"
  bottom: "ip7_mbox_loc_flat"
  top: "mbox_loc"
  concat_param {
    axis: 1
  }
}
layer {
  name: "mbox_conf"
  type: "Concat"
  bottom: "ip7_mbox_conf_flat"
  top: "mbox_conf"
  concat_param {
    axis: 1
  }
}
layer {
  name: "mbox_priorbox"
  type: "Concat"
  bottom: "ip7_mbox_priorbox"
  top: "mbox_priorbox"
  concat_param {
    axis: 2
  }
}
layer {
  name: "mbox_conf_reshape"
  type: "Reshape"
  bottom: "mbox_conf"
  top: "mbox_conf_reshape"
  reshape_param {
    shape {
      dim: 0
      dim: -1
      dim: 6
    }
  }
}
layer {
  name: "mbox_conf_softmax"
  type: "Softmax"
  bottom: "mbox_conf_reshape"
  top: "mbox_conf_softmax"
  softmax_param {
    axis: 2
  }
}
layer {
  name: "mbox_conf_flatten"
  type: "Flatten"
  bottom: "mbox_conf_softmax"
  top: "mbox_conf_flatten"
  flatten_param {
    axis: 1
  }
}
layer {
  name: "detection_out"
  type: "DetectionOutput"
  bottom: "mbox_loc"
  bottom: "mbox_conf_flatten"
  bottom: "mbox_priorbox"
  top: "detection_out"
  include {
    phase: TEST
  }
  detection_output_param {
    num_classes: 6
    share_location: true
    background_label_id: 0
    nms_param {
      nms_threshold: 0.45
      top_k: 400
    }
    code_type: CENTER_SIZE
    keep_top_k: 200
    confidence_threshold: 0.01
  }
}
layer {
  name: "detection_eval"
  type: "DetectionEvaluate"
  bottom: "detection_out"
  bottom: "label"
  top: "detection_eval"
  include {
    phase: TEST
  }
  detection_evaluate_param {
    num_classes: 6
    background_label_id: 0
    overlap_threshold: 0.5
    evaluate_difficult_gt: false
    name_size_file: "/home/zhangwanchun/data/VOCdevkit/VOC0712/lmdb/test_name_size.txt"
  }
}
I0512 21:25:39.442670 17115 layer_factory.hpp:77] Creating layer data
I0512 21:25:39.442746 17115 net.cpp:100] Creating Layer data
I0512 21:25:39.442759 17115 net.cpp:408] data -> data
I0512 21:25:39.442766 17115 net.cpp:408] data -> label
I0512 21:25:39.444175 17155 db_lmdb.cpp:35] Opened lmdb /home/zhangwanchun/data/VOCdevkit/VOC0712/lmdb/VOC0712_test_lmdb
I0512 21:25:39.445621 17115 annotated_data_layer.cpp:62] output data size: 10,3,224,224
I0512 21:25:39.451503 17115 net.cpp:150] Setting up data
I0512 21:25:39.451519 17115 net.cpp:157] Top shape: 10 3 224 224 (1505280)
I0512 21:25:39.451524 17115 net.cpp:157] Top shape: 1 1 1 8 (8)
I0512 21:25:39.451537 17115 net.cpp:165] Memory required for data: 6021152
I0512 21:25:39.451544 17115 layer_factory.hpp:77] Creating layer data_data_0_split
I0512 21:25:39.451551 17115 net.cpp:100] Creating Layer data_data_0_split
I0512 21:25:39.451555 17115 net.cpp:434] data_data_0_split <- data
I0512 21:25:39.451560 17115 net.cpp:408] data_data_0_split -> data_data_0_split_0
I0512 21:25:39.451568 17115 net.cpp:408] data_data_0_split -> data_data_0_split_1
I0512 21:25:39.451607 17115 net.cpp:150] Setting up data_data_0_split
I0512 21:25:39.451612 17115 net.cpp:157] Top shape: 10 3 224 224 (1505280)
I0512 21:25:39.451614 17115 net.cpp:157] Top shape: 10 3 224 224 (1505280)
I0512 21:25:39.451617 17115 net.cpp:165] Memory required for data: 18063392
I0512 21:25:39.451618 17115 layer_factory.hpp:77] Creating layer conv1_1
I0512 21:25:39.451625 17115 net.cpp:100] Creating Layer conv1_1
I0512 21:25:39.451628 17115 net.cpp:434] conv1_1 <- data_data_0_split_0
I0512 21:25:39.451632 17115 net.cpp:408] conv1_1 -> conv1_1
I0512 21:25:39.451932 17115 net.cpp:150] Setting up conv1_1
I0512 21:25:39.451938 17115 net.cpp:157] Top shape: 10 64 224 224 (32112640)
I0512 21:25:39.451941 17115 net.cpp:165] Memory required for data: 146513952
I0512 21:25:39.451947 17115 layer_factory.hpp:77] Creating layer quant_relu1_1
I0512 21:25:39.451952 17115 net.cpp:100] Creating Layer quant_relu1_1
I0512 21:25:39.451956 17115 net.cpp:434] quant_relu1_1 <- conv1_1
I0512 21:25:39.451958 17115 net.cpp:395] quant_relu1_1 -> conv1_1 (in-place)
I0512 21:25:39.455211 17115 net.cpp:150] Setting up quant_relu1_1
I0512 21:25:39.455224 17115 net.cpp:157] Top shape: 10 64 224 224 (32112640)
I0512 21:25:39.455226 17115 net.cpp:165] Memory required for data: 274964512
I0512 21:25:39.455235 17115 layer_factory.hpp:77] Creating layer conv1_2
I0512 21:25:39.455242 17115 net.cpp:100] Creating Layer conv1_2
I0512 21:25:39.455245 17115 net.cpp:434] conv1_2 <- conv1_1
I0512 21:25:39.455250 17115 net.cpp:408] conv1_2 -> conv1_2
I0512 21:25:39.455608 17115 net.cpp:150] Setting up conv1_2
I0512 21:25:39.455613 17115 net.cpp:157] Top shape: 10 64 224 224 (32112640)
I0512 21:25:39.455615 17115 net.cpp:165] Memory required for data: 403415072
I0512 21:25:39.455621 17115 layer_factory.hpp:77] Creating layer quant_relu1_2
I0512 21:25:39.455626 17115 net.cpp:100] Creating Layer quant_relu1_2
I0512 21:25:39.455629 17115 net.cpp:434] quant_relu1_2 <- conv1_2
I0512 21:25:39.455632 17115 net.cpp:395] quant_relu1_2 -> conv1_2 (in-place)
I0512 21:25:39.459125 17115 net.cpp:150] Setting up quant_relu1_2
I0512 21:25:39.459139 17115 net.cpp:157] Top shape: 10 64 224 224 (32112640)
I0512 21:25:39.459141 17115 net.cpp:165] Memory required for data: 531865632
I0512 21:25:39.459147 17115 layer_factory.hpp:77] Creating layer pool1
I0512 21:25:39.459156 17115 net.cpp:100] Creating Layer pool1
I0512 21:25:39.459157 17115 net.cpp:434] pool1 <- conv1_2
I0512 21:25:39.459162 17115 net.cpp:408] pool1 -> pool1
I0512 21:25:39.459206 17115 net.cpp:150] Setting up pool1
I0512 21:25:39.459211 17115 net.cpp:157] Top shape: 10 64 112 112 (8028160)
I0512 21:25:39.459213 17115 net.cpp:165] Memory required for data: 563978272
I0512 21:25:39.459215 17115 layer_factory.hpp:77] Creating layer conv2_1
I0512 21:25:39.459220 17115 net.cpp:100] Creating Layer conv2_1
I0512 21:25:39.459223 17115 net.cpp:434] conv2_1 <- pool1
I0512 21:25:39.459228 17115 net.cpp:408] conv2_1 -> conv2_1
I0512 21:25:39.459689 17115 net.cpp:150] Setting up conv2_1
I0512 21:25:39.459694 17115 net.cpp:157] Top shape: 10 128 112 112 (16056320)
I0512 21:25:39.459697 17115 net.cpp:165] Memory required for data: 628203552
I0512 21:25:39.459700 17115 layer_factory.hpp:77] Creating layer quant_relu2_1
I0512 21:25:39.459707 17115 net.cpp:100] Creating Layer quant_relu2_1
I0512 21:25:39.459709 17115 net.cpp:434] quant_relu2_1 <- conv2_1
I0512 21:25:39.459713 17115 net.cpp:395] quant_relu2_1 -> conv2_1 (in-place)
I0512 21:25:39.461506 17115 net.cpp:150] Setting up quant_relu2_1
I0512 21:25:39.461515 17115 net.cpp:157] Top shape: 10 128 112 112 (16056320)
I0512 21:25:39.461530 17115 net.cpp:165] Memory required for data: 692428832
I0512 21:25:39.461537 17115 layer_factory.hpp:77] Creating layer conv2_2
I0512 21:25:39.461542 17115 net.cpp:100] Creating Layer conv2_2
I0512 21:25:39.461545 17115 net.cpp:434] conv2_2 <- conv2_1
I0512 21:25:39.461549 17115 net.cpp:408] conv2_2 -> conv2_2
I0512 21:25:39.462265 17115 net.cpp:150] Setting up conv2_2
I0512 21:25:39.462271 17115 net.cpp:157] Top shape: 10 128 112 112 (16056320)
I0512 21:25:39.462273 17115 net.cpp:165] Memory required for data: 756654112
I0512 21:25:39.462277 17115 layer_factory.hpp:77] Creating layer quant_relu2_2
I0512 21:25:39.462281 17115 net.cpp:100] Creating Layer quant_relu2_2
I0512 21:25:39.462285 17115 net.cpp:434] quant_relu2_2 <- conv2_2
I0512 21:25:39.462287 17115 net.cpp:395] quant_relu2_2 -> conv2_2 (in-place)
I0512 21:25:39.464061 17115 net.cpp:150] Setting up quant_relu2_2
I0512 21:25:39.464074 17115 net.cpp:157] Top shape: 10 128 112 112 (16056320)
I0512 21:25:39.464077 17115 net.cpp:165] Memory required for data: 820879392
I0512 21:25:39.464082 17115 layer_factory.hpp:77] Creating layer pool2
I0512 21:25:39.464087 17115 net.cpp:100] Creating Layer pool2
I0512 21:25:39.464092 17115 net.cpp:434] pool2 <- conv2_2
I0512 21:25:39.464095 17115 net.cpp:408] pool2 -> pool2
I0512 21:25:39.464134 17115 net.cpp:150] Setting up pool2
I0512 21:25:39.464139 17115 net.cpp:157] Top shape: 10 128 56 56 (4014080)
I0512 21:25:39.464143 17115 net.cpp:165] Memory required for data: 836935712
I0512 21:25:39.464144 17115 layer_factory.hpp:77] Creating layer conv3_1
I0512 21:25:39.464148 17115 net.cpp:100] Creating Layer conv3_1
I0512 21:25:39.464151 17115 net.cpp:434] conv3_1 <- pool2
I0512 21:25:39.464155 17115 net.cpp:408] conv3_1 -> conv3_1
I0512 21:25:39.466079 17115 net.cpp:150] Setting up conv3_1
I0512 21:25:39.466090 17115 net.cpp:157] Top shape: 10 256 56 56 (8028160)
I0512 21:25:39.466094 17115 net.cpp:165] Memory required for data: 869048352
I0512 21:25:39.466100 17115 layer_factory.hpp:77] Creating layer quant_relu3_1
I0512 21:25:39.466107 17115 net.cpp:100] Creating Layer quant_relu3_1
I0512 21:25:39.466111 17115 net.cpp:434] quant_relu3_1 <- conv3_1
I0512 21:25:39.466117 17115 net.cpp:395] quant_relu3_1 -> conv3_1 (in-place)
I0512 21:25:39.467105 17115 net.cpp:150] Setting up quant_relu3_1
I0512 21:25:39.467113 17115 net.cpp:157] Top shape: 10 256 56 56 (8028160)
I0512 21:25:39.467116 17115 net.cpp:165] Memory required for data: 901160992
I0512 21:25:39.467119 17115 layer_factory.hpp:77] Creating layer conv3_2
I0512 21:25:39.467125 17115 net.cpp:100] Creating Layer conv3_2
I0512 21:25:39.467128 17115 net.cpp:434] conv3_2 <- conv3_1
I0512 21:25:39.467131 17115 net.cpp:408] conv3_2 -> conv3_2
I0512 21:25:39.469949 17115 net.cpp:150] Setting up conv3_2
I0512 21:25:39.469960 17115 net.cpp:157] Top shape: 10 256 56 56 (8028160)
I0512 21:25:39.469962 17115 net.cpp:165] Memory required for data: 933273632
I0512 21:25:39.469969 17115 layer_factory.hpp:77] Creating layer quant_relu3_2
I0512 21:25:39.469974 17115 net.cpp:100] Creating Layer quant_relu3_2
I0512 21:25:39.469976 17115 net.cpp:434] quant_relu3_2 <- conv3_2
I0512 21:25:39.469980 17115 net.cpp:395] quant_relu3_2 -> conv3_2 (in-place)
I0512 21:25:39.470968 17115 net.cpp:150] Setting up quant_relu3_2
I0512 21:25:39.470975 17115 net.cpp:157] Top shape: 10 256 56 56 (8028160)
I0512 21:25:39.470978 17115 net.cpp:165] Memory required for data: 965386272
I0512 21:25:39.470981 17115 layer_factory.hpp:77] Creating layer conv3_3
I0512 21:25:39.470988 17115 net.cpp:100] Creating Layer conv3_3
I0512 21:25:39.470990 17115 net.cpp:434] conv3_3 <- conv3_2
I0512 21:25:39.470994 17115 net.cpp:408] conv3_3 -> conv3_3
I0512 21:25:39.473870 17115 net.cpp:150] Setting up conv3_3
I0512 21:25:39.473879 17115 net.cpp:157] Top shape: 10 256 56 56 (8028160)
I0512 21:25:39.473881 17115 net.cpp:165] Memory required for data: 997498912
I0512 21:25:39.473886 17115 layer_factory.hpp:77] Creating layer quant_relu3_3
I0512 21:25:39.473891 17115 net.cpp:100] Creating Layer quant_relu3_3
I0512 21:25:39.473901 17115 net.cpp:434] quant_relu3_3 <- conv3_3
I0512 21:25:39.473906 17115 net.cpp:395] quant_relu3_3 -> conv3_3 (in-place)
I0512 21:25:39.474925 17115 net.cpp:150] Setting up quant_relu3_3
I0512 21:25:39.474932 17115 net.cpp:157] Top shape: 10 256 56 56 (8028160)
I0512 21:25:39.474934 17115 net.cpp:165] Memory required for data: 1029611552
I0512 21:25:39.474938 17115 layer_factory.hpp:77] Creating layer pool3
I0512 21:25:39.474944 17115 net.cpp:100] Creating Layer pool3
I0512 21:25:39.474946 17115 net.cpp:434] pool3 <- conv3_3
I0512 21:25:39.474951 17115 net.cpp:408] pool3 -> pool3
I0512 21:25:39.474989 17115 net.cpp:150] Setting up pool3
I0512 21:25:39.474997 17115 net.cpp:157] Top shape: 10 256 28 28 (2007040)
I0512 21:25:39.474998 17115 net.cpp:165] Memory required for data: 1037639712
I0512 21:25:39.475001 17115 layer_factory.hpp:77] Creating layer conv4_1
I0512 21:25:39.475005 17115 net.cpp:100] Creating Layer conv4_1
I0512 21:25:39.475008 17115 net.cpp:434] conv4_1 <- pool3
I0512 21:25:39.475011 17115 net.cpp:408] conv4_1 -> conv4_1
I0512 21:25:39.480302 17115 net.cpp:150] Setting up conv4_1
I0512 21:25:39.480312 17115 net.cpp:157] Top shape: 10 512 28 28 (4014080)
I0512 21:25:39.480315 17115 net.cpp:165] Memory required for data: 1053696032
I0512 21:25:39.480320 17115 layer_factory.hpp:77] Creating layer quant_relu4_1
I0512 21:25:39.480325 17115 net.cpp:100] Creating Layer quant_relu4_1
I0512 21:25:39.480329 17115 net.cpp:434] quant_relu4_1 <- conv4_1
I0512 21:25:39.480332 17115 net.cpp:395] quant_relu4_1 -> conv4_1 (in-place)
I0512 21:25:39.481112 17115 net.cpp:150] Setting up quant_relu4_1
I0512 21:25:39.481119 17115 net.cpp:157] Top shape: 10 512 28 28 (4014080)
I0512 21:25:39.481122 17115 net.cpp:165] Memory required for data: 1069752352
I0512 21:25:39.481125 17115 layer_factory.hpp:77] Creating layer conv4_2
I0512 21:25:39.481132 17115 net.cpp:100] Creating Layer conv4_2
I0512 21:25:39.481133 17115 net.cpp:434] conv4_2 <- conv4_1
I0512 21:25:39.481137 17115 net.cpp:408] conv4_2 -> conv4_2
I0512 21:25:39.491463 17115 net.cpp:150] Setting up conv4_2
I0512 21:25:39.491479 17115 net.cpp:157] Top shape: 10 512 28 28 (4014080)
I0512 21:25:39.491482 17115 net.cpp:165] Memory required for data: 1085808672
I0512 21:25:39.491487 17115 layer_factory.hpp:77] Creating layer quant_relu4_2
I0512 21:25:39.491492 17115 net.cpp:100] Creating Layer quant_relu4_2
I0512 21:25:39.491497 17115 net.cpp:434] quant_relu4_2 <- conv4_2
I0512 21:25:39.491500 17115 net.cpp:395] quant_relu4_2 -> conv4_2 (in-place)
I0512 21:25:39.492295 17115 net.cpp:150] Setting up quant_relu4_2
I0512 21:25:39.492302 17115 net.cpp:157] Top shape: 10 512 28 28 (4014080)
I0512 21:25:39.492305 17115 net.cpp:165] Memory required for data: 1101864992
I0512 21:25:39.492308 17115 layer_factory.hpp:77] Creating layer conv4_3
I0512 21:25:39.492313 17115 net.cpp:100] Creating Layer conv4_3
I0512 21:25:39.492316 17115 net.cpp:434] conv4_3 <- conv4_2
I0512 21:25:39.492319 17115 net.cpp:408] conv4_3 -> conv4_3
I0512 21:25:39.503063 17115 net.cpp:150] Setting up conv4_3
I0512 21:25:39.503078 17115 net.cpp:157] Top shape: 10 512 28 28 (4014080)
I0512 21:25:39.503082 17115 net.cpp:165] Memory required for data: 1117921312
I0512 21:25:39.503087 17115 layer_factory.hpp:77] Creating layer quant_relu4_3
I0512 21:25:39.503094 17115 net.cpp:100] Creating Layer quant_relu4_3
I0512 21:25:39.503098 17115 net.cpp:434] quant_relu4_3 <- conv4_3
I0512 21:25:39.503103 17115 net.cpp:395] quant_relu4_3 -> conv4_3 (in-place)
I0512 21:25:39.504173 17115 net.cpp:150] Setting up quant_relu4_3
I0512 21:25:39.504181 17115 net.cpp:157] Top shape: 10 512 28 28 (4014080)
I0512 21:25:39.504184 17115 net.cpp:165] Memory required for data: 1133977632
I0512 21:25:39.504189 17115 layer_factory.hpp:77] Creating layer pool4
I0512 21:25:39.504194 17115 net.cpp:100] Creating Layer pool4
I0512 21:25:39.504195 17115 net.cpp:434] pool4 <- conv4_3
I0512 21:25:39.504199 17115 net.cpp:408] pool4 -> pool4
I0512 21:25:39.504232 17115 net.cpp:150] Setting up pool4
I0512 21:25:39.504236 17115 net.cpp:157] Top shape: 10 512 14 14 (1003520)
I0512 21:25:39.504248 17115 net.cpp:165] Memory required for data: 1137991712
I0512 21:25:39.504251 17115 layer_factory.hpp:77] Creating layer conv5_1
I0512 21:25:39.504256 17115 net.cpp:100] Creating Layer conv5_1
I0512 21:25:39.504257 17115 net.cpp:434] conv5_1 <- pool4
I0512 21:25:39.504261 17115 net.cpp:408] conv5_1 -> conv5_1
I0512 21:25:39.514441 17115 net.cpp:150] Setting up conv5_1
I0512 21:25:39.514453 17115 net.cpp:157] Top shape: 10 512 14 14 (1003520)
I0512 21:25:39.514456 17115 net.cpp:165] Memory required for data: 1142005792
I0512 21:25:39.514461 17115 layer_factory.hpp:77] Creating layer quant_relu5_1
I0512 21:25:39.514466 17115 net.cpp:100] Creating Layer quant_relu5_1
I0512 21:25:39.514469 17115 net.cpp:434] quant_relu5_1 <- conv5_1
I0512 21:25:39.514474 17115 net.cpp:395] quant_relu5_1 -> conv5_1 (in-place)
I0512 21:25:39.514585 17115 net.cpp:150] Setting up quant_relu5_1
I0512 21:25:39.514590 17115 net.cpp:157] Top shape: 10 512 14 14 (1003520)
I0512 21:25:39.514591 17115 net.cpp:165] Memory required for data: 1146019872
I0512 21:25:39.514600 17115 layer_factory.hpp:77] Creating layer conv5_2
I0512 21:25:39.514607 17115 net.cpp:100] Creating Layer conv5_2
I0512 21:25:39.514611 17115 net.cpp:434] conv5_2 <- conv5_1
I0512 21:25:39.514616 17115 net.cpp:408] conv5_2 -> conv5_2
I0512 21:25:39.524848 17115 net.cpp:150] Setting up conv5_2
I0512 21:25:39.524861 17115 net.cpp:157] Top shape: 10 512 14 14 (1003520)
I0512 21:25:39.524863 17115 net.cpp:165] Memory required for data: 1150033952
I0512 21:25:39.524868 17115 layer_factory.hpp:77] Creating layer quant_relu5_2
I0512 21:25:39.524875 17115 net.cpp:100] Creating Layer quant_relu5_2
I0512 21:25:39.524878 17115 net.cpp:434] quant_relu5_2 <- conv5_2
I0512 21:25:39.524883 17115 net.cpp:395] quant_relu5_2 -> conv5_2 (in-place)
I0512 21:25:39.524996 17115 net.cpp:150] Setting up quant_relu5_2
I0512 21:25:39.525000 17115 net.cpp:157] Top shape: 10 512 14 14 (1003520)
I0512 21:25:39.525002 17115 net.cpp:165] Memory required for data: 1154048032
I0512 21:25:39.525005 17115 layer_factory.hpp:77] Creating layer conv5_3
I0512 21:25:39.525012 17115 net.cpp:100] Creating Layer conv5_3
I0512 21:25:39.525014 17115 net.cpp:434] conv5_3 <- conv5_2
I0512 21:25:39.525019 17115 net.cpp:408] conv5_3 -> conv5_3
I0512 21:25:39.535266 17115 net.cpp:150] Setting up conv5_3
I0512 21:25:39.535280 17115 net.cpp:157] Top shape: 10 512 14 14 (1003520)
I0512 21:25:39.535282 17115 net.cpp:165] Memory required for data: 1158062112
I0512 21:25:39.535287 17115 layer_factory.hpp:77] Creating layer quant_relu5_3
I0512 21:25:39.535293 17115 net.cpp:100] Creating Layer quant_relu5_3
I0512 21:25:39.535297 17115 net.cpp:434] quant_relu5_3 <- conv5_3
I0512 21:25:39.535305 17115 net.cpp:395] quant_relu5_3 -> conv5_3 (in-place)
I0512 21:25:39.535418 17115 net.cpp:150] Setting up quant_relu5_3
I0512 21:25:39.535423 17115 net.cpp:157] Top shape: 10 512 14 14 (1003520)
I0512 21:25:39.535426 17115 net.cpp:165] Memory required for data: 1162076192
I0512 21:25:39.535429 17115 layer_factory.hpp:77] Creating layer pool5
I0512 21:25:39.535437 17115 net.cpp:100] Creating Layer pool5
I0512 21:25:39.535440 17115 net.cpp:434] pool5 <- conv5_3
I0512 21:25:39.535444 17115 net.cpp:408] pool5 -> pool5
I0512 21:25:39.535476 17115 net.cpp:150] Setting up pool5
I0512 21:25:39.535480 17115 net.cpp:157] Top shape: 10 512 7 7 (250880)
I0512 21:25:39.535482 17115 net.cpp:165] Memory required for data: 1163079712
I0512 21:25:39.535485 17115 layer_factory.hpp:77] Creating layer ip6
I0512 21:25:39.535492 17115 net.cpp:100] Creating Layer ip6
I0512 21:25:39.535495 17115 net.cpp:434] ip6 <- pool5
I0512 21:25:39.535498 17115 net.cpp:408] ip6 -> ip6
I0512 21:25:39.547633 17115 net.cpp:150] Setting up ip6
I0512 21:25:39.547647 17115 net.cpp:157] Top shape: 10 512 7 7 (250880)
I0512 21:25:39.547649 17115 net.cpp:165] Memory required for data: 1164083232
I0512 21:25:39.547654 17115 layer_factory.hpp:77] Creating layer relu6
I0512 21:25:39.547662 17115 net.cpp:100] Creating Layer relu6
I0512 21:25:39.547677 17115 net.cpp:434] relu6 <- ip6
I0512 21:25:39.547682 17115 net.cpp:395] relu6 -> ip6 (in-place)
I0512 21:25:39.548045 17115 net.cpp:150] Setting up relu6
I0512 21:25:39.548054 17115 net.cpp:157] Top shape: 10 512 7 7 (250880)
I0512 21:25:39.548056 17115 net.cpp:165] Memory required for data: 1165086752
I0512 21:25:39.548058 17115 layer_factory.hpp:77] Creating layer ip7
I0512 21:25:39.548065 17115 net.cpp:100] Creating Layer ip7
I0512 21:25:39.548069 17115 net.cpp:434] ip7 <- ip6
I0512 21:25:39.548074 17115 net.cpp:408] ip7 -> ip7
I0512 21:25:39.552312 17115 net.cpp:150] Setting up ip7
I0512 21:25:39.552321 17115 net.cpp:157] Top shape: 10 512 7 7 (250880)
I0512 21:25:39.552325 17115 net.cpp:165] Memory required for data: 1166090272
I0512 21:25:39.552328 17115 layer_factory.hpp:77] Creating layer relu7
I0512 21:25:39.552332 17115 net.cpp:100] Creating Layer relu7
I0512 21:25:39.552335 17115 net.cpp:434] relu7 <- ip7
I0512 21:25:39.552340 17115 net.cpp:395] relu7 -> ip7 (in-place)
I0512 21:25:39.552752 17115 net.cpp:150] Setting up relu7
I0512 21:25:39.552760 17115 net.cpp:157] Top shape: 10 512 7 7 (250880)
I0512 21:25:39.552762 17115 net.cpp:165] Memory required for data: 1167093792
I0512 21:25:39.552765 17115 layer_factory.hpp:77] Creating layer ip7_relu7_0_split
I0512 21:25:39.552770 17115 net.cpp:100] Creating Layer ip7_relu7_0_split
I0512 21:25:39.552772 17115 net.cpp:434] ip7_relu7_0_split <- ip7
I0512 21:25:39.552775 17115 net.cpp:408] ip7_relu7_0_split -> ip7_relu7_0_split_0
I0512 21:25:39.552780 17115 net.cpp:408] ip7_relu7_0_split -> ip7_relu7_0_split_1
I0512 21:25:39.552785 17115 net.cpp:408] ip7_relu7_0_split -> ip7_relu7_0_split_2
I0512 21:25:39.552834 17115 net.cpp:150] Setting up ip7_relu7_0_split
I0512 21:25:39.552839 17115 net.cpp:157] Top shape: 10 512 7 7 (250880)
I0512 21:25:39.552842 17115 net.cpp:157] Top shape: 10 512 7 7 (250880)
I0512 21:25:39.552845 17115 net.cpp:157] Top shape: 10 512 7 7 (250880)
I0512 21:25:39.552846 17115 net.cpp:165] Memory required for data: 1170104352
I0512 21:25:39.552848 17115 layer_factory.hpp:77] Creating layer ip7_mbox_loc
I0512 21:25:39.552855 17115 net.cpp:100] Creating Layer ip7_mbox_loc
I0512 21:25:39.552857 17115 net.cpp:434] ip7_mbox_loc <- ip7_relu7_0_split_0
I0512 21:25:39.552862 17115 net.cpp:408] ip7_mbox_loc -> ip7_mbox_loc
I0512 21:25:39.555145 17115 net.cpp:150] Setting up ip7_mbox_loc
I0512 21:25:39.555153 17115 net.cpp:157] Top shape: 10 24 7 7 (11760)
I0512 21:25:39.555156 17115 net.cpp:165] Memory required for data: 1170151392
I0512 21:25:39.555160 17115 layer_factory.hpp:77] Creating layer ip7_mbox_loc_perm
I0512 21:25:39.555166 17115 net.cpp:100] Creating Layer ip7_mbox_loc_perm
I0512 21:25:39.555168 17115 net.cpp:434] ip7_mbox_loc_perm <- ip7_mbox_loc
I0512 21:25:39.555172 17115 net.cpp:408] ip7_mbox_loc_perm -> ip7_mbox_loc_perm
I0512 21:25:39.555271 17115 net.cpp:150] Setting up ip7_mbox_loc_perm
I0512 21:25:39.555276 17115 net.cpp:157] Top shape: 10 7 7 24 (11760)
I0512 21:25:39.555279 17115 net.cpp:165] Memory required for data: 1170198432
I0512 21:25:39.555281 17115 layer_factory.hpp:77] Creating layer ip7_mbox_loc_flat
I0512 21:25:39.555284 17115 net.cpp:100] Creating Layer ip7_mbox_loc_flat
I0512 21:25:39.555286 17115 net.cpp:434] ip7_mbox_loc_flat <- ip7_mbox_loc_perm
I0512 21:25:39.555291 17115 net.cpp:408] ip7_mbox_loc_flat -> ip7_mbox_loc_flat
I0512 21:25:39.555312 17115 net.cpp:150] Setting up ip7_mbox_loc_flat
I0512 21:25:39.555316 17115 net.cpp:157] Top shape: 10 1176 (11760)
I0512 21:25:39.555318 17115 net.cpp:165] Memory required for data: 1170245472
I0512 21:25:39.555321 17115 layer_factory.hpp:77] Creating layer ip7_mbox_conf
I0512 21:25:39.555327 17115 net.cpp:100] Creating Layer ip7_mbox_conf
I0512 21:25:39.555330 17115 net.cpp:434] ip7_mbox_conf <- ip7_relu7_0_split_1
I0512 21:25:39.555335 17115 net.cpp:408] ip7_mbox_conf -> ip7_mbox_conf
I0512 21:25:39.557826 17115 net.cpp:150] Setting up ip7_mbox_conf
I0512 21:25:39.557834 17115 net.cpp:157] Top shape: 10 36 7 7 (17640)
I0512 21:25:39.557837 17115 net.cpp:165] Memory required for data: 1170316032
I0512 21:25:39.557850 17115 layer_factory.hpp:77] Creating layer ip7_mbox_conf_perm
I0512 21:25:39.557857 17115 net.cpp:100] Creating Layer ip7_mbox_conf_perm
I0512 21:25:39.557858 17115 net.cpp:434] ip7_mbox_conf_perm <- ip7_mbox_conf
I0512 21:25:39.557862 17115 net.cpp:408] ip7_mbox_conf_perm -> ip7_mbox_conf_perm
I0512 21:25:39.557960 17115 net.cpp:150] Setting up ip7_mbox_conf_perm
I0512 21:25:39.557966 17115 net.cpp:157] Top shape: 10 7 7 36 (17640)
I0512 21:25:39.557968 17115 net.cpp:165] Memory required for data: 1170386592
I0512 21:25:39.557971 17115 layer_factory.hpp:77] Creating layer ip7_mbox_conf_flat
I0512 21:25:39.557974 17115 net.cpp:100] Creating Layer ip7_mbox_conf_flat
I0512 21:25:39.557977 17115 net.cpp:434] ip7_mbox_conf_flat <- ip7_mbox_conf_perm
I0512 21:25:39.557981 17115 net.cpp:408] ip7_mbox_conf_flat -> ip7_mbox_conf_flat
I0512 21:25:39.558004 17115 net.cpp:150] Setting up ip7_mbox_conf_flat
I0512 21:25:39.558008 17115 net.cpp:157] Top shape: 10 1764 (17640)
I0512 21:25:39.558012 17115 net.cpp:165] Memory required for data: 1170457152
I0512 21:25:39.558013 17115 layer_factory.hpp:77] Creating layer ip7_mbox_priorbox
I0512 21:25:39.558018 17115 net.cpp:100] Creating Layer ip7_mbox_priorbox
I0512 21:25:39.558022 17115 net.cpp:434] ip7_mbox_priorbox <- ip7_relu7_0_split_2
I0512 21:25:39.558024 17115 net.cpp:434] ip7_mbox_priorbox <- data_data_0_split_1
I0512 21:25:39.558028 17115 net.cpp:408] ip7_mbox_priorbox -> ip7_mbox_priorbox
I0512 21:25:39.558050 17115 net.cpp:150] Setting up ip7_mbox_priorbox
I0512 21:25:39.558055 17115 net.cpp:157] Top shape: 1 2 1176 (2352)
I0512 21:25:39.558058 17115 net.cpp:165] Memory required for data: 1170466560
I0512 21:25:39.558059 17115 layer_factory.hpp:77] Creating layer mbox_loc
I0512 21:25:39.558063 17115 net.cpp:100] Creating Layer mbox_loc
I0512 21:25:39.558065 17115 net.cpp:434] mbox_loc <- ip7_mbox_loc_flat
I0512 21:25:39.558069 17115 net.cpp:408] mbox_loc -> mbox_loc
I0512 21:25:39.558089 17115 net.cpp:150] Setting up mbox_loc
I0512 21:25:39.558092 17115 net.cpp:157] Top shape: 10 1176 (11760)
I0512 21:25:39.558094 17115 net.cpp:165] Memory required for data: 1170513600
I0512 21:25:39.558096 17115 layer_factory.hpp:77] Creating layer mbox_conf
I0512 21:25:39.558100 17115 net.cpp:100] Creating Layer mbox_conf
I0512 21:25:39.558102 17115 net.cpp:434] mbox_conf <- ip7_mbox_conf_flat
I0512 21:25:39.558106 17115 net.cpp:408] mbox_conf -> mbox_conf
I0512 21:25:39.558125 17115 net.cpp:150] Setting up mbox_conf
I0512 21:25:39.558128 17115 net.cpp:157] Top shape: 10 1764 (17640)
I0512 21:25:39.558130 17115 net.cpp:165] Memory required for data: 1170584160
I0512 21:25:39.558132 17115 layer_factory.hpp:77] Creating layer mbox_priorbox
I0512 21:25:39.558136 17115 net.cpp:100] Creating Layer mbox_priorbox
I0512 21:25:39.558138 17115 net.cpp:434] mbox_priorbox <- ip7_mbox_priorbox
I0512 21:25:39.558141 17115 net.cpp:408] mbox_priorbox -> mbox_priorbox
I0512 21:25:39.558159 17115 net.cpp:150] Setting up mbox_priorbox
I0512 21:25:39.558163 17115 net.cpp:157] Top shape: 1 2 1176 (2352)
I0512 21:25:39.558166 17115 net.cpp:165] Memory required for data: 1170593568
I0512 21:25:39.558167 17115 layer_factory.hpp:77] Creating layer mbox_conf_reshape
I0512 21:25:39.558171 17115 net.cpp:100] Creating Layer mbox_conf_reshape
I0512 21:25:39.558174 17115 net.cpp:434] mbox_conf_reshape <- mbox_conf
I0512 21:25:39.558178 17115 net.cpp:408] mbox_conf_reshape -> mbox_conf_reshape
I0512 21:25:39.558207 17115 net.cpp:150] Setting up mbox_conf_reshape
I0512 21:25:39.558210 17115 net.cpp:157] Top shape: 10 294 6 (17640)
I0512 21:25:39.558213 17115 net.cpp:165] Memory required for data: 1170664128
I0512 21:25:39.558216 17115 layer_factory.hpp:77] Creating layer mbox_conf_softmax
I0512 21:25:39.558220 17115 net.cpp:100] Creating Layer mbox_conf_softmax
I0512 21:25:39.558223 17115 net.cpp:434] mbox_conf_softmax <- mbox_conf_reshape
I0512 21:25:39.558228 17115 net.cpp:408] mbox_conf_softmax -> mbox_conf_softmax
I0512 21:25:39.559715 17115 net.cpp:150] Setting up mbox_conf_softmax
I0512 21:25:39.559731 17115 net.cpp:157] Top shape: 10 294 6 (17640)
I0512 21:25:39.559733 17115 net.cpp:165] Memory required for data: 1170734688
I0512 21:25:39.559736 17115 layer_factory.hpp:77] Creating layer mbox_conf_flatten
I0512 21:25:39.559741 17115 net.cpp:100] Creating Layer mbox_conf_flatten
I0512 21:25:39.559743 17115 net.cpp:434] mbox_conf_flatten <- mbox_conf_softmax
I0512 21:25:39.559749 17115 net.cpp:408] mbox_conf_flatten -> mbox_conf_flatten
I0512 21:25:39.559772 17115 net.cpp:150] Setting up mbox_conf_flatten
I0512 21:25:39.559777 17115 net.cpp:157] Top shape: 10 1764 (17640)
I0512 21:25:39.559778 17115 net.cpp:165] Memory required for data: 1170805248
I0512 21:25:39.559780 17115 layer_factory.hpp:77] Creating layer detection_out
I0512 21:25:39.559792 17115 net.cpp:100] Creating Layer detection_out
I0512 21:25:39.559794 17115 net.cpp:434] detection_out <- mbox_loc
I0512 21:25:39.559798 17115 net.cpp:434] detection_out <- mbox_conf_flatten
I0512 21:25:39.559799 17115 net.cpp:434] detection_out <- mbox_priorbox
I0512 21:25:39.559803 17115 net.cpp:408] detection_out -> detection_out
11111
I0512 21:25:39.559870 17115 net.cpp:150] Setting up detection_out
I0512 21:25:39.559875 17115 net.cpp:157] Top shape: 1 1 1 7 (7)
I0512 21:25:39.559876 17115 net.cpp:165] Memory required for data: 1170805276
I0512 21:25:39.559880 17115 layer_factory.hpp:77] Creating layer detection_eval
I0512 21:25:39.559885 17115 net.cpp:100] Creating Layer detection_eval
I0512 21:25:39.559886 17115 net.cpp:434] detection_eval <- detection_out
I0512 21:25:39.559890 17115 net.cpp:434] detection_eval <- label
I0512 21:25:39.559893 17115 net.cpp:408] detection_eval -> detection_eval
I0512 21:25:39.559983 17115 net.cpp:150] Setting up detection_eval
I0512 21:25:39.559988 17115 net.cpp:157] Top shape: 1 1 6 5 (30)
I0512 21:25:39.559990 17115 net.cpp:165] Memory required for data: 1170805396
I0512 21:25:39.559993 17115 net.cpp:228] detection_eval does not need backward computation.
I0512 21:25:39.559995 17115 net.cpp:228] detection_out does not need backward computation.
I0512 21:25:39.559998 17115 net.cpp:228] mbox_conf_flatten does not need backward computation.
I0512 21:25:39.560000 17115 net.cpp:228] mbox_conf_softmax does not need backward computation.
…
