…
        max_scale: 1
        min_aspect_ratio: 0.5
        max_aspect_ratio: 2
      }
      sample_constraint {
        min_jaccard_overlap: 0.9
      }
      max_sample: 1
      max_trials: 50
    }
    batch_sampler {
      sampler {
        min_scale: 0.3
        max_scale: 1
        min_aspect_ratio: 0.5
        max_aspect_ratio: 2
      }
      sample_constraint {
        max_jaccard_overlap: 1
      }
      max_sample: 1
      max_trials: 50
    }
    label_map_file: "/home/zhangwanchun/data/VOCdevkit/VOC0712/lmdb/labelmap_voc.prototxt"
  }
}
layer {
  name: "conv1_1"
  type: "QuantConvolution"
  bottom: "data"
  top: "conv1_1"
  convolution_param {
    num_output: 64
    pad: 1
    kernel_size: 3
    weight_filler {
      type: "xavier"
    }
    bias_filler {
      type: "constant"
      value: 0
    }
  }
  quant_convolution_param {
    coef_precision: THREE_BITS
    bw_params: 8
    shift_enable: false
  }
}
layer {
  name: "quant_relu1_1"
  type: "QuantReLU"
  bottom: "conv1_1"
  top: "conv1_1"
  param {
    lr_mult: 0
  }
  quant_relu_param {
    filler {
      type: "constant"
      value: 34.503571
    }
    channel_shared: true
    act_bits: 5
    quant_enable: true
  }
}
layer {
  name: "conv1_2"
  type: "QuantConvolution"
  bottom: "conv1_1"
  top: "conv1_2"
  convolution_param {
    num_output: 64
    pad: 1
    kernel_size: 3
    weight_filler {
      type: "xavier"
    }
    bias_filler {
      type: "constant"
      value: 0
    }
  }
  quant_convolution_param {
    coef_precision: THREE_BITS
    bw_params: 8
    shift_enable: false
  }
}
layer {
  name: "quant_relu1_2"
  type: "QuantReLU"
  bottom: "conv1_2"
  top: "conv1_2"
  param {
    lr_mult: 0
  }
  quant_relu_param {
    filler {
      type: "constant"
      value: 51.192287
    }
    channel_shared: true
    act_bits: 5
    quant_enable: true
  }
}
layer {
  name: "pool1"
  type: "Pooling"
  bottom: "conv1_2"
  top: "pool1"
  pooling_param {
    pool: MAX
    kernel_size: 2
    stride: 2
  }
}
layer {
  name: "conv2_1"
  type: "QuantConvolution"
  bottom: "pool1"
  top: "conv2_1"
  convolution_param {
    num_output: 128
    pad: 1
    kernel_size: 3
    weight_filler {
      type: "xavier"
    }
    bias_filler {
      type: "constant"
      value: 0
    }
  }
  quant_convolution_param {
    coef_precision: THREE_BITS
    bw_params: 8
    shift_enable: false
  }
}
layer {
  name: "quant_relu2_1"
  type: "QuantReLU"
  bottom: "conv2_1"
  top: "conv2_1"
  param {
    lr_mult: 0
  }
  quant_relu_param {
    filler {
      type: "constant"
      value: 41.603291
    }
    channel_shared: true
    act_bits: 5
    quant_enable: true
  }
}
layer {
  name: "conv2_2"
  type: "QuantConvolution"
  bottom: "conv2_1"
  top: "conv2_2"
  convolution_param {
    num_output: 128
    pad: 1
    kernel_size: 3
    weight_filler {
      type: "xavier"
    }
    bias_filler {
      type: "constant"
      value: 0
    }
  }
  quant_convolution_param {
    coef_precision: THREE_BITS
    bw_params: 8
    shift_enable: false
  }
}
layer {
  name: "quant_relu2_2"
  type: "QuantReLU"
  bottom: "conv2_2"
  top: "conv2_2"
  param {
    lr_mult: 0
  }
  quant_relu_param {
    filler {
      type: "constant"
      value: 48.787159
    }
    channel_shared: true
    act_bits: 5
    quant_enable: true
  }
}
layer {
  name: "pool2"
  type: "Pooling"
  bottom: "conv2_2"
  top: "pool2"
  pooling_param {
    pool: MAX
    kernel_size: 2
    stride: 2
  }
}
layer {
  name: "conv3_1"
  type: "QuantConvolution"
  bottom: "pool2"
  top: "conv3_1"
  convolution_param {
    num_output: 256
    pad: 1
    kernel_size: 3
    weight_filler {
      type: "xavier"
    }
    bias_filler {
      type: "constant"
      value: 0
    }
  }
  quant_convolution_param {
    coef_precision: THREE_BITS
    bw_params: 8
    shift_enable: false
  }
}
layer {
  name: "quant_relu3_1"
  type: "QuantReLU"
  bottom: "conv3_1"
  top: "conv3_1"
  param {
    lr_mult: 0
  }
  quant_relu_param {
    filler {
      type: "constant"
      value: 34.203297
    }
    channel_shared: true
    act_bits: 5
    quant_enable: true
  }
}
layer {
  name: "conv3_2"
  type: "QuantConvolution"
  bottom: "conv3_1"
  top: "conv3_2"
  convolution_param {
    num_output: 256
    pad: 1
    kernel_size: 3
    weight_filler {
      type: "xavier"
    }
    bias_filler {
      type: "constant"
      value: 0
    }
  }
  quant_convolution_param {
    coef_precision: THREE_BITS
    bw_params: 8
    shift_enable: false
  }
}
layer {
  name: "quant_relu3_2"
  type: "QuantReLU"
  bottom: "conv3_2"
  top: "conv3_2"
  param {
    lr_mult: 0
  }
  quant_relu_param {
    filler {
      type: "constant"
      value: 34.1834
    }
    channel_shared: true
    act_bits: 5
    quant_enable: true
  }
}
layer {
  name: "conv3_3"
  type: "QuantConvolution"
  bottom: "conv3_2"
  top: "conv3_3"
  convolution_param {
    num_output: 256
    pad: 1
    kernel_size: 3
    weight_filler {
      type: "xavier"
    }
    bias_filler {
      type: "constant"
      value: 0
    }
  }
  quant_convolution_param {
    coef_precision: THREE_BITS
    bw_params: 8
    shift_enable: false
  }
}
layer {
  name: "quant_relu3_3"
  type: "QuantReLU"
  bottom: "conv3_3"
  top: "conv3_3"
  param {
    lr_mult: 0
  }
  quant_relu_param {
    filler {
      type: "constant"
      value: 29.019073
    }
    channel_shared: true
    act_bits: 5
    quant_enable: true
  }
}
layer {
  name: "pool3"
  type: "Pooling"
  bottom: "conv3_3"
  top: "pool3"
  pooling_param {
    pool: MAX
    kernel_size: 2
    stride: 2
  }
}
layer {
  name: "conv4_1"
  type: "QuantConvolution"
  bottom: "pool3"
  top: "conv4_1"
  convolution_param {
    num_output: 512
    pad: 1
    kernel_size: 3
    weight_filler {
      type: "xavier"
    }
    bias_filler {
      type: "constant"
      value: 0
    }
  }
  quant_convolution_param {
    coef_precision: ONE_BIT
    bw_params: 8
    shift_enable: false
  }
}
layer {
  name: "quant_relu4_1"
  type: "QuantReLU"
  bottom: "conv4_1"
  top: "conv4_1"
  param {
    lr_mult: 0
  }
  quant_relu_param {
    filler {
      type: "constant"
      value: 22.288908
    }
    channel_shared: true
    act_bits: 5
    quant_enable: true
  }
}
layer {
  name: "conv4_2"
  type: "QuantConvolution"
  bottom: "conv4_1"
  top: "conv4_2"
  convolution_param {
    num_output: 512
    pad: 1
    kernel_size: 3
    weight_filler {
      type: "xavier"
    }
    bias_filler {
      type: "constant"
      value: 0
    }
  }
  quant_convolution_param {
    coef_precision: ONE_BIT
    bw_params: 8
    shift_enable: false
  }
}
layer {
  name: "quant_relu4_2"
  type: "QuantReLU"
  bottom: "conv4_2"
  top: "conv4_2"
  param {
    lr_mult: 0
  }
  quant_relu_param {
    filler {
      type: "constant"
      value: 16.420193
    }
    channel_shared: true
    act_bits: 5
    quant_enable: true
  }
}
layer {
  name: "conv4_3"
  type: "QuantConvolution"
  bottom: "conv4_2"
  top: "conv4_3"
  convolution_param {
    num_output: 512
    pad: 1
    kernel_size: 3
    weight_filler {
      type: "xavier"
    }
    bias_filler {
      type: "constant"
      value: 0
    }
  }
  quant_convolution_param {
    coef_precision: ONE_BIT
    bw_params: 8
    shift_enable: false
  }
}
layer {
  name: "quant_relu4_3"
  type: "QuantReLU"
  bottom: "conv4_3"
  top: "conv4_3"
  param {
    lr_mult: 0
  }
  quant_relu_param {
    filler {
      type: "constant"
      value: 9.47969
    }
    channel_shared: true
    act_bits: 5
    quant_enable: true
  }
}
layer {
  name: "pool4"
  type: "Pooling"
  bottom: "conv4_3"
  top: "pool4"
  pooling_param {
    pool: MAX
    kernel_size: 2
    stride: 2
  }
}
layer {
  name: "conv5_1"
  type: "QuantConvolution"
  bottom: "pool4"
  top: "conv5_1"
  convolution_param {
    num_output: 512
    pad: 1
    kernel_size: 3
    weight_filler {
      type: "xavier"
    }
    bias_filler {
      type: "constant"
      value: 0
    }
  }
  quant_convolution_param {
    coef_precision: ONE_BIT
    bw_params: 8
    shift_enable: false
  }
}
layer {
  name: "quant_relu5_1"
  type: "QuantReLU"
  bottom: "conv5_1"
  top: "conv5_1"
  param {
    lr_mult: 0
  }
  quant_relu_param {
    filler {
      type: "constant"
      value: 7.7121849
    }
    channel_shared: true
    act_bits: 5
    quant_enable: true
  }
}
layer {
  name: "conv5_2"
  type: "QuantConvolution"
  bottom: "conv5_1"
  top: "conv5_2"
  param {
    lr_mult: 1
    decay_mult: 0
  }
  param {
    lr_mult: 1
    decay_mult: 1
  }
  convolution_param {
    num_output: 512
    pad: 1
    kernel_size: 3
    weight_filler {
      type: "xavier"
    }
    bias_filler {
      type: "constant"
      value: 0
    }
  }
  quant_convolution_param {
    coef_precision: ONE_BIT
    bw_params: 8
    shift_enable: false
  }
}
layer {
  name: "quant_relu5_2"
  type: "QuantReLU"
  bottom: "conv5_2"
  top: "conv5_2"
  param {
    lr_mult: 0
  }
  quant_relu_param {
    filler {
      type: "constant"
      value: 5.2930703
    }
    channel_shared: true
    act_bits: 5
    quant_enable: true
  }
}
layer {
  name: "conv5_3"
  type: "QuantConvolution"
  bottom: "conv5_2"
  top: "conv5_3"
  param {
    lr_mult: 1
    decay_mult: 0
  }
  param {
    lr_mult: 1
    decay_mult: 200
  }
  convolution_param {
    num_output: 512
    pad: 1
    kernel_size: 3
    weight_filler {
      type: "xavier"
    }
    bias_filler {
      type: "constant"
      value: 0
    }
  }
  quant_convolution_param {
    coef_precision: ONE_BIT
    bw_params: 8
    shift_enable: false
  }
}
layer {
  name: "quant_relu5_3"
  type: "QuantReLU"
  bottom: "conv5_3"
  top: "conv5_3"
  param {
    lr_mult: 0
  }
  quant_relu_param {
    filler {
      type: "constant"
      value: 3.1015894
    }
    channel_shared: true
    act_bits: 5
    quant_enable: true
  }
}
layer {
  name: "pool5"
  type: "Pooling"
  bottom: "conv5_3"
  top: "pool5"
  pooling_param {
    pool: MAX
    kernel_size: 2
    stride: 2
  }
}
layer {
  name: "ip6"
  type: "Convolution"
  bottom: "pool5"
  top: "ip6"
  param {
    lr_mult: 1
    decay_mult: 1
  }
  param {
    lr_mult: 2
    decay_mult: 0
  }
  convolution_param {
    num_output: 512
    pad: 1
    kernel_size: 3
    weight_filler {
      type: "xavier"
    }
    bias_filler {
      type: "constant"
      value: 0
    }
  }
}
layer {
  name: "relu6"
  type: "ReLU"
  bottom: "ip6"
  top: "ip6"
}
layer {
  name: "ip7"
  type: "Convolution"
  bottom: "ip6"
  top: "ip7"
  param {
    lr_mult: 1
    decay_mult: 1
  }
  param {
    lr_mult: 2
    decay_mult: 0
  }
  convolution_param {
    num_output: 512
    kernel_size: 1
    weight_filler {
      type: "xavier"
    }
    bias_filler {
      type: "constant"
      value: 0
    }
  }
}
layer {
  name: "relu7"
  type: "ReLU"
  bottom: "ip7"
  top: "ip7"
}
layer {
  name: "ip7_mbox_loc"
  type: "Convolution"
  bottom: "ip7"
  top: "ip7_mbox_loc"
  param {
    lr_mult: 1
    decay_mult: 1
  }
  param {
    lr_mult: 2
    decay_mult: 0
  }
  convolution_param {
    num_output: 24
    pad: 1
    kernel_size: 3
    stride: 1
    weight_filler {
      type: "xavier"
    }
    bias_filler {
      type: "constant"
      value: 0
    }
  }
}
layer {
  name: "ip7_mbox_loc_perm"
  type: "Permute"
  bottom: "ip7_mbox_loc"
  top: "ip7_mbox_loc_perm"
  permute_param {
    order: 0
    order: 2
    order: 3
    order: 1
  }
}
layer {
  name: "ip7_mbox_loc_flat"
  type: "Flatten"
  bottom: "ip7_mbox_loc_perm"
  top: "ip7_mbox_loc_flat"
  flatten_param {
    axis: 1
  }
}
layer {
  name: "ip7_mbox_conf"
  type: "Convolution"
  bottom: "ip7"
  top: "ip7_mbox_conf"
  param {
    lr_mult: 1
    decay_mult: 1
  }
  param {
    lr_mult: 2
    decay_mult: 0
  }
  convolution_param {
    num_output: 42
    pad: 1
    kernel_size: 3
    stride: 1
    weight_filler {
      type: "xavier"
    }
    bias_filler {
      type: "constant"
      value: 0
    }
  }
}
layer {
  name: "ip7_mbox_conf_perm"
  type: "Permute"
  bottom: "ip7_mbox_conf"
  top: "ip7_mbox_conf_perm"
  permute_param {
    order: 0
    order: 2
    order: 3
    order: 1
  }
}
layer {
  name: "ip7_mbox_conf_flat"
  type: "Flatten"
  bottom: "ip7_mbox_conf_perm"
  top: "ip7_mbox_conf_flat"
  flatten_param {
    axis: 1
  }
}
layer {
  name: "ip7_mbox_priorbox"
  type: "PriorBox"
  bottom: "ip7"
  bottom: "data"
  top: "ip7_mbox_priorbox"
  prior_box_param {
    min_size: 20
    max_size: 210
    aspect_ratio: 2
    aspect_ratio: 3
    flip: true
    clip: false
    variance: 0.1
    variance: 0.1
    variance: 0.2
    variance: 0.2
    step: 32
    offset: 0.5
  }
}
layer {
  name: "mbox_loc"
  type: "Concat"
  bottom: "ip7_mbox_loc_flat"
  top: "mbox_loc"
  concat_param {
    axis: 1
  }
}
layer {
  name: "mbox_conf"
  type: "Concat"
  bottom: "ip7_mbox_conf_flat"
  top: "mbox_conf"
  concat_param {
    axis: 1
  }
}
layer {
  name: "mbox_priorbox"
  type: "Concat"
  bottom: "ip7_mbox_priorbox"
  top: "mbox_priorbox"
  concat_param {
    axis: 2
  }
}
layer {
  name: "mbox_loss"
  type: "MultiBoxLoss"
  bottom: "mbox_loc"
  bottom: "mbox_conf"
  bottom: "mbox_priorbox"
  bottom: "label"
  top: "mbox_loss"
  include {
    phase: TRAIN
  }
  propagate_down: true
  propagate_down: true
  propagate_down: false
  propagate_down: false
  loss_param {
    normalization: VALID
  }
  multibox_loss_param {
    loc_loss_type: SMOOTH_L1
    conf_loss_type: SOFTMAX
    loc_weight: 1
    num_classes: 7
    share_location: true
    match_type: PER_PREDICTION
    overlap_threshold: 0.5
    use_prior_for_matching: true
    background_label_id: 0
    use_difficult_gt: true
    neg_pos_ratio: 3
    neg_overlap: 0.5
    code_type: CENTER_SIZE
    ignore_cross_boundary_bbox: false
    mining_type: MAX_NEGATIVE
  }
}
I0429 13:56:03.938944 30344 layer_factory.hpp:77] Creating layer data
I0429 13:56:03.939229 30344 net.cpp:100] Creating Layer data
I0429 13:56:03.939239 30344 net.cpp:408] data -> data
I0429 13:56:03.939262 30344 net.cpp:408] data -> label
I0429 13:56:03.940162 30367 db_lmdb.cpp:35] Opened lmdb /home/zhangwanchun/data/VOCdevkit/VOC0712/lmdb/VOC0712_trainval_lmdb
I0429 13:56:06.891777 30344 annotated_data_layer.cpp:62] output data size: 2,3,224,224
I0429 13:56:06.894269 30344 net.cpp:150] Setting up data
I0429 13:56:06.894282 30344 net.cpp:157] Top shape: 2 3 224 224 (301056)
I0429 13:56:06.894286 30344 net.cpp:157] Top shape: 1 1 4 8 (32)
I0429 13:56:06.894289 30344 net.cpp:165] Memory required for data: 1204352
I0429 13:56:06.894296 30344 layer_factory.hpp:77] Creating layer data_data_0_split
I0429 13:56:06.894304 30344 net.cpp:100] Creating Layer data_data_0_split
I0429 13:56:06.894310 30344 net.cpp:434] data_data_0_split <- data
I0429 13:56:06.894320 30344 net.cpp:408] data_data_0_split -> data_data_0_split_0
I0429 13:56:06.894327 30344 net.cpp:408] data_data_0_split -> data_data_0_split_1
I0429 13:56:06.894392 30344 net.cpp:150] Setting up data_data_0_split
I0429 13:56:06.894397 30344 net.cpp:157] Top shape: 2 3 224 224 (301056)
I0429 13:56:06.894400 30344 net.cpp:157] Top shape: 2 3 224 224 (301056)
I0429 13:56:06.894402 30344 net.cpp:165] Memory required for data: 3612800
I0429 13:56:06.894404 30344 layer_factory.hpp:77] Creating layer conv1_1
I0429 13:56:06.894426 30344 net.cpp:100] Creating Layer conv1_1
I0429 13:56:06.894429 30344 net.cpp:434] conv1_1 <- data_data_0_split_0
I0429 13:56:06.894433 30344 net.cpp:408] conv1_1 -> conv1_1
I0429 13:56:06.895582 30344 net.cpp:150] Setting up conv1_1
I0429 13:56:06.895592 30344 net.cpp:157] Top shape: 2 64 224 224 (6422528)
I0429 13:56:06.895596 30344 net.cpp:165] Memory required for data: 29302912
I0429 13:56:06.895606 30344 layer_factory.hpp:77] Creating layer quant_relu1_1
I0429 13:56:06.895613 30344 net.cpp:100] Creating Layer quant_relu1_1
I0429 13:56:06.895617 30344 net.cpp:434] quant_relu1_1 <- conv1_1
I0429 13:56:06.895622 30344 net.cpp:395] quant_relu1_1 -> conv1_1 (in-place)
I0429 13:56:06.899371 30344 net.cpp:150] Setting up quant_relu1_1
I0429 13:56:06.899385 30344 net.cpp:157] Top shape: 2 64 224 224 (6422528)
I0429 13:56:06.899389 30344 net.cpp:165] Memory required for data: 54993024
I0429 13:56:06.899397 30344 layer_factory.hpp:77] Creating layer conv1_2
I0429 13:56:06.899407 30344 net.cpp:100] Creating Layer conv1_2
I0429 13:56:06.899411 30344 net.cpp:434] conv1_2 <- conv1_1
I0429 13:56:06.899416 30344 net.cpp:408] conv1_2 -> conv1_2
I0429 13:56:06.899675 30344 net.cpp:150] Setting up conv1_2
I0429 13:56:06.899682 30344 net.cpp:157] Top shape: 2 64 224 224 (6422528)
I0429 13:56:06.899684 30344 net.cpp:165] Memory required for data: 80683136
I0429 13:56:06.899689 30344 layer_factory.hpp:77] Creating layer quant_relu1_2
I0429 13:56:06.899694 30344 net.cpp:100] Creating Layer quant_relu1_2
I0429 13:56:06.899698 30344 net.cpp:434] quant_relu1_2 <- conv1_2
I0429 13:56:06.899700 30344 net.cpp:395] quant_relu1_2 -> conv1_2 (in-place)
I0429 13:56:06.903091 30344 net.cpp:150] Setting up quant_relu1_2
I0429 13:56:06.903105 30344 net.cpp:157] Top shape: 2 64 224 224 (6422528)
I0429 13:56:06.903108 30344 net.cpp:165] Memory required for data: 106373248
I0429 13:56:06.903115 30344 layer_factory.hpp:77] Creating layer pool1
I0429 13:56:06.903123 30344 net.cpp:100] Creating Layer pool1
I0429 13:56:06.903138 30344 net.cpp:434] pool1 <- conv1_2
I0429 13:56:06.903143 30344 net.cpp:408] pool1 -> pool1
I0429 13:56:06.903175 30344 net.cpp:150] Setting up pool1
I0429 13:56:06.903180 30344 net.cpp:157] Top shape: 2 64 112 112 (1605632)
I0429 13:56:06.903182 30344 net.cpp:165] Memory required for data: 112795776
I0429 13:56:06.903184 30344 layer_factory.hpp:77] Creating layer conv2_1
I0429 13:56:06.903190 30344 net.cpp:100] Creating Layer conv2_1
I0429 13:56:06.903193 30344 net.cpp:434] conv2_1 <- pool1
I0429 13:56:06.903198 30344 net.cpp:408] conv2_1 -> conv2_1
I0429 13:56:06.904274 30344 net.cpp:150] Setting up conv2_1
I0429 13:56:06.904286 30344 net.cpp:157] Top shape: 2 128 112 112 (3211264)
I0429 13:56:06.904291 30344 net.cpp:165] Memory required for data: 125640832
I0429 13:56:06.904297 30344 layer_factory.hpp:77] Creating layer quant_relu2_1
I0429 13:56:06.904306 30344 net.cpp:100] Creating Layer quant_relu2_1
I0429 13:56:06.904311 30344 net.cpp:434] quant_relu2_1 <- conv2_1
I0429 13:56:06.904316 30344 net.cpp:395] quant_relu2_1 -> conv2_1 (in-place)
I0429 13:56:06.906242 30344 net.cpp:150] Setting up quant_relu2_1
I0429 13:56:06.906256 30344 net.cpp:157] Top shape: 2 128 112 112 (3211264)
I0429 13:56:06.906258 30344 net.cpp:165] Memory required for data: 138485888
I0429 13:56:06.906268 30344 layer_factory.hpp:77] Creating layer conv2_2
I0429 13:56:06.906277 30344 net.cpp:100] Creating Layer conv2_2
I0429 13:56:06.906280 30344 net.cpp:434] conv2_2 <- conv2_1
I0429 13:56:06.906286 30344 net.cpp:408] conv2_2 -> conv2_2
I0429 13:56:06.906972 30344 net.cpp:150] Setting up conv2_2
I0429 13:56:06.906980 30344 net.cpp:157] Top shape: 2 128 112 112 (3211264)
I0429 13:56:06.906981 30344 net.cpp:165] Memory required for data: 151330944
I0429 13:56:06.906985 30344 layer_factory.hpp:77] Creating layer quant_relu2_2
I0429 13:56:06.906991 30344 net.cpp:100] Creating Layer quant_relu2_2
I0429 13:56:06.906994 30344 net.cpp:434] quant_relu2_2 <- conv2_2
I0429 13:56:06.906998 30344 net.cpp:395] quant_relu2_2 -> conv2_2 (in-place)
I0429 13:56:06.909107 30344 net.cpp:150] Setting up quant_relu2_2
I0429 13:56:06.909118 30344 net.cpp:157] Top shape: 2 128 112 112 (3211264)
I0429 13:56:06.909121 30344 net.cpp:165] Memory required for data: 164176000
I0429 13:56:06.909124 30344 layer_factory.hpp:77] Creating layer pool2
I0429 13:56:06.909132 30344 net.cpp:100] Creating Layer pool2
I0429 13:56:06.909134 30344 net.cpp:434] pool2 <- conv2_2
I0429 13:56:06.909138 30344 net.cpp:408] pool2 -> pool2
I0429 13:56:06.909162 30344 net.cpp:150] Setting up pool2
I0429 13:56:06.909166 30344 net.cpp:157] Top shape: 2 128 56 56 (802816)
I0429 13:56:06.909169 30344 net.cpp:165] Memory required for data: 167387264
I0429 13:56:06.909171 30344 layer_factory.hpp:77] Creating layer conv3_1
I0429 13:56:06.909176 30344 net.cpp:100] Creating Layer conv3_1
I0429 13:56:06.909179 30344 net.cpp:434] conv3_1 <- pool2
I0429 13:56:06.909183 30344 net.cpp:408] conv3_1 -> conv3_1
I0429 13:56:06.910965 30344 net.cpp:150] Setting up conv3_1
I0429 13:56:06.910974 30344 net.cpp:157] Top shape: 2 256 56 56 (1605632)
I0429 13:56:06.910977 30344 net.cpp:165] Memory required for data: 173809792
I0429 13:56:06.910981 30344 layer_factory.hpp:77] Creating layer quant_relu3_1
I0429 13:56:06.910987 30344 net.cpp:100] Creating Layer quant_relu3_1
I0429 13:56:06.910990 30344 net.cpp:434] quant_relu3_1 <- conv3_1
I0429 13:56:06.910995 30344 net.cpp:395] quant_relu3_1 -> conv3_1 (in-place)
I0429 13:56:06.912051 30344 net.cpp:150] Setting up quant_relu3_1
I0429 13:56:06.912060 30344 net.cpp:157] Top shape: 2 256 56 56 (1605632)
I0429 13:56:06.912061 30344 net.cpp:165] Memory required for data: 180232320
I0429 13:56:06.912065 30344 layer_factory.hpp:77] Creating layer conv3_2
I0429 13:56:06.912071 30344 net.cpp:100] Creating Layer conv3_2
I0429 13:56:06.912073 30344 net.cpp:434] conv3_2 <- conv3_1
I0429 13:56:06.912077 30344 net.cpp:408] conv3_2 -> conv3_2
I0429 13:56:06.914925 30344 net.cpp:150] Setting up conv3_2
I0429 13:56:06.914950 30344 net.cpp:157] Top shape: 2 256 56 56 (1605632)
I0429 13:56:06.914979 30344 net.cpp:165] Memory required for data: 186654848
I0429 13:56:06.914988 30344 layer_factory.hpp:77] Creating layer quant_relu3_2
I0429 13:56:06.914992 30344 net.cpp:100] Creating Layer quant_relu3_2
I0429 13:56:06.915012 30344 net.cpp:434] quant_relu3_2 <- conv3_2
I0429 13:56:06.915016 30344 net.cpp:395] quant_relu3_2 -> conv3_2 (in-place)
I0429 13:56:06.915974 30344 net.cpp:150] Setting up quant_relu3_2
I0429 13:56:06.915982 30344 net.cpp:157] Top shape: 2 256 56 56 (1605632)
I0429 13:56:06.915987 30344 net.cpp:165] Memory required for data: 193077376
I0429 13:56:06.915989 30344 layer_factory.hpp:77] Creating layer conv3_3
I0429 13:56:06.915997 30344 net.cpp:100] Creating Layer conv3_3
I0429 13:56:06.916000 30344 net.cpp:434] conv3_3 <- conv3_2
I0429 13:56:06.916004 30344 net.cpp:408] conv3_3 -> conv3_3
I0429 13:56:06.918736 30344 net.cpp:150] Setting up conv3_3
I0429 13:56:06.918745 30344 net.cpp:157] Top shape: 2 256 56 56 (1605632)
I0429 13:56:06.918747 30344 net.cpp:165] Memory required for data: 199499904
I0429 13:56:06.918752 30344 layer_factory.hpp:77] Creating layer quant_relu3_3
I0429 13:56:06.918756 30344 net.cpp:100] Creating Layer quant_relu3_3
I0429 13:56:06.918759 30344 net.cpp:434] quant_relu3_3 <- conv3_3
I0429 13:56:06.918762 30344 net.cpp:395] quant_relu3_3 -> conv3_3 (in-place)
I0429 13:56:06.919800 30344 net.cpp:150] Setting up quant_relu3_3
I0429 13:56:06.919808 30344 net.cpp:157] Top shape: 2 256 56 56 (1605632)
I0429 13:56:06.919811 30344 net.cpp:165] Memory required for data: 205922432
I0429 13:56:06.919814 30344 layer_factory.hpp:77] Creating layer pool3
I0429 13:56:06.919821 30344 net.cpp:100] Creating Layer pool3
I0429 13:56:06.919824 30344 net.cpp:434] pool3 <- conv3_3
I0429 13:56:06.919827 30344 net.cpp:408] pool3 -> pool3
I0429 13:56:06.919849 30344 net.cpp:150] Setting up pool3
I0429 13:56:06.919853 30344 net.cpp:157] Top shape: 2 256 28 28 (401408)
I0429 13:56:06.919855 30344 net.cpp:165] Memory required for data: 207528064
I0429 13:56:06.919857 30344 layer_factory.hpp:77] Creating layer conv4_1
I0429 13:56:06.919862 30344 net.cpp:100] Creating Layer conv4_1
I0429 13:56:06.919867 30344 net.cpp:434] conv4_1 <- pool3
I0429 13:56:06.919869 30344 net.cpp:408] conv4_1 -> conv4_1
I0429 13:56:06.925745 30344 net.cpp:150] Setting up conv4_1
I0429 13:56:06.925760 30344 net.cpp:157] Top shape: 2 512 28 28 (802816)
I0429 13:56:06.925762 30344 net.cpp:165] Memory required for data: 210739328
I0429 13:56:06.925768 30344 layer_factory.hpp:77] Creating layer quant_relu4_1
I0429 13:56:06.925776 30344 net.cpp:100] Creating Layer quant_relu4_1
I0429 13:56:06.925779 30344 net.cpp:434] quant_relu4_1 <- conv4_1
I0429 13:56:06.925784 30344 net.cpp:395] quant_relu4_1 -> conv4_1 (in-place)
I0429 13:56:06.926445 30344 net.cpp:150] Setting up quant_relu4_1
I0429 13:56:06.926452 30344 net.cpp:157] Top shape: 2 512 28 28 (802816)
I0429 13:56:06.926455 30344 net.cpp:165] Memory required for data: 213950592
I0429 13:56:06.926460 30344 layer_factory.hpp:77] Creating layer conv4_2
I0429 13:56:06.926465 30344 net.cpp:100] Creating Layer conv4_2
I0429 13:56:06.926468 30344 net.cpp:434] conv4_2 <- conv4_1
I0429 13:56:06.926472 30344 net.cpp:408] conv4_2 -> conv4_2
I0429 13:56:06.936810 30344 net.cpp:150] Setting up conv4_2
I0429 13:56:06.936823 30344 net.cpp:157] Top shape: 2 512 28 28 (802816)
I0429 13:56:06.936826 30344 net.cpp:165] Memory required for data: 217161856
I0429 13:56:06.936832 30344 layer_factory.hpp:77] Creating layer quant_relu4_2
I0429 13:56:06.936841 30344 net.cpp:100] Creating Layer quant_relu4_2
I0429 13:56:06.936843 30344 net.cpp:434] quant_relu4_2 <- conv4_2
I0429 13:56:06.936848 30344 net.cpp:395] quant_relu4_2 -> conv4_2 (in-place)
I0429 13:56:06.937557 30344 net.cpp:150] Setting up quant_relu4_2
I0429 13:56:06.937566 30344 net.cpp:157] Top shape: 2 512 28 28 (802816)
I0429 13:56:06.937568 30344 net.cpp:165] Memory required for data: 220373120
I0429 13:56:06.937572 30344 layer_factory.hpp:77] Creating layer conv4_3
I0429 13:56:06.937577 30344 net.cpp:100] Creating Layer conv4_3
I0429 13:56:06.937590 30344 net.cpp:434] conv4_3 <- conv4_2
I0429 13:56:06.937594 30344 net.cpp:408] conv4_3 -> conv4_3
I0429 13:56:06.948007 30344 net.cpp:150] Setting up conv4_3
I0429 13:56:06.948022 30344 net.cpp:157] Top shape: 2 512 28 28 (802816)
I0429 13:56:06.948025 30344 net.cpp:165] Memory required for data: 223584384
I0429 13:56:06.948031 30344 layer_factory.hpp:77] Creating layer quant_relu4_3
I0429 13:56:06.948038 30344 net.cpp:100] Creating Layer quant_relu4_3
I0429 13:56:06.948042 30344 net.cpp:434] quant_relu4_3 <- conv4_3
I0429 13:56:06.948048 30344 net.cpp:395] quant_relu4_3 -> conv4_3 (in-place)
I0429 13:56:06.948796 30344 net.cpp:150] Setting up quant_relu4_3
I0429 13:56:06.948804 30344 net.cpp:157] Top shape: 2 512 28 28 (802816)
I0429 13:56:06.948808 30344 net.cpp:165] Memory required for data: 226795648
I0429 13:56:06.948812 30344 layer_factory.hpp:77] Creating layer pool4
I0429 13:56:06.948818 30344 net.cpp:100] Creating Layer pool4
I0429 13:56:06.948822 30344 net.cpp:434] pool4 <- conv4_3
I0429 13:56:06.948825 30344 net.cpp:408] pool4 -> pool4
I0429 13:56:06.948848 30344 net.cpp:150] Setting up pool4
I0429 13:56:06.948851 30344 net.cpp:157] Top shape: 2 512 14 14 (200704)
I0429 13:56:06.948853 30344 net.cpp:165] Memory required for data: 227598464
I0429 13:56:06.948855 30344 layer_factory.hpp:77] Creating layer conv5_1
I0429 13:56:06.948861 30344 net.cpp:100] Creating Layer conv5_1
I0429 13:56:06.948864 30344 net.cpp:434] conv5_1 <- pool4
I0429 13:56:06.948868 30344 net.cpp:408] conv5_1 -> conv5_1
I0429 13:56:06.959108 30344 net.cpp:150] Setting up conv5_1
I0429 13:56:06.959126 30344 net.cpp:157] Top shape: 2 512 14 14 (200704)
I0429 13:56:06.959129 30344 net.cpp:165] Memory required for data: 228401280
I0429 13:56:06.959136 30344 layer_factory.hpp:77] Creating layer quant_relu5_1
I0429 13:56:06.959144 30344 net.cpp:100] Creating Layer quant_relu5_1
I0429 13:56:06.959148 30344 net.cpp:434] quant_relu5_1 <- conv5_1
I0429 13:56:06.959153 30344 net.cpp:395] quant_relu5_1 -> conv5_1 (in-place)
I0429 13:56:06.959236 30344 net.cpp:150] Setting up quant_relu5_1
I0429 13:56:06.959241 30344 net.cpp:157] Top shape: 2 512 14 14 (200704)
I0429 13:56:06.959244 30344 net.cpp:165] Memory required for data: 229204096
I0429 13:56:06.959251 30344 layer_factory.hpp:77] Creating layer conv5_2
I0429 13:56:06.959257 30344 net.cpp:100] Creating Layer conv5_2
I0429 13:56:06.959260 30344 net.cpp:434] conv5_2 <- conv5_1
I0429 13:56:06.959264 30344 net.cpp:408] conv5_2 -> conv5_2
I0429 13:56:06.969549 30344 net.cpp:150] Setting up conv5_2
I0429 13:56:06.969563 30344 net.cpp:157] Top shape: 2 512 14 14 (200704)
I0429 13:56:06.969564 30344 net.cpp:165] Memory required for data: 230006912
I0429 13:56:06.969570 30344 layer_factory.hpp:77] Creating layer quant_relu5_2
I0429 13:56:06.969578 30344 net.cpp:100] Creating Layer quant_relu5_2
I0429 13:56:06.969581 30344 net.cpp:434] quant_relu5_2 <- conv5_2
I0429 13:56:06.969586 30344 net.cpp:395] quant_relu5_2 -> conv5_2 (in-place)
I0429 13:56:06.969671 30344 net.cpp:150] Setting up quant_relu5_2
I0429 13:56:06.969676 30344 net.cpp:157] Top shape: 2 512 14 14 (200704)
I0429 13:56:06.969677 30344 net.cpp:165] Memory required for data: 230809728
I0429 13:56:06.969681 30344 layer_factory.hpp:77] Creating layer conv5_3
I0429 13:56:06.969687 30344 net.cpp:100] Creating Layer conv5_3
I0429 13:56:06.969691 30344 net.cpp:434] conv5_3 <- conv5_2
I0429 13:56:06.969694 30344 net.cpp:408] conv5_3 -> conv5_3
I0429 13:56:06.981266 30344 net.cpp:150] Setting up conv5_3
I0429 13:56:06.981281 30344 net.cpp:157] Top shape: 2 512 14 14 (200704)
I0429 13:56:06.981282 30344 net.cpp:165] Memory required for data: 231612544
I0429 13:56:06.981288 30344 layer_factory.hpp:77] Creating layer quant_relu5_3
I0429 13:56:06.981295 30344 net.cpp:100] Creating Layer quant_relu5_3
I0429 13:56:06.981299 30344 net.cpp:434] quant_relu5_3 <- conv5_3
I0429 13:56:06.981303 30344 net.cpp:395] quant_relu5_3 -> conv5_3 (in-place)
I0429 13:56:06.981387 30344 net.cpp:150] Setting up quant_relu5_3
I0429 13:56:06.981392 30344 net.cpp:157] Top shape: 2 512 14 14 (200704)
I0429 13:56:06.981405 30344 net.cpp:165] Memory required for data: 232415360
I0429 13:56:06.981410 30344 layer_factory.hpp:77] Creating layer pool5
I0429 13:56:06.981416 30344 net.cpp:100] Creating Layer pool5
I0429 13:56:06.981418 30344 net.cpp:434] pool5 <- conv5_3
I0429 13:56:06.981423 30344 net.cpp:408] pool5 -> pool5
I0429 13:56:06.981443 30344 net.cpp:150] Setting up pool5
I0429 13:56:06.981448 30344 net.cpp:157] Top shape: 2 512 7 7 (50176)
I0429 13:56:06.981451 30344 net.cpp:165] Memory required for data: 232616064
I0429 13:56:06.981453 30344 layer_factory.hpp:77] Creating layer ip6
I0429 13:56:06.981458 30344 net.cpp:100] Creating Layer ip6
I0429 13:56:06.981462 30344 net.cpp:434] ip6 <- pool5
I0429 13:56:06.981465 30344 net.cpp:408] ip6 -> ip6
I0429 13:56:07.723824 30344 net.cpp:150] Setting up ip6
I0429 13:56:07.723842 30344 net.cpp:157] Top shape: 2 512 7 7 (50176)
I0429 13:56:07.723845 30344 net.cpp:165] Memory required for data: 232816768
I0429 13:56:07.723853 30344 layer_factory.hpp:77] Creating layer relu6
I0429 13:56:07.723860 30344 net.cpp:100] Creating Layer relu6
I0429 13:56:07.723865 30344 net.cpp:434] relu6 <- ip6
I0429 13:56:07.723870 30344 net.cpp:395] relu6 -> ip6 (in-place)
I0429 13:56:07.724210 30344 net.cpp:150] Setting up relu6
I0429 13:56:07.724217 30344 net.cpp:157] Top shape: 2 512 7 7 (50176)
I0429 13:56:07.724220 30344 net.cpp:165] Memory required for data: 233017472
I0429 13:56:07.724222 30344 layer_factory.hpp:77] Creating layer ip7
I0429 13:56:07.724231 30344 net.cpp:100] Creating Layer ip7
I0429 13:56:07.724233 30344 net.cpp:434] ip7 <- ip6
I0429 13:56:07.724239 30344 net.cpp:408] ip7 -> ip7
I0429 13:56:07.727478 30344 net.cpp:150] Setting up ip7
I0429 13:56:07.727485 30344 net.cpp:157] Top shape: 2 512 7 7 (50176)
I0429 13:56:07.727488 30344 net.cpp:165] Memory required for data: 233218176
I0429 13:56:07.727494 30344 layer_factory.hpp:77] Creating layer relu7
I0429 13:56:07.727497 30344 net.cpp:100] Creating Layer relu7
I0429 13:56:07.727499 30344 net.cpp:434] relu7 <- ip7
I0429 13:56:07.727502 30344 net.cpp:395] relu7 -> ip7 (in-place)
I0429 13:56:07.727849 30344 net.cpp:150] Setting up relu7
I0429 13:56:07.727855 30344 net.cpp:157] Top shape: 2 512 7 7 (50176)
I0429 13:56:07.727857 30344 net.cpp:165] Memory required for data: 233418880
I0429 13:56:07.727859 30344 layer_factory.hpp:77] Creating layer ip7_relu7_0_split
I0429 13:56:07.727865 30344 net.cpp:100] Creating Layer ip7_relu7_0_split
I0429 13:56:07.727867 30344 net.cpp:434] ip7_relu7_0_split <- ip7
I0429 13:56:07.727871 30344 net.cpp:408] ip7_relu7_0_split -> ip7_relu7_0_split_0
I0429 13:56:07.727876 30344 net.cpp:408] ip7_relu7_0_split -> ip7_relu7_0_split_1
I0429 13:56:07.727881 30344 net.cpp:408] ip7_relu7_0_split -> ip7_relu7_0_split_2
I0429 13:56:07.727959 30344 net.cpp:150] Setting up ip7_relu7_0_split
I0429 13:56:07.727963 30344 net.cpp:157] Top shape: 2 512 7 7 (50176)
I0429 13:56:07.727967 30344 net.cpp:157] Top shape: 2 512 7 7 (50176)
I0429 13:56:07.727969 30344 net.cpp:157] Top shape: 2 512 7 7 (50176)
I0429 13:56:07.727972 30344 net.cpp:165] Memory required for data: 234020992
I0429 13:56:07.727973 30344 layer_factory.hpp:77] Creating layer ip7_mbox_loc
I0429 13:56:07.727980 30344 net.cpp:100] Creating Layer ip7_mbox_loc
I0429 13:56:07.727983 30344 net.cpp:434] ip7_mbox_loc <- ip7_relu7_0_split_0
I0429 13:56:07.727988 30344 net.cpp:408] ip7_mbox_loc -> ip7_mbox_loc
I0429 13:56:07.731113 30344 net.cpp:150] Setting up ip7_mbox_loc
I0429 13:56:07.731122 30344 net.cpp:157] Top shape: 2 24 7 7 (2352)
I0429 13:56:07.731125 30344 net.cpp:165] Memory required for data: 234030400
I0429 13:56:07.731130 30344 layer_factory.hpp:77] Creating layer ip7_mbox_loc_perm
I0429 13:56:07.731137 30344 net.cpp:100] Creating Layer ip7_mbox_loc_perm
I0429 13:56:07.731139 30344 net.cpp:434] ip7_mbox_loc_perm <- ip7_mbox_loc
I0429 13:56:07.731144 30344 net.cpp:408] ip7_mbox_loc_perm -> ip7_mbox_loc_perm
I0429 13:56:07.731235 30344 net.cpp:150] Setting up ip7_mbox_loc_perm
I0429 13:56:07.731240 30344 net.cpp:157] Top shape: 2 7 7 24 (2352)
I0429 13:56:07.731252 30344 net.cpp:165] Memory required for data: 234039808
I0429 13:56:07.731256 30344 layer_factory.hpp:77] Creating layer ip7_mbox_loc_flat
I0429 13:56:07.731261 30344 net.cpp:100] Creating Layer ip7_mbox_loc_flat
I0429 13:56:07.731262 30344 net.cpp:434] ip7_mbox_loc_flat <- ip7_mbox_loc_perm
I0429 13:56:07.731266 30344 net.cpp:408] ip7_mbox_loc_flat -> ip7_mbox_loc_flat
I0429 13:56:07.731287 30344 net.cpp:150] Setting up ip7_mbox_loc_flat
I0429 13:56:07.731292 30344 net.cpp:157] Top shape: 2 1176 (2352)
I0429 13:56:07.731294 30344 net.cpp:165] Memory required for data: 234049216
I0429 13:56:07.731297 30344 layer_factory.hpp:77] Creating layer ip7_mbox_conf
I0429 13:56:07.731302 30344 net.cpp:100] Creating Layer ip7_mbox_conf
I0429 13:56:07.731307 30344 net.cpp:434] ip7_mbox_conf <- ip7_relu7_0_split_1
I0429 13:56:07.731312 30344 net.cpp:408] ip7_mbox_conf -> ip7_mbox_conf
I0429 13:56:07.733801 30344 net.cpp:150] Setting up ip7_mbox_conf
I0429 13:56:07.733810 30344 net.cpp:157] Top shape: 2 42 7 7 (4116)
I0429 13:56:07.733814 30344 net.cpp:165] Memory required for data: 234065680
I0429 13:56:07.733819 30344 layer_factory.hpp:77] Creating layer ip7_mbox_conf_perm
I0429 13:56:07.733824 30344 net.cpp:100] Creating Layer ip7_mbox_conf_perm
I0429 13:56:07.733826 30344 net.cpp:434] ip7_mbox_conf_perm <- ip7_mbox_conf
I0429 13:56:07.733831 30344 net.cpp:408] ip7_mbox_conf_perm -> ip7_mbox_conf_perm
I0429 13:56:07.733916 30344 net.cpp:150] Setting up ip7_mbox_conf_perm
I0429 13:56:07.733922 30344 net.cpp:157] Top shape: 2 7 7 42 (4116)
I0429 13:56:07.733923 30344 net.cpp:165] Memory required for data: 234082144
I0429 13:56:07.733925 30344 layer_factory.hpp:77] Creating layer ip7_mbox_conf_flat
I0429 13:56:07.733932 30344 net.cpp:100] Creating Layer ip7_mbox_conf_flat
I0429 13:56:07.733933 30344 net.cpp:434] ip7_mbox_conf_flat <- ip7_mbox_conf_perm
I0429 13:56:07.733937 30344 net.cpp:408] ip7_mbox_conf_flat -> ip7_mbox_conf_flat
I0429 13:56:07.733960 30344 net.cpp:150] Setting up ip7_mbox_conf_flat
I0429 13:56:07.733964 30344 net.cpp:157] Top shape: 2 2058 (4116)
I0429 13:56:07.733966 30344 net.cpp:165] Memory required for data: 234098608
I0429 13:56:07.733968 30344 layer_factory.hpp:77] Creating layer ip7_mbox_priorbox
I0429 13:56:07.733974 30344 net.cpp:100] Creating Layer ip7_mbox_priorbox
I0429 13:56:07.733976 30344 net.cpp:434] ip7_mbox_priorbox <- ip7_relu7_0_split_2
I0429 13:56:07.733979 30344 net.cpp:434] ip7_mbox_priorbox <- data_data_0_split_1
I0429 13:56:07.733983 30344 net.cpp:408] ip7_mbox_priorbox -> ip7_mbox_priorbox
I0429 13:56:07.734006 30344 net.cpp:150] Setting up ip7_mbox_priorbox
I0429 13:56:07.734009 30344 net.cpp:157] Top shape: 1 2 1176 (2352)
I0429 13:56:07.734011 30344 net.cpp:165] Memory required for data: 234108016
I0429 13:56:07.734014 30344 layer_factory.hpp:77] Creating layer mbox_loc
I0429 13:56:07.734017 30344 net.cpp:100] Creating Layer mbox_loc
I0429 13:56:07.734019 30344 net.cpp:434] mbox_loc <- ip7_mbox_loc_flat
I0429 13:56:07.734025 30344 net.cpp:408] mbox_loc -> mbox_loc
I0429 13:56:07.734045 30344 net.cpp:150] Setting up mbox_loc
I0429 13:56:07.734050 30344 net.cpp:157] Top shape: 2 1176 (2352)
I0429 13:56:07.734051 30344 net.cpp:165] Memory required for data: 234117424
I0429 13:56:07.734053 30344 layer_factory.hpp:77] Creating layer mbox_conf
I0429 13:56:07.734056 30344 net.cpp:100] Creating Layer mbox_conf
I0429 13:56:07.734059 30344 net.cpp:434] mbox_conf <- ip7_mbox_conf_flat
I0429 13:56:07.734064 30344 net.cpp:408] mbox_conf -> mbox_conf
I0429 13:56:07.734081 30344 net.cpp:150] Setting up mbox_conf
I0429 13:56:07.734086 30344 net.cpp:157] Top shape: 2 2058 (4116)
I0429 13:56:07.734088 30344 net.cpp:165] Memory required for data: 234133888
I0429 13:56:07.734091 30344 layer_factory.hpp:77] Creating layer mbox_priorbox
I0429 13:56:07.734093 30344 net.cpp:100] Creating Layer mbox_priorbox
I0429 13:56:07.734095 30344 net.cpp:434] mbox_priorbox <- ip7_mbox_priorbox
I0429 13:56:07.734099 30344 net.cpp:408] mbox_priorbox -> mbox_priorbox
I0429 13:56:07.734125 30344 net.cpp:150] Setting up mbox_priorbox
I0429 13:56:07.734129 30344 net.cpp:157] Top shape: 1 2 1176 (2352)
I0429 13:56:07.734131 30344 net.cpp:165] Memory required for data: 234143296
I0429 13:56:07.734133 30344 layer_factory.hpp:77] Creating layer mbox_loss
I0429 13:56:07.734140 30344 net.cpp:100] Creating Layer mbox_loss
I0429 13:56:07.734144 30344 net.cpp:434] mbox_loss <- mbox_loc
I0429 13:56:07.734146 30344 net.cpp:434] mbox_loss <- mbox_conf
I0429 13:56:07.734150 30344 net.cpp:434] mbox_loss <- mbox_priorbox
…
  name: "data"
  type: "AnnotatedData"
  top: "data"
  top: "label"
  include {
    phase: TEST
  }
  transform_param {
    scale: 0.12156863
    resize_param {
      prob: 1
      resize_mode: WARP
      height: 224
      width: 224
      interp_mode: LINEAR
    }
  }
  data_param {
    source: "/home/zhangwanchun/data/VOCdevkit/VOC0712/lmdb/VOC0712_test_lmdb"
    batch_size: 10
    backend: LMDB
  }
  annotated_data_param {
    batch_sampler {
    }
    label_map_file: "/home/zhangwanchun/data/VOCdevkit/VOC0712/lmdb/labelmap_voc.prototxt"
  }
}
layer {
  name: "conv1_1"
  type: "QuantConvolution"
  bottom: "data"
  top: "conv1_1"
  convolution_param {
    num_output: 64
    pad: 1
    kernel_size: 3
    weight_filler {
      type: "xavier"
    }
    bias_filler {
      type: "constant"
      value: 0
    }
  }
  quant_convolution_param {
    coef_precision: THREE_BITS
    bw_params: 8
    shift_enable: false
  }
}
layer {
  name: "quant_relu1_1"
  type: "QuantReLU"
  bottom: "conv1_1"
  top: "conv1_1"
  param {
    lr_mult: 0
  }
  quant_relu_param {
    filler {
      type: "constant"
      value: 34.503571
    }
    channel_shared: true
    act_bits: 5
    quant_enable: true
  }
}
layer {
  name: "conv1_2"
  type: "QuantConvolution"
  bottom: "conv1_1"
  top: "conv1_2"
  convolution_param {
    num_output: 64
    pad: 1
    kernel_size: 3
    weight_filler {
      type: "xavier"
    }
    bias_filler {
      type: "constant"
      value: 0
    }
  }
  quant_convolution_param {
    coef_precision: THREE_BITS
    bw_params: 8
    shift_enable: false
  }
}
layer {
  name: "quant_relu1_2"
  type: "QuantReLU"
  bottom: "conv1_2"
  top: "conv1_2"
  param {
    lr_mult: 0
  }
  quant_relu_param {
    filler {
      type: "constant"
      value: 51.192287
    }
    channel_shared: true
    act_bits: 5
    quant_enable: true
  }
}
layer {
  name: "pool1"
  type: "Pooling"
  bottom: "conv1_2"
  top: "pool1"
  pooling_param {
    pool: MAX
    kernel_size: 2
    stride: 2
  }
}
layer {
  name: "conv2_1"
  type: "QuantConvolution"
  bottom: "pool1"
  top: "conv2_1"
  convolution_param {
    num_output: 128
    pad: 1
    kernel_size: 3
    weight_filler {
      type: "xavier"
    }
    bias_filler {
      type: "constant"
      value: 0
    }
  }
  quant_convolution_param {
    coef_precision: THREE_BITS
    bw_params: 8
    shift_enable: false
  }
}
layer {
  name: "quant_relu2_1"
  type: "QuantReLU"
  bottom: "conv2_1"
  top: "conv2_1"
  param {
    lr_mult: 0
  }
  quant_relu_param {
    filler {
      type: "constant"
      value: 41.603291
    }
    channel_shared: true
    act_bits: 5
    quant_enable: true
  }
}
layer {
  name: "conv2_2"
  type: "QuantConvolution"
  bottom: "conv2_1"
  top: "conv2_2"
  convolution_param {
    num_output: 128
    pad: 1
    kernel_size: 3
    weight_filler {
      type: "xavier"
    }
    bias_filler {
      type: "constant"
      value: 0
    }
  }
  quant_convolution_param {
    coef_precision: THREE_BITS
    bw_params: 8
    shift_enable: false
  }
}
layer {
  name: "quant_relu2_2"
  type: "QuantReLU"
  bottom: "conv2_2"
  top: "conv2_2"
  param {
    lr_mult: 0
  }
  quant_relu_param {
    filler {
      type: "constant"
      value: 48.787159
    }
    channel_shared: true
    act_bits: 5
    quant_enable: true
  }
}
layer {
  name: "pool2"
  type: "Pooling"
  bottom: "conv2_2"
  top: "pool2"
  pooling_param {
    pool: MAX
    kernel_size: 2
    stride: 2
  }
}
layer {
  name: "conv3_1"
  type: "QuantConvolution"
  bottom: "pool2"
  top: "conv3_1"
  convolution_param {
    num_output: 256
    pad: 1
    kernel_size: 3
    weight_filler {
      type: "xavier"
    }
    bias_filler {
      type: "constant"
      value: 0
    }
  }
  quant_convolution_param {
    coef_precision: THREE_BITS
    bw_params: 8
    shift_enable: false
  }
}
layer {
  name: "quant_relu3_1"
  type: "QuantReLU"
  bottom: "conv3_1"
  top: "conv3_1"
  param {
    lr_mult: 0
  }
  quant_relu_param {
    filler {
      type: "constant"
      value: 34.203297
    }
    channel_shared: true
    act_bits: 5
    quant_enable: true
  }
}
layer {
  name: "conv3_2"
  type: "QuantConvolution"
  bottom: "conv3_1"
  top: "conv3_2"
  convolution_param {
    num_output: 256
    pad: 1
    kernel_size: 3
    weight_filler {
      type: "xavier"
    }
    bias_filler {
      type: "constant"
      value: 0
    }
  }
  quant_convolution_param {
    coef_precision: THREE_BITS
    bw_params: 8
    shift_enable: false
  }
}
layer {
  name: "quant_relu3_2"
  type: "QuantReLU"
  bottom: "conv3_2"
  top: "conv3_2"
  param {
    lr_mult: 0
  }
  quant_relu_param {
    filler {
      type: "constant"
      value: 34.1834
    }
    channel_shared: true
    act_bits: 5
    quant_enable: true
  }
}
layer {
  name: "conv3_3"
  type: "QuantConvolution"
  bottom: "conv3_2"
  top: "conv3_3"
  convolution_param {
    num_output: 256
    pad: 1
    kernel_size: 3
    weight_filler {
      type: "xavier"
    }
    bias_filler {
      type: "constant"
      value: 0
    }
  }
  quant_convolution_param {
    coef_precision: THREE_BITS
    bw_params: 8
    shift_enable: false
  }
}
layer {
  name: "quant_relu3_3"
  type: "QuantReLU"
  bottom: "conv3_3"
  top: "conv3_3"
  param {
    lr_mult: 0
  }
  quant_relu_param {
    filler {
      type: "constant"
      value: 29.019073
    }
    channel_shared: true
    act_bits: 5
    quant_enable: true
  }
}
layer {
  name: "pool3"
  type: "Pooling"
  bottom: "conv3_3"
  top: "pool3"
  pooling_param {
    pool: MAX
    kernel_size: 2
    stride: 2
  }
}
layer {
  name: "conv4_1"
  type: "QuantConvolution"
  bottom: "pool3"
  top: "conv4_1"
  convolution_param {
    num_output: 512
    pad: 1
    kernel_size: 3
    weight_filler {
      type: "xavier"
    }
    bias_filler {
      type: "constant"
      value: 0
    }
  }
  quant_convolution_param {
    coef_precision: ONE_BIT
    bw_params: 8
    shift_enable: false
  }
}
layer {
  name: "quant_relu4_1"
  type: "QuantReLU"
  bottom: "conv4_1"
  top: "conv4_1"
  param {
    lr_mult: 0
  }
  quant_relu_param {
    filler {
      type: "constant"
      value: 22.288908
    }
    channel_shared: true
    act_bits: 5
    quant_enable: true
  }
}
layer {
  name: "conv4_2"
  type: "QuantConvolution"
  bottom: "conv4_1"
  top: "conv4_2"
  convolution_param {
    num_output: 512
    pad: 1
    kernel_size: 3
    weight_filler {
      type: "xavier"
    }
    bias_filler {
      type: "constant"
      value: 0
    }
  }
  quant_convolution_param {
    coef_precision: ONE_BIT
    bw_params: 8
    shift_enable: false
  }
}
layer {
  name: "quant_relu4_2"
  type: "QuantReLU"
  bottom: "conv4_2"
  top: "conv4_2"
  param {
    lr_mult: 0
  }
  quant_relu_param {
    filler {
      type: "constant"
      value: 16.420193
    }
    channel_shared: true
    act_bits: 5
    quant_enable: true
  }
}
layer {
  name: "conv4_3"
  type: "QuantConvolution"
  bottom: "conv4_2"
  top: "conv4_3"
  convolution_param {
    num_output: 512
    pad: 1
    kernel_size: 3
    weight_filler {
      type: "xavier"
    }
    bias_filler {
      type: "constant"
      value: 0
    }
  }
  quant_convolution_param {
    coef_precision: ONE_BIT
    bw_params: 8
    shift_enable: false
  }
}
layer {
  name: "quant_relu4_3"
  type: "QuantReLU"
  bottom: "conv4_3"
  top: "conv4_3"
  param {
    lr_mult: 0
  }
  quant_relu_param {
    filler {
      type: "constant"
      value: 9.47969
    }
    channel_shared: true
    act_bits: 5
    quant_enable: true
  }
}
layer {
  name: "pool4"
  type: "Pooling"
  bottom: "conv4_3"
  top: "pool4"
  pooling_param {
    pool: MAX
    kernel_size: 2
    stride: 2
  }
}
layer {
  name: "conv5_1"
  type: "QuantConvolution"
  bottom: "pool4"
  top: "conv5_1"
  convolution_param {
    num_output: 512
    pad: 1
    kernel_size: 3
    weight_filler {
      type: "xavier"
    }
    bias_filler {
      type: "constant"
      value: 0
    }
  }
  quant_convolution_param {
    coef_precision: ONE_BIT
    bw_params: 8
    shift_enable: false
  }
}
layer {
  name: "quant_relu5_1"
  type: "QuantReLU"
  bottom: "conv5_1"
  top: "conv5_1"
  param {
    lr_mult: 0
  }
  quant_relu_param {
    filler {
      type: "constant"
      value: 7.7121849
    }
    channel_shared: true
    act_bits: 5
    quant_enable: true
  }
}
layer {
  name: "conv5_2"
  type: "QuantConvolution"
  bottom: "conv5_1"
  top: "conv5_2"
  param {
    lr_mult: 1
    decay_mult: 0
  }
  param {
    lr_mult: 1
    decay_mult: 1
  }
  convolution_param {
    num_output: 512
    pad: 1
    kernel_size: 3
    weight_filler {
      type: "xavier"
    }
    bias_filler {
      type: "constant"
      value: 0
    }
  }
  quant_convolution_param {
    coef_precision: ONE_BIT
    bw_params: 8
    shift_enable: false
  }
}
layer {
  name: "quant_relu5_2"
  type: "QuantReLU"
  bottom: "conv5_2"
  top: "conv5_2"
  param {
    lr_mult: 0
  }
  quant_relu_param {
    filler {
      type: "constant"
      value: 5.2930703
    }
    channel_shared: true
    act_bits: 5
    quant_enable: true
  }
}
layer {
  name: "conv5_3"
  type: "QuantConvolution"
  bottom: "conv5_2"
  top: "conv5_3"
  param {
    lr_mult: 1
    decay_mult: 0
  }
  param {
    lr_mult: 1
    decay_mult: 200
  }
  convolution_param {
    num_output: 512
    pad: 1
    kernel_size: 3
    weight_filler {
      type: "xavier"
    }
    bias_filler {
      type: "constant"
      value: 0
    }
  }
  quant_convolution_param {
    coef_precision: ONE_BIT
    bw_params: 8
    shift_enable: false
  }
}
layer {
  name: "quant_relu5_3"
  type: "QuantReLU"
  bottom: "conv5_3"
  top: "conv5_3"
  param {
    lr_mult: 0
  }
  quant_relu_param {
    filler {
      type: "constant"
      value: 3.1015894
    }
    channel_shared: true
    act_bits: 5
    quant_enable: true
  }
}
layer {
  name: "pool5"
  type: "Pooling"
  bottom: "conv5_3"
  top: "pool5"
  pooling_param {
    pool: MAX
    kernel_size: 2
    stride: 2
  }
}
layer {
  name: "ip6"
  type: "Convolution"
  bottom: "pool5"
  top: "ip6"
  param {
    lr_mult: 1
    decay_mult: 1
  }
  param {
    lr_mult: 2
    decay_mult: 0
  }
  convolution_param {
    num_output: 512
    pad: 1
    kernel_size: 3
    weight_filler {
      type: "xavier"
    }
    bias_filler {
      type: "constant"
      value: 0
    }
  }
}
layer {
  name: "relu6"
  type: "ReLU"
  bottom: "ip6"
  top: "ip6"
}
layer {
  name: "ip7"
  type: "Convolution"
  bottom: "ip6"
  top: "ip7"
  param {
    lr_mult: 1
    decay_mult: 1
  }
  param {
    lr_mult: 2
    decay_mult: 0
  }
  convolution_param {
    num_output: 512
    kernel_size: 1
    weight_filler {
      type: "xavier"
    }
    bias_filler {
      type: "constant"
      value: 0
    }
  }
}
layer {
  name: "relu7"
  type: "ReLU"
  bottom: "ip7"
  top: "ip7"
}
layer {
  name: "ip7_mbox_loc"
  type: "Convolution"
  bottom: "ip7"
  top: "ip7_mbox_loc"
  param {
    lr_mult: 1
    decay_mult: 1
  }
  param {
    lr_mult: 2
    decay_mult: 0
  }
  convolution_param {
    num_output: 24
    pad: 1
    kernel_size: 3
    stride: 1
    weight_filler {
      type: "xavier"
    }
    bias_filler {
      type: "constant"
      value: 0
    }
  }
}
layer {
  name: "ip7_mbox_loc_perm"
  type: "Permute"
  bottom: "ip7_mbox_loc"
  top: "ip7_mbox_loc_perm"
  permute_param {
    order: 0
    order: 2
    order: 3
    order: 1
  }
}
layer {
  name: "ip7_mbox_loc_flat"
  type: "Flatten"
  bottom: "ip7_mbox_loc_perm"
  top: "ip7_mbox_loc_flat"
  flatten_param {
    axis: 1
  }
}
layer {
  name: "ip7_mbox_conf"
  type: "Convolution"
  bottom: "ip7"
  top: "ip7_mbox_conf"
  param {
    lr_mult: 1
    decay_mult: 1
  }
  param {
    lr_mult: 2
    decay_mult: 0
  }
  convolution_param {
    num_output: 42
    pad: 1
    kernel_size: 3
    stride: 1
    weight_filler {
      type: "xavier"
    }
    bias_filler {
      type: "constant"
      value: 0
    }
  }
}
layer {
  name: "ip7_mbox_conf_perm"
  type: "Permute"
  bottom: "ip7_mbox_conf"
  top: "ip7_mbox_conf_perm"
  permute_param {
    order: 0
    order: 2
    order: 3
    order: 1
  }
}
layer {
  name: "ip7_mbox_conf_flat"
  type: "Flatten"
  bottom: "ip7_mbox_conf_perm"
  top: "ip7_mbox_conf_flat"
  flatten_param {
    axis: 1
  }
}
layer {
  name: "ip7_mbox_priorbox"
  type: "PriorBox"
  bottom: "ip7"
  bottom: "data"
  top: "ip7_mbox_priorbox"
  prior_box_param {
    min_size: 20
    max_size: 210
    aspect_ratio: 2
    aspect_ratio: 3
    flip: true
    clip: false
    variance: 0.1
    variance: 0.1
    variance: 0.2
    variance: 0.2
    step: 32
    offset: 0.5
  }
}
layer {
  name: "mbox_loc"
  type: "Concat"
  bottom: "ip7_mbox_loc_flat"
  top: "mbox_loc"
  concat_param {
    axis: 1
  }
}
layer {
  name: "mbox_conf"
  type: "Concat"
  bottom: "ip7_mbox_conf_flat"
  top: "mbox_conf"
  concat_param {
    axis: 1
  }
}
layer {
  name: "mbox_priorbox"
  type: "Concat"
  bottom: "ip7_mbox_priorbox"
  top: "mbox_priorbox"
  concat_param {
    axis: 2
  }
}
layer {
  name: "mbox_conf_reshape"
  type: "Reshape"
  bottom: "mbox_conf"
  top: "mbox_conf_reshape"
  reshape_param {
    shape {
      dim: 0
      dim: -1
      dim: 7
    }
  }
}
layer {
  name: "mbox_conf_softmax"
  type: "Softmax"
  bottom: "mbox_conf_reshape"
  top: "mbox_conf_softmax"
  softmax_param {
    axis: 2
  }
}
layer {
  name: "mbox_conf_flatten"
  type: "Flatten"
  bottom: "mbox_conf_softmax"
  top: "mbox_conf_flatten"
  flatten_param {
    axis: 1
  }
}
layer {
  name: "detection_out"
  type: "DetectionOutput"
  bottom: "mbox_loc"
  bottom: "mbox_conf_flatten"
  bottom: "mbox_priorbox"
  top: "detection_out"
  include {
    phase: TEST
  }
  detection_output_param {
    num_classes: 7
    share_location: true
    background_label_id: 0
    nms_param {
      nms_threshold: 0.45
      top_k: 400
    }
    code_type: CENTER_SIZE
    keep_top_k: 200
    confidence_threshold: 0.01
  }
}
layer {
  name: "detection_eval"
  type: "DetectionEvaluate"
  bottom: "detection_out"
  bottom: "label"
  top: "detection_eval"
  include {
    phase: TEST
  }
  detection_evaluate_param {
    num_classes: 7
    background_label_id: 0
    overlap_threshold: 0.5
    evaluate_difficult_gt: false
    name_size_file: "/home/zhangwanchun/data/VOCdevkit/VOC0712/lmdb/test_name_size.txt"
  }
}
I0429 13:56:07.736294 30344 layer_factory.hpp:77] Creating layer data
I0429 13:56:07.736367 30344 net.cpp:100] Creating Layer data
I0429 13:56:07.736372 30344 net.cpp:408] data -> data
I0429 13:56:07.736395 30344 net.cpp:408] data -> label
I0429 13:56:07.737686 30384 db_lmdb.cpp:35] Opened lmdb /home/zhangwanchun/data/VOCdevkit/VOC0712/lmdb/VOC0712_test_lmdb
I0429 13:56:07.738554 30344 annotated_data_layer.cpp:62] output data size: 10,3,224,224
I0429 13:56:07.744669 30344 net.cpp:150] Setting up data
I0429 13:56:07.744685 30344 net.cpp:157] Top shape: 10 3 224 224 (1505280)
I0429 13:56:07.744722 30344 net.cpp:157] Top shape: 1 1 1 8 (8)
I0429 13:56:07.744724 30344 net.cpp:165] Memory required for data: 6021152
I0429 13:56:07.744729 30344 layer_factory.hpp:77] Creating layer data_data_0_split
I0429 13:56:07.744737 30344 net.cpp:100] Creating Layer data_data_0_split
I0429 13:56:07.744740 30344 net.cpp:434] data_data_0_split <- data
I0429 13:56:07.744745 30344 net.cpp:408] data_data_0_split -> data_data_0_split_0
I0429 13:56:07.744753 30344 net.cpp:408] data_data_0_split -> data_data_0_split_1
I0429 13:56:07.744827 30344 net.cpp:150] Setting up data_data_0_split
I0429 13:56:07.744833 30344 net.cpp:157] Top shape: 10 3 224 224 (1505280)
I0429 13:56:07.744835 30344 net.cpp:157] Top shape: 10 3 224 224 (1505280)
I0429 13:56:07.744837 30344 net.cpp:165] Memory required for data: 18063392
I0429 13:56:07.744840 30344 layer_factory.hpp:77] Creating layer conv1_1
I0429 13:56:07.744846 30344 net.cpp:100] Creating Layer conv1_1
I0429 13:56:07.744849 30344 net.cpp:434] conv1_1 <- data_data_0_split_0
I0429 13:56:07.744853 30344 net.cpp:408] conv1_1 -> conv1_1
I0429 13:56:07.745159 30344 net.cpp:150] Setting up conv1_1
I0429 13:56:07.745165 30344 net.cpp:157] Top shape: 10 64 224 224 (32112640)
I0429 13:56:07.745167 30344 net.cpp:165] Memory required for data: 146513952
I0429 13:56:07.745174 30344 layer_factory.hpp:77] Creating layer quant_relu1_1
I0429 13:56:07.745179 30344 net.cpp:100] Creating Layer quant_relu1_1
I0429 13:56:07.745182 30344 net.cpp:434] quant_relu1_1 <- conv1_1
I0429 13:56:07.745185 30344 net.cpp:395] quant_relu1_1 -> conv1_1 (in-place)
I0429 13:56:07.749152 30344 net.cpp:150] Setting up quant_relu1_1
I0429 13:56:07.749166 30344 net.cpp:157] Top shape: 10 64 224 224 (32112640)
I0429 13:56:07.749168 30344 net.cpp:165] Memory required for data: 274964512
I0429 13:56:07.749202 30344 layer_factory.hpp:77] Creating layer conv1_2
I0429 13:56:07.749212 30344 net.cpp:100] Creating Layer conv1_2
I0429 13:56:07.749214 30344 net.cpp:434] conv1_2 <- conv1_1
I0429 13:56:07.749219 30344 net.cpp:408] conv1_2 -> conv1_2
I0429 13:56:07.750034 30344 net.cpp:150] Setting up conv1_2
I0429 13:56:07.750041 30344 net.cpp:157] Top shape: 10 64 224 224 (32112640)
I0429 13:56:07.750044 30344 net.cpp:165] Memory required for data: 403415072
I0429 13:56:07.750049 30344 layer_factory.hpp:77] Creating layer quant_relu1_2
I0429 13:56:07.750054 30344 net.cpp:100] Creating Layer quant_relu1_2
I0429 13:56:07.750056 30344 net.cpp:434] quant_relu1_2 <- conv1_2
I0429 13:56:07.750061 30344 net.cpp:395] quant_relu1_2 -> conv1_2 (in-place)
I0429 13:56:07.753628 30344 net.cpp:150] Setting up quant_relu1_2
I0429 13:56:07.753648 30344 net.cpp:157] Top shape: 10 64 224 224 (32112640)
I0429 13:56:07.753649 30344 net.cpp:165] Memory required for data: 531865632
I0429 13:56:07.753655 30344 layer_factory.hpp:77] Creating layer pool1
I0429 13:56:07.753661 30344 net.cpp:100] Creating Layer pool1
I0429 13:56:07.753664 30344 net.cpp:434] pool1 <- conv1_2
I0429 13:56:07.753669 30344 net.cpp:408] pool1 -> pool1
I0429 13:56:07.753746 30344 net.cpp:150] Setting up pool1
I0429 13:56:07.753751 30344 net.cpp:157] Top shape: 10 64 112 112 (8028160)
I0429 13:56:07.753752 30344 net.cpp:165] Memory required for data: 563978272
I0429 13:56:07.753754 30344 layer_factory.hpp:77] Creating layer conv2_1
I0429 13:56:07.753760 30344 net.cpp:100] Creating Layer conv2_1
I0429 13:56:07.753762 30344 net.cpp:434] conv2_1 <- pool1
I0429 13:56:07.753767 30344 net.cpp:408] conv2_1 -> conv2_1
I0429 13:56:07.754276 30344 net.cpp:150] Setting up conv2_1
I0429 13:56:07.754282 30344 net.cpp:157] Top shape: 10 128 112 112 (16056320)
I0429 13:56:07.754284 30344 net.cpp:165] Memory required for data: 628203552
I0429 13:56:07.754288 30344 layer_factory.hpp:77] Creating layer quant_relu2_1
I0429 13:56:07.754294 30344 net.cpp:100] Creating Layer quant_relu2_1
I0429 13:56:07.754297 30344 net.cpp:434] quant_relu2_1 <- conv2_1
I0429 13:56:07.754300 30344 net.cpp:395] quant_relu2_1 -> conv2_1 (in-place)
I0429 13:56:07.756659 30344 net.cpp:150] Setting up quant_relu2_1
I0429 13:56:07.756680 30344 net.cpp:157] Top shape: 10 128 112 112 (16056320)
I0429 13:56:07.756682 30344 net.cpp:165] Memory required for data: 692428832
I0429 13:56:07.756690 30344 layer_factory.hpp:77] Creating layer conv2_2
I0429 13:56:07.756695 30344 net.cpp:100] Creating Layer conv2_2
I0429 13:56:07.756698 30344 net.cpp:434] conv2_2 <- conv2_1
I0429 13:56:07.756703 30344 net.cpp:408] conv2_2 -> conv2_2
I0429 13:56:07.757431 30344 net.cpp:150] Setting up conv2_2
I0429 13:56:07.757436 30344 net.cpp:157] Top shape: 10 128 112 112 (16056320)
I0429 13:56:07.757438 30344 net.cpp:165] Memory required for data: 756654112
I0429 13:56:07.757442 30344 layer_factory.hpp:77] Creating layer quant_relu2_2
I0429 13:56:07.757447 30344 net.cpp:100] Creating Layer quant_relu2_2
I0429 13:56:07.757448 30344 net.cpp:434] quant_relu2_2 <- conv2_2
I0429 13:56:07.757452 30344 net.cpp:395] quant_relu2_2 -> conv2_2 (in-place)
I0429 13:56:07.759209 30344 net.cpp:150] Setting up quant_relu2_2
I0429 13:56:07.759219 30344 net.cpp:157] Top shape: 10 128 112 112 (16056320)
I0429 13:56:07.759222 30344 net.cpp:165] Memory required for data: 820879392
I0429 13:56:07.759225 30344 layer_factory.hpp:77] Creating layer pool2
I0429 13:56:07.759232 30344 net.cpp:100] Creating Layer pool2
I0429 13:56:07.759233 30344 net.cpp:434] pool2 <- conv2_2
I0429 13:56:07.759238 30344 net.cpp:408] pool2 -> pool2
I0429 13:56:07.759270 30344 net.cpp:150] Setting up pool2
I0429 13:56:07.759275 30344 net.cpp:157] Top shape: 10 128 56 56 (4014080)
I0429 13:56:07.759277 30344 net.cpp:165] Memory required for data: 836935712
I0429 13:56:07.759279 30344 layer_factory.hpp:77] Creating layer conv3_1
I0429 13:56:07.759284 30344 net.cpp:100] Creating Layer conv3_1
I0429 13:56:07.759286 30344 net.cpp:434] conv3_1 <- pool2
I0429 13:56:07.759290 30344 net.cpp:408] conv3_1 -> conv3_1
I0429 13:56:07.761117 30344 net.cpp:150] Setting up conv3_1
I0429 13:56:07.761127 30344 net.cpp:157] Top shape: 10 256 56 56 (8028160)
I0429 13:56:07.761130 30344 net.cpp:165] Memory required for data: 869048352
I0429 13:56:07.761134 30344 layer_factory.hpp:77] Creating layer quant_relu3_1
I0429 13:56:07.761140 30344 net.cpp:100] Creating Layer quant_relu3_1
I0429 13:56:07.761142 30344 net.cpp:434] quant_relu3_1 <- conv3_1
I0429 13:56:07.761147 30344 net.cpp:395] quant_relu3_1 -> conv3_1 (in-place)
I0429 13:56:07.762135 30344 net.cpp:150] Setting up quant_relu3_1
I0429 13:56:07.762143 30344 net.cpp:157] Top shape: 10 256 56 56 (8028160)
I0429 13:56:07.762145 30344 net.cpp:165] Memory required for data: 901160992
I0429 13:56:07.762149 30344 layer_factory.hpp:77] Creating layer conv3_2
I0429 13:56:07.762154 30344 net.cpp:100] Creating Layer conv3_2
I0429 13:56:07.762157 30344 net.cpp:434] conv3_2 <- conv3_1
I0429 13:56:07.762161 30344 net.cpp:408] conv3_2 -> conv3_2
I0429 13:56:07.765039 30344 net.cpp:150] Setting up conv3_2
I0429 13:56:07.765051 30344 net.cpp:157] Top shape: 10 256 56 56 (8028160)
I0429 13:56:07.765054 30344 net.cpp:165] Memory required for data: 933273632
I0429 13:56:07.765061 30344 layer_factory.hpp:77] Creating layer quant_relu3_2
I0429 13:56:07.765067 30344 net.cpp:100] Creating Layer quant_relu3_2
I0429 13:56:07.765070 30344 net.cpp:434] quant_relu3_2 <- conv3_2
I0429 13:56:07.765100 30344 net.cpp:395] quant_relu3_2 -> conv3_2 (in-place)
I0429 13:56:07.766144 30344 net.cpp:150] Setting up quant_relu3_2
I0429 13:56:07.766153 30344 net.cpp:157] Top shape: 10 256 56 56 (8028160)
I0429 13:56:07.766155 30344 net.cpp:165] Memory required for data: 965386272
I0429 13:56:07.766160 30344 layer_factory.hpp:77] Creating layer conv3_3
I0429 13:56:07.766166 30344 net.cpp:100] Creating Layer conv3_3
I0429 13:56:07.766170 30344 net.cpp:434] conv3_3 <- conv3_2
I0429 13:56:07.766173 30344 net.cpp:408] conv3_3 -> conv3_3
I0429 13:56:07.768990 30344 net.cpp:150] Setting up conv3_3
I0429 13:56:07.768999 30344 net.cpp:157] Top shape: 10 256 56 56 (8028160)
I0429 13:56:07.769002 30344 net.cpp:165] Memory required for data: 997498912
I0429 13:56:07.769006 30344 layer_factory.hpp:77] Creating layer quant_relu3_3
I0429 13:56:07.769021 30344 net.cpp:100] Creating Layer quant_relu3_3
I0429 13:56:07.769023 30344 net.cpp:434] quant_relu3_3 <- conv3_3
I0429 13:56:07.769029 30344 net.cpp:395] quant_relu3_3 -> conv3_3 (in-place)
I0429 13:56:07.770004 30344 net.cpp:150] Setting up quant_relu3_3
I0429 13:56:07.770012 30344 net.cpp:157] Top shape: 10 256 56 56 (8028160)
I0429 13:56:07.770015 30344 net.cpp:165] Memory required for data: 1029611552
I0429 13:56:07.770018 30344 layer_factory.hpp:77] Creating layer pool3
I0429 13:56:07.770023 30344 net.cpp:100] Creating Layer pool3
I0429 13:56:07.770025 30344 net.cpp:434] pool3 <- conv3_3
I0429 13:56:07.770030 30344 net.cpp:408] pool3 -> pool3
I0429 13:56:07.770066 30344 net.cpp:150] Setting up pool3
I0429 13:56:07.770071 30344 net.cpp:157] Top shape: 10 256 28 28 (2007040)
I0429 13:56:07.770072 30344 net.cpp:165] Memory required for data: 1037639712
I0429 13:56:07.770074 30344 layer_factory.hpp:77] Creating layer conv4_1
I0429 13:56:07.770078 30344 net.cpp:100] Creating Layer conv4_1
I0429 13:56:07.770081 30344 net.cpp:434] conv4_1 <- pool3
I0429 13:56:07.770084 30344 net.cpp:408] conv4_1 -> conv4_1
I0429 13:56:07.775380 30344 net.cpp:150] Setting up conv4_1
I0429 13:56:07.775391 30344 net.cpp:157] Top shape: 10 512 28 28 (4014080)
I0429 13:56:07.775393 30344 net.cpp:165] Memory required for data: 1053696032
I0429 13:56:07.775398 30344 layer_factory.hpp:77] Creating layer quant_relu4_1
I0429 13:56:07.775403 30344 net.cpp:100] Creating Layer quant_relu4_1
I0429 13:56:07.775408 30344 net.cpp:434] quant_relu4_1 <- conv4_1
I0429 13:56:07.775411 30344 net.cpp:395] quant_relu4_1 -> conv4_1 (in-place)
I0429 13:56:07.776115 30344 net.cpp:150] Setting up quant_relu4_1
I0429 13:56:07.776124 30344 net.cpp:157] Top shape: 10 512 28 28 (4014080)
I0429 13:56:07.776126 30344 net.cpp:165] Memory required for data: 1069752352
I0429 13:56:07.776134 30344 layer_factory.hpp:77] Creating layer conv4_2
I0429 13:56:07.776141 30344 net.cpp:100] Creating Layer conv4_2
I0429 13:56:07.776145 30344 net.cpp:434] conv4_2 <- conv4_1
I0429 13:56:07.776172 30344 net.cpp:408] conv4_2 -> conv4_2
I0429 13:56:07.786546 30344 net.cpp:150] Setting up conv4_2
I0429 13:56:07.786561 30344 net.cpp:157] Top shape: 10 512 28 28 (4014080)
I0429 13:56:07.786563 30344 net.cpp:165] Memory required for data: 1085808672
I0429 13:56:07.786569 30344 layer_factory.hpp:77] Creating layer quant_relu4_2
I0429 13:56:07.786577 30344 net.cpp:100] Creating Layer quant_relu4_2
I0429 13:56:07.786581 30344 net.cpp:434] quant_relu4_2 <- conv4_2
I0429 13:56:07.786586 30344 net.cpp:395] quant_relu4_2 -> conv4_2 (in-place)
I0429 13:56:07.787364 30344 net.cpp:150] Setting up quant_relu4_2
I0429 13:56:07.787371 30344 net.cpp:157] Top shape: 10 512 28 28 (4014080)
I0429 13:56:07.787374 30344 net.cpp:165] Memory required for data: 1101864992
I0429 13:56:07.787377 30344 layer_factory.hpp:77] Creating layer conv4_3
I0429 13:56:07.787384 30344 net.cpp:100] Creating Layer conv4_3
I0429 13:56:07.787386 30344 net.cpp:434] conv4_3 <- conv4_2
I0429 13:56:07.787391 30344 net.cpp:408] conv4_3 -> conv4_3
I0429 13:56:07.797999 30344 net.cpp:150] Setting up conv4_3
I0429 13:56:07.798015 30344 net.cpp:157] Top shape: 10 512 28 28 (4014080)
I0429 13:56:07.798017 30344 net.cpp:165] Memory required for data: 1117921312
I0429 13:56:07.798023 30344 layer_factory.hpp:77] Creating layer quant_relu4_3
I0429 13:56:07.798030 30344 net.cpp:100] Creating Layer quant_relu4_3
I0429 13:56:07.798034 30344 net.cpp:434] quant_relu4_3 <- conv4_3
I0429 13:56:07.798038 30344 net.cpp:395] quant_relu4_3 -> conv4_3 (in-place)
I0429 13:56:07.798825 30344 net.cpp:150] Setting up quant_relu4_3
I0429 13:56:07.798833 30344 net.cpp:157] Top shape: 10 512 28 28 (4014080)
I0429 13:56:07.798835 30344 net.cpp:165] Memory required for data: 1133977632
I0429 13:56:07.798840 30344 layer_factory.hpp:77] Creating layer pool4
I0429 13:56:07.798846 30344 net.cpp:100] Creating Layer pool4
I0429 13:56:07.798847 30344 net.cpp:434] pool4 <- conv4_3
I0429 13:56:07.798851 30344 net.cpp:408] pool4 -> pool4
I0429 13:56:07.798931 30344 net.cpp:150] Setting up pool4
I0429 13:56:07.798936 30344 net.cpp:157] Top shape: 10 512 14 14 (1003520)
I0429 13:56:07.798955 30344 net.cpp:165] Memory required for data: 1137991712
I0429 13:56:07.798959 30344 layer_factory.hpp:77] Creating layer conv5_1
I0429 13:56:07.798964 30344 net.cpp:100] Creating Layer conv5_1
I0429 13:56:07.798966 30344 net.cpp:434] conv5_1 <- pool4
I0429 13:56:07.798970 30344 net.cpp:408] conv5_1 -> conv5_1
I0429 13:56:07.809290 30344 net.cpp:150] Setting up conv5_1
I0429 13:56:07.809304 30344 net.cpp:157] Top shape: 10 512 14 14 (1003520)
I0429 13:56:07.809306 30344 net.cpp:165] Memory required for data: 1142005792
I0429 13:56:07.809311 30344 layer_factory.hpp:77] Creating layer quant_relu5_1
I0429 13:56:07.809319 30344 net.cpp:100] Creating Layer quant_relu5_1
I0429 13:56:07.809322 30344 net.cpp:434] quant_relu5_1 <- conv5_1
I0429 13:56:07.809327 30344 net.cpp:395] quant_relu5_1 -> conv5_1 (in-place)
I0429 13:56:07.809440 30344 net.cpp:150] Setting up quant_relu5_1
I0429 13:56:07.809446 30344 net.cpp:157] Top shape: 10 512 14 14 (1003520)
I0429 13:56:07.809448 30344 net.cpp:165] Memory required for data: 1146019872
I0429 13:56:07.809455 30344 layer_factory.hpp:77] Creating layer conv5_2
I0429 13:56:07.809463 30344 net.cpp:100] Creating Layer conv5_2
I0429 13:56:07.809464 30344 net.cpp:434] conv5_2 <- conv5_1
I0429 13:56:07.809469 30344 net.cpp:408] conv5_2 -> conv5_2
I0429 13:56:07.820320 30344 net.cpp:150] Setting up conv5_2
I0429 13:56:07.820333 30344 net.cpp:157] Top shape: 10 512 14 14 (1003520)
I0429 13:56:07.820336 30344 net.cpp:165] Memory required for data: 1150033952
I0429 13:56:07.820343 30344 layer_factory.hpp:77] Creating layer quant_relu5_2
I0429 13:56:07.820349 30344 net.cpp:100] Creating Layer quant_relu5_2
I0429 13:56:07.820353 30344 net.cpp:434] quant_relu5_2 <- conv5_2
I0429 13:56:07.820358 30344 net.cpp:395] quant_relu5_2 -> conv5_2 (in-place)
I0429 13:56:07.820506 30344 net.cpp:150] Setting up quant_relu5_2
I0429 13:56:07.820511 30344 net.cpp:157] Top shape: 10 512 14 14 (1003520)
I0429 13:56:07.820513 30344 net.cpp:165] Memory required for data: 1154048032
I0429 13:56:07.820516 30344 layer_factory.hpp:77] Creating layer conv5_3
I0429 13:56:07.820524 30344 net.cpp:100] Creating Layer conv5_3
I0429 13:56:07.820526 30344 net.cpp:434] conv5_3 <- conv5_2
I0429 13:56:07.820530 30344 net.cpp:408] conv5_3 -> conv5_3
I0429 13:56:07.831080 30344 net.cpp:150] Setting up conv5_3
I0429 13:56:07.831094 30344 net.cpp:157] Top shape: 10 512 14 14 (1003520)
I0429 13:56:07.831096 30344 net.cpp:165] Memory required for data: 1158062112
I0429 13:56:07.831101 30344 layer_factory.hpp:77] Creating layer quant_relu5_3
I0429 13:56:07.831110 30344 net.cpp:100] Creating Layer quant_relu5_3
I0429 13:56:07.831113 30344 net.cpp:434] quant_relu5_3 <- conv5_3
I0429 13:56:07.831118 30344 net.cpp:395] quant_relu5_3 -> conv5_3 (in-place)
I0429 13:56:07.831233 30344 net.cpp:150] Setting up quant_relu5_3
I0429 13:56:07.831238 30344 net.cpp:157] Top shape: 10 512 14 14 (1003520)
I0429 13:56:07.831241 30344 net.cpp:165] Memory required for data: 1162076192
I0429 13:56:07.831244 30344 layer_factory.hpp:77] Creating layer pool5
I0429 13:56:07.831252 30344 net.cpp:100] Creating Layer pool5
I0429 13:56:07.831255 30344 net.cpp:434] pool5 <- conv5_3
I0429 13:56:07.831259 30344 net.cpp:408] pool5 -> pool5
I0429 13:56:07.831291 30344 net.cpp:150] Setting up pool5
I0429 13:56:07.831296 30344 net.cpp:157] Top shape: 10 512 7 7 (250880)
I0429 13:56:07.831300 30344 net.cpp:165] Memory required for data: 1163079712
I0429 13:56:07.831301 30344 layer_factory.hpp:77] Creating layer ip6
I0429 13:56:07.831307 30344 net.cpp:100] Creating Layer ip6
I0429 13:56:07.831310 30344 net.cpp:434] ip6 <- pool5
I0429 13:56:07.831315 30344 net.cpp:408] ip6 -> ip6
I0429 13:56:07.843616 30344 net.cpp:150] Setting up ip6
I0429 13:56:07.843629 30344 net.cpp:157] Top shape: 10 512 7 7 (250880)
I0429 13:56:07.843632 30344 net.cpp:165] Memory required for data: 1164083232
I0429 13:56:07.843638 30344 layer_factory.hpp:77] Creating layer relu6
I0429 13:56:07.843654 30344 net.cpp:100] Creating Layer relu6
I0429 13:56:07.843658 30344 net.cpp:434] relu6 <- ip6
I0429 13:56:07.843664 30344 net.cpp:395] relu6 -> ip6 (in-place)
I0429 13:56:07.844035 30344 net.cpp:150] Setting up relu6
I0429 13:56:07.844043 30344 net.cpp:157] Top shape: 10 512 7 7 (250880)
I0429 13:56:07.844045 30344 net.cpp:165] Memory required for data: 1165086752
I0429 13:56:07.844048 30344 layer_factory.hpp:77] Creating layer ip7
I0429 13:56:07.844055 30344 net.cpp:100] Creating Layer ip7
I0429 13:56:07.844058 30344 net.cpp:434] ip7 <- ip6
I0429 13:56:07.844063 30344 net.cpp:408] ip7 -> ip7
I0429 13:56:07.848512 30344 net.cpp:150] Setting up ip7
I0429 13:56:07.848525 30344 net.cpp:157] Top shape: 10 512 7 7 (250880)
I0429 13:56:07.848527 30344 net.cpp:165] Memory required for data: 1166090272
I0429 13:56:07.848532 30344 layer_factory.hpp:77] Creating layer relu7
I0429 13:56:07.848538 30344 net.cpp:100] Creating Layer relu7
I0429 13:56:07.848542 30344 net.cpp:434] relu7 <- ip7
I0429 13:56:07.848546 30344 net.cpp:395] relu7 -> ip7 (in-place)
I0429 13:56:07.848913 30344 net.cpp:150] Setting up relu7
I0429 13:56:07.848922 30344 net.cpp:157] Top shape: 10 512 7 7 (250880)
I0429 13:56:07.848924 30344 net.cpp:165] Memory required for data: 1167093792
I0429 13:56:07.848927 30344 layer_factory.hpp:77] Creating layer ip7_relu7_0_split
I0429 13:56:07.848932 30344 net.cpp:100] Creating Layer ip7_relu7_0_split
I0429 13:56:07.848933 30344 net.cpp:434] ip7_relu7_0_split <- ip7
I0429 13:56:07.848939 30344 net.cpp:408] ip7_relu7_0_split -> ip7_relu7_0_split_0
I0429 13:56:07.848944 30344 net.cpp:408] ip7_relu7_0_split -> ip7_relu7_0_split_1
I0429 13:56:07.848949 30344 net.cpp:408] ip7_relu7_0_split -> ip7_relu7_0_split_2
I0429 13:56:07.849001 30344 net.cpp:150] Setting up ip7_relu7_0_split
I0429 13:56:07.849006 30344 net.cpp:157] Top shape: 10 512 7 7 (250880)
I0429 13:56:07.849009 30344 net.cpp:157] Top shape: 10 512 7 7 (250880)
I0429 13:56:07.849012 30344 net.cpp:157] Top shape: 10 512 7 7 (250880)
I0429 13:56:07.849014 30344 net.cpp:165] Memory required for data: 1170104352
I0429 13:56:07.849016 30344 layer_factory.hpp:77] Creating layer ip7_mbox_loc
I0429 13:56:07.849025 30344 net.cpp:100] Creating Layer ip7_mbox_loc
I0429 13:56:07.849028 30344 net.cpp:434] ip7_mbox_loc <- ip7_relu7_0_split_0
I0429 13:56:07.849033 30344 net.cpp:408] ip7_mbox_loc -> ip7_mbox_loc
I0429 13:56:07.851352 30344 net.cpp:150] Setting up ip7_mbox_loc
I0429 13:56:07.851361 30344 net.cpp:157] Top shape: 10 24 7 7 (11760)
I0429 13:56:07.851364 30344 net.cpp:165] Memory required for data: 1170151392
I0429 13:56:07.851369 30344 layer_factory.hpp:77] Creating layer ip7_mbox_loc_perm
I0429 13:56:07.851377 30344 net.cpp:100] Creating Layer ip7_mbox_loc_perm
I0429 13:56:07.851379 30344 net.cpp:434] ip7_mbox_loc_perm <- ip7_mbox_loc
I0429 13:56:07.851384 30344 net.cpp:408] ip7_mbox_loc_perm -> ip7_mbox_loc_perm
I0429 13:56:07.851483 30344 net.cpp:150] Setting up ip7_mbox_loc_perm
I0429 13:56:07.851490 30344 net.cpp:157] Top shape: 10 7 7 24 (11760)
I0429 13:56:07.851491 30344 net.cpp:165] Memory required for data: 1170198432
I0429 13:56:07.851493 30344 layer_factory.hpp:77] Creating layer ip7_mbox_loc_flat
I0429 13:56:07.851498 30344 net.cpp:100] Creating Layer ip7_mbox_loc_flat
I0429 13:56:07.851501 30344 net.cpp:434] ip7_mbox_loc_flat <- ip7_mbox_loc_perm
I0429 13:56:07.851505 30344 net.cpp:408] ip7_mbox_loc_flat -> ip7_mbox_loc_flat
I0429 13:56:07.851526 30344 net.cpp:150] Setting up ip7_mbox_loc_flat
I0429 13:56:07.851531 30344 net.cpp:157] Top shape: 10 1176 (11760)
I0429 13:56:07.851532 30344 net.cpp:165] Memory required for data: 1170245472
I0429 13:56:07.851534 30344 layer_factory.hpp:77] Creating layer ip7_mbox_conf
I0429 13:56:07.851542 30344 net.cpp:100] Creating Layer ip7_mbox_conf
I0429 13:56:07.851545 30344 net.cpp:434] ip7_mbox_conf <- ip7_relu7_0_split_1
I0429 13:56:07.851550 30344 net.cpp:408] ip7_mbox_conf -> ip7_mbox_conf
I0429 13:56:07.854176 30344 net.cpp:150] Setting up ip7_mbox_conf
I0429 13:56:07.854187 30344 net.cpp:157] Top shape: 10 42 7 7 (20580)
I0429 13:56:07.854197 30344 net.cpp:165] Memory required for data: 1170327792
I0429 13:56:07.854202 30344 layer_factory.hpp:77] Creating layer ip7_mbox_conf_perm
I0429 13:56:07.854208 30344 net.cpp:100] Creating Layer ip7_mbox_conf_perm
I0429 13:56:07.854212 30344 net.cpp:434] ip7_mbox_conf_perm <- ip7_mbox_conf
I0429 13:56:07.854216 30344 net.cpp:408] ip7_mbox_conf_perm -> ip7_mbox_conf_perm
I0429 13:56:07.854315 30344 net.cpp:150] Setting up ip7_mbox_conf_perm
I0429 13:56:07.854319 30344 net.cpp:157] Top shape: 10 7 7 42 (20580)
I0429 13:56:07.854321 30344 net.cpp:165] Memory required for data: 1170410112
I0429 13:56:07.854323 30344 layer_factory.hpp:77] Creating layer ip7_mbox_conf_flat
I0429 13:56:07.854329 30344 net.cpp:100] Creating Layer ip7_mbox_conf_flat
I0429 13:56:07.854331 30344 net.cpp:434] ip7_mbox_conf_flat <- ip7_mbox_conf_perm
I0429 13:56:07.854336 30344 net.cpp:408] ip7_mbox_conf_flat -> ip7_mbox_conf_flat
I0429 13:56:07.854359 30344 net.cpp:150] Setting up ip7_mbox_conf_flat
I0429 13:56:07.854365 30344 net.cpp:157] Top shape: 10 2058 (20580)
I0429 13:56:07.854367 30344 net.cpp:165] Memory required for data: 1170492432
I0429 13:56:07.854369 30344 layer_factory.hpp:77] Creating layer ip7_mbox_priorbox
I0429 13:56:07.854374 30344 net.cpp:100] Creating Layer ip7_mbox_priorbox
I0429 13:56:07.854377 30344 net.cpp:434] ip7_mbox_priorbox <- ip7_relu7_0_split_2
I0429 13:56:07.854379 30344 net.cpp:434] ip7_mbox_priorbox <- data_data_0_split_1
I0429 13:56:07.854384 30344 net.cpp:408] ip7_mbox_priorbox -> ip7_mbox_priorbox
I0429 13:56:07.854408 30344 net.cpp:150] Setting up ip7_mbox_priorbox
I0429 13:56:07.854413 30344 net.cpp:157] Top shape: 1 2 1176 (2352)
I0429 13:56:07.854415 30344 net.cpp:165] Memory required for data: 1170501840
I0429 13:56:07.854418 30344 layer_factory.hpp:77] Creating layer mbox_loc
I0429 13:56:07.854421 30344 net.cpp:100] Creating Layer mbox_loc
I0429 13:56:07.854424 30344 net.cpp:434] mbox_loc <- ip7_mbox_loc_flat
I0429 13:56:07.854429 30344 net.cpp:408] mbox_loc -> mbox_loc
I0429 13:56:07.854451 30344 net.cpp:150] Setting up mbox_loc
I0429 13:56:07.854455 30344 net.cpp:157] Top shape: 10 1176 (11760)
I0429 13:56:07.854459 30344 net.cpp:165] Memory required for data: 1170548880
I0429 13:56:07.854460 30344 layer_factory.hpp:77] Creating layer mbox_conf
I0429 13:56:07.854463 30344 net.cpp:100] Creating Layer mbox_conf
I0429 13:56:07.854465 30344 net.cpp:434] mbox_conf <- ip7_mbox_conf_flat
I0429 13:56:07.854468 30344 net.cpp:408] mbox_conf -> mbox_conf
I0429 13:56:07.854488 30344 net.cpp:150] Setting up mbox_conf
I0429 13:56:07.854493 30344 net.cpp:157] Top shape: 10 2058 (20580)
I0429 13:56:07.854496 30344 net.cpp:165] Memory required for data: 1170631200
I0429 13:56:07.854497 30344 layer_factory.hpp:77] Creating layer mbox_priorbox
I0429 13:56:07.854501 30344 net.cpp:100] Creating Layer mbox_priorbox
I0429 13:56:07.854502 30344 net.cpp:434] mbox_priorbox <- ip7_mbox_priorbox
I0429 13:56:07.854506 30344 net.cpp:408] mbox_priorbox -> mbox_priorbox
I0429 13:56:07.854526 30344 net.cpp:150] Setting up mbox_priorbox
I0429 13:56:07.854530 30344 net.cpp:157] Top shape: 1 2 1176 (2352)
I0429 13:56:07.854532 30344 net.cpp:165] Memory required for data: 1170640608
I0429 13:56:07.854533 30344 layer_factory.hpp:77] Creating layer mbox_conf_reshape
I0429 13:56:07.854538 30344 net.cpp:100] Creating Layer mbox_conf_reshape
I0429 13:56:07.854542 30344 net.cpp:434] mbox_conf_reshape <- mbox_conf
I0429 13:56:07.854545 30344 net.cpp:408] mbox_conf_reshape -> mbox_conf_reshape
I0429 13:56:07.854571 30344 net.cpp:150] Setting up mbox_conf_reshape
I0429 13:56:07.854576 30344 net.cpp:157] Top shape: 10 294 7 (20580)
I0429 13:56:07.854578 30344 net.cpp:165] Memory required for data: 1170722928
I0429 13:56:07.854580 30344 layer_factory.hpp:77] Creating layer mbox_conf_softmax
I0429 13:56:07.854583 30344 net.cpp:100] Creating Layer mbox_conf_softmax
I0429 13:56:07.854588 30344 net.cpp:434] mbox_conf_softmax <- mbox_conf_reshape
I0429 13:56:07.854591 30344 net.cpp:408] mbox_conf_softmax -> mbox_conf_softmax
I0429 13:56:07.856500 30344 net.cpp:150] Setting up mbox_conf_softmax
I0429 13:56:07.856510 30344 net.cpp:157] Top shape: 10 294 7 (20580)
I0429 13:56:07.856513 30344 net.cpp:165] Memory required for data: 1170805248
I0429 13:56:07.856515 30344 layer_factory.hpp:77] Creating layer mbox_conf_flatten
I0429 13:56:07.856521 30344 net.cpp:100] Creating Layer mbox_conf_flatten
I0429 13:56:07.856524 30344 net.cpp:434] mbox_conf_flatten <- mbox_conf_softmax
I0429 13:56:07.856529 30344 net.cpp:408] mbox_conf_flatten -> mbox_conf_flatten
I0429 13:56:07.856552 30344 net.cpp:150] Setting up mbox_conf_flatten
I0429 13:56:07.856557 30344 net.cpp:157] Top shape: 10 2058 (20580)
I0429 13:56:07.856559 30344 net.cpp:165] Memory required for data: 1170887568
I0429 13:56:07.856562 30344 layer_factory.hpp:77] Creating layer detection_out
I0429 13:56:07.856571 30344 net.cpp:100] Creating Layer detection_out
I0429 13:56:07.856575 30344 net.cpp:434] detection_out <- mbox_loc
I0429 13:56:07.856577 30344 net.cpp:434] detection_out <- mbox_conf_flatten
I0429 13:56:07.856580 30344 net.cpp:434] detection_out <- mbox_priorbox
I0429 13:56:07.856585 30344 net.cpp:408] detection_out -> detection_out
11111
I0429 13:56:07.856645 30344 net.cpp:150] Setting up detection_out
I0429 13:56:07.856650 30344 net.cpp:157] Top shape: 1 1 1 7 (7)
I0429 13:56:07.856652 30344 net.cpp:165] Memory required for data: 1170887596
I0429 13:56:07.856654 30344 layer_factory.hpp:77] Creating layer detection_eval
I0429 13:56:07.856660 30344 net.cpp:100] Creating Layer detection_eval
I0429 13:56:07.856662 30344 net.cpp:434] detection_eval <- detection_out
I0429 13:56:07.856667 30344 net.cpp:434] detection_eval <- label
I0429 13:56:07.856670 30344 net.cpp:408] detection_eval -> detection_eval
I0429 13:56:07.857043 30344 net.cpp:150] Setting up detection_eval
I0429 13:56:07.857048 30344 net.cpp:157] Top shape: 1 1 7 5 (35)
I0429 13:56:07.857051 30344 net.cpp:165] Memory required for data: 1170887736
I0429 13:56:07.857053 30344 net.cpp:228] detection_eval does not need backward computation.
I0429 13:56:07.857056 30344 net.cpp:228] detection_out does not need backward computation.
I0429 13:56:07.857059 30344 net.cpp:228] mbox_conf_flatten does not need backward computation.
I0429 13:56:07.857061 30344 net.cpp:228] mbox_conf_softmax does not need backward computation.
…
