…
        min_scale: 0.3
        max_scale: 1
        min_aspect_ratio: 0.5
        max_aspect_ratio: 2
      }
      sample_constraint {
        min_jaccard_overlap: 0.9
      }
      max_sample: 1
      max_trials: 50
    }
    batch_sampler {
      sampler {
        min_scale: 0.3
        max_scale: 1
        min_aspect_ratio: 0.5
        max_aspect_ratio: 2
      }
      sample_constraint {
        max_jaccard_overlap: 1
      }
      max_sample: 1
      max_trials: 50
    }
    label_map_file: "/home/sx/data/VOCdevkit/VOC0712/lmdb/labelmap_voc.prototxt"
  }
}
layer {
  name: "conv0"
  type: "Convolution"
  bottom: "data"
  top: "conv0"
  param {
    lr_mult: 0.1
    decay_mult: 0.1
  }
  convolution_param {
    num_output: 32
    bias_term: false
    pad: 1
    kernel_size: 3
    stride: 2
    weight_filler {
      type: "msra"
    }
  }
}
layer {
  name: "conv0/bn"
  type: "BatchNorm"
  bottom: "conv0"
  top: "conv0"
}
layer {
  name: "conv0/scale"
  type: "Scale"
  bottom: "conv0"
  top: "conv0"
  param {
    lr_mult: 0.1
    decay_mult: 0
  }
  param {
    lr_mult: 0.2
    decay_mult: 0
  }
  scale_param {
    filler {
      value: 1
    }
    bias_term: true
    bias_filler {
      value: 0
    }
  }
}
layer {
  name: "conv0/relu"
  type: "ReLU"
  bottom: "conv0"
  top: "conv0"
}
layer {
  name: "conv1/dw"
  type: "Convolution"
  bottom: "conv0"
  top: "conv1/dw"
  param {
    lr_mult: 0.1
    decay_mult: 0.1
  }
  convolution_param {
    num_output: 32
    bias_term: false
    pad: 1
    kernel_size: 3
    group: 32
    weight_filler {
      type: "msra"
    }
    engine: CAFFE
  }
}
layer {
  name: "conv1/dw/bn"
  type: "BatchNorm"
  bottom: "conv1/dw"
  top: "conv1/dw"
}
layer {
  name: "conv1/dw/scale"
  type: "Scale"
  bottom: "conv1/dw"
  top: "conv1/dw"
  param {
    lr_mult: 0.1
    decay_mult: 0
  }
  param {
    lr_mult: 0.2
    decay_mult: 0
  }
  scale_param {
    filler {
      value: 1
    }
    bias_term: true
    bias_filler {
      value: 0
    }
  }
}
layer {
  name: "conv1/dw/relu"
  type: "ReLU"
  bottom: "conv1/dw"
  top: "conv1/dw"
}
layer {
  name: "conv1"
  type: "Convolution"
  bottom: "conv1/dw"
  top: "conv1"
  param {
    lr_mult: 0.1
    decay_mult: 0.1
  }
  convolution_param {
    num_output: 64
    bias_term: false
    kernel_size: 1
    weight_filler {
      type: "msra"
    }
  }
}
layer {
  name: "conv1/bn"
  type: "BatchNorm"
  bottom: "conv1"
  top: "conv1"
}
layer {
  name: "conv1/scale"
  type: "Scale"
  bottom: "conv1"
  top: "conv1"
  param {
    lr_mult: 0.1
    decay_mult: 0
  }
  param {
    lr_mult: 0.2
    decay_mult: 0
  }
  scale_param {
    filler {
      value: 1
    }
    bias_term: true
    bias_filler {
      value: 0
    }
  }
}
layer {
  name: "conv1/relu"
  type: "ReLU"
  bottom: "conv1"
  top: "conv1"
}
layer {
  name: "conv2/dw"
  type: "Convolution"
  bottom: "conv1"
  top: "conv2/dw"
  param {
    lr_mult: 0.1
    decay_mult: 0.1
  }
  convolution_param {
    num_output: 64
    bias_term: false
    pad: 1
    kernel_size: 3
    group: 64
    stride: 2
    weight_filler {
      type: "msra"
    }
    engine: CAFFE
  }
}
layer {
  name: "conv2/dw/bn"
  type: "BatchNorm"
  bottom: "conv2/dw"
  top: "conv2/dw"
}
layer {
  name: "conv2/dw/scale"
  type: "Scale"
  bottom: "conv2/dw"
  top: "conv2/dw"
  param {
    lr_mult: 0.1
    decay_mult: 0
  }
  param {
    lr_mult: 0.2
    decay_mult: 0
  }
  scale_param {
    filler {
      value: 1
    }
    bias_term: true
    bias_filler {
      value: 0
    }
  }
}
layer {
  name: "conv2/dw/relu"
  type: "ReLU"
  bottom: "conv2/dw"
  top: "conv2/dw"
}
layer {
  name: "conv2"
  type: "Convolution"
  bottom: "conv2/dw"
  top: "conv2"
  param {
    lr_mult: 0.1
    decay_mult: 0.1
  }
  convolution_param {
    num_output: 128
    bias_term: false
    kernel_size: 1
    weight_filler {
      type: "msra"
    }
  }
}
layer {
  name: "conv2/bn"
  type: "BatchNorm"
  bottom: "conv2"
  top: "conv2"
}
layer {
  name: "conv2/scale"
  type: "Scale"
  bottom: "conv2"
  top: "conv2"
  param {
    lr_mult: 0.1
    decay_mult: 0
  }
  param {
    lr_mult: 0.2
    decay_mult: 0
  }
  scale_param {
    filler {
      value: 1
    }
    bias_term: true
    bias_filler {
      value: 0
    }
  }
}
layer {
  name: "conv2/relu"
  type: "ReLU"
  bottom: "conv2"
  top: "conv2"
}
layer {
  name: "conv3/dw"
  type: "Convolution"
  bottom: "conv2"
  top: "conv3/dw"
  param {
    lr_mult: 0.1
    decay_mult: 0.1
  }
  convolution_param {
    num_output: 128
    bias_term: false
    pad: 1
    kernel_size: 3
    group: 128
    weight_filler {
      type: "msra"
    }
    engine: CAFFE
  }
}
layer {
  name: "conv3/dw/bn"
  type: "BatchNorm"
  bottom: "conv3/dw"
  top: "conv3/dw"
}
layer {
  name: "conv3/dw/scale"
  type: "Scale"
  bottom: "conv3/dw"
  top: "conv3/dw"
  param {
    lr_mult: 0.1
    decay_mult: 0
  }
  param {
    lr_mult: 0.2
    decay_mult: 0
  }
  scale_param {
    filler {
      value: 1
    }
    bias_term: true
    bias_filler {
      value: 0
    }
  }
}
layer {
  name: "conv3/dw/relu"
  type: "ReLU"
  bottom: "conv3/dw"
  top: "conv3/dw"
}
layer {
  name: "conv3"
  type: "Convolution"
  bottom: "conv3/dw"
  top: "conv3"
  param {
    lr_mult: 0.1
    decay_mult: 0.1
  }
  convolution_param {
    num_output: 128
    bias_term: false
    kernel_size: 1
    weight_filler {
      type: "msra"
    }
  }
}
layer {
  name: "conv3/bn"
  type: "BatchNorm"
  bottom: "conv3"
  top: "conv3"
}
layer {
  name: "conv3/scale"
  type: "Scale"
  bottom: "conv3"
  top: "conv3"
  param {
    lr_mult: 0.1
    decay_mult: 0
  }
  param {
    lr_mult: 0.2
    decay_mult: 0
  }
  scale_param {
    filler {
      value: 1
    }
    bias_term: true
    bias_filler {
      value: 0
    }
  }
}
layer {
  name: "conv3/relu"
  type: "ReLU"
  bottom: "conv3"
  top: "conv3"
}
layer {
  name: "conv4/dw"
  type: "Convolution"
  bottom: "conv3"
  top: "conv4/dw"
  param {
    lr_mult: 0.1
    decay_mult: 0.1
  }
  convolution_param {
    num_output: 128
    bias_term: false
    pad: 1
    kernel_size: 3
    group: 128
    stride: 2
    weight_filler {
      type: "msra"
    }
    engine: CAFFE
  }
}
layer {
  name: "conv4/dw/bn"
  type: "BatchNorm"
  bottom: "conv4/dw"
  top: "conv4/dw"
}
layer {
  name: "conv4/dw/scale"
  type: "Scale"
  bottom: "conv4/dw"
  top: "conv4/dw"
  param {
    lr_mult: 0.1
    decay_mult: 0
  }
  param {
    lr_mult: 0.2
    decay_mult: 0
  }
  scale_param {
    filler {
      value: 1
    }
    bias_term: true
    bias_filler {
      value: 0
    }
  }
}
layer {
  name: "conv4/dw/relu"
  type: "ReLU"
  bottom: "conv4/dw"
  top: "conv4/dw"
}
layer {
  name: "conv4"
  type: "Convolution"
  bottom: "conv4/dw"
  top: "conv4"
  param {
    lr_mult: 0.1
    decay_mult: 0.1
  }
  convolution_param {
    num_output: 256
    bias_term: false
    kernel_size: 1
    weight_filler {
      type: "msra"
    }
  }
}
layer {
  name: "conv4/bn"
  type: "BatchNorm"
  bottom: "conv4"
  top: "conv4"
}
layer {
  name: "conv4/scale"
  type: "Scale"
  bottom: "conv4"
  top: "conv4"
  param {
    lr_mult: 0.1
    decay_mult: 0
  }
  param {
    lr_mult: 0.2
    decay_mult: 0
  }
  scale_param {
    filler {
      value: 1
    }
    bias_term: true
    bias_filler {
      value: 0
    }
  }
}
layer {
  name: "conv4/relu"
  type: "ReLU"
  bottom: "conv4"
  top: "conv4"
}
layer {
  name: "conv5/dw"
  type: "Convolution"
  bottom: "conv4"
  top: "conv5/dw"
  param {
    lr_mult: 0.1
    decay_mult: 0.1
  }
  convolution_param {
    num_output: 256
    bias_term: false
    pad: 1
    kernel_size: 3
    group: 256
    weight_filler {
      type: "msra"
    }
    engine: CAFFE
  }
}
layer {
  name: "conv5/dw/bn"
  type: "BatchNorm"
  bottom: "conv5/dw"
  top: "conv5/dw"
}
layer {
  name: "conv5/dw/scale"
  type: "Scale"
  bottom: "conv5/dw"
  top: "conv5/dw"
  param {
    lr_mult: 0.1
    decay_mult: 0
  }
  param {
    lr_mult: 0.2
    decay_mult: 0
  }
  scale_param {
    filler {
      value: 1
    }
    bias_term: true
    bias_filler {
      value: 0
    }
  }
}
layer {
  name: "conv5/dw/relu"
  type: "ReLU"
  bottom: "conv5/dw"
  top: "conv5/dw"
}
layer {
  name: "conv5"
  type: "Convolution"
  bottom: "conv5/dw"
  top: "conv5"
  param {
    lr_mult: 0.1
    decay_mult: 0.1
  }
  convolution_param {
    num_output: 256
    bias_term: false
    kernel_size: 1
    weight_filler {
      type: "msra"
    }
  }
}
layer {
  name: "conv5/bn"
  type: "BatchNorm"
  bottom: "conv5"
  top: "conv5"
}
layer {
  name: "conv5/scale"
  type: "Scale"
  bottom: "conv5"
  top: "conv5"
  param {
    lr_mult: 0.1
    decay_mult: 0
  }
  param {
    lr_mult: 0.2
    decay_mult: 0
  }
  scale_param {
    filler {
      value: 1
    }
    bias_term: true
    bias_filler {
      value: 0
    }
  }
}
layer {
  name: "conv5/relu"
  type: "ReLU"
  bottom: "conv5"
  top: "conv5"
}
layer {
  name: "conv6/dw"
  type: "Convolution"
  bottom: "conv5"
  top: "conv6/dw"
  param {
    lr_mult: 0.1
    decay_mult: 0.1
  }
  convolution_param {
    num_output: 256
    bias_term: false
    pad: 1
    kernel_size: 3
    group: 256
    stride: 2
    weight_filler {
      type: "msra"
    }
    engine: CAFFE
  }
}
layer {
  name: "conv6/dw/bn"
  type: "BatchNorm"
  bottom: "conv6/dw"
  top: "conv6/dw"
}
layer {
  name: "conv6/dw/scale"
  type: "Scale"
  bottom: "conv6/dw"
  top: "conv6/dw"
  param {
    lr_mult: 0.1
    decay_mult: 0
  }
  param {
    lr_mult: 0.2
    decay_mult: 0
  }
  scale_param {
    filler {
      value: 1
    }
    bias_term: true
    bias_filler {
      value: 0
    }
  }
}
layer {
  name: "conv6/dw/relu"
  type: "ReLU"
  bottom: "conv6/dw"
  top: "conv6/dw"
}
layer {
  name: "conv6"
  type: "Convolution"
  bottom: "conv6/dw"
  top: "conv6"
  param {
    lr_mult: 0.1
    decay_mult: 0.1
  }
  convolution_param {
    num_output: 512
    bias_term: false
    kernel_size: 1
    weight_filler {
      type: "msra"
    }
  }
}
layer {
  name: "conv6/bn"
  type: "BatchNorm"
  bottom: "conv6"
  top: "conv6"
}
layer {
  name: "conv6/scale"
  type: "Scale"
  bottom: "conv6"
  top: "conv6"
  param {
    lr_mult: 0.1
    decay_mult: 0
  }
  param {
    lr_mult: 0.2
    decay_mult: 0
  }
  scale_param {
    filler {
      value: 1
    }
    bias_term: true
    bias_filler {
      value: 0
    }
  }
}
layer {
  name: "conv6/relu"
  type: "ReLU"
  bottom: "conv6"
  top: "conv6"
}
layer {
  name: "conv7/dw"
  type: "Convolution"
  bottom: "conv6"
  top: "conv7/dw"
  param {
    lr_mult: 0.1
    decay_mult: 0.1
  }
  convolution_param {
    num_output: 512
    bias_term: false
    pad: 1
    kernel_size: 3
    group: 512
    weight_filler {
      type: "msra"
    }
    engine: CAFFE
  }
}
layer {
  name: "conv7/dw/bn"
  type: "BatchNorm"
  bottom: "conv7/dw"
  top: "conv7/dw"
}
layer {
  name: "conv7/dw/scale"
  type: "Scale"
  bottom: "conv7/dw"
  top: "conv7/dw"
  param {
    lr_mult: 0.1
    decay_mult: 0
  }
  param {
    lr_mult: 0.2
    decay_mult: 0
  }
  scale_param {
    filler {
      value: 1
    }
    bias_term: true
    bias_filler {
      value: 0
    }
  }
}
layer {
  name: "conv7/dw/relu"
  type: "ReLU"
  bottom: "conv7/dw"
  top: "conv7/dw"
}
layer {
  name: "conv7"
  type: "Convolution"
  bottom: "conv7/dw"
  top: "conv7"
  param {
    lr_mult: 0.1
    decay_mult: 0.1
  }
  convolution_param {
    num_output: 512
    bias_term: false
    kernel_size: 1
    weight_filler {
      type: "msra"
    }
  }
}
layer {
  name: "conv7/bn"
  type: "BatchNorm"
  bottom: "conv7"
  top: "conv7"
}
layer {
  name: "conv7/scale"
  type: "Scale"
  bottom: "conv7"
  top: "conv7"
  param {
    lr_mult: 0.1
    decay_mult: 0
  }
  param {
    lr_mult: 0.2
    decay_mult: 0
  }
  scale_param {
    filler {
      value: 1
    }
    bias_term: true
    bias_filler {
      value: 0
    }
  }
}
layer {
  name: "conv7/relu"
  type: "ReLU"
  bottom: "conv7"
  top: "conv7"
}
layer {
  name: "conv8/dw"
  type: "Convolution"
  bottom: "conv7"
  top: "conv8/dw"
  param {
    lr_mult: 0.1
    decay_mult: 0.1
  }
  convolution_param {
    num_output: 512
    bias_term: false
    pad: 1
    kernel_size: 3
    group: 512
    weight_filler {
      type: "msra"
    }
    engine: CAFFE
  }
}
layer {
  name: "conv8/dw/bn"
  type: "BatchNorm"
  bottom: "conv8/dw"
  top: "conv8/dw"
}
layer {
  name: "conv8/dw/scale"
  type: "Scale"
  bottom: "conv8/dw"
  top: "conv8/dw"
  param {
    lr_mult: 0.1
    decay_mult: 0
  }
  param {
    lr_mult: 0.2
    decay_mult: 0
  }
  scale_param {
    filler {
      value: 1
    }
    bias_term: true
    bias_filler {
      value: 0
    }
  }
}
layer {
  name: "conv8/dw/relu"
  type: "ReLU"
  bottom: "conv8/dw"
  top: "conv8/dw"
}
layer {
  name: "conv8"
  type: "Convolution"
  bottom: "conv8/dw"
  top: "conv8"
  param {
    lr_mult: 0.1
    decay_mult: 0.1
  }
  convolution_param {
    num_output: 512
    bias_term: false
    kernel_size: 1
    weight_filler {
      type: "msra"
    }
  }
}
layer {
  name: "conv8/bn"
  type: "BatchNorm"
  bottom: "conv8"
  top: "conv8"
}
layer {
  name: "conv8/scale"
  type: "Scale"
  bottom: "conv8"
  top: "conv8"
  param {
    lr_mult: 0.1
    decay_mult: 0
  }
  param {
    lr_mult: 0.2
    decay_mult: 0
  }
  scale_param {
    filler {
      value: 1
    }
    bias_term: true
    bias_filler {
      value: 0
    }
  }
}
layer {
  name: "conv8/relu"
  type: "ReLU"
  bottom: "conv8"
  top: "conv8"
}
layer {
  name: "conv9/dw"
  type: "Convolution"
  bottom: "conv8"
  top: "conv9/dw"
  param {
    lr_mult: 0.1
    decay_mult: 0.1
  }
  convolution_param {
    num_output: 512
    bias_term: false
    pad: 1
    kernel_size: 3
    group: 512
    weight_filler {
      type: "msra"
    }
    engine: CAFFE
  }
}
layer {
  name: "conv9/dw/bn"
  type: "BatchNorm"
  bottom: "conv9/dw"
  top: "conv9/dw"
}
layer {
  name: "conv9/dw/scale"
  type: "Scale"
  bottom: "conv9/dw"
  top: "conv9/dw"
  param {
    lr_mult: 0.1
    decay_mult: 0
  }
  param {
    lr_mult: 0.2
    decay_mult: 0
  }
  scale_param {
    filler {
      value: 1
    }
    bias_term: true
    bias_filler {
      value: 0
    }
  }
}
layer {
  name: "conv9/dw/relu"
  type: "ReLU"
  bottom: "conv9/dw"
  top: "conv9/dw"
}
layer {
  name: "conv9"
  type: "Convolution"
  bottom: "conv9/dw"
  top: "conv9"
  param {
    lr_mult: 0.1
    decay_mult: 0.1
  }
  convolution_param {
    num_output: 512
    bias_term: false
    kernel_size: 1
    weight_filler {
      type: "msra"
    }
  }
}
layer {
  name: "conv9/bn"
  type: "BatchNorm"
  bottom: "conv9"
  top: "conv9"
}
layer {
  name: "conv9/scale"
  type: "Scale"
  bottom: "conv9"
  top: "conv9"
  param {
    lr_mult: 0.1
    decay_mult: 0
  }
  param {
    lr_mult: 0.2
    decay_mult: 0
  }
  scale_param {
    filler {
      value: 1
    }
    bias_term: true
    bias_filler {
      value: 0
    }
  }
}
layer {
  name: "conv9/relu"
  type: "ReLU"
  bottom: "conv9"
  top: "conv9"
}
layer {
  name: "conv10/dw"
  type: "Convolution"
  bottom: "conv9"
  top: "conv10/dw"
  param {
    lr_mult: 0.1
    decay_mult: 0.1
  }
  convolution_param {
    num_output: 512
    bias_term: false
    pad: 1
    kernel_size: 3
    group: 512
    weight_filler {
      type: "msra"
    }
    engine: CAFFE
  }
}
layer {
  name: "conv10/dw/bn"
  type: "BatchNorm"
  bottom: "conv10/dw"
  top: "conv10/dw"
}
layer {
  name: "conv10/dw/scale"
  type: "Scale"
  bottom: "conv10/dw"
  top: "conv10/dw"
  param {
    lr_mult: 0.1
    decay_mult: 0
  }
  param {
    lr_mult: 0.2
    decay_mult: 0
  }
  scale_param {
    filler {
      value: 1
    }
    bias_term: true
    bias_filler {
      value: 0
    }
  }
}
layer {
  name: "conv10/dw/relu"
  type: "ReLU"
  bottom: "conv10/dw"
  top: "conv10/dw"
}
layer {
  name: "conv10"
  type: "Convolution"
  bottom: "conv10/dw"
  top: "conv10"
  param {
    lr_mult: 0.1
    decay_mult: 0.1
  }
  convolution_param {
    num_output: 512
    bias_term: false
    kernel_size: 1
    weight_filler {
      type: "msra"
    }
  }
}
layer {
  name: "conv10/bn"
  type: "BatchNorm"
  bottom: "conv10"
  top: "conv10"
}
layer {
  name: "conv10/scale"
  type: "Scale"
  bottom: "conv10"
  top: "conv10"
  param {
    lr_mult: 0.1
    decay_mult: 0
  }
  param {
    lr_mult: 0.2
    decay_mult: 0
  }
  scale_param {
    filler {
      value: 1
    }
    bias_term: true
    bias_filler {
      value: 0
    }
  }
}
layer {
  name: "conv10/relu"
  type: "ReLU"
  bottom: "conv10"
  top: "conv10"
}
layer {
  name: "conv11/dw"
  type: "Convolution"
  bottom: "conv10"
  top: "conv11/dw"
  param {
    lr_mult: 0.1
    decay_mult: 0.1
  }
  convolution_param {
    num_output: 512
    bias_term: false
    pad: 1
    kernel_size: 3
    group: 512
    weight_filler {
      type: "msra"
    }
    engine: CAFFE
  }
}
layer {
  name: "conv11/dw/bn"
  type: "BatchNorm"
  bottom: "conv11/dw"
  top: "conv11/dw"
}
layer {
  name: "conv11/dw/scale"
  type: "Scale"
  bottom: "conv11/dw"
  top: "conv11/dw"
  param {
    lr_mult: 0.1
    decay_mult: 0
  }
  param {
    lr_mult: 0.2
    decay_mult: 0
  }
  scale_param {
    filler {
      value: 1
    }
    bias_term: true
    bias_filler {
      value: 0
    }
  }
}
layer {
  name: "conv11/dw/relu"
  type: "ReLU"
  bottom: "conv11/dw"
  top: "conv11/dw"
}
layer {
  name: "conv11"
  type: "Convolution"
  bottom: "conv11/dw"
  top: "conv11"
  param {
    lr_mult: 0.1
    decay_mult: 0.1
  }
  convolution_param {
    num_output: 512
    bias_term: false
    kernel_size: 1
    weight_filler {
      type: "msra"
    }
  }
}
layer {
  name: "conv11/bn"
  type: "BatchNorm"
  bottom: "conv11"
  top: "conv11"
}
layer {
  name: "conv11/scale"
  type: "Scale"
  bottom: "conv11"
  top: "conv11"
  param {
    lr_mult: 0.1
    decay_mult: 0
  }
  param {
    lr_mult: 0.2
    decay_mult: 0
  }
  scale_param {
    filler {
      value: 1
    }
    bias_term: true
    bias_filler {
      value: 0
    }
  }
}
layer {
  name: "conv11/relu"
  type: "ReLU"
  bottom: "conv11"
  top: "conv11"
}
layer {
  name: "conv12/dw"
  type: "Convolution"
  bottom: "conv11"
  top: "conv12/dw"
  param {
    lr_mult: 0.1
    decay_mult: 0.1
  }
  convolution_param {
    num_output: 512
    bias_term: false
    pad: 1
    kernel_size: 3
    group: 512
    stride: 1
    weight_filler {
      type: "msra"
    }
    engine: CAFFE
  }
}
layer {
  name: "conv12/dw/bn"
  type: "BatchNorm"
  bottom: "conv12/dw"
  top: "conv12/dw"
}
layer {
  name: "conv12/dw/scale"
  type: "Scale"
  bottom: "conv12/dw"
  top: "conv12/dw"
  param {
    lr_mult: 0.1
    decay_mult: 0
  }
  param {
    lr_mult: 0.2
    decay_mult: 0
  }
  scale_param {
    filler {
      value: 1
    }
    bias_term: true
    bias_filler {
      value: 0
    }
  }
}
layer {
  name: "conv12/dw/relu"
  type: "ReLU"
  bottom: "conv12/dw"
  top: "conv12/dw"
}
layer {
  name: "sample_pooling"
  type: "Convolution"
  bottom: "conv12/dw"
  top: "sample_pooling"
  param {
    lr_mult: 0
  }
  convolution_param {
    num_output: 512
    bias_term: false
    pad: 0
    kernel_size: 2
    group: 512
    stride: 2
    weight_filler {
      type: "constant_array"
      value_array: 1
      value_array: 0
      value_array: 0
      value_array: 0
    }
  }
}
layer {
  name: "conv12"
  type: "Convolution"
  bottom: "sample_pooling"
  top: "conv12"
  param {
    lr_mult: 0.1
    decay_mult: 0.1
  }
  convolution_param {
    num_output: 1024
    bias_term: false
    kernel_size: 1
    weight_filler {
      type: "msra"
    }
  }
}
layer {
  name: "conv12/bn"
  type: "BatchNorm"
  bottom: "conv12"
  top: "conv12"
}
layer {
  name: "conv12/scale"
  type: "Scale"
  bottom: "conv12"
  top: "conv12"
  param {
    lr_mult: 0.1
    decay_mult: 0
  }
  param {
    lr_mult: 0.2
    decay_mult: 0
  }
  scale_param {
    filler {
      value: 1
    }
    bias_term: true
    bias_filler {
      value: 0
    }
  }
}
layer {
  name: "conv12/relu"
  type: "ReLU"
  bottom: "conv12"
  top: "conv12"
}
layer {
  name: "conv13/dw"
  type: "Convolution"
  bottom: "conv12"
  top: "conv13/dw"
  param {
    lr_mult: 0.1
    decay_mult: 0.1
  }
  convolution_param {
    num_output: 1024
    bias_term: false
    pad: 1
    kernel_size: 3
    group: 1024
    weight_filler {
      type: "msra"
    }
    engine: CAFFE
  }
}
layer {
  name: "conv13/dw/bn"
  type: "BatchNorm"
  bottom: "conv13/dw"
  top: "conv13/dw"
}
layer {
  name: "conv13/dw/scale"
  type: "Scale"
  bottom: "conv13/dw"
  top: "conv13/dw"
  param {
    lr_mult: 0.1
    decay_mult: 0
  }
  param {
    lr_mult: 0.2
    decay_mult: 0
  }
  scale_param {
    filler {
      value: 1
    }
    bias_term: true
    bias_filler {
      value: 0
    }
  }
}
layer {
  name: "conv13/dw/relu"
  type: "ReLU"
  bottom: "conv13/dw"
  top: "conv13/dw"
}
layer {
  name: "conv13"
  type: "Convolution"
  bottom: "conv13/dw"
  top: "conv13"
  param {
    lr_mult: 0.1
    decay_mult: 0.1
  }
  convolution_param {
    num_output: 1024
    bias_term: false
    kernel_size: 1
    weight_filler {
      type: "msra"
    }
  }
}
layer {
  name: "conv13/bn"
  type: "BatchNorm"
  bottom: "conv13"
  top: "conv13"
}
layer {
  name: "conv13/scale"
  type: "Scale"
  bottom: "conv13"
  top: "conv13"
  param {
    lr_mult: 0.1
    decay_mult: 0
  }
  param {
    lr_mult: 0.2
    decay_mult: 0
  }
  scale_param {
    filler {
      value: 1
    }
    bias_term: true
    bias_filler {
      value: 0
    }
  }
}
layer {
  name: "conv13/relu"
  type: "ReLU"
  bottom: "conv13"
  top: "conv13"
}
layer {
  name: "ip6"
  type: "Convolution"
  bottom: "conv13"
  top: "ip6"
  param {
    lr_mult: 1
    decay_mult: 1
  }
  param {
    lr_mult: 2
    decay_mult: 0
  }
  convolution_param {
    num_output: 256
    pad: 1
    kernel_size: 3
    weight_filler {
      type: "xavier"
    }
    bias_filler {
      type: "constant"
      value: 0
    }
    engine: CAFFE
  }
}
layer {
  name: "relu6"
  type: "ReLU"
  bottom: "ip6"
  top: "ip6"
}
layer {
  name: "ip7"
  type: "Convolution"
  bottom: "ip6"
  top: "ip7"
  param {
    lr_mult: 1
    decay_mult: 1
  }
  param {
    lr_mult: 2
    decay_mult: 0
  }
  convolution_param {
    num_output: 512
    kernel_size: 1
    weight_filler {
      type: "xavier"
    }
    bias_filler {
      type: "constant"
      value: 0
    }
    engine: CAFFE
  }
}
layer {
  name: "relu7"
  type: "ReLU"
  bottom: "ip7"
  top: "ip7"
}
layer {
  name: "conv6_1"
  type: "Convolution"
  bottom: "ip7"
  top: "conv6_1"
  param {
    lr_mult: 1
    decay_mult: 1
  }
  param {
    lr_mult: 2
    decay_mult: 0
  }
  convolution_param {
    num_output: 256
    pad: 0
    kernel_size: 1
    stride: 1
    weight_filler {
      type: "xavier"
    }
    bias_filler {
      type: "constant"
      value: 0
    }
  }
}
layer {
  name: "conv6_1_relu"
  type: "ReLU"
  bottom: "conv6_1"
  top: "conv6_1"
}
layer {
  name: "conv6_2"
  type: "Convolution"
  bottom: "conv6_1"
  top: "conv6_2"
  param {
    lr_mult: 1
    decay_mult: 1
  }
  param {
    lr_mult: 2
    decay_mult: 0
  }
  convolution_param {
    num_output: 256
    pad: 1
    kernel_size: 3
    stride: 2
    weight_filler {
      type: "xavier"
    }
    bias_filler {
      type: "constant"
      value: 0
    }
  }
}
layer {
  name: "conv6_2_relu"
  type: "ReLU"
  bottom: "conv6_2"
  top: "conv6_2"
}
layer {
  name: "conv7_1"
  type: "Convolution"
  bottom: "conv6_2"
  top: "conv7_1"
  param {
    lr_mult: 1
    decay_mult: 1
  }
  param {
    lr_mult: 2
    decay_mult: 0
  }
  convolution_param {
    num_output: 128
    pad: 0
    kernel_size: 1
    stride: 1
    weight_filler {
      type: "xavier"
    }
    bias_filler {
      type: "constant"
      value: 0
    }
  }
}
layer {
  name: "conv7_1_relu"
  type: "ReLU"
  bottom: "conv7_1"
  top: "conv7_1"
}
layer {
  name: "conv7_2"
  type: "Convolution"
  bottom: "conv7_1"
  top: "conv7_2"
  param {
    lr_mult: 1
    decay_mult: 1
  }
  param {
    lr_mult: 2
    decay_mult: 0
  }
  convolution_param {
    num_output: 256
    pad: 1
    kernel_size: 3
    stride: 2
    weight_filler {
      type: "xavier"
    }
    bias_filler {
      type: "constant"
      value: 0
    }
  }
}
layer {
  name: "conv7_2_relu"
  type: "ReLU"
  bottom: "conv7_2"
  top: "conv7_2"
}
layer {
  name: "conv12_norm"
  type: "Normalize"
  bottom: "conv12/dw"
  top: "conv12_norm"
  norm_param {
    across_spatial: false
    channel_shared: false
  }
}
layer {
  name: "conv12_norm_mbox_loc"
  type: "Convolution"
  bottom: "conv12_norm"
  top: "conv12_norm_mbox_loc"
  param {
    lr_mult: 1
    decay_mult: 1
  }
  param {
    lr_mult: 2
    decay_mult: 0
  }
  convolution_param {
    num_output: 24
    pad: 1
    kernel_size: 3
    stride: 1
    weight_filler {
      type: "xavier"
    }
    bias_filler {
      type: "constant"
      value: 0
    }
  }
}
layer {
  name: "conv12_norm_mbox_loc_perm"
  type: "Permute"
  bottom: "conv12_norm_mbox_loc"
  top: "conv12_norm_mbox_loc_perm"
  permute_param {
    order: 0
    order: 2
    order: 3
    order: 1
  }
}
layer {
  name: "conv12_norm_mbox_loc_flat"
  type: "Flatten"
  bottom: "conv12_norm_mbox_loc_perm"
  top: "conv12_norm_mbox_loc_flat"
  flatten_param {
    axis: 1
  }
}
layer {
  name: "conv12_norm_mbox_conf"
  type: "Convolution"
  bottom: "conv12_norm"
  top: "conv12_norm_mbox_conf"
  param {
    lr_mult: 1
    decay_mult: 1
  }
  param {
    lr_mult: 2
    decay_mult: 0
  }
  convolution_param {
    num_output: 36
    pad: 1
    kernel_size: 3
    stride: 1
    weight_filler {
      type: "xavier"
    }
    bias_filler {
      type: "constant"
      value: 0
    }
  }
}
layer {
  name: "conv12_norm_mbox_conf_perm"
  type: "Permute"
  bottom: "conv12_norm_mbox_conf"
  top: "conv12_norm_mbox_conf_perm"
  permute_param {
    order: 0
    order: 2
    order: 3
    order: 1
  }
}
layer {
  name: "conv12_norm_mbox_conf_flat"
  type: "Flatten"
  bottom: "conv12_norm_mbox_conf_perm"
  top: "conv12_norm_mbox_conf_flat"
  flatten_param {
    axis: 1
  }
}
layer {
  name: "ip7_mbox_loc"
  type: "Convolution"
  bottom: "ip7"
  top: "ip7_mbox_loc"
  param {
    lr_mult: 1
    decay_mult: 1
  }
  param {
    lr_mult: 2
    decay_mult: 0
  }
  convolution_param {
    num_output: 24
    pad: 1
    kernel_size: 3
    stride: 1
    weight_filler {
      type: "xavier"
    }
    bias_filler {
      type: "constant"
      value: 0
    }
  }
}
layer {
  name: "ip7_mbox_loc_perm"
  type: "Permute"
  bottom: "ip7_mbox_loc"
  top: "ip7_mbox_loc_perm"
  permute_param {
    order: 0
    order: 2
    order: 3
    order: 1
  }
}
layer {
  name: "ip7_mbox_loc_flat"
  type: "Flatten"
  bottom: "ip7_mbox_loc_perm"
  top: "ip7_mbox_loc_flat"
  flatten_param {
    axis: 1
  }
}
layer {
  name: "ip7_mbox_conf"
  type: "Convolution"
  bottom: "ip7"
  top: "ip7_mbox_conf"
  param {
    lr_mult: 1
    decay_mult: 1
  }
  param {
    lr_mult: 2
    decay_mult: 0
  }
  convolution_param {
    num_output: 36
    pad: 1
    kernel_size: 3
    stride: 1
    weight_filler {
      type: "xavier"
    }
    bias_filler {
      type: "constant"
      value: 0
    }
  }
}
layer {
  name: "ip7_mbox_conf_perm"
  type: "Permute"
  bottom: "ip7_mbox_conf"
  top: "ip7_mbox_conf_perm"
  permute_param {
    order: 0
    order: 2
    order: 3
    order: 1
  }
}
layer {
  name: "ip7_mbox_conf_flat"
  type: "Flatten"
  bottom: "ip7_mbox_conf_perm"
  top: "ip7_mbox_conf_flat"
  flatten_param {
    axis: 1
  }
}
layer {
  name: "conv12/dw_mbox_priorbox"
  type: "PriorBox"
  bottom: "conv12/dw"
  bottom: "data"
  top: "conv12/dw_mbox_priorbox"
  prior_box_param {
    min_size: 44.8
    max_size: 89.6
    aspect_ratio: 2
    aspect_ratio: 3
    flip: true
    clip: false
    variance: 0.1
    variance: 0.1
  
I0524 12:49:55.430915  9498 layer_factory.hpp:77] Creating layer data
I0524 12:49:55.431075  9498 net.cpp:100] Creating Layer data
I0524 12:49:55.431133  9498 net.cpp:408] data -> data
I0524 12:49:55.431167  9498 net.cpp:408] data -> label
I0524 12:49:55.433199  9526 db_lmdb.cpp:35] Opened lmdb /home/sx/data/VOCdevkit/VOC0712/lmdb/VOC0712_trainval_lmdb
I0524 12:49:55.449358  9498 annotated_data_layer.cpp:62] output data size: 8,3,448,448
I0524 12:49:55.470108  9498 net.cpp:150] Setting up data
I0524 12:49:55.470135  9498 net.cpp:157] Top shape: 8 3 448 448 (4816896)
I0524 12:49:55.470141  9498 net.cpp:157] Top shape: 1 1 1 8 (8)
I0524 12:49:55.470144  9498 net.cpp:165] Memory required for data: 19267616
I0524 12:49:55.470155  9498 layer_factory.hpp:77] Creating layer data_data_0_split
I0524 12:49:55.470166  9498 net.cpp:100] Creating Layer data_data_0_split
I0524 12:49:55.470172  9498 net.cpp:434] data_data_0_split <- data
I0524 12:49:55.470185  9498 net.cpp:408] data_data_0_split -> data_data_0_split_0
I0524 12:49:55.470194  9498 net.cpp:408] data_data_0_split -> data_data_0_split_1
I0524 12:49:55.470199  9498 net.cpp:408] data_data_0_split -> data_data_0_split_2
I0524 12:49:55.470206  9498 net.cpp:408] data_data_0_split -> data_data_0_split_3
I0524 12:49:55.470211  9498 net.cpp:408] data_data_0_split -> data_data_0_split_4
I0524 12:49:55.470261  9498 net.cpp:150] Setting up data_data_0_split
I0524 12:49:55.470268  9498 net.cpp:157] Top shape: 8 3 448 448 (4816896)
I0524 12:49:55.470271  9498 net.cpp:157] Top shape: 8 3 448 448 (4816896)
I0524 12:49:55.470274  9498 net.cpp:157] Top shape: 8 3 448 448 (4816896)
I0524 12:49:55.470295  9498 net.cpp:157] Top shape: 8 3 448 448 (4816896)
I0524 12:49:55.470299  9498 net.cpp:157] Top shape: 8 3 448 448 (4816896)
I0524 12:49:55.470301  9498 net.cpp:165] Memory required for data: 115605536
I0524 12:49:55.470304  9498 layer_factory.hpp:77] Creating layer conv0
I0524 12:49:55.470319  9498 net.cpp:100] Creating Layer conv0
I0524 12:49:55.470322  9498 net.cpp:434] conv0 <- data_data_0_split_0
I0524 12:49:55.470327  9498 net.cpp:408] conv0 -> conv0
I0524 12:49:56.474789  9498 net.cpp:150] Setting up conv0
I0524 12:49:56.474815  9498 net.cpp:157] Top shape: 8 32 224 224 (12845056)
I0524 12:49:56.474819  9498 net.cpp:165] Memory required for data: 166985760
I0524 12:49:56.474834  9498 layer_factory.hpp:77] Creating layer conv0/bn
I0524 12:49:56.474843  9498 net.cpp:100] Creating Layer conv0/bn
I0524 12:49:56.474846  9498 net.cpp:434] conv0/bn <- conv0
I0524 12:49:56.474851  9498 net.cpp:395] conv0/bn -> conv0 (in-place)
I0524 12:49:56.475747  9498 net.cpp:150] Setting up conv0/bn
I0524 12:49:56.475760  9498 net.cpp:157] Top shape: 8 32 224 224 (12845056)
I0524 12:49:56.475764  9498 net.cpp:165] Memory required for data: 218365984
I0524 12:49:56.475775  9498 layer_factory.hpp:77] Creating layer conv0/scale
I0524 12:49:56.475785  9498 net.cpp:100] Creating Layer conv0/scale
I0524 12:49:56.475788  9498 net.cpp:434] conv0/scale <- conv0
I0524 12:49:56.475793  9498 net.cpp:395] conv0/scale -> conv0 (in-place)
I0524 12:49:56.475836  9498 layer_factory.hpp:77] Creating layer conv0/scale
I0524 12:49:56.475963  9498 net.cpp:150] Setting up conv0/scale
I0524 12:49:56.475970  9498 net.cpp:157] Top shape: 8 32 224 224 (12845056)
I0524 12:49:56.475973  9498 net.cpp:165] Memory required for data: 269746208
I0524 12:49:56.475978  9498 layer_factory.hpp:77] Creating layer conv0/relu
I0524 12:49:56.475984  9498 net.cpp:100] Creating Layer conv0/relu
I0524 12:49:56.475987  9498 net.cpp:434] conv0/relu <- conv0
I0524 12:49:56.475991  9498 net.cpp:395] conv0/relu -> conv0 (in-place)
I0524 12:49:56.476397  9498 net.cpp:150] Setting up conv0/relu
I0524 12:49:56.476408  9498 net.cpp:157] Top shape: 8 32 224 224 (12845056)
I0524 12:49:56.476410  9498 net.cpp:165] Memory required for data: 321126432
I0524 12:49:56.476414  9498 layer_factory.hpp:77] Creating layer conv1/dw
I0524 12:49:56.476423  9498 net.cpp:100] Creating Layer conv1/dw
I0524 12:49:56.476426  9498 net.cpp:434] conv1/dw <- conv0
I0524 12:49:56.476433  9498 net.cpp:408] conv1/dw -> conv1/dw
I0524 12:49:56.476615  9498 net.cpp:150] Setting up conv1/dw
I0524 12:49:56.476621  9498 net.cpp:157] Top shape: 8 32 224 224 (12845056)
I0524 12:49:56.476624  9498 net.cpp:165] Memory required for data: 372506656
I0524 12:49:56.476629  9498 layer_factory.hpp:77] Creating layer conv1/dw/bn
I0524 12:49:56.476634  9498 net.cpp:100] Creating Layer conv1/dw/bn
I0524 12:49:56.476636  9498 net.cpp:434] conv1/dw/bn <- conv1/dw
I0524 12:49:56.476639  9498 net.cpp:395] conv1/dw/bn -> conv1/dw (in-place)
I0524 12:49:56.476805  9498 net.cpp:150] Setting up conv1/dw/bn
I0524 12:49:56.476810  9498 net.cpp:157] Top shape: 8 32 224 224 (12845056)
I0524 12:49:56.476814  9498 net.cpp:165] Memory required for data: 423886880
I0524 12:49:56.476820  9498 layer_factory.hpp:77] Creating layer conv1/dw/scale
I0524 12:49:56.476826  9498 net.cpp:100] Creating Layer conv1/dw/scale
I0524 12:49:56.476830  9498 net.cpp:434] conv1/dw/scale <- conv1/dw
I0524 12:49:56.476833  9498 net.cpp:395] conv1/dw/scale -> conv1/dw (in-place)
I0524 12:49:56.476871  9498 layer_factory.hpp:77] Creating layer conv1/dw/scale
I0524 12:49:56.476990  9498 net.cpp:150] Setting up conv1/dw/scale
I0524 12:49:56.476996  9498 net.cpp:157] Top shape: 8 32 224 224 (12845056)
I0524 12:49:56.476999  9498 net.cpp:165] Memory required for data: 475267104
I0524 12:49:56.477003  9498 layer_factory.hpp:77] Creating layer conv1/dw/relu
I0524 12:49:56.477007  9498 net.cpp:100] Creating Layer conv1/dw/relu
I0524 12:49:56.477010  9498 net.cpp:434] conv1/dw/relu <- conv1/dw
I0524 12:49:56.477013  9498 net.cpp:395] conv1/dw/relu -> conv1/dw (in-place)
I0524 12:49:56.477550  9498 net.cpp:150] Setting up conv1/dw/relu
I0524 12:49:56.477562  9498 net.cpp:157] Top shape: 8 32 224 224 (12845056)
I0524 12:49:56.477566  9498 net.cpp:165] Memory required for data: 526647328
I0524 12:49:56.477569  9498 layer_factory.hpp:77] Creating layer conv1
I0524 12:49:56.477577  9498 net.cpp:100] Creating Layer conv1
I0524 12:49:56.477581  9498 net.cpp:434] conv1 <- conv1/dw
I0524 12:49:56.477586  9498 net.cpp:408] conv1 -> conv1
I0524 12:49:56.479840  9498 net.cpp:150] Setting up conv1
I0524 12:49:56.479852  9498 net.cpp:157] Top shape: 8 64 224 224 (25690112)
I0524 12:49:56.479856  9498 net.cpp:165] Memory required for data: 629407776
I0524 12:49:56.479861  9498 layer_factory.hpp:77] Creating layer conv1/bn
I0524 12:49:56.479866  9498 net.cpp:100] Creating Layer conv1/bn
I0524 12:49:56.479868  9498 net.cpp:434] conv1/bn <- conv1
I0524 12:49:56.479873  9498 net.cpp:395] conv1/bn -> conv1 (in-place)
I0524 12:49:56.480055  9498 net.cpp:150] Setting up conv1/bn
I0524 12:49:56.480060  9498 net.cpp:157] Top shape: 8 64 224 224 (25690112)
I0524 12:49:56.480063  9498 net.cpp:165] Memory required for data: 732168224
I0524 12:49:56.480068  9498 layer_factory.hpp:77] Creating layer conv1/scale
I0524 12:49:56.480074  9498 net.cpp:100] Creating Layer conv1/scale
I0524 12:49:56.480077  9498 net.cpp:434] conv1/scale <- conv1
I0524 12:49:56.480082  9498 net.cpp:395] conv1/scale -> conv1 (in-place)
I0524 12:49:56.480108  9498 layer_factory.hpp:77] Creating layer conv1/scale
I0524 12:49:56.480257  9498 net.cpp:150] Setting up conv1/scale
I0524 12:49:56.480264  9498 net.cpp:157] Top shape: 8 64 224 224 (25690112)
I0524 12:49:56.480266  9498 net.cpp:165] Memory required for data: 834928672
I0524 12:49:56.480274  9498 layer_factory.hpp:77] Creating layer conv1/relu
I0524 12:49:56.480279  9498 net.cpp:100] Creating Layer conv1/relu
I0524 12:49:56.480283  9498 net.cpp:434] conv1/relu <- conv1
I0524 12:49:56.480285  9498 net.cpp:395] conv1/relu -> conv1 (in-place)
I0524 12:49:56.480650  9498 net.cpp:150] Setting up conv1/relu
I0524 12:49:56.480660  9498 net.cpp:157] Top shape: 8 64 224 224 (25690112)
I0524 12:49:56.480664  9498 net.cpp:165] Memory required for data: 937689120
I0524 12:49:56.480666  9498 layer_factory.hpp:77] Creating layer conv2/dw
I0524 12:49:56.480674  9498 net.cpp:100] Creating Layer conv2/dw
I0524 12:49:56.480679  9498 net.cpp:434] conv2/dw <- conv1
I0524 12:49:56.480684  9498 net.cpp:408] conv2/dw -> conv2/dw
I0524 12:49:56.480872  9498 net.cpp:150] Setting up conv2/dw
I0524 12:49:56.480878  9498 net.cpp:157] Top shape: 8 64 112 112 (6422528)
I0524 12:49:56.480881  9498 net.cpp:165] Memory required for data: 963379232
I0524 12:49:56.480885  9498 layer_factory.hpp:77] Creating layer conv2/dw/bn
I0524 12:49:56.480890  9498 net.cpp:100] Creating Layer conv2/dw/bn
I0524 12:49:56.480892  9498 net.cpp:434] conv2/dw/bn <- conv2/dw
I0524 12:49:56.480897  9498 net.cpp:395] conv2/dw/bn -> conv2/dw (in-place)
I0524 12:49:56.481688  9498 net.cpp:150] Setting up conv2/dw/bn
I0524 12:49:56.481698  9498 net.cpp:157] Top shape: 8 64 112 112 (6422528)
I0524 12:49:56.481701  9498 net.cpp:165] Memory required for data: 989069344
I0524 12:49:56.481724  9498 layer_factory.hpp:77] Creating layer conv2/dw/scale
I0524 12:49:56.481732  9498 net.cpp:100] Creating Layer conv2/dw/scale
I0524 12:49:56.481735  9498 net.cpp:434] conv2/dw/scale <- conv2/dw
I0524 12:49:56.481740  9498 net.cpp:395] conv2/dw/scale -> conv2/dw (in-place)
I0524 12:49:56.481773  9498 layer_factory.hpp:77] Creating layer conv2/dw/scale
I0524 12:49:56.481873  9498 net.cpp:150] Setting up conv2/dw/scale
I0524 12:49:56.481878  9498 net.cpp:157] Top shape: 8 64 112 112 (6422528)
I0524 12:49:56.481881  9498 net.cpp:165] Memory required for data: 1014759456
I0524 12:49:56.481886  9498 layer_factory.hpp:77] Creating layer conv2/dw/relu
I0524 12:49:56.481890  9498 net.cpp:100] Creating Layer conv2/dw/relu
I0524 12:49:56.481892  9498 net.cpp:434] conv2/dw/relu <- conv2/dw
I0524 12:49:56.481896  9498 net.cpp:395] conv2/dw/relu -> conv2/dw (in-place)
I0524 12:49:56.483278  9498 net.cpp:150] Setting up conv2/dw/relu
I0524 12:49:56.483291  9498 net.cpp:157] Top shape: 8 64 112 112 (6422528)
I0524 12:49:56.483294  9498 net.cpp:165] Memory required for data: 1040449568
I0524 12:49:56.483297  9498 layer_factory.hpp:77] Creating layer conv2
I0524 12:49:56.483306  9498 net.cpp:100] Creating Layer conv2
I0524 12:49:56.483309  9498 net.cpp:434] conv2 <- conv2/dw
I0524 12:49:56.483314  9498 net.cpp:408] conv2 -> conv2
I0524 12:49:56.485137  9498 net.cpp:150] Setting up conv2
I0524 12:49:56.485150  9498 net.cpp:157] Top shape: 8 128 112 112 (12845056)
I0524 12:49:56.485153  9498 net.cpp:165] Memory required for data: 1091829792
I0524 12:49:56.485158  9498 layer_factory.hpp:77] Creating layer conv2/bn
I0524 12:49:56.485163  9498 net.cpp:100] Creating Layer conv2/bn
I0524 12:49:56.485167  9498 net.cpp:434] conv2/bn <- conv2
I0524 12:49:56.485172  9498 net.cpp:395] conv2/bn -> conv2 (in-place)
I0524 12:49:56.485337  9498 net.cpp:150] Setting up conv2/bn
I0524 12:49:56.485342  9498 net.cpp:157] Top shape: 8 128 112 112 (12845056)
I0524 12:49:56.485345  9498 net.cpp:165] Memory required for data: 1143210016
I0524 12:49:56.485350  9498 layer_factory.hpp:77] Creating layer conv2/scale
I0524 12:49:56.485357  9498 net.cpp:100] Creating Layer conv2/scale
I0524 12:49:56.485358  9498 net.cpp:434] conv2/scale <- conv2
I0524 12:49:56.485363  9498 net.cpp:395] conv2/scale -> conv2 (in-place)
I0524 12:49:56.485391  9498 layer_factory.hpp:77] Creating layer conv2/scale
I0524 12:49:56.485474  9498 net.cpp:150] Setting up conv2/scale
I0524 12:49:56.485479  9498 net.cpp:157] Top shape: 8 128 112 112 (12845056)
I0524 12:49:56.485482  9498 net.cpp:165] Memory required for data: 1194590240
I0524 12:49:56.485487  9498 layer_factory.hpp:77] Creating layer conv2/relu
I0524 12:49:56.485491  9498 net.cpp:100] Creating Layer conv2/relu
I0524 12:49:56.485493  9498 net.cpp:434] conv2/relu <- conv2
I0524 12:49:56.485496  9498 net.cpp:395] conv2/relu -> conv2 (in-place)
I0524 12:49:56.485860  9498 net.cpp:150] Setting up conv2/relu
I0524 12:49:56.485870  9498 net.cpp:157] Top shape: 8 128 112 112 (12845056)
I0524 12:49:56.485872  9498 net.cpp:165] Memory required for data: 1245970464
I0524 12:49:56.485877  9498 layer_factory.hpp:77] Creating layer conv3/dw
I0524 12:49:56.485883  9498 net.cpp:100] Creating Layer conv3/dw
I0524 12:49:56.485886  9498 net.cpp:434] conv3/dw <- conv2
I0524 12:49:56.485890  9498 net.cpp:408] conv3/dw -> conv3/dw
I0524 12:49:56.486068  9498 net.cpp:150] Setting up conv3/dw
I0524 12:49:56.486073  9498 net.cpp:157] Top shape: 8 128 112 112 (12845056)
I0524 12:49:56.486076  9498 net.cpp:165] Memory required for data: 1297350688
I0524 12:49:56.486080  9498 layer_factory.hpp:77] Creating layer conv3/dw/bn
I0524 12:49:56.486084  9498 net.cpp:100] Creating Layer conv3/dw/bn
I0524 12:49:56.486088  9498 net.cpp:434] conv3/dw/bn <- conv3/dw
I0524 12:49:56.486090  9498 net.cpp:395] conv3/dw/bn -> conv3/dw (in-place)
I0524 12:49:56.486236  9498 net.cpp:150] Setting up conv3/dw/bn
I0524 12:49:56.486243  9498 net.cpp:157] Top shape: 8 128 112 112 (12845056)
I0524 12:49:56.486245  9498 net.cpp:165] Memory required for data: 1348730912
I0524 12:49:56.486253  9498 layer_factory.hpp:77] Creating layer conv3/dw/scale
I0524 12:49:56.486258  9498 net.cpp:100] Creating Layer conv3/dw/scale
I0524 12:49:56.486261  9498 net.cpp:434] conv3/dw/scale <- conv3/dw
I0524 12:49:56.486265  9498 net.cpp:395] conv3/dw/scale -> conv3/dw (in-place)
I0524 12:49:56.486292  9498 layer_factory.hpp:77] Creating layer conv3/dw/scale
I0524 12:49:56.486385  9498 net.cpp:150] Setting up conv3/dw/scale
I0524 12:49:56.486392  9498 net.cpp:157] Top shape: 8 128 112 112 (12845056)
I0524 12:49:56.486394  9498 net.cpp:165] Memory required for data: 1400111136
I0524 12:49:56.486398  9498 layer_factory.hpp:77] Creating layer conv3/dw/relu
I0524 12:49:56.486402  9498 net.cpp:100] Creating Layer conv3/dw/relu
I0524 12:49:56.486404  9498 net.cpp:434] conv3/dw/relu <- conv3/dw
I0524 12:49:56.486408  9498 net.cpp:395] conv3/dw/relu -> conv3/dw (in-place)
I0524 12:49:56.486912  9498 net.cpp:150] Setting up conv3/dw/relu
I0524 12:49:56.486924  9498 net.cpp:157] Top shape: 8 128 112 112 (12845056)
I0524 12:49:56.486927  9498 net.cpp:165] Memory required for data: 1451491360
I0524 12:49:56.486930  9498 layer_factory.hpp:77] Creating layer conv3
I0524 12:49:56.486937  9498 net.cpp:100] Creating Layer conv3
I0524 12:49:56.486940  9498 net.cpp:434] conv3 <- conv3/dw
I0524 12:49:56.486946  9498 net.cpp:408] conv3 -> conv3
I0524 12:49:56.488725  9498 net.cpp:150] Setting up conv3
I0524 12:49:56.488739  9498 net.cpp:157] Top shape: 8 128 112 112 (12845056)
I0524 12:49:56.488741  9498 net.cpp:165] Memory required for data: 1502871584
I0524 12:49:56.488746  9498 layer_factory.hpp:77] Creating layer conv3/bn
I0524 12:49:56.488751  9498 net.cpp:100] Creating Layer conv3/bn
I0524 12:49:56.488754  9498 net.cpp:434] conv3/bn <- conv3
I0524 12:49:56.488759  9498 net.cpp:395] conv3/bn -> conv3 (in-place)
I0524 12:49:56.488927  9498 net.cpp:150] Setting up conv3/bn
I0524 12:49:56.488934  9498 net.cpp:157] Top shape: 8 128 112 112 (12845056)
I0524 12:49:56.488935  9498 net.cpp:165] Memory required for data: 1554251808
I0524 12:49:56.488941  9498 layer_factory.hpp:77] Creating layer conv3/scale
I0524 12:49:56.488946  9498 net.cpp:100] Creating Layer conv3/scale
I0524 12:49:56.488950  9498 net.cpp:434] conv3/scale <- conv3
I0524 12:49:56.488952  9498 net.cpp:395] conv3/scale -> conv3 (in-place)
I0524 12:49:56.488981  9498 layer_factory.hpp:77] Creating layer conv3/scale
I0524 12:49:56.489065  9498 net.cpp:150] Setting up conv3/scale
I0524 12:49:56.489078  9498 net.cpp:157] Top shape: 8 128 112 112 (12845056)
I0524 12:49:56.489080  9498 net.cpp:165] Memory required for data: 1605632032
I0524 12:49:56.489084  9498 layer_factory.hpp:77] Creating layer conv3/relu
I0524 12:49:56.489089  9498 net.cpp:100] Creating Layer conv3/relu
I0524 12:49:56.489090  9498 net.cpp:434] conv3/relu <- conv3
I0524 12:49:56.489094  9498 net.cpp:395] conv3/relu -> conv3 (in-place)
I0524 12:49:56.489449  9498 net.cpp:150] Setting up conv3/relu
I0524 12:49:56.489459  9498 net.cpp:157] Top shape: 8 128 112 112 (12845056)
I0524 12:49:56.489461  9498 net.cpp:165] Memory required for data: 1657012256
I0524 12:49:56.489464  9498 layer_factory.hpp:77] Creating layer conv4/dw
I0524 12:49:56.489472  9498 net.cpp:100] Creating Layer conv4/dw
I0524 12:49:56.489476  9498 net.cpp:434] conv4/dw <- conv3
I0524 12:49:56.489480  9498 net.cpp:408] conv4/dw -> conv4/dw
I0524 12:49:56.489656  9498 net.cpp:150] Setting up conv4/dw
I0524 12:49:56.489662  9498 net.cpp:157] Top shape: 8 128 56 56 (3211264)
I0524 12:49:56.489665  9498 net.cpp:165] Memory required for data: 1669857312
I0524 12:49:56.489670  9498 layer_factory.hpp:77] Creating layer conv4/dw/bn
I0524 12:49:56.489675  9498 net.cpp:100] Creating Layer conv4/dw/bn
I0524 12:49:56.489676  9498 net.cpp:434] conv4/dw/bn <- conv4/dw
I0524 12:49:56.489681  9498 net.cpp:395] conv4/dw/bn -> conv4/dw (in-place)
I0524 12:49:56.489850  9498 net.cpp:150] Setting up conv4/dw/bn
I0524 12:49:56.489856  9498 net.cpp:157] Top shape: 8 128 56 56 (3211264)
I0524 12:49:56.489858  9498 net.cpp:165] Memory required for data: 1682702368
I0524 12:49:56.489864  9498 layer_factory.hpp:77] Creating layer conv4/dw/scale
I0524 12:49:56.489871  9498 net.cpp:100] Creating Layer conv4/dw/scale
I0524 12:49:56.489873  9498 net.cpp:434] conv4/dw/scale <- conv4/dw
I0524 12:49:56.489877  9498 net.cpp:395] conv4/dw/scale -> conv4/dw (in-place)
I0524 12:49:56.489933  9498 layer_factory.hpp:77] Creating layer conv4/dw/scale
I0524 12:49:56.490020  9498 net.cpp:150] Setting up conv4/dw/scale
I0524 12:49:56.490027  9498 net.cpp:157] Top shape: 8 128 56 56 (3211264)
I0524 12:49:56.490031  9498 net.cpp:165] Memory required for data: 1695547424
I0524 12:49:56.490036  9498 layer_factory.hpp:77] Creating layer conv4/dw/relu
I0524 12:49:56.490039  9498 net.cpp:100] Creating Layer conv4/dw/relu
I0524 12:49:56.490041  9498 net.cpp:434] conv4/dw/relu <- conv4/dw
I0524 12:49:56.490046  9498 net.cpp:395] conv4/dw/relu -> conv4/dw (in-place)
I0524 12:49:56.491531  9498 net.cpp:150] Setting up conv4/dw/relu
I0524 12:49:56.491544  9498 net.cpp:157] Top shape: 8 128 56 56 (3211264)
I0524 12:49:56.491547  9498 net.cpp:165] Memory required for data: 1708392480
I0524 12:49:56.491550  9498 layer_factory.hpp:77] Creating layer conv4
I0524 12:49:56.491559  9498 net.cpp:100] Creating Layer conv4
I0524 12:49:56.491562  9498 net.cpp:434] conv4 <- conv4/dw
I0524 12:49:56.491567  9498 net.cpp:408] conv4 -> conv4
I0524 12:49:56.493470  9498 net.cpp:150] Setting up conv4
I0524 12:49:56.493484  9498 net.cpp:157] Top shape: 8 256 56 56 (6422528)
I0524 12:49:56.493487  9498 net.cpp:165] Memory required for data: 1734082592
I0524 12:49:56.493492  9498 layer_factory.hpp:77] Creating layer conv4/bn
I0524 12:49:56.493497  9498 net.cpp:100] Creating Layer conv4/bn
I0524 12:49:56.493501  9498 net.cpp:434] conv4/bn <- conv4
I0524 12:49:56.493506  9498 net.cpp:395] conv4/bn -> conv4 (in-place)
I0524 12:49:56.493680  9498 net.cpp:150] Setting up conv4/bn
I0524 12:49:56.493685  9498 net.cpp:157] Top shape: 8 256 56 56 (6422528)
I0524 12:49:56.493690  9498 net.cpp:165] Memory required for data: 1759772704
I0524 12:49:56.493695  9498 layer_factory.hpp:77] Creating layer conv4/scale
I0524 12:49:56.493700  9498 net.cpp:100] Creating Layer conv4/scale
I0524 12:49:56.493702  9498 net.cpp:434] conv4/scale <- conv4
I0524 12:49:56.493706  9498 net.cpp:395] conv4/scale -> conv4 (in-place)
I0524 12:49:56.493737  9498 layer_factory.hpp:77] Creating layer conv4/scale
I0524 12:49:56.493825  9498 net.cpp:150] Setting up conv4/scale
I0524 12:49:56.493839  9498 net.cpp:157] Top shape: 8 256 56 56 (6422528)
I0524 12:49:56.493842  9498 net.cpp:165] Memory required for data: 1785462816
I0524 12:49:56.493846  9498 layer_factory.hpp:77] Creating layer conv4/relu
I0524 12:49:56.493851  9498 net.cpp:100] Creating Layer conv4/relu
I0524 12:49:56.493854  9498 net.cpp:434] conv4/relu <- conv4
I0524 12:49:56.493857  9498 net.cpp:395] conv4/relu -> conv4 (in-place)
I0524 12:49:56.494235  9498 net.cpp:150] Setting up conv4/relu
I0524 12:49:56.494244  9498 net.cpp:157] Top shape: 8 256 56 56 (6422528)
I0524 12:49:56.494247  9498 net.cpp:165] Memory required for data: 1811152928
I0524 12:49:56.494251  9498 layer_factory.hpp:77] Creating layer conv5/dw
I0524 12:49:56.494258  9498 net.cpp:100] Creating Layer conv5/dw
I0524 12:49:56.494261  9498 net.cpp:434] conv5/dw <- conv4
I0524 12:49:56.494266  9498 net.cpp:408] conv5/dw -> conv5/dw
I0524 12:49:56.494468  9498 net.cpp:150] Setting up conv5/dw
I0524 12:49:56.494474  9498 net.cpp:157] Top shape: 8 256 56 56 (6422528)
I0524 12:49:56.494477  9498 net.cpp:165] Memory required for data: 1836843040
I0524 12:49:56.494482  9498 layer_factory.hpp:77] Creating layer conv5/dw/bn
I0524 12:49:56.494487  9498 net.cpp:100] Creating Layer conv5/dw/bn
I0524 12:49:56.494489  9498 net.cpp:434] conv5/dw/bn <- conv5/dw
I0524 12:49:56.494493  9498 net.cpp:395] conv5/dw/bn -> conv5/dw (in-place)
I0524 12:49:56.494664  9498 net.cpp:150] Setting up conv5/dw/bn
I0524 12:49:56.494670  9498 net.cpp:157] Top shape: 8 256 56 56 (6422528)
I0524 12:49:56.494673  9498 net.cpp:165] Memory required for data: 1862533152
I0524 12:49:56.494678  9498 layer_factory.hpp:77] Creating layer conv5/dw/scale
I0524 12:49:56.494683  9498 net.cpp:100] Creating Layer conv5/dw/scale
I0524 12:49:56.494686  9498 net.cpp:434] conv5/dw/scale <- conv5/dw
I0524 12:49:56.494689  9498 net.cpp:395] conv5/dw/scale -> conv5/dw (in-place)
I0524 12:49:56.494717  9498 layer_factory.hpp:77] Creating layer conv5/dw/scale
I0524 12:49:56.494799  9498 net.cpp:150] Setting up conv5/dw/scale
I0524 12:49:56.494805  9498 net.cpp:157] Top shape: 8 256 56 56 (6422528)
I0524 12:49:56.494808  9498 net.cpp:165] Memory required for data: 1888223264
I0524 12:49:56.494812  9498 layer_factory.hpp:77] Creating layer conv5/dw/relu
I0524 12:49:56.494815  9498 net.cpp:100] Creating Layer conv5/dw/relu
I0524 12:49:56.494818  9498 net.cpp:434] conv5/dw/relu <- conv5/dw
I0524 12:49:56.494822  9498 net.cpp:395] conv5/dw/relu -> conv5/dw (in-place)
I0524 12:49:56.495384  9498 net.cpp:150] Setting up conv5/dw/relu
I0524 12:49:56.495396  9498 net.cpp:157] Top shape: 8 256 56 56 (6422528)
I0524 12:49:56.495399  9498 net.cpp:165] Memory required for data: 1913913376
I0524 12:49:56.495404  9498 layer_factory.hpp:77] Creating layer conv5
I0524 12:49:56.495410  9498 net.cpp:100] Creating Layer conv5
I0524 12:49:56.495414  9498 net.cpp:434] conv5 <- conv5/dw
I0524 12:49:56.495419  9498 net.cpp:408] conv5 -> conv5
I0524 12:49:56.498033  9498 net.cpp:150] Setting up conv5
I0524 12:49:56.498045  9498 net.cpp:157] Top shape: 8 256 56 56 (6422528)
I0524 12:49:56.498049  9498 net.cpp:165] Memory required for data: 1939603488
I0524 12:49:56.498054  9498 layer_factory.hpp:77] Creating layer conv5/bn
I0524 12:49:56.498059  9498 net.cpp:100] Creating Layer conv5/bn
I0524 12:49:56.498061  9498 net.cpp:434] conv5/bn <- conv5
I0524 12:49:56.498065  9498 net.cpp:395] conv5/bn -> conv5 (in-place)
I0524 12:49:56.498263  9498 net.cpp:150] Setting up conv5/bn
I0524 12:49:56.498270  9498 net.cpp:157] Top shape: 8 256 56 56 (6422528)
I0524 12:49:56.498273  9498 net.cpp:165] Memory required for data: 1965293600
I0524 12:49:56.498279  9498 layer_factory.hpp:77] Creating layer conv5/scale
I0524 12:49:56.498286  9498 net.cpp:100] Creating Layer conv5/scale
I0524 12:49:56.498287  9498 net.cpp:434] conv5/scale <- conv5
I0524 12:49:56.498291  9498 net.cpp:395] conv5/scale -> conv5 (in-place)
I0524 12:49:56.498322  9498 layer_factory.hpp:77] Creating layer conv5/scale
I0524 12:49:56.498419  9498 net.cpp:150] Setting up conv5/scale
I0524 12:49:56.498425  9498 net.cpp:157] Top shape: 8 256 56 56 (6422528)
I0524 12:49:56.498427  9498 net.cpp:165] Memory required for data: 1990983712
I0524 12:49:56.498437  9498 layer_factory.hpp:77] Creating layer conv5/relu
I0524 12:49:56.498442  9498 net.cpp:100] Creating Layer conv5/relu
I0524 12:49:56.498445  9498 net.cpp:434] conv5/relu <- conv5
I0524 12:49:56.498448  9498 net.cpp:395] conv5/relu -> conv5 (in-place)
I0524 12:49:56.498814  9498 net.cpp:150] Setting up conv5/relu
I0524 12:49:56.498824  9498 net.cpp:157] Top shape: 8 256 56 56 (6422528)
I0524 12:49:56.498827  9498 net.cpp:165] Memory required for data: 2016673824
I0524 12:49:56.498831  9498 layer_factory.hpp:77] Creating layer conv6/dw
I0524 12:49:56.498838  9498 net.cpp:100] Creating Layer conv6/dw
I0524 12:49:56.498842  9498 net.cpp:434] conv6/dw <- conv5
I0524 12:49:56.498847  9498 net.cpp:408] conv6/dw -> conv6/dw
I0524 12:49:56.499047  9498 net.cpp:150] Setting up conv6/dw
I0524 12:49:56.499053  9498 net.cpp:157] Top shape: 8 256 28 28 (1605632)
I0524 12:49:56.499058  9498 net.cpp:165] Memory required for data: 2023096352
I0524 12:49:56.499060  9498 layer_factory.hpp:77] Creating layer conv6/dw/bn
I0524 12:49:56.499064  9498 net.cpp:100] Creating Layer conv6/dw/bn
I0524 12:49:56.499068  9498 net.cpp:434] conv6/dw/bn <- conv6/dw
I0524 12:49:56.499071  9498 net.cpp:395] conv6/dw/bn -> conv6/dw (in-place)
I0524 12:49:56.499258  9498 net.cpp:150] Setting up conv6/dw/bn
I0524 12:49:56.499264  9498 net.cpp:157] Top shape: 8 256 28 28 (1605632)
I0524 12:49:56.499266  9498 net.cpp:165] Memory required for data: 2029518880
I0524 12:49:56.499272  9498 layer_factory.hpp:77] Creating layer conv6/dw/scale
I0524 12:49:56.499277  9498 net.cpp:100] Creating Layer conv6/dw/scale
I0524 12:49:56.499279  9498 net.cpp:434] conv6/dw/scale <- conv6/dw
I0524 12:49:56.499284  9498 net.cpp:395] conv6/dw/scale -> conv6/dw (in-place)
I0524 12:49:56.499313  9498 layer_factory.hpp:77] Creating layer conv6/dw/scale
I0524 12:49:56.499415  9498 net.cpp:150] Setting up conv6/dw/scale
I0524 12:49:56.499421  9498 net.cpp:157] Top shape: 8 256 28 28 (1605632)
I0524 12:49:56.499423  9498 net.cpp:165] Memory required for data: 2035941408
I0524 12:49:56.499428  9498 layer_factory.hpp:77] Creating layer conv6/dw/relu
I0524 12:49:56.499431  9498 net.cpp:100] Creating Layer conv6/dw/relu
I0524 12:49:56.499434  9498 net.cpp:434] conv6/dw/relu <- conv6/dw
I0524 12:49:56.499439  9498 net.cpp:395] conv6/dw/relu -> conv6/dw (in-place)
I0524 12:49:56.500782  9498 net.cpp:150] Setting up conv6/dw/relu
I0524 12:49:56.500795  9498 net.cpp:157] Top shape: 8 256 28 28 (1605632)
I0524 12:49:56.500797  9498 net.cpp:165] Memory required for data: 2042363936
I0524 12:49:56.500800  9498 layer_factory.hpp:77] Creating layer conv6
I0524 12:49:56.500808  9498 net.cpp:100] Creating Layer conv6
I0524 12:49:56.500811  9498 net.cpp:434] conv6 <- conv6/dw
I0524 12:49:56.500816  9498 net.cpp:408] conv6 -> conv6
I0524 12:49:56.504173  9498 net.cpp:150] Setting up conv6
I0524 12:49:56.504185  9498 net.cpp:157] Top shape: 8 512 28 28 (3211264)
I0524 12:49:56.504189  9498 net.cpp:165] Memory required for data: 2055208992
I0524 12:49:56.504194  9498 layer_factory.hpp:77] Creating layer conv6/bn
I0524 12:49:56.504199  9498 net.cpp:100] Creating Layer conv6/bn
I0524 12:49:56.504204  9498 net.cpp:434] conv6/bn <- conv6
I0524 12:49:56.504209  9498 net.cpp:395] conv6/bn -> conv6 (in-place)
I0524 12:49:56.504408  9498 net.cpp:150] Setting up conv6/bn
I0524 12:49:56.504413  9498 net.cpp:157] Top shape: 8 512 28 28 (3211264)
I0524 12:49:56.504417  9498 net.cpp:165] Memory required for data: 2068054048
I0524 12:49:56.504422  9498 layer_factory.hpp:77] Creating layer conv6/scale
I0524 12:49:56.504427  9498 net.cpp:100] Creating Layer conv6/scale
I0524 12:49:56.504431  9498 net.cpp:434] conv6/scale <- conv6
I0524 12:49:56.504436  9498 net.cpp:395] conv6/scale -> conv6 (in-place)
I0524 12:49:56.504468  9498 layer_factory.hpp:77] Creating layer conv6/scale
I0524 12:49:56.504573  9498 net.cpp:150] Setting up conv6/scale
I0524 12:49:56.504580  9498 net.cpp:157] Top shape: 8 512 28 28 (3211264)
I0524 12:49:56.504582  9498 net.cpp:165] Memory required for data: 2080899104
I0524 12:49:56.504586  9498 layer_factory.hpp:77] Creating layer conv6/relu
I0524 12:49:56.504590  9498 net.cpp:100] Creating Layer conv6/relu
I0524 12:49:56.504593  9498 net.cpp:434] conv6/relu <- conv6
I0524 12:49:56.504598  9498 net.cpp:395] conv6/relu -> conv6 (in-place)
I0524 12:49:56.505050  9498 net.cpp:150] Setting up conv6/relu
I0524 12:49:56.505064  9498 net.cpp:157] Top shape: 8 512 28 28 (3211264)
I0524 12:49:56.505066  9498 net.cpp:165] Memory required for data: 2093744160
I0524 12:49:56.505069  9498 layer_factory.hpp:77] Creating layer conv7/dw
I0524 12:49:56.505079  9498 net.cpp:100] Creating Layer conv7/dw
I0524 12:49:56.505081  9498 net.cpp:434] conv7/dw <- conv6
I0524 12:49:56.505086  9498 net.cpp:408] conv7/dw -> conv7/dw
I0524 12:49:56.505300  9498 net.cpp:150] Setting up conv7/dw
I0524 12:49:56.505306  9498 net.cpp:157] Top shape: 8 512 28 28 (3211264)
I0524 12:49:56.505309  9498 net.cpp:165] Memory required for data: 2106589216
I0524 12:49:56.505323  9498 layer_factory.hpp:77] Creating layer conv7/dw/bn
I0524 12:49:56.505328  9498 net.cpp:100] Creating Layer conv7/dw/bn
I0524 12:49:56.505331  9498 net.cpp:434] conv7/dw/bn <- conv7/dw
I0524 12:49:56.505334  9498 net.cpp:395] conv7/dw/bn -> conv7/dw (in-place)
I0524 12:49:56.505501  9498 net.cpp:150] Setting up conv7/dw/bn
I0524 12:49:56.505507  9498 net.cpp:157] Top shape: 8 512 28 28 (3211264)
I0524 12:49:56.505511  9498 net.cpp:165] Memory required for data: 2119434272
I0524 12:49:56.505515  9498 layer_factory.hpp:77] Creating layer conv7/dw/scale
I0524 12:49:56.505519  9498 net.cpp:100] Creating Layer conv7/dw/scale
I0524 12:49:56.505522  9498 net.cpp:434] conv7/dw/scale <- conv7/dw
I0524 12:49:56.505527  9498 net.cpp:395] conv7/dw/scale -> conv7/dw (in-place)
I0524 12:49:56.505565  9498 layer_factory.hpp:77] Creating layer conv7/dw/scale
I0524 12:49:56.505662  9498 net.cpp:150] Setting up conv7/dw/scale
I0524 12:49:56.505667  9498 net.cpp:157] Top shape: 8 512 28 28 (3211264)
I0524 12:49:56.505671  9498 net.cpp:165] Memory required for data: 2132279328
I0524 12:49:56.505674  9498 layer_factory.hpp:77] Creating layer conv7/dw/relu
I0524 12:49:56.505678  9498 net.cpp:100] Creating Layer conv7/dw/relu
I0524 12:49:56.505681  9498 net.cpp:434] conv7/dw/relu <- conv7/dw
I0524 12:49:56.505686  9498 net.cpp:395] conv7/dw/relu -> conv7/dw (in-place)
I0524 12:49:56.506263  9498 net.cpp:150] Setting up conv7/dw/relu
I0524 12:49:56.506274  9498 net.cpp:157] Top shape: 8 512 28 28 (3211264)
I0524 12:49:56.506278  9498 net.cpp:165] Memory required for data: 2145124384
I0524 12:49:56.506280  9498 layer_factory.hpp:77] Creating layer conv7
I0524 12:49:56.506289  9498 net.cpp:100] Creating Layer conv7
I0524 12:49:56.506291  9498 net.cpp:434] conv7 <- conv7/dw
I0524 12:49:56.506297  9498 net.cpp:408] conv7 -> conv7
I0524 12:49:56.509968  9498 net.cpp:150] Setting up conv7
I0524 12:49:56.509980  9498 net.cpp:157] Top shape: 8 512 28 28 (3211264)
I0524 12:49:56.509984  9498 net.cpp:165] Memory required for data: 2157969440
I0524 12:49:56.509989  9498 layer_factory.hpp:77] Creating layer conv7/bn
I0524 12:49:56.509995  9498 net.cpp:100] Creating Layer conv7/bn
I0524 12:49:56.509999  9498 net.cpp:434] conv7/bn <- conv7
I0524 12:49:56.510002  9498 net.cpp:395] conv7/bn -> conv7 (in-place)
I0524 12:49:56.510203  9498 net.cpp:150] Setting up conv7/bn
I0524 12:49:56.510210  9498 net.cpp:157] Top shape: 8 512 28 28 (3211264)
I0524 12:49:56.510211  9498 net.cpp:165] Memory required for data: 2170814496
I0524 12:49:56.510216  9498 layer_factory.hpp:77] Creating layer conv7/scale
I0524 12:49:56.510222  9498 net.cpp:100] Creating Layer conv7/scale
I0524 12:49:56.510224  9498 net.cpp:434] conv7/scale <- conv7
I0524 12:49:56.510228  9498 net.cpp:395] conv7/scale -> conv7 (in-place)
I0524 12:49:56.510262  9498 layer_factory.hpp:77] Creating layer conv7/scale
I0524 12:49:56.510375  9498 net.cpp:150] Setting up conv7/scale
I0524 12:49:56.510380  9498 net.cpp:157] Top shape: 8 512 28 28 (3211264)
I0524 12:49:56.510382  9498 net.cpp:165] Memory required for data: 2183659552
I0524 12:49:56.510386  9498 layer_factory.hpp:77] Creating layer conv7/relu
I0524 12:49:56.510392  9498 net.cpp:100] Creating Layer conv7/relu
I0524 12:49:56.510394  9498 net.cpp:434] conv7/relu <- conv7
I0524 12:49:56.510398  9498 net.cpp:395] conv7/relu -> conv7 (in-place)
I0524 12:49:56.510851  9498 net.cpp:150] Setting up conv7/relu
I0524 12:49:56.510864  9498 net.cpp:157] Top shape: 8 512 28 28 (3211264)
I0524 12:49:56.510866  9498 net.cpp:165] Memory required for data: 2196504608
I0524 12:49:56.510869  9498 layer_factory.hpp:77] Creating layer conv8/dw
I0524 12:49:56.510876  9498 net.cpp:100] Creating Layer conv8/dw
I0524 12:49:56.510880  9498 net.cpp:434] conv8/dw <- conv7
I0524 12:49:56.510885  9498 net.cpp:408] conv8/dw -> conv8/dw
I0524 12:49:56.511106  9498 net.cpp:150] Setting up conv8/dw
I0524 12:49:56.511117  9498 net.cpp:157] Top shape: 8 512 28 28 (3211264)
I0524 12:49:56.511121  9498 net.cpp:165] Memory required for data: 2209349664
I0524 12:49:56.511126  9498 layer_factory.hpp:77] Creating layer conv8/dw/bn
I0524 12:49:56.511129  9498 net.cpp:100] Creating Layer conv8/dw/bn
I0524 12:49:56.511132  9498 net.cpp:434] conv8/dw/bn <- conv8/dw
I0524 12:49:56.511137  9498 net.cpp:395] conv8/dw/bn -> conv8/dw (in-place)
I0524 12:49:56.511325  9498 net.cpp:150] Setting up conv8/dw/bn
I0524 12:49:56.511330  9498 net.cpp:157] Top shape: 8 512 28 28 (3211264)
I0524 12:49:56.511333  9498 net.cpp:165] Memory required for data: 2222194720
I0524 12:49:56.511339  9498 layer_factory.hpp:77] Creating layer conv8/dw/scale
I0524 12:49:56.511349  9498 net.cpp:100] Creating Layer conv8/dw/scale
I0524 12:49:56.511360  9498 net.cpp:434] conv8/dw/scale <- conv8/dw
I0524 12:49:56.511364  9498 net.cpp:395] conv8/dw/scale -> conv8/dw (in-place)
I0524 12:49:56.511397  9498 layer_factory.hpp:77] Creating layer conv8/dw/scale
I0524 12:49:56.511490  9498 net.cpp:150] Setting up conv8/dw/scale
I0524 12:49:56.511497  9498 net.cpp:157] Top shape: 8 512 28 28 (3211264)
I0524 12:49:56.511500  9498 net.cpp:165] Memory required for data: 2235039776
I0524 12:49:56.511504  9498 layer_factory.hpp:77] Creating layer conv8/dw/relu
I0524 12:49:56.511508  9498 net.cpp:100] Creating Layer conv8/dw/relu
I0524 12:49:56.511512  9498 net.cpp:434] conv8/dw/relu <- conv8/dw
I0524 12:49:56.511514  9498 net.cpp:395] conv8/dw/relu -> conv8/dw (in-place)
I0524 12:49:56.512204  9498 net.cpp:150] Setting up conv8/dw/relu
I0524 12:49:56.512217  9498 net.cpp:157] Top shape: 8 512 28 28 (3211264)
I0524 12:49:56.512219  9498 net.cpp:165] Memory required for data: 2247884832
I0524 12:49:56.512223  9498 layer_factory.hpp:77] Creating layer conv8
I0524 12:49:56.512234  9498 net.cpp:100] Creating Layer conv8
I0524 12:49:56.512238  9498 net.cpp:434] conv8 <- conv8/dw
I0524 12:49:56.512243  9498 net.cpp:408] conv8 -> conv8
I0524 12:49:56.517189  9498 net.cpp:150] Setting up conv8
I0524 12:49:56.517201  9498 net.cpp:157] Top shape: 8 512 28 28 (3211264)
I0524 12:49:56.517204  9498 net.cpp:165] Memory required for data: 2260729888
I0524 12:49:56.517208  9498 layer_factory.hpp:77] Creating layer conv8/bn
I0524 12:49:56.517216  9498 net.cpp:100] Creating Layer conv8/bn
I0524 12:49:56.517220  9498 net.cpp:434] conv8/bn <- conv8
I0524 12:49:56.517225  9498 net.cpp:395] conv8/bn -> conv8 (in-place)
I0524 12:49:56.517410  9498 net.cpp:150] Setting up conv8/bn
I0524 12:49:56.517416  9498 net.cpp:157] Top shape: 8 512 28 28 (3211264)
I0524 12:49:56.517419  9498 net.cpp:165] Memory required for data: 2273574944
I0524 12:49:56.517424  9498 layer_factory.hpp:77] Creating layer conv8/scale
I0524 12:49:56.517431  9498 net.cpp:100] Creating Layer conv8/scale
I0524 12:49:56.517432  9498 net.cpp:434] conv8/scale <- conv8
I0524 12:49:56.517437  9498 net.cpp:395] conv8/scale -> conv8 (in-place)
I0524 12:49:56.517468  9498 layer_factory.hpp:77] Creating layer conv8/scale
I0524 12:49:56.517572  9498 net.cpp:150] Setting up conv8/scale
I0524 12:49:56.517577  9498 net.cpp:157] Top shape: 8 512 28 28 (3211264)
I0524 12:49:56.517581  9498 net.cpp:165] Memory required for data: 2286420000
I0524 12:49:56.517585  9498 layer_factory.hpp:77] Creating layer conv8/relu
I0524 12:49:56.517590  9498 net.cpp:100] Creating Layer conv8/relu
I0524 12:49:56.517592  9498 net.cpp:434] conv8/relu <- conv8
I0524 12:49:56.517596  9498 net.cpp:395] conv8/relu -> conv8 (in-place)
I0524 12:49:56.518016  9498 net.cpp:150] Setting up conv8/relu
I0524 12:49:56.518025  9498 net.cpp:157] Top shape: 8 512 28 28 (3211264)
I0524 12:49:56.518028  9498 net.cpp:165] Memory required for data: 2299265056
I0524 12:49:56.518031  9498 layer_factory.hpp:77] Creating layer conv9/dw
I0524 12:49:56.518039  9498 net.cpp:100] Creating Layer conv9/dw
I0524 12:49:56.518043  9498 net.cpp:434] conv9/dw <- conv8
I0524 12:49:56.518046  9498 net.cpp:408] conv9/dw -> conv9/dw
I0524 12:49:56.518254  9498 net.cpp:150] Setting up conv9/dw
I0524 12:49:56.518260  9498 net.cpp:157] Top shape: 8 512 28 28 (3211264)
I0524 12:49:56.518262  9498 net.cpp:165] Memory required for data: 2312110112
I0524 12:49:56.518266  9498 layer_factory.hpp:77] Creating layer conv9/dw/bn
I0524 12:49:56.518270  9498 net.cpp:100] Creating Layer conv9/dw/bn
I0524 12:49:56.518272  9498 net.cpp:434] conv9/dw/bn <- conv9/dw
I0524 12:49:56.518276  9498 net.cpp:395] conv9/dw/bn -> conv9/dw (in-place)
I0524 12:49:56.518471  9498 net.cpp:150] Setting up conv9/dw/bn
I0524 12:49:56.518478  9498 net.cpp:157] Top shape: 8 512 28 28 (3211264)
I0524 12:49:56.518481  9498 net.cpp:165] Memory required for data: 2324955168
I0524 12:49:56.518486  9498 layer_factory.hpp:77] Creating layer conv9/dw/scale
I0524 12:49:56.518489  9498 net.cpp:100] Creating Layer conv9/dw/scale
I0524 12:49:56.518493  9498 net.cpp:434] conv9/dw/scale <- conv9/dw
I0524 12:49:56.518496  9498 net.cpp:395] conv9/dw/scale -> conv9/dw (in-place)
I0524 12:49:56.518528  9498 layer_factory.hpp:77] Creating layer conv9/dw/scale
I0524 12:49:56.518635  9498 net.cpp:150] Setting up conv9/dw/scale
I0524 12:49:56.518640  9498 net.cpp:157] Top shape: 8 512 28 28 (3211264)
I0524 12:49:56.518643  9498 net.cpp:165] Memory required for data: 2337800224
I0524 12:49:56.518647  9498 layer_factory.hpp:77] Creating layer conv9/dw/relu
I0524 12:49:56.518651  9498 net.cpp:100] Creating Layer conv9/dw/relu
I0524 12:49:56.518656  9498 net.cpp:434] conv9/dw/relu <- conv9/dw
I0524 12:49:56.518658  9498 net.cpp:395] conv9/dw/relu -> conv9/dw (in-place)
I0524 12:49:56.519223  9498 net.cpp:150] Setting up conv9/dw/relu
I0524 12:49:56.519244  9498 net.cpp:157] Top shape: 8 512 28 28 (3211264)
I0524 12:49:56.519248  9498 net.cpp:165] Memory required for data: 2350645280
I0524 12:49:56.519250  9498 layer_factory.hpp:77] Creating layer conv9
I0524 12:49:56.519259  9498 net.cpp:100] Creating Layer conv9
I0524 12:49:56.519263  9498 net.cpp:434] conv9 <- conv9/dw
I0524 12:49:56.519268  9498 net.cpp:408] conv9 -> conv9
I0524 12:49:56.522872  9498 net.cpp:150] Setting up conv9
I0524 12:49:56.522884  9498 net.cpp:157] Top shape: 8 512 28 28 (3211264)
I0524 12:49:56.522887  9498 net.cpp:165] Memory required for data: 2363490336
I0524 12:49:56.522892  9498 layer_factory.hpp:77] Creating layer conv9/bn
I0524 12:49:56.522898  9498 net.cpp:100] Creating Layer conv9/bn
I0524 12:49:56.522902  9498 net.cpp:434] conv9/bn <- conv9
I0524 12:49:56.522905  9498 net.cpp:395] conv9/bn -> conv9 (in-place)
I0524 12:49:56.523092  9498 net.cpp:150] Setting up conv9/bn
I0524 12:49:56.523097  9498 net.cpp:157] Top shape: 8 512 28 28 (3211264)
I0524 12:49:56.523099  9498 net.cpp:165] Memory required for data: 2376335392
I0524 12:49:56.523104  9498 layer_factory.hpp:77] Creating layer conv9/scale
I0524 12:49:56.523109  9498 net.cpp:100] Creating Layer conv9/scale
I0524 12:49:56.523116  9498 net.cpp:434] conv9/scale <- conv9
I0524 12:49:56.523121  9498 net.cpp:395] conv9/scale -> conv9 (in-place)
I0524 12:49:56.523154  9498 layer_factory.hpp:77] Creating layer conv9/scale
I0524 12:49:56.523259  9498 net.cpp:150] Setting up conv9/scale
I0524 12:49:56.523264  9498 net.cpp:157] Top shape: 8 512 28 28 (3211264)
I0524 12:49:56.523267  9498 net.cpp:165] Memory required for data: 2389180448
I0524 12:49:56.523270  9498 layer_factory.hpp:77] Creating layer conv9/relu
I0524 12:49:56.523275  9498 net.cpp:100] Creating Layer conv9/relu
I0524 12:49:56.523277  9498 net.cpp:434] conv9/relu <- conv9
I0524 12:49:56.523283  9498 net.cpp:395] conv9/relu -> conv9 (in-place)
I0524 12:49:56.523741  9498 net.cpp:150] Setting up conv9/relu
I0524 12:49:56.523756  9498 net.cpp:157] Top shape: 8 512 28 28 (3211264)
I0524 12:49:56.523758  9498 net.cpp:165] Memory required for data: 2402025504
I0524 12:49:56.523761  9498 layer_factory.hpp:77] Creating layer conv10/dw
I0524 12:49:56.523768  9498 net.cpp:100] Creating Layer conv10/dw
I0524 12:49:56.523772  9498 net.cpp:434] conv10/dw <- conv9
I0524 12:49:56.523777  9498 net.cpp:408] conv10/dw -> conv10/dw
I0524 12:49:56.523991  9498 net.cpp:150] Setting up conv10/dw
I0524 12:49:56.523998  9498 net.cpp:157] Top shape: 8 512 28 28 (3211264)
I0524 12:49:56.524009  9498 net.cpp:165] Memory required for data: 2414870560
I0524 12:49:56.524013  9498 layer_factory.hpp:77] Creating layer conv10/dw/bn
I0524 12:49:56.524017  9498 net.cpp:100] Creating Layer conv10/dw/bn
I0524 12:49:56.524020  9498 net.cpp:434] conv10/dw/bn <- conv10/dw
I0524 12:49:56.524024  9498 net.cpp:395] conv10/dw/bn -> conv10/dw (in-place)
I0524 12:49:56.524204  9498 net.cpp:150] Setting up conv10/dw/bn
I0524 12:49:56.524209  9498 net.cpp:157] Top shape: 8 512 28 28 (3211264)
I0524 12:49:56.524211  9498 net.cpp:165] Memory required for data: 2427715616
I0524 12:49:56.524217  9498 layer_factory.hpp:77] Creating layer conv10/dw/scale
I0524 12:49:56.524222  9498 net.cpp:100] Creating Layer conv10/dw/scale
I0524 12:49:56.524225  9498 net.cpp:434] conv10/dw/scale <- conv10/dw
I0524 12:49:56.524228  9498 net.cpp:395] conv10/dw/scale -> conv10/dw (in-place)
I0524 12:49:56.524274  9498 layer_factory.hpp:77] Creating layer conv10/dw/scale
I0524 12:49:56.524376  9498 net.cpp:150] Setting up conv10/dw/scale
I0524 12:49:56.524381  9498 net.cpp:157] Top shape: 8 512 28 28 (3211264)
I0524 12:49:56.524384  9498 net.cpp:165] Memory required for data: 2440560672
I0524 12:49:56.524389  9498 layer_factory.hpp:77] Creating layer conv10/dw/relu
I0524 12:49:56.524392  9498 net.cpp:100] Creating Layer conv10/dw/relu
I0524 12:49:56.524395  9498 net.cpp:434] conv10/dw/relu <- conv10/dw
I0524 12:49:56.524399  9498 net.cpp:395] conv10/dw/relu -> conv10/dw (in-place)
I0524 12:49:56.524845  9498 net.cpp:150] Setting up conv10/dw/relu
I0524 12:49:56.524855  9498 net.cpp:157] Top shape: 8 512 28 28 (3211264)
I0524 12:49:56.524857  9498 net.cpp:165] Memory required for data: 2453405728
I0524 12:49:56.524860  9498 layer_factory.hpp:77] Creating layer conv10
I0524 12:49:56.524868  9498 net.cpp:100] Creating Layer conv10
I0524 12:49:56.524871  9498 net.cpp:434] conv10 <- conv10/dw
I0524 12:49:56.524878  9498 net.cpp:408] conv10 -> conv10
I0524 12:49:56.530160  9498 net.cpp:150] Setting up conv10
I0524 12:49:56.530174  9498 net.cpp:157] Top shape: 8 512 28 28 (3211264)
I0524 12:49:56.530176  9498 net.cpp:165] Memory required for data: 2466250784
I0524 12:49:56.530180  9498 layer_factory.hpp:77] Creating layer conv10/bn
I0524 12:49:56.530186  9498 net.cpp:100] Creating Layer conv10/bn
I0524 12:49:56.530190  9498 net.cpp:434] conv10/bn <- conv10
I0524 12:49:56.530194  9498 net.cpp:395] conv10/bn -> conv10 (in-place)
I0524 12:49:56.530398  9498 net.cpp:150] Setting up conv10/bn
I0524 12:49:56.530405  9498 net.cpp:157] Top shape: 8 512 28 28 (3211264)
I0524 12:49:56.530408  9498 net.cpp:165] Memory required for data: 2479095840
I0524 12:49:56.530413  9498 layer_factory.hpp:77] Creating layer conv10/scale
I0524 12:49:56.530418  9498 net.cpp:100] Creating Layer conv10/scale
I0524 12:49:56.530421  9498 net.cpp:434] conv10/scale <- conv10
I0524 12:49:56.530426  9498 net.cpp:395] conv10/scale -> conv10 (in-place)
I0524 12:49:56.530457  9498 layer_factory.hpp:77] Creating layer conv10/scale
I0524 12:49:56.530558  9498 net.cpp:150] Setting up conv10/scale
I0524 12:49:56.530565  9498 net.cpp:157] Top shape: 8 512 28 28 (3211264)
I0524 12:49:56.530567  9498 net.cpp:165] Memory required for data: 2491940896
I0524 12:49:56.530570  9498 layer_factory.hpp:77] Creating layer conv10/relu
I0524 12:49:56.530575  9498 net.cpp:100] Creating Layer conv10/relu
I0524 12:49:56.530577  9498 net.cpp:434] conv10/relu <- conv10
I0524 12:49:56.530582  9498 net.cpp:395] conv10/relu -> conv10 (in-place)
I0524 12:49:56.531185  9498 net.cpp:150] Setting up conv10/relu
I0524 12:49:56.531198  9498 net.cpp:157] Top shape: 8 512 28 28 (3211264)
I0524 12:49:56.531199  9498 net.cpp:165] Memory required for data: 2504785952
I0524 12:49:56.531204  9498 layer_factory.hpp:77] Creating layer conv11/dw
I0524 12:49:56.531213  9498 net.cpp:100] Creating Layer conv11/dw
I0524 12:49:56.531216  9498 net.cpp:434] conv11/dw <- conv10
I0524 12:49:56.531222  9498 net.cpp:408] conv11/dw -> conv11/dw
I0524 12:49:56.531460  9498 net.cpp:150] Setting up conv11/dw
I0524 12:49:56.531466  9498 net.cpp:157] Top shape: 8 512 28 28 (3211264)
I0524 12:49:56.531467  9498 net.cpp:165] Memory required for data: 2517631008
I0524 12:49:56.531471  9498 layer_factory.hpp:77] Creating layer conv11/dw/bn
I0524 12:49:56.531477  9498 net.cpp:100] Creating Layer conv11/dw/bn
I0524 12:49:56.531481  9498 net.cpp:434] conv11/dw/bn <- conv11/dw
I0524 12:49:56.531483  9498 net.cpp:395] conv11/dw/bn -> conv11/dw (in-place)
I0524 12:49:56.531672  9498 net.cpp:150] Setting up conv11/dw/bn
I0524 12:49:56.531678  9498 net.cpp:157] Top shape: 8 512 28 28 (3211264)
I0524 12:49:56.531680  9498 net.cpp:165] Memory required for data: 2530476064
I0524 12:49:56.531698  9498 layer_factory.hpp:77] Creating layer conv11/dw/scale
I0524 12:49:56.531705  9498 net.cpp:100] Creating Layer conv11/dw/scale
I0524 12:49:56.531708  9498 net.cpp:434] conv11/dw/scale <- conv11/dw
I0524 12:49:56.531713  9498 net.cpp:395] conv11/dw/scale -> conv11/dw (in-place)
I0524 12:49:56.531747  9498 layer_factory.hpp:77] Creating layer conv11/dw/scale
I0524 12:49:56.531852  9498 net.cpp:150] Setting up conv11/dw/scale
I0524 12:49:56.531857  9498 net.cpp:157] Top shape: 8 512 28 28 (3211264)
I0524 12:49:56.531860  9498 net.cpp:165] Memory required for data: 2543321120
I0524 12:49:56.531864  9498 layer_factory.hpp:77] Creating layer conv11/dw/relu
I0524 12:49:56.531868  9498 net.cpp:100] Creating Layer conv11/dw/relu
I0524 12:49:56.531872  9498 net.cpp:434] conv11/dw/relu <- conv11/dw
I0524 12:49:56.531875  9498 net.cpp:395] conv11/dw/relu -> conv11/dw (in-place)
I0524 12:49:56.532331  9498 net.cpp:150] Setting up conv11/dw/relu
I0524 12:49:56.532346  9498 net.cpp:157] Top shape: 8 512 28 28 (3211264)
I0524 12:49:56.532348  9498 net.cpp:165] Memory required for data: 2556166176
I0524 12:49:56.532351  9498 layer_factory.hpp:77] Creating layer conv11
I0524 12:49:56.532359  9498 net.cpp:100] Creating Layer conv11
I0524 12:49:56.532362  9498 net.cpp:434] conv11 <- conv11/dw
I0524 12:49:56.532369  9498 net.cpp:408] conv11 -> conv11
I0524 12:49:56.536046  9498 net.cpp:150] Setting up conv11
I0524 12:49:56.536059  9498 net.cpp:157] Top shape: 8 512 28 28 (3211264)
I0524 12:49:56.536062  9498 net.cpp:165] Memory required for data: 2569011232
I0524 12:49:56.536083  9498 layer_factory.hpp:77] Creating layer conv11/bn
I0524 12:49:56.536090  9498 net.cpp:100] Creating Layer conv11/bn
I0524 12:49:56.536093  9498 net.cpp:434] conv11/bn <- conv11
I0524 12:49:56.536099  9498 net.cpp:395] conv11/bn -> conv11 (in-place)
I0524 12:49:56.536294  9498 net.cpp:150] Setting up conv11/bn
I0524 12:49:56.536300  9498 net.cpp:157] Top shape: 8 512 28 28 (3211264)
I0524 12:49:56.536303  9498 net.cpp:165] Memory required for data: 2581856288
I0524 12:49:56.536309  9498 layer_factory.hpp:77] Creating layer conv11/scale
I0524 12:49:56.536314  9498 net.cpp:100] Creating Layer conv11/scale
I0524 12:49:56.536317  9498 net.cpp:434] conv11/scale <- conv11
I0524 12:49:56.536321  9498 net.cpp:395] conv11/scale -> conv11 (in-place)
I0524 12:49:56.536355  9498 layer_factory.hpp:77] Creating layer conv11/scale
I0524 12:49:56.536479  9498 net.cpp:150] Setting up conv11/scale
I0524 12:49:56.536485  9498 net.cpp:157] Top shape: 8 512 28 28 (3211264)
I0524 12:49:56.536487  9498 net.cpp:165] Memory required for data: 2594701344
I0524 12:49:56.536492  9498 layer_factory.hpp:77] Creating layer conv11/relu
I0524 12:49:56.536496  9498 net.cpp:100] Creating Layer conv11/relu
I0524 12:49:56.536499  9498 net.cpp:434] conv11/relu <- conv11
I0524 12:49:56.536502  9498 net.cpp:395] conv11/relu -> conv11 (in-place)
I0524 12:49:56.536939  9498 net.cpp:150] Setting up conv11/relu
I0524 12:49:56.536950  9498 net.cpp:157] Top shape: 8 512 28 28 (3211264)
I0524 12:49:56.536952  9498 net.cpp:165] Memory required for data: 2607546400
I0524 12:49:56.536955  9498 layer_factory.hpp:77] Creating layer conv12/dw
I0524 12:49:56.536963  9498 net.cpp:100] Creating Layer conv12/dw
I0524 12:49:56.536967  9498 net.cpp:434] conv12/dw <- conv11
I0524 12:49:56.536973  9498 net.cpp:408] conv12/dw -> conv12/dw
I0524 12:49:56.537191  9498 net.cpp:150] Setting up conv12/dw
I0524 12:49:56.537197  9498 net.cpp:157] Top shape: 8 512 28 28 (3211264)
I0524 12:49:56.537200  9498 net.cpp:165] Memory required for data: 2620391456
I0524 12:49:56.537204  9498 layer_factory.hpp:77] Creating layer conv12/dw/bn
I0524 12:49:56.537209  9498 net.cpp:100] Creating Layer conv12/dw/bn
I0524 12:49:56.537212  9498 net.cpp:434] conv12/dw/bn <- conv12/dw
I0524 12:49:56.537216  9498 net.cpp:395] conv12/dw/bn -> conv12/dw (in-place)
I0524 12:49:56.537386  9498 net.cpp:150] Setting up conv12/dw/bn
I0524 12:49:56.537391  9498 net.cpp:157] Top shape: 8 512 28 28 (3211264)
I0524 12:49:56.537395  9498 net.cpp:165] Memory required for data: 2633236512
I0524 12:49:56.537400  9498 layer_factory.hpp:77] Creating layer conv12/dw/scale
I0524 12:49:56.537405  9498 net.cpp:100] Creating Layer conv12/dw/scale
I0524 12:49:56.537407  9498 net.cpp:434] conv12/dw/scale <- conv12/dw
I0524 12:49:56.537410  9498 net.cpp:395] conv12/dw/scale -> conv12/dw (in-place)
I0524 12:49:56.537451  9498 layer_factory.hpp:77] Creating layer conv12/dw/scale
I0524 12:49:56.537547  9498 net.cpp:150] Setting up conv12/dw/scale
I0524 12:49:56.537552  9498 net.cpp:157] Top shape: 8 512 28 28 (3211264)
I0524 12:49:56.537555  9498 net.cpp:165] Memory required for data: 2646081568
I0524 12:49:56.537559  9498 layer_factory.hpp:77] Creating layer conv12/dw/relu
I0524 12:49:56.537564  9498 net.cpp:100] Creating Layer conv12/dw/relu
I0524 12:49:56.537566  9498 net.cpp:434] conv12/dw/relu <- conv12/dw
I0524 12:49:56.537580  9498 net.cpp:395] conv12/dw/relu -> conv12/dw (in-place)
I0524 12:49:56.538008  9498 net.cpp:150] Setting up conv12/dw/relu
I0524 12:49:56.538019  9498 net.cpp:157] Top shape: 8 512 28 28 (3211264)
I0524 12:49:56.538022  9498 net.cpp:165] Memory required for data: 2658926624
I0524 12:49:56.538024  9498 layer_factory.hpp:77] Creating layer conv12/dw_conv12/dw/relu_0_split
I0524 12:49:56.538030  9498 net.cpp:100] Creating Layer conv12/dw_conv12/dw/relu_0_split
I0524 12:49:56.538033  9498 net.cpp:434] conv12/dw_conv12/dw/relu_0_split <- conv12/dw
I0524 12:49:56.538039  9498 net.cpp:408] conv12/dw_conv12/dw/relu_0_split -> conv12/dw_conv12/dw/relu_0_split_0
I0524 12:49:56.538044  9498 net.cpp:408] conv12/dw_conv12/dw/relu_0_split -> conv12/dw_conv12/dw/relu_0_split_1
I0524 12:49:56.538055  9498 net.cpp:408] conv12/dw_conv12/dw/relu_0_split -> conv12/dw_conv12/dw/relu_0_split_2
I0524 12:49:56.538105  9498 net.cpp:150] Setting up conv12/dw_conv12/dw/relu_0_split
I0524 12:49:56.538110  9498 net.cpp:157] Top shape: 8 512 28 28 (3211264)
I0524 12:49:56.538115  9498 net.cpp:157] Top shape: 8 512 28 28 (3211264)
I0524 12:49:56.538118  9498 net.cpp:157] Top shape: 8 512 28 28 (3211264)
I0524 12:49:56.538121  9498 net.cpp:165] Memory required for data: 2697461792
I0524 12:49:56.538123  9498 layer_factory.hpp:77] Creating layer sample_pooling
I0524 12:49:56.538131  9498 net.cpp:100] Creating Layer sample_pooling
I0524 12:49:56.538134  9498 net.cpp:434] sample_pooling <- conv12/dw_conv12/dw/relu_0_split_0
I0524 12:49:56.538139  9498 net.cpp:408] sample_pooling -> sample_pooling
I0524 12:49:57.608001  9498 net.cpp:150] Setting up sample_pooling
I0524 12:49:57.608024  9498 net.cpp:157] Top shape: 8 512 14 14 (802816)
I0524 12:49:57.608028  9498 net.cpp:165] Memory required for data: 2700673056
I0524 12:49:57.608053  9498 layer_factory.hpp:77] Creating layer conv12
I0524 12:49:57.608067  9498 net.cpp:100] Creating Layer conv12
I0524 12:49:57.608072  9498 net.cpp:434] conv12 <- sample_pooling
I0524 12:49:57.608080  9498 net.cpp:408] conv12 -> conv12
I0524 12:49:57.617507  9498 net.cpp:150] Setting up conv12
I0524 12:49:57.617530  9498 net.cpp:157] Top shape: 8 1024 14 14 (1605632)
I0524 12:49:57.617533  9498 net.cpp:165] Memory required for data: 2707095584
I0524 12:49:57.617558  9498 layer_factory.hpp:77] Creating layer conv12/bn
I0524 12:49:57.617568  9498 net.cpp:100] Creating Layer conv12/bn
I0524 12:49:57.617571  9498 net.cpp:434] conv12/bn <- conv12
I0524 12:49:57.617578  9498 net.cpp:395] conv12/bn -> conv12 (in-place)
I0524 12:49:57.618150  9498 net.cpp:150] Setting up conv12/bn
I0524 12:49:57.618158  9498 net.cpp:157] Top shape: 8 1024 14 14 (1605632)
I0524 12:49:57.618161  9498 net.cpp:165] Memory required for data: 2713518112
I0524 12:49:57.618167  9498 layer_factory.hpp:77] Creating layer conv12/scale
I0524 12:49:57.618175  9498 net.cpp:100] Creating Layer conv12/scale
I0524 12:49:57.618178  9498 net.cpp:434] conv12/scale <- conv12
I0524 12:49:57.618182  9498 net.cpp:395] conv12/scale -> conv12 (in-place)
I0524 12:49:57.618268  9498 layer_factory.hpp:77] Creating layer conv12/scale
I0524 12:49:57.618558  9498 net.cpp:150] Setting up conv12/scale
I0524 12:49:57.618566  9498 net.cpp:157] Top shape: 8 1024 14 14 (1605632)
I0524 12:49:57.618568  9498 net.cpp:165] Memory required for data: 2719940640
I0524 12:49:57.618572  9498 layer_factory.hpp:77] Creating layer conv12/relu
I0524 12:49:57.618579  9498 net.cpp:100] Creating Layer conv12/relu
I0524 12:49:57.618582  9498 net.cpp:434] conv12/relu <- conv12
I0524 12:49:57.618585  9498 net.cpp:395] conv12/relu -> conv12 (in-place)
I0524 12:49:57.619065  9498 net.cpp:150] Setting up conv12/relu
I0524 12:49:57.619078  9498 net.cpp:157] Top shape: 8 1024 14 14 (1605632)
I0524 12:49:57.619081  9498 net.cpp:165] Memory required for data: 2726363168
I0524 12:49:57.619084  9498 layer_factory.hpp:77] Creating layer conv13/dw
I0524 12:49:57.619094  9498 net.cpp:100] Creating Layer conv13/dw
I0524 12:49:57.619099  9498 net.cpp:434] conv13/dw <- conv12
I0524 12:49:57.619132  9498 net.cpp:408] conv13/dw -> conv13/dw
I0524 12:49:57.619750  9498 net.cpp:150] Setting up conv13/dw
I0524 12:49:57.619758  9498 net.cpp:157] Top shape: 8 1024 14 14 (1605632)
I0524 12:49:57.619761  9498 net.cpp:165] Memory required for data: 2732785696
I0524 12:49:57.619765  9498 layer_factory.hpp:77] Creating layer conv13/dw/bn
I0524 12:49:57.619771  9498 net.cpp:100] Creating Layer conv13/dw/bn
I0524 12:49:57.619774  9498 net.cpp:434] conv13/dw/bn <- conv13/dw
I0524 12:49:57.619778  9498 net.cpp:395] conv13/dw/bn -> conv13/dw (in-place)
I0524 12:49:57.620326  9498 net.cpp:150] Setting up conv13/dw/bn
I0524 12:49:57.620333  9498 net.cpp:157] Top shape: 8 1024 14 14 (1605632)
I0524 12:49:57.620337  9498 net.cpp:165] Memory required for data: 2739208224
I0524 12:49:57.620342  9498 layer_factory.hpp:77] Creating layer conv13/dw/scale
I0524 12:49:57.620348  9498 net.cpp:100] Creating Layer conv13/dw/scale
I0524 12:49:57.620352  9498 net.cpp:434] conv13/dw/scale <- conv13/dw
I0524 12:49:57.620355  9498 net.cpp:395] conv13/dw/scale -> conv13/dw (in-place)
I0524 12:49:57.620438  9498 layer_factory.hpp:77] Creating layer conv13/dw/scale
I0524 12:49:57.620741  9498 net.cpp:150] Setting up conv13/dw/scale
I0524 12:49:57.620748  9498 net.cpp:157] Top shape: 8 1024 14 14 (1605632)
I0524 12:49:57.620750  9498 net.cpp:165] Memory required for data: 2745630752
I0524 12:49:57.620755  9498 layer_factory.hpp:77] Creating layer conv13/dw/relu
I0524 12:49:57.620761  9498 net.cpp:100] Creating Layer conv13/dw/relu
I0524 12:49:57.620764  9498 net.cpp:434] conv13/dw/relu <- conv13/dw
I0524 12:49:57.620767  9498 net.cpp:395] conv13/dw/relu -> conv13/dw (in-place)
I0524 12:49:57.621266  9498 net.cpp:150] Setting up conv13/dw/relu
I0524 12:49:57.621279  9498 net.cpp:157] Top shape: 8 1024 14 14 (1605632)
I0524 12:49:57.621282  9498 net.cpp:165] Memory required for data: 2752053280
I0524 12:49:57.621285  9498 layer_factory.hpp:77] Creating layer conv13
I0524 12:49:57.621294  9498 net.cpp:100] Creating Layer conv13
I0524 12:49:57.621299  9498 net.cpp:434] conv13 <- conv13/dw
I0524 12:49:57.621304  9498 net.cpp:408] conv13 -> conv13
I0524 12:49:57.631917  9498 net.cpp:150] Setting up conv13
I0524 12:49:57.631935  9498 net.cpp:157] Top shape: 8 1024 14 14 (1605632)
I0524 12:49:57.631938  9498 net.cpp:165] Memory required for data: 2758475808
I0524 12:49:57.631944  9498 layer_factory.hpp:77] Creating layer conv13/bn
I0524 12:49:57.631950  9498 net.cpp:100] Creating Layer conv13/bn
I0524 12:49:57.631954  9498 net.cpp:434] conv13/bn <- conv13
I0524 12:49:57.631959  9498 net.cpp:395] conv13/bn -> conv13 (in-place)
I0524 12:49:57.632529  9498 net.cpp:150] Setting up conv13/bn
I0524 12:49:57.632535  9498 net.cpp:157] Top shape: 8 1024 14 14 (1605632)
I0524 12:49:57.632539  9498 net.cpp:165] Memory required for data: 2764898336
I0524 12:49:57.632544  9498 layer_factory.hpp:77] Creating layer conv13/scale
I0524 12:49:57.632550  9498 net.cpp:100] Creating Layer conv13/scale
I0524 12:49:57.632552  9498 net.cpp:434] conv13/scale <- conv13
I0524 12:49:57.632558  9498 net.cpp:395] conv13/scale -> conv13 (in-place)
I0524 12:49:57.632654  9498 layer_factory.hpp:77] Creating layer conv13/scale
I0524 12:49:57.632941  9498 net.cpp:150] Setting up conv13/scale
I0524 12:49:57.632948  9498 net.cpp:157] Top shape: 8 1024 14 14 (1605632)
I0524 12:49:57.632951  9498 net.cpp:165] Memory required for data: 2771320864
I0524 12:49:57.632956  9498 layer_factory.hpp:77] Creating layer conv13/relu
I0524 12:49:57.632961  9498 net.cpp:100] Creating Layer conv13/relu
I0524 12:49:57.632963  9498 net.cpp:434] conv13/relu <- conv13
I0524 12:49:57.632968  9498 net.cpp:395] conv13/relu -> conv13 (in-place)
I0524 12:49:57.633477  9498 net.cpp:150] Setting up conv13/relu
I0524 12:49:57.633488  9498 net.cpp:157] Top shape: 8 1024 14 14 (1605632)
I0524 12:49:57.633491  9498 net.cpp:165] Memory required for data: 2777743392
I0524 12:49:57.633494  9498 layer_factory.hpp:77] Creating layer ip6
I0524 12:49:57.633503  9498 net.cpp:100] Creating Layer ip6
I0524 12:49:57.633507  9498 net.cpp:434] ip6 <- conv13
I0524 12:49:57.633528  9498 net.cpp:408] ip6 -> ip6
I0524 12:49:57.644874  9498 net.cpp:150] Setting up ip6
I0524 12:49:57.644896  9498 net.cpp:157] Top shape: 8 256 14 14 (401408)
I0524 12:49:57.644898  9498 net.cpp:165] Memory required for data: 2779349024
I0524 12:49:57.644920  9498 layer_factory.hpp:77] Creating layer relu6
I0524 12:49:57.644928  9498 net.cpp:100] Creating Layer relu6
I0524 12:49:57.644933  9498 net.cpp:434] relu6 <- ip6
I0524 12:49:57.644938  9498 net.cpp:395] relu6 -> ip6 (in-place)
I0524 12:49:57.645556  9498 net.cpp:150] Setting up relu6
I0524 12:49:57.645570  9498 net.cpp:157] Top shape: 8 256 14 14 (401408)
I0524 12:49:57.645571  9498 net.cpp:165] Memory required for data: 2780954656
I0524 12:49:57.645576  9498 layer_factory.hpp:77] Creating layer ip7
I0524 12:49:57.645586  9498 net.cpp:100] Creating Layer ip7
I0524 12:49:57.645589  9498 net.cpp:434] ip7 <- ip6
I0524 12:49:57.645596  9498 net.cpp:408] ip7 -> ip7
I0524 12:49:57.646807  9498 net.cpp:150] Setting up ip7
I0524 12:49:57.646817  9498 net.cpp:157] Top shape: 8 512 14 14 (802816)
I0524 12:49:57.646821  9498 net.cpp:165] Memory required for data: 2784165920
I0524 12:49:57.646826  9498 layer_factory.hpp:77] Creating layer relu7
I0524 12:49:57.646831  9498 net.cpp:100] Creating Layer relu7
I0524 12:49:57.646833  9498 net.cpp:434] relu7 <- ip7
I0524 12:49:57.646838  9498 net.cpp:395] relu7 -> ip7 (in-place)
I0524 12:49:57.650629  9498 net.cpp:150] Setting up relu7
I0524 12:49:57.650642  9498 net.cpp:157] Top shape: 8 512 14 14 (802816)
I0524 12:49:57.650645  9498 net.cpp:165] Memory required for data: 2787377184
I0524 12:49:57.650648  9498 layer_factory.hpp:77] Creating layer ip7_relu7_0_split
I0524 12:49:57.650671  9498 net.cpp:100] Creating Layer ip7_relu7_0_split
I0524 12:49:57.650676  9498 net.cpp:434] ip7_relu7_0_split <- ip7
I0524 12:49:57.650681  9498 net.cpp:408] ip7_relu7_0_split -> ip7_relu7_0_split_0
I0524 12:49:57.650687  9498 net.cpp:408] ip7_relu7_0_split -> ip7_relu7_0_split_1
I0524 12:49:57.650692  9498 net.cpp:408] ip7_relu7_0_split -> ip7_relu7_0_split_2
I0524 12:49:57.650696  9498 net.cpp:408] ip7_relu7_0_split -> ip7_relu7_0_split_3
I0524 12:49:57.650910  9498 net.cpp:150] Setting up ip7_relu7_0_split
I0524 12:49:57.650918  9498 net.cpp:157] Top shape: 8 512 14 14 (802816)
I0524 12:49:57.650921  9498 net.cpp:157] Top shape: 8 512 14 14 (802816)
I0524 12:49:57.650924  9498 net.cpp:157] Top shape: 8 512 14 14 (802816)
I0524 12:49:57.650928  9498 net.cpp:157] Top shape: 8 512 14 14 (802816)
I0524 12:49:57.650930  9498 net.cpp:165] Memory required for data: 2800222240
I0524 12:49:57.650933  9498 layer_factory.hpp:77] Creating layer conv6_1
I0524 12:49:57.650943  9498 net.cpp:100] Creating Layer conv6_1
I0524 12:49:57.650946  9498 net.cpp:434] conv6_1 <- ip7_relu7_0_split_0
I0524 12:49:57.650952  9498 net.cpp:408] conv6_1 -> conv6_1
I0524 12:49:57.655064  9498 net.cpp:150] Setting up conv6_1
I0524 12:49:57.655077  9498 net.cpp:157] Top shape: 8 256 14 14 (401408)
I0524 12:49:57.655081  9498 net.cpp:165] Memory required for data: 2801827872
I0524 12:49:57.655102  9498 layer_factory.hpp:77] Creating layer conv6_1_relu
I0524 12:49:57.655108  9498 net.cpp:100] Creating Layer conv6_1_relu
I0524 12:49:57.655117  9498 net.cpp:434] conv6_1_relu <- conv6_1
I0524 12:49:57.655120  9498 net.cpp:395] conv6_1_relu -> conv6_1 (in-place)
I0524 12:49:57.655624  9498 net.cpp:150] Setting up conv6_1_relu
I0524 12:49:57.655635  9498 net.cpp:157] Top shape: 8 256 14 14 (401408)
I0524 12:49:57.655637  9498 net.cpp:165] Memory required for data: 2803433504
I0524 12:49:57.655642  9498 layer_factory.hpp:77] Creating layer conv6_2
I0524 12:49:57.655652  9498 net.cpp:100] Creating Layer conv6_2
I0524 12:49:57.655655  9498 net.cpp:434] conv6_2 <- conv6_1
I0524 12:49:57.655660  9498 net.cpp:408] conv6_2 -> conv6_2
I0524 12:49:57.661502  9498 net.cpp:150] Setting up conv6_2
I0524 12:49:57.661516  9498 net.cpp:157] Top shape: 8 256 7 7 (100352)
I0524 12:49:57.661520  9498 net.cpp:165] Memory required for data: 2803834912
I0524 12:49:57.661537  9498 layer_factory.hpp:77] Creating layer conv6_2_relu
I0524 12:49:57.661545  9498 net.cpp:100] Creating Layer conv6_2_relu
I0524 12:49:57.661548  9498 net.cpp:434] conv6_2_relu <- conv6_2
I0524 12:49:57.661552  9498 net.cpp:395] conv6_2_relu -> conv6_2 (in-place)
I0524 12:49:57.662078  9498 net.cpp:150] Setting up conv6_2_relu
I0524 12:49:57.662089  9498 net.cpp:157] Top shape: 8 256 7 7 (100352)
I0524 12:49:57.662092  9498 net.cpp:165] Memory required for data: 2804236320
I0524 12:49:57.662096  9498 layer_factory.hpp:77] Creating layer conv6_2_conv6_2_relu_0_split
I0524 12:49:57.662102  9498 net.cpp:100] Creating Layer conv6_2_conv6_2_relu_0_split
I0524 12:49:57.662106  9498 net.cpp:434] conv6_2_conv6_2_relu_0_split <- conv6_2
I0524 12:49:57.662112  9498 net.cpp:408] conv6_2_conv6_2_relu_0_split -> conv6_2_conv6_2_relu_0_split_0
I0524 12:49:57.662118  9498 net.cpp:408] conv6_2_conv6_2_relu_0_split -> conv6_2_conv6_2_relu_0_split_1
I0524 12:49:57.662123  9498 net.cpp:408] conv6_2_conv6_2_relu_0_split -> conv6_2_conv6_2_relu_0_split_2
I0524 12:49:57.662129  9498 net.cpp:408] conv6_2_conv6_2_relu_0_split -> conv6_2_conv6_2_relu_0_split_3
I0524 12:49:57.662341  9498 net.cpp:150] Setting up conv6_2_conv6_2_relu_0_split
I0524 12:49:57.662348  9498 net.cpp:157] Top shape: 8 256 7 7 (100352)
I0524 12:49:57.662351  9498 net.cpp:157] Top shape: 8 256 7 7 (100352)
I0524 12:49:57.662354  9498 net.cpp:157] Top shape: 8 256 7 7 (100352)
I0524 12:49:57.662358  9498 net.cpp:157] Top shape: 8 256 7 7 (100352)
I0524 12:49:57.662361  9498 net.cpp:165] Memory required for data: 2805841952
I0524 12:49:57.662364  9498 layer_factory.hpp:77] Creating layer conv7_1
I0524 12:49:57.662372  9498 net.cpp:100] Creating Layer conv7_1
I0524 12:49:57.662376  9498 net.cpp:434] conv7_1 <- conv6_2_conv6_2_relu_0_split_0
I0524 12:49:57.662382  9498 net.cpp:408] conv7_1 -> conv7_1
I0524 12:49:57.668588  9498 net.cpp:150] Setting up conv7_1
I0524 12:49:57.668602  9498 net.cpp:157] Top shape: 8 128 7 7 (50176)
I0524 12:49:57.668606  9498 net.cpp:165] Memory required for data: 2806042656
I0524 12:49:57.668612  9498 layer_factory.hpp:77] Creating layer conv7_1_relu
I0524 12:49:57.668617  9498 net.cpp:100] Creating Layer conv7_1_relu
I0524 12:49:57.668620  9498 net.cpp:434] conv7_1_relu <- conv7_1
I0524 12:49:57.668625  9498 net.cpp:395] conv7_1_relu -> conv7_1 (in-place)
I0524 12:49:57.669344  9498 net.cpp:150] Setting up conv7_1_relu
I0524 12:49:57.669356  9498 net.cpp:157] Top shape: 8 128 7 7 (50176)
I0524 12:49:57.669359  9498 net.cpp:165] Memory required for data: 2806243360
I0524 12:49:57.669363  9498 layer_factory.hpp:77] Creating layer conv7_2
I0524 12:49:57.669371  9498 net.cpp:100] Creating Layer conv7_2
I0524 12:49:57.669375  9498 net.cpp:434] conv7_2 <- conv7_1
I0524 12:49:57.669381  9498 net.cpp:408] conv7_2 -> conv7_2
I0524 12:49:57.673116  9498 net.cpp:150] Setting up conv7_2
I0524 12:49:57.673128  9498 net.cpp:157] Top shape: 8 256 4 4 (32768)
I0524 12:49:57.673131  9498 net.cpp:165] Memory required for data: 2806374432
I0524 12:49:57.673136  9498 layer_factory.hpp:77] Creating layer conv7_2_relu
I0524 12:49:57.673143  9498 net.cpp:100] Creating Layer conv7_2_relu
I0524 12:49:57.673146  9498 net.cpp:434] conv7_2_relu <- conv7_2
I0524 12:49:57.673151  9498 net.cpp:395] conv7_2_relu -> conv7_2 (in-place)
I0524 12:49:57.673709  9498 net.cpp:150] Setting up conv7_2_relu
I0524 12:49:57.673720  9498 net.cpp:157] Top shape: 8 256 4 4 (32768)
I0524 12:49:57.673722  9498 net.cpp:165] Memory required for data: 2806505504
I0524 12:49:57.673725  9498 layer_factory.hpp:77] Creating layer conv7_2_conv7_2_relu_0_split
I0524 12:49:57.673732  9498 net.cpp:100] Creating Layer conv7_2_conv7_2_relu_0_split
I0524 12:49:57.673735  9498 net.cpp:434] conv7_2_conv7_2_relu_0_split <- conv7_2
I0524 12:49:57.673740  9498 net.cpp:408] conv7_2_conv7_2_relu_0_split -> conv7_2_conv7_2_relu_0_split_0
I0524 12:49:57.673748  9498 net.cpp:408] conv7_2_conv7_2_relu_0_split -> conv7_2_conv7_2_relu_0_split_1
I0524 12:49:57.673753  9498 net.cpp:408] conv7_2_conv7_2_relu_0_split -> conv7_2_conv7_2_relu_0_split_2
I0524 12:49:57.673928  9498 net.cpp:150] Setting up conv7_2_conv7_2_relu_0_split
I0524 12:49:57.673935  9498 net.cpp:157] Top shape: 8 256 4 4 (32768)
I0524 12:49:57.673938  9498 net.cpp:157] Top shape: 8 256 4 4 (32768)
I0524 12:49:57.673941  9498 net.cpp:157] Top shape: 8 256 4 4 (32768)
I0524 12:49:57.673954  9498 net.cpp:165] Memory required for data: 2806898720
I0524 12:49:57.673957  9498 layer_factory.hpp:77] Creating layer conv12_norm
I0524 12:49:57.673964  9498 net.cpp:100] Creating Layer conv12_norm
I0524 12:49:57.673967  9498 net.cpp:434] conv12_norm <- conv12/dw_conv12/dw/relu_0_split_1
I0524 12:49:57.673974  9498 net.cpp:408] conv12_norm -> conv12_norm
I0524 12:49:57.674382  9498 net.cpp:150] Setting up conv12_norm
I0524 12:49:57.674388  9498 net.cpp:157] Top shape: 8 512 28 28 (3211264)
I0524 12:49:57.674391  9498 net.cpp:165] Memory required for data: 2819743776
I0524 12:49:57.674396  9498 layer_factory.hpp:77] Creating layer conv12_norm_conv12_norm_0_split
I0524 12:49:57.674410  9498 net.cpp:100] Creating Layer conv12_norm_conv12_norm_0_split
I0524 12:49:57.674413  9498 net.cpp:434] conv12_norm_conv12_norm_0_split <- conv12_norm
I0524 12:49:57.674418  9498 net.cpp:408] conv12_norm_conv12_norm_0_split -> conv12_norm_conv12_norm_0_split_0
I0524 12:49:57.674423  9498 net.cpp:408] conv12_norm_conv12_norm_0_split -> conv12_norm_conv12_norm_0_split_1
I0524 12:49:57.674510  9498 net.cpp:150] Setting up conv12_norm_conv12_norm_0_split
I0524 12:49:57.674515  9498 net.cpp:157] Top shape: 8 512 28 28 (3211264)
I0524 12:49:57.674518  9498 net.cpp:157] Top shape: 8 512 28 28 (3211264)
I0524 12:49:57.674521  9498 net.cpp:165] Memory required for data: 2845433888
I0524 12:49:57.674525  9498 layer_factory.hpp:77] Creating layer conv12_norm_mbox_loc
I0524 12:49:57.674533  9498 net.cpp:100] Creating Layer conv12_norm_mbox_loc
I0524 12:49:57.674536  9498 net.cpp:434] conv12_norm_mbox_loc <- conv12_norm_conv12_norm_0_split_0
I0524 12:49:57.674543  9498 net.cpp:408] conv12_norm_mbox_loc -> conv12_norm_mbox_loc
I0524 12:49:57.678459  9498 net.cpp:150] Setting up conv12_norm_mbox_loc
I0524 12:49:57.678472  9498 net.cpp:157] Top shape: 8 24 28 28 (150528)
I0524 12:49:57.678474  9498 net.cpp:165] Memory required for data: 2846036000
I0524 12:49:57.678480  9498 layer_factory.hpp:77] Creating layer conv12_norm_mbox_loc_perm
I0524 12:49:57.678488  9498 net.cpp:100] Creating Layer conv12_norm_mbox_loc_perm
I0524 12:49:57.678491  9498 net.cpp:434] conv12_norm_mbox_loc_perm <- conv12_norm_mbox_loc
I0524 12:49:57.678498  9498 net.cpp:408] conv12_norm_mbox_loc_perm -> conv12_norm_mbox_loc_perm
I0524 12:49:57.678815  9498 net.cpp:150] Setting up conv12_norm_mbox_loc_perm
I0524 12:49:57.678824  9498 net.cpp:157] Top shape: 8 28 28 24 (150528)
I0524 12:49:57.678828  9498 net.cpp:165] Memory required for data: 2846638112
I0524 12:49:57.678829  9498 layer_factory.hpp:77] Creating layer conv12_norm_mbox_loc_flat
I0524 12:49:57.678835  9498 net.cpp:100] Creating Layer conv12_norm_mbox_loc_flat
I0524 12:49:57.678838  9498 net.cpp:434] conv12_norm_mbox_loc_flat <- conv12_norm_mbox_loc_perm
I0524 12:49:57.678841  9498 net.cpp:408] conv12_norm_mbox_loc_flat -> conv12_norm_mbox_loc_flat
I0524 12:49:57.678887  9498 net.cpp:150] Setting up conv12_norm_mbox_loc_flat
I0524 12:49:57.678894  9498 net.cpp:157] Top shape: 8 18816 (150528)
I0524 12:49:57.678896  9498 net.cpp:165] Memory required for data: 2847240224
I0524 12:49:57.678900  9498 layer_factory.hpp:77] Creating layer conv12_norm_mbox_conf
I0524 12:49:57.678906  9498 net.cpp:100] Creating Layer conv12_norm_mbox_conf
I0524 12:49:57.678910  9498 net.cpp:434] conv12_norm_mbox_conf <- conv12_norm_conv12_norm_0_split_1
I0524 12:49:57.678915  9498 net.cpp:408] conv12_norm_mbox_conf -> conv12_norm_mbox_conf
I0524 12:49:57.685282  9498 net.cpp:150] Setting up conv12_norm_mbox_conf
I0524 12:49:57.685297  9498 net.cpp:157] Top shape: 8 36 28 28 (225792)
I0524 12:49:57.685299  9498 net.cpp:165] Memory required for data: 2848143392
I0524 12:49:57.685305  9498 layer_factory.hpp:77] Creating layer conv12_norm_mbox_conf_perm
I0524 12:49:57.685324  9498 net.cpp:100] Creating Layer conv12_norm_mbox_conf_perm
I0524 12:49:57.685328  9498 net.cpp:434] conv12_norm_mbox_conf_perm <- conv12_norm_mbox_conf
I0524 12:49:57.685333  9498 net.cpp:408] conv12_norm_mbox_conf_perm -> conv12_norm_mbox_conf_perm
I0524 12:49:57.685648  9498 net.cpp:150] Setting up conv12_norm_mbox_conf_perm
I0524 12:49:57.685655  9498 net.cpp:157] Top shape: 8 28 28 36 (225792)
I0524 12:49:57.685658  9498 net.cpp:165] Memory required for data: 2849046560
I0524 12:49:57.685662  9498 layer_factory.hpp:77] Creating layer conv12_norm_mbox_conf_flat
I0524 12:49:57.685667  9498 net.cpp:100] Creating Layer conv12_norm_mbox_conf_flat
I0524 12:49:57.685669  9498 net.cpp:434] conv12_norm_mbox_conf_flat <- conv12_norm_mbox_conf_perm
I0524 12:49:57.685674  9498 net.cpp:408] conv12_norm_mbox_conf_flat -> conv12_norm_mbox_conf_flat
I0524 12:49:57.685719  9498 net.cpp:150] Setting up conv12_norm_mbox_conf_flat
I0524 12:49:57.685724  9498 net.cpp:157] Top shape: 8 28224 (225792)
I0524 12:49:57.685727  9498 net.cpp:165] Memory required for data: 2849949728
I0524 12:49:57.685729  9498 layer_factory.hpp:77] Creating layer ip7_mbox_loc
I0524 12:49:57.685739  9498 net.cpp:100] Creating Layer ip7_mbox_loc
I0524 12:49:57.685741  9498 net.cpp:434] ip7_mbox_loc <- ip7_relu7_0_split_1
I0524 12:49:57.685747  9498 net.cpp:408] ip7_mbox_loc -> ip7_mbox_loc
I0524 12:49:57.689029  9498 net.cpp:150] Setting up ip7_mbox_loc
I0524 12:49:57.689043  9498 net.cpp:157] Top shape: 8 24 14 14 (37632)
I0524 12:49:57.689045  9498 net.cpp:165] Memory required for data: 2850100256
I0524 12:49:57.689051  9498 layer_factory.hpp:77] Creating layer ip7_mbox_loc_perm
I0524 12:49:57.689059  9498 net.cpp:100] Creating Layer ip7_mbox_loc_perm
I0524 12:49:57.689062  9498 net.cpp:434] ip7_mbox_loc_perm <- ip7_mbox_loc
I0524 12:49:57.689066  9498 net.cpp:408] ip7_mbox_loc_perm -> ip7_mbox_loc_perm
I0524 12:49:57.689359  9498 net.cpp:150] Setting up ip7_mbox_loc_perm
I0524 12:49:57.689366  9498 net.cpp:157] Top shape: 8 14 14 24 (37632)
I0524 12:49:57.689369  9498 net.cpp:165] Memory required for data: 2850250784
I0524 12:49:57.689373  9498 layer_factory.hpp:77] Creating layer ip7_mbox_loc_flat
I0524 12:49:57.689376  9498 net.cpp:100] Creating Layer ip7_mbox_loc_flat
I0524 12:49:57.689379  9498 net.cpp:434] ip7_mbox_loc_flat <- ip7_mbox_loc_perm
I0524 12:49:57.689385  9498 net.cpp:408] ip7_mbox_loc_flat -> ip7_mbox_loc_flat
I0524 12:49:57.689429  9498 net.cpp:150] Setting up ip7_mbox_loc_flat
I0524 12:49:57.689433  9498 net.cpp:157] Top shape: 8 4704 (37632)
I0524 12:49:57.689435  9498 net.cpp:165] Memory required for data: 2850401312
I0524 12:49:57.689438  9498 layer_factory.hpp:77] Creating layer ip7_mbox_conf
I0524 12:49:57.689455  9498 net.cpp:100] Creating Layer ip7_mbox_conf
I0524 12:49:57.689461  9498 net.cpp:434] ip7_mbox_conf <- ip7_relu7_0_split_2
I0524 12:49:57.689468  9498 net.cpp:408] ip7_mbox_conf -> ip7_mbox_conf
I0524 12:49:57.693634  9498 net.cpp:150] Setting up ip7_mbox_conf
I0524 12:49:57.693646  9498 net.cpp:157] Top shape: 8 36 14 14 (56448)
I0524 12:49:57.693648  9498 net.cpp:165] Memory required for data: 2850627104
I0524 12:49:57.693655  9498 layer_factory.hpp:77] Creating layer ip7_mbox_conf_perm
I0524 12:49:57.693677  9498 net.cpp:100] Creating Layer ip7_mbox_conf_perm
I0524 12:49:57.693681  9498 net.cpp:434] ip7_mbox_conf_perm <- ip7_mbox_conf
I0524 12:49:57.693686  9498 net.cpp:408] ip7_mbox_conf_perm -> ip7_mbox_conf_perm
I0524 12:49:57.693985  9498 net.cpp:150] Setting up ip7_mbox_conf_perm
I0524 12:49:57.693992  9498 net.cpp:157] Top shape: 8 14 14 36 (56448)
I0524 12:49:57.693994  9498 net.cpp:165] Memory required for data: 2850852896
I0524 12:49:57.693997  9498 layer_factory.hpp:77] Creating layer ip7_mbox_conf_flat
I0524 12:49:57.694002  9498 net.cpp:100] Creating Layer ip7_mbox_conf_flat
I0524 12:49:57.694006  9498 net.cpp:434] ip7_mbox_conf_flat <- ip7_mbox_conf_perm
I0524 12:49:57.694010  9498 net.cpp:408] ip7_mbox_conf_flat -> ip7_mbox_conf_flat
I0524 12:49:57.694065  9498 net.cpp:150] Setting up ip7_mbox_conf_flat
I0524 12:49:57.694070  9498 net.cpp:157] Top shape: 8 7056 (56448)
I0524 12:49:57.694074  9498 net.cpp:165] Memory required for data: 2851078688
I0524 12:49:57.694077  9498 layer_factory.hpp:77] Creating layer conv12/dw_mbox_priorbox
I0524 12:49:57.694083  9498 net.cpp:100] Creating Layer conv12/dw_mbox_priorbox
I0524 12:49:57.694095  9498 net.cpp:434] conv12/dw_mbox_priorbox <- conv12/dw_conv12/dw/relu_0_split_2
I0524 12:49:57.694100  9498 net.cpp:434] conv12/dw_mbox_priorbox <- data_data_0_split_1
I0524 12:49:57.694105  9498 net.cpp:408] conv12/dw_mbox_priorbox -> conv12/dw_mbox_priorbox
I0524 12:49:57.694157  9498 net.cpp:150] Setting up conv12/dw_mbox_priorbox
I0524 12:49:57.694164  9498 net.cpp:157] Top shape: 1 2 18816 (37632)
I0524 12:49:57.694166  9498 net.cpp:165] Memory required for data: 2851229216
I0524 12:49:57.694169  9498 layer_factory.hpp:77] Creating layer ip7_mbox_priorbox
I0524 12:49:57.694175  9498 net.cpp:100] Creating Layer ip7_mbox_priorbox
I0524 12:49:57.694177  9498 net.cpp:434] ip7_mbox_priorbox <- ip7_relu7_0_split_3
I0524 12:49:57.694180  9498 net.cpp:434] ip7_mbox_priorbox <- data_data_0_split_2
I0524 12:49:57.694185  9498 net.cpp:408] ip7_mbox_priorbox -> ip7_mbox_priorbox
I0524 12:49:57.694231  9498 net.cpp:150] Setting up ip7_mbox_priorbox
I0524 12:49:57.694234  9498 net.cpp:157] Top shape: 1 2 4704 (9408)
I0524 12:49:57.694237  9498 net.cpp:165] Memory required for data: 2851266848
I0524 12:49:57.694241  9498 layer_factory.hpp:77] Creating layer conv6_2_mbox_loc
I0524 12:49:57.694247  9498 net.cpp:100] Creating Layer conv6_2_mbox_loc
I0524 12:49:57.694249  9498 net.cpp:434] conv6_2_mbox_loc <- conv6_2_conv6_2_relu_0_split_1
I0524 12:49:57.694257  9498 net.cpp:408] conv6_2_mbox_loc -> conv6_2_mbox_loc
I0524 12:49:57.699965  9498 net.cpp:150] Setting up conv6_2_mbox_loc
I0524 12:49:57.699980  9498 net.cpp:157] Top shape: 8 24 7 7 (9408)
I0524 12:49:57.699982  9498 net.cpp:165] Memory required for data: 2851304480
I0524 12:49:57.699990  9498 layer_factory.hpp:77] Creating layer conv6_2_mbox_loc_perm
I0524 12:49:57.699995  9498 net.cpp:100] Creating Layer conv6_2_mbox_loc_perm
I0524 12:49:57.699998  9498 net.cpp:434] conv6_2_mbox_loc_perm <- conv6_2_mbox_loc
I0524 12:49:57.700006  9498 net.cpp:408] conv6_2_mbox_loc_perm -> conv6_2_mbox_loc_perm
I0524 12:49:57.700302  9498 net.cpp:150] Setting up conv6_2_mbox_loc_perm
I0524 12:49:57.700309  9498 net.cpp:157] Top shape: 8 7 7 24 (9408)
I0524 12:49:57.700310  9498 net.cpp:165] Memory required for data: 2851342112
I0524 12:49:57.700314  9498 layer_factory.hpp:77] Creating layer conv6_2_mbox_loc_flat
I0524 12:49:57.700320  9498 net.cpp:100] Creating Layer conv6_2_mbox_loc_flat
I0524 12:49:57.700322  9498 net.cpp:434] conv6_2_mbox_loc_flat <- conv6_2_mbox_loc_perm
I0524 12:49:57.700330  9498 net.cpp:408] conv6_2_mbox_loc_flat -> conv6_2_mbox_loc_flat
I0524 12:49:57.700376  9498 net.cpp:150] Setting up conv6_2_mbox_loc_flat
I0524 12:49:57.700382  9498 net.cpp:157] Top shape: 8 1176 (9408)
I0524 12:49:57.700384  9498 net.cpp:165] Memory required for data: 2851379744
I0524 12:49:57.700387  9498 layer_factory.hpp:77] Creating layer conv6_2_mbox_conf
I0524 12:49:57.700395  9498 net.cpp:100] Creating Layer conv6_2_mbox_conf
I0524 12:49:57.700399  9498 net.cpp:434] conv6_2_mbox_conf <- conv6_2_conv6_2_relu_0_split_2
I0524 12:49:57.700404  9498 net.cpp:408] conv6_2_mbox_conf -> conv6_2_mbox_conf
I0524 12:49:57.703521  9498 net.cpp:150] Setting up conv6_2_mbox_conf
I0524 12:49:57.703533  9498 net.cpp:157] Top shape: 8 36 7 7 (14112)
I0524 12:49:57.703536  9498 net.cpp:165] Memory required for data: 2851436192
I0524 12:49:57.703542  9498 layer_factory.hpp:77] Creating layer conv6_2_mbox_conf_perm
I0524 12:49:57.703549  9498 net.cpp:100] Creating Layer conv6_2_mbox_conf_perm
I0524 12:49:57.703553  9498 net.cpp:434] conv6_2_mbox_conf_perm <- conv6_2_mbox_conf
I0524 12:49:57.703558  9498 net.cpp:408] conv6_2_mbox_conf_perm -> conv6_2_mbox_conf_perm
I0524 12:49:57.703862  9498 net.cpp:150] Setting up conv6_2_mbox_conf_perm
I0524 12:49:57.703882  9498 net.cpp:157] Top shape: 8 7 7 36 (14112)
I0524 12:49:57.703886  9498 net.cpp:165] Memory required for data: 2851492640
I0524 12:49:57.703888  9498 layer_factory.hpp:77] Creating layer conv6_2_mbox_conf_flat
I0524 12:49:57.703893  9498 net.cpp:100] Creating Layer conv6_2_mbox_conf_flat
I0524 12:49:57.703896  9498 net.cpp:434] conv6_2_mbox_conf_flat <- conv6_2_mbox_conf_perm
I0524 12:49:57.703902  9498 net.cpp:408] conv6_2_mbox_conf_flat -> conv6_2_mbox_conf_flat
I0524 12:49:57.703950  9498 net.cpp:150] Setting up conv6_2_mbox_conf_flat
I0524 12:49:57.703956  9498 net.cpp:157] Top shape: 8 1764 (14112)
I0524 12:49:57.703958  9498 net.cpp:165] Memory required for data: 2851549088
I0524 12:49:57.703961  9498 layer_factory.hpp:77] Creating layer conv6_2_mbox_priorbox
I0524 12:49:57.703969  9498 net.cpp:100] Creating Layer conv6_2_mbox_priorbox
I0524 12:49:57.703971  9498 net.cpp:434] conv6_2_mbox_priorbox <- conv6_2_conv6_2_relu_0_split_3
I0524 12:49:57.703975  9498 net.cpp:434] conv6_2_mbox_priorbox <- data_data_0_split_3
I0524 12:49:57.703980  9498 net.cpp:408] conv6_2_mbox_priorbox -> conv6_2_mbox_priorbox
I0524 12:49:57.704030  9498 net.cpp:150] Setting up conv6_2_mbox_priorbox
I0524 12:49:57.704035  9498 net.cpp:157] Top shape: 1 2 1176 (2352)
I0524 12:49:57.704038  9498 net.cpp:165] Memory required for data: 2851558496
I0524 12:49:57.704041  9498 layer_factory.hpp:77] Creating layer conv7_2_mbox_loc
I0524 12:49:57.704051  9498 net.cpp:100] Creating Layer conv7_2_mbox_loc
I0524 12:49:57.704053  9498 net.cpp:434] conv7_2_mbox_loc <- conv7_2_conv7_2_relu_0_split_0
I0524 12:49:57.704059  9498 net.cpp:408] conv7_2_mbox_loc -> conv7_2_mbox_loc
I0524 12:49:57.707094  9498 net.cpp:150] Setting up conv7_2_mbox_loc
I0524 12:49:57.707106  9498 net.cpp:157] Top shape: 8 16 4 4 (2048)
I0524 12:49:57.707109  9498 net.cpp:165] Memory required for data: 2851566688
I0524 12:49:57.707120  9498 layer_factory.hpp:77] Creating layer conv7_2_mbox_loc_perm
I0524 12:49:57.707126  9498 net.cpp:100] Creating Layer conv7_2_mbox_loc_perm
I0524 12:49:57.707130  9498 net.cpp:434] conv7_2_mbox_loc_perm <- conv7_2_mbox_loc
I0524 12:49:57.707136  9498 net.cpp:408] conv7_2_mbox_loc_perm -> conv7_2_mbox_loc_perm
I0524 12:49:57.707429  9498 net.cpp:150] Setting up conv7_2_mbox_loc_perm
I0524 12:49:57.707435  9498 net.cpp:157] Top shape: 8 4 4 16 (2048)
I0524 12:49:57.707438  9498 net.cpp:165] Memory required for data: 2851574880
I0524 12:49:57.707442  9498 layer_factory.hpp:77] Creating layer conv7_2_mbox_loc_flat
I0524 12:49:57.707446  9498 net.cpp:100] Creating Layer conv7_2_mbox_loc_flat
I0524 12:49:57.707449  9498 net.cpp:434] conv7_2_mbox_loc_flat <- conv7_2_mbox_loc_perm
I0524 12:49:57.707455  9498 net.cpp:408] conv7_2_mbox_loc_flat -> conv7_2_mbox_loc_flat
I0524 12:49:57.707504  9498 net.cpp:150] Setting up conv7_2_mbox_loc_flat
I0524 12:49:57.707509  9498 net.cpp:157] Top shape: 8 256 (2048)
I0524 12:49:57.707512  9498 net.cpp:165] Memory required for data: 2851583072
I0524 12:49:57.707515  9498 layer_factory.hpp:77] Creating layer conv7_2_mbox_conf
I0524 12:49:57.707523  9498 net.cpp:100] Creating Layer conv7_2_mbox_conf
I0524 12:49:57.707526  9498 net.cpp:434] conv7_2_mbox_conf <- conv7_2_conv7_2_relu_0_split_1
I0524 12:49:57.707533  9498 net.cpp:408] conv7_2_mbox_conf -> conv7_2_mbox_conf
I0524 12:49:57.713282  9498 net.cpp:150] Setting up conv7_2_mbox_conf
I0524 12:49:57.713295  9498 net.cpp:157] Top shape: 8 24 4 4 (3072)
I0524 12:49:57.713299  9498 net.cpp:165] Memory required for data: 2851595360
I0524 12:49:57.713304  9498 layer_factory.hpp:77] Creating layer conv7_2_mbox_conf_perm
I0524 12:49:57.713310  9498 net.cpp:100] Creating Layer conv7_2_mbox_conf_perm
I0524 12:49:57.713315  9498 net.cpp:434] conv7_2_mbox_conf_perm <- conv7_2_mbox_conf
I0524 12:49:57.713320  9498 net.cpp:408] conv7_2_mbox_conf_perm -> conv7_2_mbox_conf_perm
I0524 12:49:57.713615  9498 net.cpp:150] Setting up conv7_2_mbox_conf_perm
I0524 12:49:57.713623  9498 net.cpp:157] Top shape: 8 4 4 24 (3072)
I0524 12:49:57.713634  9498 net.cpp:165] Memory required for data: 2851607648
I0524 12:49:57.713637  9498 layer_factory.hpp:77] Creating layer conv7_2_mbox_conf_flat
I0524 12:49:57.713642  9498 net.cpp:100] Creating Layer conv7_2_mbox_conf_flat
I0524 12:49:57.713646  9498 net.cpp:434] conv7_2_mbox_conf_flat <- conv7_2_mbox_conf_perm
I0524 12:49:57.713652  9498 net.cpp:408] conv7_2_mbox_conf_flat -> conv7_2_mbox_conf_flat
I0524 12:49:57.713696  9498 net.cpp:150] Setting up conv7_2_mbox_conf_flat
I0524 12:49:57.713701  9498 net.cpp:157] Top shape: 8 384 (3072)
I0524 12:49:57.713704  9498 net.cpp:165] Memory required for data: 2851619936
I0524 12:49:57.713707  9498 layer_factory.hpp:77] Creating layer conv7_2_mbox_priorbox
I0524 12:49:57.713713  9498 net.cpp:100] Creating Layer conv7_2_mbox_priorbox
I0524 12:49:57.713716  9498 net.cpp:434] conv7_2_mbox_priorbox <- conv7_2_conv7_2_relu_0_split_2
I0524 12:49:57.713721  9498 net.cpp:434] conv7_2_mbox_priorbox <- data_data_0_split_4
I0524 12:49:57.713726  9498 net.cpp:408] conv7_2_mbox_priorbox -> conv7_2_mbox_priorbox
I0524 12:49:57.713778  9498 net.cpp:150] Setting up conv7_2_mbox_priorbox
I0524 12:49:57.713783  9498 net.cpp:157] Top shape: 1 2 256 (512)
I0524 12:49:57.713785  9498 net.cpp:165] Memory required for data: 2851621984
I0524 12:49:57.713804  9498 layer_factory.hpp:77] Creating layer mbox_loc
I0524 12:49:57.713809  9498 net.cpp:100] Creating Layer mbox_loc
I0524 12:49:57.713814  9498 net.cpp:434] mbox_loc <- conv12_norm_mbox_loc_flat
I0524 12:49:57.713819  9498 net.cpp:434] mbox_loc <- ip7_mbox_loc_flat
I0524 12:49:57.713821  9498 net.cpp:434] mbox_loc <- conv6_2_mbox_loc_flat
I0524 12:49:57.713825  9498 net.cpp:434] mbox_loc <- conv7_2_mbox_loc_flat
I0524 12:49:57.713830  9498 net.cpp:408] mbox_loc -> mbox_loc
I0524 12:49:57.713881  9498 net.cpp:150] Setting up mbox_loc
I0524 12:49:57.713886  9498 net.cpp:157] Top shape: 8 24952 (199616)
I0524 12:49:57.713888  9498 net.cpp:165] Memory required for data: 2852420448
I0524 12:49:57.713891  9498 layer_factory.hpp:77] Creating layer mbox_conf
I0524 12:49:57.713897  9498 net.cpp:100] Creating Layer mbox_conf
I0524 12:49:57.713901  9498 net.cpp:434] mbox_conf <- conv12_norm_mbox_conf_flat
I0524 12:49:57.713904  9498 net.cpp:434] mbox_conf <- ip7_mbox_conf_flat
I0524 12:49:57.713907  9498 net.cpp:434] mbox_conf <- conv6_2_mbox_conf_flat
I0524 12:49:57.713912  9498 net.cpp:434] mbox_conf <- conv7_2_mbox_conf_flat
I0524 12:49:57.713915  9498 net.cpp:408] mbox_conf -> mbox_conf
I0524 12:49:57.713959  9498 net.cpp:150] Setting up mbox_conf
I0524 12:49:57.713964  9498 net.cpp:157] Top shape: 8 37428 (299424)
I0524 12:49:57.713968  9498 net.cpp:165] Memory required for data: 2853618144
I0524 12:49:57.713969  9498 layer_factory.hpp:77] Creating layer mbox_priorbox
I0524 12:49:57.713974  9498 net.cpp:100] Creating Layer mbox_priorbox
I0524 12:49:57.713979  9498 net.cpp:434] mbox_priorbox <- conv12/dw_mbox_priorbox
I0524 12:49:57.713982  9498 net.cpp:434] mbox_priorbox <- ip7_mbox_priorbox
I0524 12:49:57.713985  9498 net.cpp:434] mbox_priorbox <- conv6_2_mbox_priorbox
I0524 12:49:57.713989  9498 net.cpp:434] mbox_priorbox <- conv7_2_mbox_priorbox
I0524 12:49:57.713992  9498 net.cpp:408] mbox_priorbox -> mbox_priorbox
I0524 12:49:57.714058  9498 net.cpp:150] Setting up mbox_priorbox
I0524 12:49:57.714064  9498 net.cpp:157] Top shape: 1 2 24952 (49904)
I0524 12:49:57.714066  9498 net.cpp:165] Memory required for data: 2853817760
I0524 12:49:57.714069  9498 layer_factory.hpp:77] Creating layer mbox_loss
I0524 12:49:57.714079  9498 net.cpp:100] Creating Layer mbox_loss
I0524 12:49:57.714082  9498 net.cpp:434] mbox_loss <- mbox_loc
I0524 12:49:57.714087  9498 net.cpp:434] mbox_loss <- mbox_conf
I0524 12:49:57.714089  9498 net.cpp:434] mbox_loss <- mbox_priorbox
…
  phase: TEST
}
layer {
  name: "data"
  type: "AnnotatedData"
  top: "data"
  top: "label"
  include {
    phase: TEST
  }
  transform_param {
    resize_param {
      prob: 1
      resize_mode: WARP
      height: 448
      width: 448
      interp_mode: LINEAR
    }
    quant_enable: false
  }
  data_param {
    source: "/home/sx/data/VOCdevkit/VOC0712/lmdb/VOC0712_test_lmdb"
    batch_size: 2
    backend: LMDB
  }
  annotated_data_param {
    batch_sampler {
    }
    label_map_file: "/home/sx/data/VOCdevkit/VOC0712/lmdb/labelmap_voc.prototxt"
  }
}
layer {
  name: "conv0"
  type: "Convolution"
  bottom: "data"
  top: "conv0"
  param {
    lr_mult: 0.1
    decay_mult: 0.1
  }
  convolution_param {
    num_output: 32
    bias_term: false
    pad: 1
    kernel_size: 3
    stride: 2
    weight_filler {
      type: "msra"
    }
  }
}
layer {
  name: "conv0/bn"
  type: "BatchNorm"
  bottom: "conv0"
  top: "conv0"
}
layer {
  name: "conv0/scale"
  type: "Scale"
  bottom: "conv0"
  top: "conv0"
  param {
    lr_mult: 0.1
    decay_mult: 0
  }
  param {
    lr_mult: 0.2
    decay_mult: 0
  }
  scale_param {
    filler {
      value: 1
    }
    bias_term: true
    bias_filler {
      value: 0
    }
  }
}
layer {
  name: "conv0/relu"
  type: "ReLU"
  bottom: "conv0"
  top: "conv0"
}
layer {
  name: "conv1/dw"
  type: "Convolution"
  bottom: "conv0"
  top: "conv1/dw"
  param {
    lr_mult: 0.1
    decay_mult: 0.1
  }
  convolution_param {
    num_output: 32
    bias_term: false
    pad: 1
    kernel_size: 3
    group: 32
    weight_filler {
      type: "msra"
    }
    engine: CAFFE
  }
}
layer {
  name: "conv1/dw/bn"
  type: "BatchNorm"
  bottom: "conv1/dw"
  top: "conv1/dw"
}
layer {
  name: "conv1/dw/scale"
  type: "Scale"
  bottom: "conv1/dw"
  top: "conv1/dw"
  param {
    lr_mult: 0.1
    decay_mult: 0
  }
  param {
    lr_mult: 0.2
    decay_mult: 0
  }
  scale_param {
    filler {
      value: 1
    }
    bias_term: true
    bias_filler {
      value: 0
    }
  }
}
layer {
  name: "conv1/dw/relu"
  type: "ReLU"
  bottom: "conv1/dw"
  top: "conv1/dw"
}
layer {
  name: "conv1"
  type: "Convolution"
  bottom: "conv1/dw"
  top: "conv1"
  param {
    lr_mult: 0.1
    decay_mult: 0.1
  }
  convolution_param {
    num_output: 64
    bias_term: false
    kernel_size: 1
    weight_filler {
      type: "msra"
    }
  }
}
layer {
  name: "conv1/bn"
  type: "BatchNorm"
  bottom: "conv1"
  top: "conv1"
}
layer {
  name: "conv1/scale"
  type: "Scale"
  bottom: "conv1"
  top: "conv1"
  param {
    lr_mult: 0.1
    decay_mult: 0
  }
  param {
    lr_mult: 0.2
    decay_mult: 0
  }
  scale_param {
    filler {
      value: 1
    }
    bias_term: true
    bias_filler {
      value: 0
    }
  }
}
layer {
  name: "conv1/relu"
  type: "ReLU"
  bottom: "conv1"
  top: "conv1"
}
layer {
  name: "conv2/dw"
  type: "Convolution"
  bottom: "conv1"
  top: "conv2/dw"
  param {
    lr_mult: 0.1
    decay_mult: 0.1
  }
  convolution_param {
    num_output: 64
    bias_term: false
    pad: 1
    kernel_size: 3
    group: 64
    stride: 2
    weight_filler {
      type: "msra"
    }
    engine: CAFFE
  }
}
layer {
  name: "conv2/dw/bn"
  type: "BatchNorm"
  bottom: "conv2/dw"
  top: "conv2/dw"
}
layer {
  name: "conv2/dw/scale"
  type: "Scale"
  bottom: "conv2/dw"
  top: "conv2/dw"
  param {
    lr_mult: 0.1
    decay_mult: 0
  }
  param {
    lr_mult: 0.2
    decay_mult: 0
  }
  scale_param {
    filler {
      value: 1
    }
    bias_term: true
    bias_filler {
      value: 0
    }
  }
}
layer {
  name: "conv2/dw/relu"
  type: "ReLU"
  bottom: "conv2/dw"
  top: "conv2/dw"
}
layer {
  name: "conv2"
  type: "Convolution"
  bottom: "conv2/dw"
  top: "conv2"
  param {
    lr_mult: 0.1
    decay_mult: 0.1
  }
  convolution_param {
    num_output: 128
    bias_term: false
    kernel_size: 1
    weight_filler {
      type: "msra"
    }
  }
}
layer {
  name: "conv2/bn"
  type: "BatchNorm"
  bottom: "conv2"
  top: "conv2"
}
layer {
  name: "conv2/scale"
  type: "Scale"
  bottom: "conv2"
  top: "conv2"
  param {
    lr_mult: 0.1
    decay_mult: 0
  }
  param {
    lr_mult: 0.2
    decay_mult: 0
  }
  scale_param {
    filler {
      value: 1
    }
    bias_term: true
    bias_filler {
      value: 0
    }
  }
}
layer {
  name: "conv2/relu"
  type: "ReLU"
  bottom: "conv2"
  top: "conv2"
}
layer {
  name: "conv3/dw"
  type: "Convolution"
  bottom: "conv2"
  top: "conv3/dw"
  param {
    lr_mult: 0.1
    decay_mult: 0.1
  }
  convolution_param {
    num_output: 128
    bias_term: false
    pad: 1
    kernel_size: 3
    group: 128
    weight_filler {
      type: "msra"
    }
    engine: CAFFE
  }
}
layer {
  name: "conv3/dw/bn"
  type: "BatchNorm"
  bottom: "conv3/dw"
  top: "conv3/dw"
}
layer {
  name: "conv3/dw/scale"
  type: "Scale"
  bottom: "conv3/dw"
  top: "conv3/dw"
  param {
    lr_mult: 0.1
    decay_mult: 0
  }
  param {
    lr_mult: 0.2
    decay_mult: 0
  }
  scale_param {
    filler {
      value: 1
    }
    bias_term: true
    bias_filler {
      value: 0
    }
  }
}
layer {
  name: "conv3/dw/relu"
  type: "ReLU"
  bottom: "conv3/dw"
  top: "conv3/dw"
}
layer {
  name: "conv3"
  type: "Convolution"
  bottom: "conv3/dw"
  top: "conv3"
  param {
    lr_mult: 0.1
    decay_mult: 0.1
  }
  convolution_param {
    num_output: 128
    bias_term: false
    kernel_size: 1
    weight_filler {
      type: "msra"
    }
  }
}
layer {
  name: "conv3/bn"
  type: "BatchNorm"
  bottom: "conv3"
  top: "conv3"
}
layer {
  name: "conv3/scale"
  type: "Scale"
  bottom: "conv3"
  top: "conv3"
  param {
    lr_mult: 0.1
    decay_mult: 0
  }
  param {
    lr_mult: 0.2
    decay_mult: 0
  }
  scale_param {
    filler {
      value: 1
    }
    bias_term: true
    bias_filler {
      value: 0
    }
  }
}
layer {
  name: "conv3/relu"
  type: "ReLU"
  bottom: "conv3"
  top: "conv3"
}
layer {
  name: "conv4/dw"
  type: "Convolution"
  bottom: "conv3"
  top: "conv4/dw"
  param {
    lr_mult: 0.1
    decay_mult: 0.1
  }
  convolution_param {
    num_output: 128
    bias_term: false
    pad: 1
    kernel_size: 3
    group: 128
    stride: 2
    weight_filler {
      type: "msra"
    }
    engine: CAFFE
  }
}
layer {
  name: "conv4/dw/bn"
  type: "BatchNorm"
  bottom: "conv4/dw"
  top: "conv4/dw"
}
layer {
  name: "conv4/dw/scale"
  type: "Scale"
  bottom: "conv4/dw"
  top: "conv4/dw"
  param {
    lr_mult: 0.1
    decay_mult: 0
  }
  param {
    lr_mult: 0.2
    decay_mult: 0
  }
  scale_param {
    filler {
      value: 1
    }
    bias_term: true
    bias_filler {
      value: 0
    }
  }
}
layer {
  name: "conv4/dw/relu"
  type: "ReLU"
  bottom: "conv4/dw"
  top: "conv4/dw"
}
layer {
  name: "conv4"
  type: "Convolution"
  bottom: "conv4/dw"
  top: "conv4"
  param {
    lr_mult: 0.1
    decay_mult: 0.1
  }
  convolution_param {
    num_output: 256
    bias_term: false
    kernel_size: 1
    weight_filler {
      type: "msra"
    }
  }
}
layer {
  name: "conv4/bn"
  type: "BatchNorm"
  bottom: "conv4"
  top: "conv4"
}
layer {
  name: "conv4/scale"
  type: "Scale"
  bottom: "conv4"
  top: "conv4"
  param {
    lr_mult: 0.1
    decay_mult: 0
  }
  param {
    lr_mult: 0.2
    decay_mult: 0
  }
  scale_param {
    filler {
      value: 1
    }
    bias_term: true
    bias_filler {
      value: 0
    }
  }
}
layer {
  name: "conv4/relu"
  type: "ReLU"
  bottom: "conv4"
  top: "conv4"
}
layer {
  name: "conv5/dw"
  type: "Convolution"
  bottom: "conv4"
  top: "conv5/dw"
  param {
    lr_mult: 0.1
    decay_mult: 0.1
  }
  convolution_param {
    num_output: 256
    bias_term: false
    pad: 1
    kernel_size: 3
    group: 256
    weight_filler {
      type: "msra"
    }
    engine: CAFFE
  }
}
layer {
  name: "conv5/dw/bn"
  type: "BatchNorm"
  bottom: "conv5/dw"
  top: "conv5/dw"
}
layer {
  name: "conv5/dw/scale"
  type: "Scale"
  bottom: "conv5/dw"
  top: "conv5/dw"
  param {
    lr_mult: 0.1
    decay_mult: 0
  }
  param {
    lr_mult: 0.2
    decay_mult: 0
  }
  scale_param {
    filler {
      value: 1
    }
    bias_term: true
    bias_filler {
      value: 0
    }
  }
}
layer {
  name: "conv5/dw/relu"
  type: "ReLU"
  bottom: "conv5/dw"
  top: "conv5/dw"
}
layer {
  name: "conv5"
  type: "Convolution"
  bottom: "conv5/dw"
  top: "conv5"
  param {
    lr_mult: 0.1
    decay_mult: 0.1
  }
  convolution_param {
    num_output: 256
    bias_term: false
    kernel_size: 1
    weight_filler {
      type: "msra"
    }
  }
}
layer {
  name: "conv5/bn"
  type: "BatchNorm"
  bottom: "conv5"
  top: "conv5"
}
layer {
  name: "conv5/scale"
  type: "Scale"
  bottom: "conv5"
  top: "conv5"
  param {
    lr_mult: 0.1
    decay_mult: 0
  }
  param {
    lr_mult: 0.2
    decay_mult: 0
  }
  scale_param {
    filler {
      value: 1
    }
    bias_term: true
    bias_filler {
      value: 0
    }
  }
}
layer {
  name: "conv5/relu"
  type: "ReLU"
  bottom: "conv5"
  top: "conv5"
}
layer {
  name: "conv6/dw"
  type: "Convolution"
  bottom: "conv5"
  top: "conv6/dw"
  param {
    lr_mult: 0.1
    decay_mult: 0.1
  }
  convolution_param {
    num_output: 256
    bias_term: false
    pad: 1
    kernel_size: 3
    group: 256
    stride: 2
    weight_filler {
      type: "msra"
    }
    engine: CAFFE
  }
}
layer {
  name: "conv6/dw/bn"
  type: "BatchNorm"
  bottom: "conv6/dw"
  top: "conv6/dw"
}
layer {
  name: "conv6/dw/scale"
  type: "Scale"
  bottom: "conv6/dw"
  top: "conv6/dw"
  param {
    lr_mult: 0.1
    decay_mult: 0
  }
  param {
    lr_mult: 0.2
    decay_mult: 0
  }
  scale_param {
    filler {
      value: 1
    }
    bias_term: true
    bias_filler {
      value: 0
    }
  }
}
layer {
  name: "conv6/dw/relu"
  type: "ReLU"
  bottom: "conv6/dw"
  top: "conv6/dw"
}
layer {
  name: "conv6"
  type: "Convolution"
  bottom: "conv6/dw"
  top: "conv6"
  param {
    lr_mult: 0.1
    decay_mult: 0.1
  }
  convolution_param {
    num_output: 512
    bias_term: false
    kernel_size: 1
    weight_filler {
      type: "msra"
    }
  }
}
layer {
  name: "conv6/bn"
  type: "BatchNorm"
  bottom: "conv6"
  top: "conv6"
}
layer {
  name: "conv6/scale"
  type: "Scale"
  bottom: "conv6"
  top: "conv6"
  param {
    lr_mult: 0.1
    decay_mult: 0
  }
  param {
    lr_mult: 0.2
    decay_mult: 0
  }
  scale_param {
    filler {
      value: 1
    }
    bias_term: true
    bias_filler {
      value: 0
    }
  }
}
layer {
  name: "conv6/relu"
  type: "ReLU"
  bottom: "conv6"
  top: "conv6"
}
layer {
  name: "conv7/dw"
  type: "Convolution"
  bottom: "conv6"
  top: "conv7/dw"
  param {
    lr_mult: 0.1
    decay_mult: 0.1
  }
  convolution_param {
    num_output: 512
    bias_term: false
    pad: 1
    kernel_size: 3
    group: 512
    weight_filler {
      type: "msra"
    }
    engine: CAFFE
  }
}
layer {
  name: "conv7/dw/bn"
  type: "BatchNorm"
  bottom: "conv7/dw"
  top: "conv7/dw"
}
layer {
  name: "conv7/dw/scale"
  type: "Scale"
  bottom: "conv7/dw"
  top: "conv7/dw"
  param {
    lr_mult: 0.1
    decay_mult: 0
  }
  param {
    lr_mult: 0.2
    decay_mult: 0
  }
  scale_param {
    filler {
      value: 1
    }
    bias_term: true
    bias_filler {
      value: 0
    }
  }
}
layer {
  name: "conv7/dw/relu"
  type: "ReLU"
  bottom: "conv7/dw"
  top: "conv7/dw"
}
layer {
  name: "conv7"
  type: "Convolution"
  bottom: "conv7/dw"
  top: "conv7"
  param {
    lr_mult: 0.1
    decay_mult: 0.1
  }
  convolution_param {
    num_output: 512
    bias_term: false
    kernel_size: 1
    weight_filler {
      type: "msra"
    }
  }
}
layer {
  name: "conv7/bn"
  type: "BatchNorm"
  bottom: "conv7"
  top: "conv7"
}
layer {
  name: "conv7/scale"
  type: "Scale"
  bottom: "conv7"
  top: "conv7"
  param {
    lr_mult: 0.1
    decay_mult: 0
  }
  param {
    lr_mult: 0.2
    decay_mult: 0
  }
  scale_param {
    filler {
      value: 1
    }
    bias_term: true
    bias_filler {
      value: 0
    }
  }
}
layer {
  name: "conv7/relu"
  type: "ReLU"
  bottom: "conv7"
  top: "conv7"
}
layer {
  name: "conv8/dw"
  type: "Convolution"
  bottom: "conv7"
  top: "conv8/dw"
  param {
    lr_mult: 0.1
    decay_mult: 0.1
  }
  convolution_param {
    num_output: 512
    bias_term: false
    pad: 1
    kernel_size: 3
    group: 512
    weight_filler {
      type: "msra"
    }
    engine: CAFFE
  }
}
layer {
  name: "conv8/dw/bn"
  type: "BatchNorm"
  bottom: "conv8/dw"
  top: "conv8/dw"
}
layer {
  name: "conv8/dw/scale"
  type: "Scale"
  bottom: "conv8/dw"
  top: "conv8/dw"
  param {
    lr_mult: 0.1
    decay_mult: 0
  }
  param {
    lr_mult: 0.2
    decay_mult: 0
  }
  scale_param {
    filler {
      value: 1
    }
    bias_term: true
    bias_filler {
      value: 0
    }
  }
}
layer {
  name: "conv8/dw/relu"
  type: "ReLU"
  bottom: "conv8/dw"
  top: "conv8/dw"
}
layer {
  name: "conv8"
  type: "Convolution"
  bottom: "conv8/dw"
  top: "conv8"
  param {
    lr_mult: 0.1
    decay_mult: 0.1
  }
  convolution_param {
    num_output: 512
    bias_term: false
    kernel_size: 1
    weight_filler {
      type: "msra"
    }
  }
}
layer {
  name: "conv8/bn"
  type: "BatchNorm"
  bottom: "conv8"
  top: "conv8"
}
layer {
  name: "conv8/scale"
  type: "Scale"
  bottom: "conv8"
  top: "conv8"
  param {
    lr_mult: 0.1
    decay_mult: 0
  }
  param {
    lr_mult: 0.2
    decay_mult: 0
  }
  scale_param {
    filler {
      value: 1
    }
    bias_term: true
    bias_filler {
      value: 0
    }
  }
}
layer {
  name: "conv8/relu"
  type: "ReLU"
  bottom: "conv8"
  top: "conv8"
}
layer {
  name: "conv9/dw"
  type: "Convolution"
  bottom: "conv8"
  top: "conv9/dw"
  param {
    lr_mult: 0.1
    decay_mult: 0.1
  }
  convolution_param {
    num_output: 512
    bias_term: false
    pad: 1
    kernel_size: 3
    group: 512
    weight_filler {
      type: "msra"
    }
    engine: CAFFE
  }
}
layer {
  name: "conv9/dw/bn"
  type: "BatchNorm"
  bottom: "conv9/dw"
  top: "conv9/dw"
}
layer {
  name: "conv9/dw/scale"
  type: "Scale"
  bottom: "conv9/dw"
  top: "conv9/dw"
  param {
    lr_mult: 0.1
    decay_mult: 0
  }
  param {
    lr_mult: 0.2
    decay_mult: 0
  }
  scale_param {
    filler {
      value: 1
    }
    bias_term: true
    bias_filler {
      value: 0
    }
  }
}
layer {
  name: "conv9/dw/relu"
  type: "ReLU"
  bottom: "conv9/dw"
  top: "conv9/dw"
}
layer {
  name: "conv9"
  type: "Convolution"
  bottom: "conv9/dw"
  top: "conv9"
  param {
    lr_mult: 0.1
    decay_mult: 0.1
  }
  convolution_param {
    num_output: 512
    bias_term: false
    kernel_size: 1
    weight_filler {
      type: "msra"
    }
  }
}
layer {
  name: "conv9/bn"
  type: "BatchNorm"
  bottom: "conv9"
  top: "conv9"
}
layer {
  name: "conv9/scale"
  type: "Scale"
  bottom: "conv9"
  top: "conv9"
  param {
    lr_mult: 0.1
    decay_mult: 0
  }
  param {
    lr_mult: 0.2
    decay_mult: 0
  }
  scale_param {
    filler {
      value: 1
    }
    bias_term: true
    bias_filler {
      value: 0
    }
  }
}
layer {
  name: "conv9/relu"
  type: "ReLU"
  bottom: "conv9"
  top: "conv9"
}
layer {
  name: "conv10/dw"
  type: "Convolution"
  bottom: "conv9"
  top: "conv10/dw"
  param {
    lr_mult: 0.1
    decay_mult: 0.1
  }
  convolution_param {
    num_output: 512
    bias_term: false
    pad: 1
    kernel_size: 3
    group: 512
    weight_filler {
      type: "msra"
    }
    engine: CAFFE
  }
}
layer {
  name: "conv10/dw/bn"
  type: "BatchNorm"
  bottom: "conv10/dw"
  top: "conv10/dw"
}
layer {
  name: "conv10/dw/scale"
  type: "Scale"
  bottom: "conv10/dw"
  top: "conv10/dw"
  param {
    lr_mult: 0.1
    decay_mult: 0
  }
  param {
    lr_mult: 0.2
    decay_mult: 0
  }
  scale_param {
    filler {
      value: 1
    }
    bias_term: true
    bias_filler {
      value: 0
    }
  }
}
layer {
  name: "conv10/dw/relu"
  type: "ReLU"
  bottom: "conv10/dw"
  top: "conv10/dw"
}
layer {
  name: "conv10"
  type: "Convolution"
  bottom: "conv10/dw"
  top: "conv10"
  param {
    lr_mult: 0.1
    decay_mult: 0.1
  }
  convolution_param {
    num_output: 512
    bias_term: false
    kernel_size: 1
    weight_filler {
      type: "msra"
    }
  }
}
layer {
  name: "conv10/bn"
  type: "BatchNorm"
  bottom: "conv10"
  top: "conv10"
}
layer {
  name: "conv10/scale"
  type: "Scale"
  bottom: "conv10"
  top: "conv10"
  param {
    lr_mult: 0.1
    decay_mult: 0
  }
  param {
    lr_mult: 0.2
    decay_mult: 0
  }
  scale_param {
    filler {
      value: 1
    }
    bias_term: true
    bias_filler {
      value: 0
    }
  }
}
layer {
  name: "conv10/relu"
  type: "ReLU"
  bottom: "conv10"
  top: "conv10"
}
layer {
  name: "conv11/dw"
  type: "Convolution"
  bottom: "conv10"
  top: "conv11/dw"
  param {
    lr_mult: 0.1
    decay_mult: 0.1
  }
  convolution_param {
    num_output: 512
    bias_term: false
    pad: 1
    kernel_size: 3
    group: 512
    weight_filler {
      type: "msra"
    }
    engine: CAFFE
  }
}
layer {
  name: "conv11/dw/bn"
  type: "BatchNorm"
  bottom: "conv11/dw"
  top: "conv11/dw"
}
layer {
  name: "conv11/dw/scale"
  type: "Scale"
  bottom: "conv11/dw"
  top: "conv11/dw"
  param {
    lr_mult: 0.1
    decay_mult: 0
  }
  param {
    lr_mult: 0.2
    decay_mult: 0
  }
  scale_param {
    filler {
      value: 1
    }
    bias_term: true
    bias_filler {
      value: 0
    }
  }
}
layer {
  name: "conv11/dw/relu"
  type: "ReLU"
  bottom: "conv11/dw"
  top: "conv11/dw"
}
layer {
  name: "conv11"
  type: "Convolution"
  bottom: "conv11/dw"
  top: "conv11"
  param {
    lr_mult: 0.1
    decay_mult: 0.1
  }
  convolution_param {
    num_output: 512
    bias_term: false
    kernel_size: 1
    weight_filler {
      type: "msra"
    }
  }
}
layer {
  name: "conv11/bn"
  type: "BatchNorm"
  bottom: "conv11"
  top: "conv11"
}
layer {
  name: "conv11/scale"
  type: "Scale"
  bottom: "conv11"
  top: "conv11"
  param {
    lr_mult: 0.1
    decay_mult: 0
  }
  param {
    lr_mult: 0.2
    decay_mult: 0
  }
  scale_param {
    filler {
      value: 1
    }
    bias_term: true
    bias_filler {
      value: 0
    }
  }
}
layer {
  name: "conv11/relu"
  type: "ReLU"
  bottom: "conv11"
  top: "conv11"
}
layer {
  name: "conv12/dw"
  type: "Convolution"
  bottom: "conv11"
  top: "conv12/dw"
  param {
    lr_mult: 0.1
    decay_mult: 0.1
  }
  convolution_param {
    num_output: 512
    bias_term: false
    pad: 1
    kernel_size: 3
    group: 512
    stride: 1
    weight_filler {
      type: "msra"
    }
    engine: CAFFE
  }
}
layer {
  name: "conv12/dw/bn"
  type: "BatchNorm"
  bottom: "conv12/dw"
  top: "conv12/dw"
}
layer {
  name: "conv12/dw/scale"
  type: "Scale"
  bottom: "conv12/dw"
  top: "conv12/dw"
  param {
    lr_mult: 0.1
    decay_mult: 0
  }
  param {
    lr_mult: 0.2
    decay_mult: 0
  }
  scale_param {
    filler {
      value: 1
    }
    bias_term: true
    bias_filler {
      value: 0
    }
  }
}
layer {
  name: "conv12/dw/relu"
  type: "ReLU"
  bottom: "conv12/dw"
  top: "conv12/dw"
}
layer {
  name: "sample_pooling"
  type: "Convolution"
  bottom: "conv12/dw"
  top: "sample_pooling"
  param {
    lr_mult: 0
  }
  convolution_param {
    num_output: 512
    bias_term: false
    pad: 0
    kernel_size: 2
    group: 512
    stride: 2
    weight_filler {
      type: "constant_array"
      value_array: 1
      value_array: 0
      value_array: 0
      value_array: 0
    }
  }
}
layer {
  name: "conv12"
  type: "Convolution"
  bottom: "sample_pooling"
  top: "conv12"
  param {
    lr_mult: 0.1
    decay_mult: 0.1
  }
  convolution_param {
    num_output: 1024
    bias_term: false
    kernel_size: 1
    weight_filler {
      type: "msra"
    }
  }
}
layer {
  name: "conv12/bn"
  type: "BatchNorm"
  bottom: "conv12"
  top: "conv12"
}
layer {
  name: "conv12/scale"
  type: "Scale"
  bottom: "conv12"
  top: "conv12"
  param {
    lr_mult: 0.1
    decay_mult: 0
  }
  param {
    lr_mult: 0.2
    decay_mult: 0
  }
  scale_param {
    filler {
      value: 1
    }
    bias_term: true
    bias_filler {
      value: 0
    }
  }
}
layer {
  name: "conv12/relu"
  type: "ReLU"
  bottom: "conv12"
  top: "conv12"
}
layer {
  name: "conv13/dw"
  type: "Convolution"
  bottom: "conv12"
  top: "conv13/dw"
  param {
    lr_mult: 0.1
    decay_mult: 0.1
  }
  convolution_param {
    num_output: 1024
    bias_term: false
    pad: 1
    kernel_size: 3
    group: 1024
    weight_filler {
      type: "msra"
    }
    engine: CAFFE
  }
}
layer {
  name: "conv13/dw/bn"
  type: "BatchNorm"
  bottom: "conv13/dw"
  top: "conv13/dw"
}
layer {
  name: "conv13/dw/scale"
  type: "Scale"
  bottom: "conv13/dw"
  top: "conv13/dw"
  param {
    lr_mult: 0.1
    decay_mult: 0
  }
  param {
    lr_mult: 0.2
    decay_mult: 0
  }
  scale_param {
    filler {
      value: 1
    }
    bias_term: true
    bias_filler {
      value: 0
    }
  }
}
layer {
  name: "conv13/dw/relu"
  type: "ReLU"
  bottom: "conv13/dw"
  top: "conv13/dw"
}
layer {
  name: "conv13"
  type: "Convolution"
  bottom: "conv13/dw"
  top: "conv13"
  param {
    lr_mult: 0.1
    decay_mult: 0.1
  }
  convolution_param {
    num_output: 1024
    bias_term: false
    kernel_size: 1
    weight_filler {
      type: "msra"
    }
  }
}
layer {
  name: "conv13/bn"
  type: "BatchNorm"
  bottom: "conv13"
  top: "conv13"
}
layer {
  name: "conv13/scale"
  type: "Scale"
  bottom: "conv13"
  top: "conv13"
  param {
    lr_mult: 0.1
    decay_mult: 0
  }
  param {
    lr_mult: 0.2
    decay_mult: 0
  }
  scale_param {
    filler {
      value: 1
    }
    bias_term: true
    bias_filler {
      value: 0
    }
  }
}
layer {
  name: "conv13/relu"
  type: "ReLU"
  bottom: "conv13"
  top: "conv13"
}
layer {
  name: "ip6"
  type: "Convolution"
  bottom: "conv13"
  top: "ip6"
  param {
    lr_mult: 1
    decay_mult: 1
  }
  param {
    lr_mult: 2
    decay_mult: 0
  }
  convolution_param {
    num_output: 256
    pad: 1
    kernel_size: 3
    weight_filler {
      type: "xavier"
    }
    bias_filler {
      type: "constant"
      value: 0
    }
    engine: CAFFE
  }
}
layer {
  name: "relu6"
  type: "ReLU"
  bottom: "ip6"
  top: "ip6"
}
layer {
  name: "ip7"
  type: "Convolution"
  bottom: "ip6"
  top: "ip7"
  param {
    lr_mult: 1
    decay_mult: 1
  }
  param {
    lr_mult: 2
    decay_mult: 0
  }
  convolution_param {
    num_output: 512
    kernel_size: 1
    weight_filler {
      type: "xavier"
    }
    bias_filler {
      type: "constant"
      value: 0
    }
    engine: CAFFE
  }
}
layer {
  name: "relu7"
  type: "ReLU"
  bottom: "ip7"
  top: "ip7"
}
layer {
  name: "conv6_1"
  type: "Convolution"
  bottom: "ip7"
  top: "conv6_1"
  param {
    lr_mult: 1
    decay_mult: 1
  }
  param {
    lr_mult: 2
    decay_mult: 0
  }
  convolution_param {
    num_output: 256
    pad: 0
    kernel_size: 1
    stride: 1
    weight_filler {
      type: "xavier"
    }
    bias_filler {
      type: "constant"
      value: 0
    }
  }
}
layer {
  name: "conv6_1_relu"
  type: "ReLU"
  bottom: "conv6_1"
  top: "conv6_1"
}
layer {
  name: "conv6_2"
  type: "Convolution"
  bottom: "conv6_1"
  top: "conv6_2"
  param {
    lr_mult: 1
    decay_mult: 1
  }
  param {
    lr_mult: 2
    decay_mult: 0
  }
  convolution_param {
    num_output: 256
    pad: 1
    kernel_size: 3
    stride: 2
    weight_filler {
      type: "xavier"
    }
    bias_filler {
      type: "constant"
      value: 0
    }
  }
}
layer {
  name: "conv6_2_relu"
  type: "ReLU"
  bottom: "conv6_2"
  top: "conv6_2"
}
layer {
  name: "conv7_1"
  type: "Convolution"
  bottom: "conv6_2"
  top: "conv7_1"
  param {
    lr_mult: 1
    decay_mult: 1
  }
  param {
    lr_mult: 2
    decay_mult: 0
  }
  convolution_param {
    num_output: 128
    pad: 0
    kernel_size: 1
    stride: 1
    weight_filler {
      type: "xavier"
    }
    bias_filler {
      type: "constant"
      value: 0
    }
  }
}
layer {
  name: "conv7_1_relu"
  type: "ReLU"
  bottom: "conv7_1"
  top: "conv7_1"
}
layer {
  name: "conv7_2"
  type: "Convolution"
  bottom: "conv7_1"
  top: "conv7_2"
  param {
    lr_mult: 1
    decay_mult: 1
  }
  param {
    lr_mult: 2
    decay_mult: 0
  }
  convolution_param {
    num_output: 256
    pad: 1
    kernel_size: 3
    stride: 2
    weight_filler {
      type: "xavier"
    }
    bias_filler {
      type: "constant"
      value: 0
    }
  }
}
layer {
  name: "conv7_2_relu"
  type: "ReLU"
  bottom: "conv7_2"
  top: "conv7_2"
}
layer {
  name: "conv12_norm"
  type: "Normalize"
  bottom: "conv12/dw"
  top: "conv12_norm"
  norm_param {
    across_spatial: false
    channel_shared: false
  }
}
layer {
  name: "conv12_norm_mbox_loc"
  type: "Convolution"
  bottom: "conv12_norm"
  top: "conv12_norm_mbox_loc"
  param {
    lr_mult: 1
    decay_mult: 1
  }
  param {
    lr_mult: 2
    decay_mult: 0
  }
  convolution_param {
    num_output: 24
    pad: 1
    kernel_size: 3
    stride: 1
    weight_filler {
      type: "xavier"
    }
    bias_filler {
      type: "constant"
      value: 0
    }
  }
}
layer {
  name: "conv12_norm_mbox_loc_perm"
  type: "Permute"
  bottom: "conv12_norm_mbox_loc"
  top: "conv12_norm_mbox_loc_perm"
  permute_param {
    order: 0
    order: 2
    order: 3
    order: 1
  }
}
layer {
  name: "conv12_norm_mbox_loc_flat"
  type: "Flatten"
  bottom: "conv12_norm_mbox_loc_perm"
  top: "conv12_norm_mbox_loc_flat"
  flatten_param {
    axis: 1
  }
}
layer {
  name: "conv12_norm_mbox_conf"
  type: "Convolution"
  bottom: "conv12_norm"
  top: "conv12_norm_mbox_conf"
  param {
    lr_mult: 1
    decay_mult: 1
  }
  param {
    lr_mult: 2
    decay_mult: 0
  }
  convolution_param {
    num_output: 36
    pad: 1
    kernel_size: 3
    stride: 1
    weight_filler {
      type: "xavier"
    }
    bias_filler {
      type: "constant"
      value: 0
    }
  }
}
layer {
  name: "conv12_norm_mbox_conf_perm"
  type: "Permute"
  bottom: "conv12_norm_mbox_conf"
  top: "conv12_norm_mbox_conf_perm"
  permute_param {
    order: 0
    order: 2
    order: 3
    order: 1
  }
}
layer {
  name: "conv12_norm_mbox_conf_flat"
  type: "Flatten"
  bottom: "conv12_norm_mbox_conf_perm"
  top: "conv12_norm_mbox_conf_flat"
  flatten_param {
    axis: 1
  }
}
layer {
  name: "ip7_mbox_loc"
  type: "Convolution"
  bottom: "ip7"
  top: "ip7_mbox_loc"
  param {
    lr_mult: 1
    decay_mult: 1
  }
  param {
    lr_mult: 2
    decay_mult: 0
  }
  convolution_param {
    num_output: 24
    pad: 1
    kernel_size: 3
    stride: 1
    weight_filler {
      type: "xavier"
    }
    bias_filler {
      type: "constant"
      value: 0
    }
  }
}
layer {
  name: "ip7_mbox_loc_perm"
  type: "Permute"
  bottom: "ip7_mbox_loc"
  top: "ip7_mbox_loc_perm"
  permute_param {
    order: 0
    order: 2
    order: 3
    order: 1
  }
}
layer {
  name: "ip7_mbox_loc_flat"
  type: "Flatten"
  bottom: "ip7_mbox_loc_perm"
  top: "ip7_mbox_loc_flat"
  flatten_param {
    axis: 1
  }
}
layer {
  name: "ip7_mbox_conf"
  type: "Convolution"
  bottom: "ip7"
  top: "ip7_mbox_conf"
  param {
    lr_mult: 1
    decay_mult: 1
  }
  param {
    lr_mult: 2
    decay_mult: 0
  }
  convolution_param {
    num_output: 36
    pad: 1
    kernel_size: 3
    stride: 1
    weight_filler {
      type: "xavier"
    }
    bias_filler {
      type: "constant"
      value: 0
    }
  }
}
layer {
  name: "ip7_mbox_conf_perm"
  type: "Permute"
  bottom: "ip7_mbox_conf"
  top: "ip7_mbox_conf_perm"
  permute_param {
    order: 0
    order: 2
    order: 3
    order: 1
  }
}
layer {
  name: "ip7_mbox_conf_flat"
  type: "Flatten"
  bottom: "ip7_mbox_conf_perm"
  top: "ip7_mbox_conf_flat"
  flatten_param {
    axis: 1
  }
}
layer {
  name: "conv12/dw_mbox_priorbox"
  type: "PriorBox"
  bottom: "conv12/dw"
  bottom: "data"
  top: "conv12/dw_mbox_priorbox"
  prior_box_param {
    min_size: 44.8
    max_size: 89.6
    aspect_ratio: 2
    aspect_ratio: 3
    flip: true
    clip: false
    variance: 0.1
    variance: 0.1
    variance: 0.2
    variance: 0.2
    step: 16
    offset: 0.5
  }
}
layer {
  name: "ip7_mbox_priorbox"
  type: "PriorBox"
  bottom: "ip7"
  bottom: "data"
  top: "ip7_mbox_priorbox"
  prior_box_param {
    min_size: 89.6
    max_size: 246.4
    aspect_ratio: 2
    aspect_ratio: 3
    flip: true
    clip: false
    variance: 0.1
    variance: 0.1
    variance: 0.2
    variance: 0.2
    step: 32
    offset: 0.5
  }
}
layer {
  name: "conv6_2_mbox_loc"
  type: "Convolution"
  bottom: "conv6_2"
  top: "conv6_2_mbox_loc"
  param {
    lr_mult: 1
    decay_mult: 1
  }
  param {
    lr_mult: 2
    decay_mult: 0
  }
  convolution_param {
    num_output: 24
    pad: 1
    kernel_size: 3
    stride: 1
    weight_filler {
      type: "xavier"
    }
    bias_filler {
      type: "constant"
      value: 0
    }
  }
}
layer {
  name: "conv6_2_mbox_loc_perm"
  type: "Permute"
  bottom: "conv6_2_mbox_loc"
  top: "conv6_2_mbox_loc_perm"
  permute_param {
    order: 0
    order: 2
    order: 3
    order: 1
  }
}
layer {
  name: "conv6_2_mbox_loc_flat"
  type: "Flatten"
  bottom: "conv6_2_mbox_loc_perm"
  top: "conv6_2_mbox_loc_flat"
  flatten_param {
    axis: 1
  }
}
layer {
  name: "conv6_2_mbox_conf"
  type: "Convolution"
  bottom: "conv6_2"
  top: "conv6_2_mbox_conf"
  param {
    lr_mult: 1
    decay_mult: 1
  }
  param {
    lr_mult: 2
    decay_mult: 0
  }
  convolution_param {
    num_output: 36
    pad: 1
    kernel_size: 3
    stride: 1
    weight_filler {
      type: "xavier"
    }
    bias_filler {
      type: "constant"
      value: 0
    }
  }
}
layer {
  name: "conv6_2_mbox_conf_perm"
  type: "Permute"
  bottom: "conv6_2_mbox_conf"
  top: "conv6_2_mbox_conf_perm"
  permute_param {
    order: 0
    order: 2
    order: 3
    order: 1
  }
}
layer {
  name: "conv6_2_mbox_conf_flat"
  type: "Flatten"
  bottom: "conv6_2_mbox_conf_perm"
  top: "conv6_2_mbox_conf_flat"
  flatten_param {
    axis: 1
  }
}
layer {
  name: "conv6_2_mbox_priorbox"
  type: "PriorBox"
  bottom: "conv6_2"
  bottom: "data"
  top: "conv6_2_mbox_priorbox"
  prior_box_param {
    min_size: 246.4
    max_size: 403.2
    aspect_ratio: 2
    aspect_ratio: 3
    flip: true
   
I0524 12:49:57.718341  9498 layer_factory.hpp:77] Creating layer data
I0524 12:49:57.718412  9498 net.cpp:100] Creating Layer data
I0524 12:49:57.718420  9498 net.cpp:408] data -> data
I0524 12:49:57.718442  9498 net.cpp:408] data -> label
I0524 12:49:57.720752  9547 db_lmdb.cpp:35] Opened lmdb /home/sx/data/VOCdevkit/VOC0712/lmdb/VOC0712_test_lmdb
I0524 12:49:57.723532  9498 annotated_data_layer.cpp:62] output data size: 2,3,448,448
I0524 12:49:57.729851  9498 net.cpp:150] Setting up data
I0524 12:49:57.729871  9498 net.cpp:157] Top shape: 2 3 448 448 (1204224)
I0524 12:49:57.729874  9498 net.cpp:157] Top shape: 1 1 1 8 (8)
I0524 12:49:57.729876  9498 net.cpp:165] Memory required for data: 4816928
I0524 12:49:57.729882  9498 layer_factory.hpp:77] Creating layer data_data_0_split
I0524 12:49:57.729892  9498 net.cpp:100] Creating Layer data_data_0_split
I0524 12:49:57.729907  9498 net.cpp:434] data_data_0_split <- data
I0524 12:49:57.729913  9498 net.cpp:408] data_data_0_split -> data_data_0_split_0
I0524 12:49:57.729923  9498 net.cpp:408] data_data_0_split -> data_data_0_split_1
I0524 12:49:57.729926  9498 net.cpp:408] data_data_0_split -> data_data_0_split_2
I0524 12:49:57.729933  9498 net.cpp:408] data_data_0_split -> data_data_0_split_3
I0524 12:49:57.729936  9498 net.cpp:408] data_data_0_split -> data_data_0_split_4
I0524 12:49:57.730222  9498 net.cpp:150] Setting up data_data_0_split
I0524 12:49:57.730231  9498 net.cpp:157] Top shape: 2 3 448 448 (1204224)
I0524 12:49:57.730235  9498 net.cpp:157] Top shape: 2 3 448 448 (1204224)
I0524 12:49:57.730238  9498 net.cpp:157] Top shape: 2 3 448 448 (1204224)
I0524 12:49:57.730242  9498 net.cpp:157] Top shape: 2 3 448 448 (1204224)
I0524 12:49:57.730244  9498 net.cpp:157] Top shape: 2 3 448 448 (1204224)
I0524 12:49:57.730247  9498 net.cpp:165] Memory required for data: 28901408
I0524 12:49:57.730252  9498 layer_factory.hpp:77] Creating layer conv0
I0524 12:49:57.730262  9498 net.cpp:100] Creating Layer conv0
I0524 12:49:57.730264  9498 net.cpp:434] conv0 <- data_data_0_split_0
I0524 12:49:57.730270  9498 net.cpp:408] conv0 -> conv0
I0524 12:49:57.733619  9498 net.cpp:150] Setting up conv0
I0524 12:49:57.733634  9498 net.cpp:157] Top shape: 2 32 224 224 (3211264)
I0524 12:49:57.733637  9498 net.cpp:165] Memory required for data: 41746464
I0524 12:49:57.733647  9498 layer_factory.hpp:77] Creating layer conv0/bn
I0524 12:49:57.733654  9498 net.cpp:100] Creating Layer conv0/bn
I0524 12:49:57.733656  9498 net.cpp:434] conv0/bn <- conv0
I0524 12:49:57.733660  9498 net.cpp:395] conv0/bn -> conv0 (in-place)
I0524 12:49:57.734313  9498 net.cpp:150] Setting up conv0/bn
I0524 12:49:57.734323  9498 net.cpp:157] Top shape: 2 32 224 224 (3211264)
I0524 12:49:57.734336  9498 net.cpp:165] Memory required for data: 54591520
I0524 12:49:57.734345  9498 layer_factory.hpp:77] Creating layer conv0/scale
I0524 12:49:57.734354  9498 net.cpp:100] Creating Layer conv0/scale
I0524 12:49:57.734356  9498 net.cpp:434] conv0/scale <- conv0
I0524 12:49:57.734360  9498 net.cpp:395] conv0/scale -> conv0 (in-place)
I0524 12:49:57.734450  9498 layer_factory.hpp:77] Creating layer conv0/scale
I0524 12:49:57.734803  9498 net.cpp:150] Setting up conv0/scale
I0524 12:49:57.734812  9498 net.cpp:157] Top shape: 2 32 224 224 (3211264)
I0524 12:49:57.734814  9498 net.cpp:165] Memory required for data: 67436576
I0524 12:49:57.734820  9498 layer_factory.hpp:77] Creating layer conv0/relu
I0524 12:49:57.734827  9498 net.cpp:100] Creating Layer conv0/relu
I0524 12:49:57.734829  9498 net.cpp:434] conv0/relu <- conv0
I0524 12:49:57.734833  9498 net.cpp:395] conv0/relu -> conv0 (in-place)
I0524 12:49:57.735584  9498 net.cpp:150] Setting up conv0/relu
I0524 12:49:57.735597  9498 net.cpp:157] Top shape: 2 32 224 224 (3211264)
I0524 12:49:57.735600  9498 net.cpp:165] Memory required for data: 80281632
I0524 12:49:57.735603  9498 layer_factory.hpp:77] Creating layer conv1/dw
I0524 12:49:57.735613  9498 net.cpp:100] Creating Layer conv1/dw
I0524 12:49:57.735617  9498 net.cpp:434] conv1/dw <- conv0
I0524 12:49:57.735622  9498 net.cpp:408] conv1/dw -> conv1/dw
I0524 12:49:57.736238  9498 net.cpp:150] Setting up conv1/dw
I0524 12:49:57.736248  9498 net.cpp:157] Top shape: 2 32 224 224 (3211264)
I0524 12:49:57.736250  9498 net.cpp:165] Memory required for data: 93126688
I0524 12:49:57.736255  9498 layer_factory.hpp:77] Creating layer conv1/dw/bn
I0524 12:49:57.736260  9498 net.cpp:100] Creating Layer conv1/dw/bn
I0524 12:49:57.736263  9498 net.cpp:434] conv1/dw/bn <- conv1/dw
I0524 12:49:57.736268  9498 net.cpp:395] conv1/dw/bn -> conv1/dw (in-place)
I0524 12:49:57.736857  9498 net.cpp:150] Setting up conv1/dw/bn
I0524 12:49:57.736865  9498 net.cpp:157] Top shape: 2 32 224 224 (3211264)
I0524 12:49:57.736867  9498 net.cpp:165] Memory required for data: 105971744
I0524 12:49:57.736876  9498 layer_factory.hpp:77] Creating layer conv1/dw/scale
…
I0524 12:49:57.818737  9498 net.cpp:157] Top shape: 2 512 28 28 (802816)
I0524 12:49:57.818740  9498 net.cpp:165] Memory required for data: 597295136
I0524 12:49:57.818747  9498 layer_factory.hpp:77] Creating layer conv9/relu
I0524 12:49:57.818753  9498 net.cpp:100] Creating Layer conv9/relu
I0524 12:49:57.818756  9498 net.cpp:434] conv9/relu <- conv9
I0524 12:49:57.818765  9498 net.cpp:395] conv9/relu -> conv9 (in-place)
I0524 12:49:57.822331  9498 net.cpp:150] Setting up conv9/relu
I0524 12:49:57.822346  9498 net.cpp:157] Top shape: 2 512 28 28 (802816)
I0524 12:49:57.822350  9498 net.cpp:165] Memory required for data: 600506400
I0524 12:49:57.822369  9498 layer_factory.hpp:77] Creating layer conv10/dw
I0524 12:49:57.822378  9498 net.cpp:100] Creating Layer conv10/dw
I0524 12:49:57.822382  9498 net.cpp:434] conv10/dw <- conv9
I0524 12:49:57.822391  9498 net.cpp:408] conv10/dw -> conv10/dw
I0524 12:49:57.823057  9498 net.cpp:150] Setting up conv10/dw
I0524 12:49:57.823068  9498 net.cpp:157] Top shape: 2 512 28 28 (802816)
I0524 12:49:57.823071  9498 net.cpp:165] Memory required for data: 603717664
I0524 12:49:57.823076  9498 layer_factory.hpp:77] Creating layer conv10/dw/bn
I0524 12:49:57.823082  9498 net.cpp:100] Creating Layer conv10/dw/bn
I0524 12:49:57.823087  9498 net.cpp:434] conv10/dw/bn <- conv10/dw
I0524 12:49:57.823093  9498 net.cpp:395] conv10/dw/bn -> conv10/dw (in-place)
I0524 12:49:57.823699  9498 net.cpp:150] Setting up conv10/dw/bn
I0524 12:49:57.823709  9498 net.cpp:157] Top shape: 2 512 28 28 (802816)
I0524 12:49:57.823712  9498 net.cpp:165] Memory required for data: 606928928
I0524 12:49:57.823720  9498 layer_factory.hpp:77] Creating layer conv10/dw/scale
I0524 12:49:57.823727  9498 net.cpp:100] Creating Layer conv10/dw/scale
I0524 12:49:57.823734  9498 net.cpp:434] conv10/dw/scale <- conv10/dw
I0524 12:49:57.823756  9498 net.cpp:395] conv10/dw/scale -> conv10/dw (in-place)
I0524 12:49:57.823891  9498 layer_factory.hpp:77] Creating layer conv10/dw/scale
I0524 12:49:57.824218  9498 net.cpp:150] Setting up conv10/dw/scale
I0524 12:49:57.824226  9498 net.cpp:157] Top shape: 2 512 28 28 (802816)
I0524 12:49:57.824229  9498 net.cpp:165] Memory required for data: 610140192
I0524 12:49:57.824234  9498 layer_factory.hpp:77] Creating layer conv10/dw/relu
I0524 12:49:57.824241  9498 net.cpp:100] Creating Layer conv10/dw/relu
I0524 12:49:57.824249  9498 net.cpp:434] conv10/dw/relu <- conv10/dw
I0524 12:49:57.824255  9498 net.cpp:395] conv10/dw/relu -> conv10/dw (in-place)
I0524 12:49:57.824780  9498 net.cpp:150] Setting up conv10/dw/relu
I0524 12:49:57.824793  9498 net.cpp:157] Top shape: 2 512 28 28 (802816)
I0524 12:49:57.824796  9498 net.cpp:165] Memory required for data: 613351456
I0524 12:49:57.824800  9498 layer_factory.hpp:77] Creating layer conv10
I0524 12:49:57.824811  9498 net.cpp:100] Creating Layer conv10
I0524 12:49:57.824818  9498 net.cpp:434] conv10 <- conv10/dw
I0524 12:49:57.824826  9498 net.cpp:408] conv10 -> conv10
I0524 12:49:57.829524  9498 net.cpp:150] Setting up conv10
I0524 12:49:57.829537  9498 net.cpp:157] Top shape: 2 512 28 28 (802816)
I0524 12:49:57.829540  9498 net.cpp:165] Memory required for data: 616562720
I0524 12:49:57.829545  9498 layer_factory.hpp:77] Creating layer conv10/bn
I0524 12:49:57.829551  9498 net.cpp:100] Creating Layer conv10/bn
I0524 12:49:57.829557  9498 net.cpp:434] conv10/bn <- conv10
I0524 12:49:57.829563  9498 net.cpp:395] conv10/bn -> conv10 (in-place)
I0524 12:49:57.830169  9498 net.cpp:150] Setting up conv10/bn
I0524 12:49:57.830178  9498 net.cpp:157] Top shape: 2 512 28 28 (802816)
I0524 12:49:57.830181  9498 net.cpp:165] Memory required for data: 619773984
I0524 12:49:57.830188  9498 layer_factory.hpp:77] Creating layer conv10/scale
I0524 12:49:57.830197  9498 net.cpp:100] Creating Layer conv10/scale
I0524 12:49:57.830202  9498 net.cpp:434] conv10/scale <- conv10
I0524 12:49:57.830210  9498 net.cpp:395] conv10/scale -> conv10 (in-place)
I0524 12:49:57.830327  9498 layer_factory.hpp:77] Creating layer conv10/scale
I0524 12:49:57.830655  9498 net.cpp:150] Setting up conv10/scale
I0524 12:49:57.830663  9498 net.cpp:157] Top shape: 2 512 28 28 (802816)
I0524 12:49:57.830667  9498 net.cpp:165] Memory required for data: 622985248
I0524 12:49:57.830672  9498 layer_factory.hpp:77] Creating layer conv10/relu
I0524 12:49:57.830678  9498 net.cpp:100] Creating Layer conv10/relu
I0524 12:49:57.830684  9498 net.cpp:434] conv10/relu <- conv10
I0524 12:49:57.830691  9498 net.cpp:395] conv10/relu -> conv10 (in-place)
I0524 12:49:57.831481  9498 net.cpp:150] Setting up conv10/relu
I0524 12:49:57.831496  9498 net.cpp:157] Top shape: 2 512 28 28 (802816)
I0524 12:49:57.831499  9498 net.cpp:165] Memory required for data: 626196512
I0524 12:49:57.831503  9498 layer_factory.hpp:77] Creating layer conv11/dw
I0524 12:49:57.831513  9498 net.cpp:100] Creating Layer conv11/dw
I0524 12:49:57.831519  9498 net.cpp:434] conv11/dw <- conv10
I0524 12:49:57.831528  9498 net.cpp:408] conv11/dw -> conv11/dw
I0524 12:49:57.832195  9498 net.cpp:150] Setting up conv11/dw
I0524 12:49:57.832204  9498 net.cpp:157] Top shape: 2 512 28 28 (802816)
I0524 12:49:57.832209  9498 net.cpp:165] Memory required for data: 629407776
I0524 12:49:57.832214  9498 layer_factory.hpp:77] Creating layer conv11/dw/bn
I0524 12:49:57.832221  9498 net.cpp:100] Creating Layer conv11/dw/bn
I0524 12:49:57.832224  9498 net.cpp:434] conv11/dw/bn <- conv11/dw
I0524 12:49:57.832232  9498 net.cpp:395] conv11/dw/bn -> conv11/dw (in-place)
I0524 12:49:57.832808  9498 net.cpp:150] Setting up conv11/dw/bn
I0524 12:49:57.832816  9498 net.cpp:157] Top shape: 2 512 28 28 (802816)
I0524 12:49:57.832820  9498 net.cpp:165] Memory required for data: 632619040
I0524 12:49:57.832849  9498 layer_factory.hpp:77] Creating layer conv11/dw/scale
I0524 12:49:57.832855  9498 net.cpp:100] Creating Layer conv11/dw/scale
I0524 12:49:57.832860  9498 net.cpp:434] conv11/dw/scale <- conv11/dw
I0524 12:49:57.832883  9498 net.cpp:395] conv11/dw/scale -> conv11/dw (in-place)
I0524 12:49:57.833017  9498 layer_factory.hpp:77] Creating layer conv11/dw/scale
I0524 12:49:57.833340  9498 net.cpp:150] Setting up conv11/dw/scale
I0524 12:49:57.833348  9498 net.cpp:157] Top shape: 2 512 28 28 (802816)
I0524 12:49:57.833351  9498 net.cpp:165] Memory required for data: 635830304
I0524 12:49:57.833357  9498 layer_factory.hpp:77] Creating layer conv11/dw/relu
I0524 12:49:57.833364  9498 net.cpp:100] Creating Layer conv11/dw/relu
I0524 12:49:57.833369  9498 net.cpp:434] conv11/dw/relu <- conv11/dw
I0524 12:49:57.833376  9498 net.cpp:395] conv11/dw/relu -> conv11/dw (in-place)
I0524 12:49:57.833879  9498 net.cpp:150] Setting up conv11/dw/relu
I0524 12:49:57.833891  9498 net.cpp:157] Top shape: 2 512 28 28 (802816)
I0524 12:49:57.833895  9498 net.cpp:165] Memory required for data: 639041568
I0524 12:49:57.833899  9498 layer_factory.hpp:77] Creating layer conv11
I0524 12:49:57.833911  9498 net.cpp:100] Creating Layer conv11
I0524 12:49:57.833916  9498 net.cpp:434] conv11 <- conv11/dw
I0524 12:49:57.833927  9498 net.cpp:408] conv11 -> conv11
I0524 12:49:57.838970  9498 net.cpp:150] Setting up conv11
I0524 12:49:57.838984  9498 net.cpp:157] Top shape: 2 512 28 28 (802816)
I0524 12:49:57.838986  9498 net.cpp:165] Memory required for data: 642252832
I0524 12:49:57.838991  9498 layer_factory.hpp:77] Creating layer conv11/bn
I0524 12:49:57.839013  9498 net.cpp:100] Creating Layer conv11/bn
I0524 12:49:57.839017  9498 net.cpp:434] conv11/bn <- conv11
I0524 12:49:57.839021  9498 net.cpp:395] conv11/bn -> conv11 (in-place)
I0524 12:49:57.839653  9498 net.cpp:150] Setting up conv11/bn
I0524 12:49:57.839663  9498 net.cpp:157] Top shape: 2 512 28 28 (802816)
I0524 12:49:57.839668  9498 net.cpp:165] Memory required for data: 645464096
I0524 12:49:57.839674  9498 layer_factory.hpp:77] Creating layer conv11/scale
I0524 12:49:57.839684  9498 net.cpp:100] Creating Layer conv11/scale
I0524 12:49:57.839690  9498 net.cpp:434] conv11/scale <- conv11
I0524 12:49:57.839697  9498 net.cpp:395] conv11/scale -> conv11 (in-place)
I0524 12:49:57.839818  9498 layer_factory.hpp:77] Creating layer conv11/scale
I0524 12:49:57.840153  9498 net.cpp:150] Setting up conv11/scale
I0524 12:49:57.840162  9498 net.cpp:157] Top shape: 2 512 28 28 (802816)
I0524 12:49:57.840164  9498 net.cpp:165] Memory required for data: 648675360
I0524 12:49:57.840171  9498 layer_factory.hpp:77] Creating layer conv11/relu
I0524 12:49:57.840181  9498 net.cpp:100] Creating Layer conv11/relu
I0524 12:49:57.840188  9498 net.cpp:434] conv11/relu <- conv11
I0524 12:49:57.840194  9498 net.cpp:395] conv11/relu -> conv11 (in-place)
I0524 12:49:57.841147  9498 net.cpp:150] Setting up conv11/relu
I0524 12:49:57.841161  9498 net.cpp:157] Top shape: 2 512 28 28 (802816)
I0524 12:49:57.841166  9498 net.cpp:165] Memory required for data: 651886624
I0524 12:49:57.841169  9498 layer_factory.hpp:77] Creating layer conv12/dw
I0524 12:49:57.841181  9498 net.cpp:100] Creating Layer conv12/dw
I0524 12:49:57.841187  9498 net.cpp:434] conv12/dw <- conv11
I0524 12:49:57.841194  9498 net.cpp:408] conv12/dw -> conv12/dw
I0524 12:49:57.841859  9498 net.cpp:150] Setting up conv12/dw
I0524 12:49:57.841868  9498 net.cpp:157] Top shape: 2 512 28 28 (802816)
I0524 12:49:57.841871  9498 net.cpp:165] Memory required for data: 655097888
I0524 12:49:57.841876  9498 layer_factory.hpp:77] Creating layer conv12/dw/bn
I0524 12:49:57.841884  9498 net.cpp:100] Creating Layer conv12/dw/bn
I0524 12:49:57.841890  9498 net.cpp:434] conv12/dw/bn <- conv12/dw
I0524 12:49:57.841897  9498 net.cpp:395] conv12/dw/bn -> conv12/dw (in-place)
I0524 12:49:57.842496  9498 net.cpp:150] Setting up conv12/dw/bn
I0524 12:49:57.842505  9498 net.cpp:157] Top shape: 2 512 28 28 (802816)
I0524 12:49:57.842507  9498 net.cpp:165] Memory required for data: 658309152
I0524 12:49:57.842514  9498 layer_factory.hpp:77] Creating layer conv12/dw/scale
I0524 12:49:57.842522  9498 net.cpp:100] Creating Layer conv12/dw/scale
I0524 12:49:57.842550  9498 net.cpp:434] conv12/dw/scale <- conv12/dw
I0524 12:49:57.842559  9498 net.cpp:395] conv12/dw/scale -> conv12/dw (in-place)
I0524 12:49:57.842690  9498 layer_factory.hpp:77] Creating layer conv12/dw/scale
I0524 12:49:57.843021  9498 net.cpp:150] Setting up conv12/dw/scale
I0524 12:49:57.843030  9498 net.cpp:157] Top shape: 2 512 28 28 (802816)
I0524 12:49:57.843034  9498 net.cpp:165] Memory required for data: 661520416
I0524 12:49:57.843039  9498 layer_factory.hpp:77] Creating layer conv12/dw/relu
I0524 12:49:57.843045  9498 net.cpp:100] Creating Layer conv12/dw/relu
I0524 12:49:57.843051  9498 net.cpp:434] conv12/dw/relu <- conv12/dw
I0524 12:49:57.843061  9498 net.cpp:395] conv12/dw/relu -> conv12/dw (in-place)
I0524 12:49:57.846335  9498 net.cpp:150] Setting up conv12/dw/relu
I0524 12:49:57.846349  9498 net.cpp:157] Top shape: 2 512 28 28 (802816)
I0524 12:49:57.846352  9498 net.cpp:165] Memory required for data: 664731680
I0524 12:49:57.846355  9498 layer_factory.hpp:77] Creating layer conv12/dw_conv12/dw/relu_0_split
I0524 12:49:57.846360  9498 net.cpp:100] Creating Layer conv12/dw_conv12/dw/relu_0_split
I0524 12:49:57.846380  9498 net.cpp:434] conv12/dw_conv12/dw/relu_0_split <- conv12/dw
I0524 12:49:57.846397  9498 net.cpp:408] conv12/dw_conv12/dw/relu_0_split -> conv12/dw_conv12/dw/relu_0_split_0
I0524 12:49:57.846405  9498 net.cpp:408] conv12/dw_conv12/dw/relu_0_split -> conv12/dw_conv12/dw/relu_0_split_1
I0524 12:49:57.846417  9498 net.cpp:408] conv12/dw_conv12/dw/relu_0_split -> conv12/dw_conv12/dw/relu_0_split_2
I0524 12:49:57.846628  9498 net.cpp:150] Setting up conv12/dw_conv12/dw/relu_0_split
I0524 12:49:57.846637  9498 net.cpp:157] Top shape: 2 512 28 28 (802816)
I0524 12:49:57.846640  9498 net.cpp:157] Top shape: 2 512 28 28 (802816)
I0524 12:49:57.846643  9498 net.cpp:157] Top shape: 2 512 28 28 (802816)
I0524 12:49:57.846647  9498 net.cpp:165] Memory required for data: 674365472
I0524 12:49:57.846650  9498 layer_factory.hpp:77] Creating layer sample_pooling
I0524 12:49:57.846662  9498 net.cpp:100] Creating Layer sample_pooling
I0524 12:49:57.846668  9498 net.cpp:434] sample_pooling <- conv12/dw_conv12/dw/relu_0_split_0
I0524 12:49:57.846676  9498 net.cpp:408] sample_pooling -> sample_pooling
I0524 12:49:59.284809  9498 net.cpp:150] Setting up sample_pooling
I0524 12:49:59.284832  9498 net.cpp:157] Top shape: 2 512 14 14 (200704)
I0524 12:49:59.284835  9498 net.cpp:165] Memory required for data: 675168288
I0524 12:49:59.284844  9498 layer_factory.hpp:77] Creating layer conv12
I0524 12:49:59.284859  9498 net.cpp:100] Creating Layer conv12
I0524 12:49:59.284865  9498 net.cpp:434] conv12 <- sample_pooling
I0524 12:49:59.284875  9498 net.cpp:408] conv12 -> conv12
I0524 12:49:59.291507  9498 net.cpp:150] Setting up conv12
I0524 12:49:59.291527  9498 net.cpp:157] Top shape: 2 1024 14 14 (401408)
I0524 12:49:59.291529  9498 net.cpp:165] Memory required for data: 676773920
I0524 12:49:59.291538  9498 layer_factory.hpp:77] Creating layer conv12/bn
I0524 12:49:59.291544  9498 net.cpp:100] Creating Layer conv12/bn
I0524 12:49:59.291551  9498 net.cpp:434] conv12/bn <- conv12
I0524 12:49:59.291559  9498 net.cpp:395] conv12/bn -> conv12 (in-place)
I0524 12:49:59.292177  9498 net.cpp:150] Setting up conv12/bn
I0524 12:49:59.292188  9498 net.cpp:157] Top shape: 2 1024 14 14 (401408)
I0524 12:49:59.292192  9498 net.cpp:165] Memory required for data: 678379552
I0524 12:49:59.292198  9498 layer_factory.hpp:77] Creating layer conv12/scale
I0524 12:49:59.292205  9498 net.cpp:100] Creating Layer conv12/scale
I0524 12:49:59.292209  9498 net.cpp:434] conv12/scale <- conv12
I0524 12:49:59.292215  9498 net.cpp:395] conv12/scale -> conv12 (in-place)
I0524 12:49:59.292361  9498 layer_factory.hpp:77] Creating layer conv12/scale
I0524 12:49:59.292667  9498 net.cpp:150] Setting up conv12/scale
I0524 12:49:59.292675  9498 net.cpp:157] Top shape: 2 1024 14 14 (401408)
I0524 12:49:59.292678  9498 net.cpp:165] Memory required for data: 679985184
I0524 12:49:59.292683  9498 layer_factory.hpp:77] Creating layer conv12/relu
I0524 12:49:59.292707  9498 net.cpp:100] Creating Layer conv12/relu
I0524 12:49:59.292711  9498 net.cpp:434] conv12/relu <- conv12
I0524 12:49:59.292714  9498 net.cpp:395] conv12/relu -> conv12 (in-place)
I0524 12:49:59.293190  9498 net.cpp:150] Setting up conv12/relu
I0524 12:49:59.293202  9498 net.cpp:157] Top shape: 2 1024 14 14 (401408)
I0524 12:49:59.293205  9498 net.cpp:165] Memory required for data: 681590816
I0524 12:49:59.293210  9498 layer_factory.hpp:77] Creating layer conv13/dw
I0524 12:49:59.293220  9498 net.cpp:100] Creating Layer conv13/dw
I0524 12:49:59.293222  9498 net.cpp:434] conv13/dw <- conv12
I0524 12:49:59.293227  9498 net.cpp:408] conv13/dw -> conv13/dw
I0524 12:49:59.293798  9498 net.cpp:150] Setting up conv13/dw
I0524 12:49:59.293807  9498 net.cpp:157] Top shape: 2 1024 14 14 (401408)
I0524 12:49:59.293810  9498 net.cpp:165] Memory required for data: 683196448
I0524 12:49:59.293814  9498 layer_factory.hpp:77] Creating layer conv13/dw/bn
I0524 12:49:59.293819  9498 net.cpp:100] Creating Layer conv13/dw/bn
I0524 12:49:59.293823  9498 net.cpp:434] conv13/dw/bn <- conv13/dw
I0524 12:49:59.293828  9498 net.cpp:395] conv13/dw/bn -> conv13/dw (in-place)
I0524 12:49:59.294363  9498 net.cpp:150] Setting up conv13/dw/bn
I0524 12:49:59.294373  9498 net.cpp:157] Top shape: 2 1024 14 14 (401408)
I0524 12:49:59.294375  9498 net.cpp:165] Memory required for data: 684802080
I0524 12:49:59.294381  9498 layer_factory.hpp:77] Creating layer conv13/dw/scale
I0524 12:49:59.294386  9498 net.cpp:100] Creating Layer conv13/dw/scale
I0524 12:49:59.294390  9498 net.cpp:434] conv13/dw/scale <- conv13/dw
I0524 12:49:59.294396  9498 net.cpp:395] conv13/dw/scale -> conv13/dw (in-place)
I0524 12:49:59.294541  9498 layer_factory.hpp:77] Creating layer conv13/dw/scale
I0524 12:49:59.294838  9498 net.cpp:150] Setting up conv13/dw/scale
I0524 12:49:59.294847  9498 net.cpp:157] Top shape: 2 1024 14 14 (401408)
I0524 12:49:59.294849  9498 net.cpp:165] Memory required for data: 686407712
I0524 12:49:59.294855  9498 layer_factory.hpp:77] Creating layer conv13/dw/relu
I0524 12:49:59.294862  9498 net.cpp:100] Creating Layer conv13/dw/relu
I0524 12:49:59.294867  9498 net.cpp:434] conv13/dw/relu <- conv13/dw
I0524 12:49:59.294874  9498 net.cpp:395] conv13/dw/relu -> conv13/dw (in-place)
I0524 12:49:59.295717  9498 net.cpp:150] Setting up conv13/dw/relu
I0524 12:49:59.295729  9498 net.cpp:157] Top shape: 2 1024 14 14 (401408)
I0524 12:49:59.295732  9498 net.cpp:165] Memory required for data: 688013344
I0524 12:49:59.295735  9498 layer_factory.hpp:77] Creating layer conv13
I0524 12:49:59.295745  9498 net.cpp:100] Creating Layer conv13
I0524 12:49:59.295750  9498 net.cpp:434] conv13 <- conv13/dw
I0524 12:49:59.295758  9498 net.cpp:408] conv13 -> conv13
I0524 12:49:59.305994  9498 net.cpp:150] Setting up conv13
I0524 12:49:59.306010  9498 net.cpp:157] Top shape: 2 1024 14 14 (401408)
I0524 12:49:59.306012  9498 net.cpp:165] Memory required for data: 689618976
I0524 12:49:59.306020  9498 layer_factory.hpp:77] Creating layer conv13/bn
I0524 12:49:59.306025  9498 net.cpp:100] Creating Layer conv13/bn
I0524 12:49:59.306030  9498 net.cpp:434] conv13/bn <- conv13
I0524 12:49:59.306033  9498 net.cpp:395] conv13/bn -> conv13 (in-place)
I0524 12:49:59.306627  9498 net.cpp:150] Setting up conv13/bn
I0524 12:49:59.306636  9498 net.cpp:157] Top shape: 2 1024 14 14 (401408)
I0524 12:49:59.306640  9498 net.cpp:165] Memory required for data: 691224608
I0524 12:49:59.306648  9498 layer_factory.hpp:77] Creating layer conv13/scale
I0524 12:49:59.306656  9498 net.cpp:100] Creating Layer conv13/scale
I0524 12:49:59.306660  9498 net.cpp:434] conv13/scale <- conv13
I0524 12:49:59.306665  9498 net.cpp:395] conv13/scale -> conv13 (in-place)
I0524 12:49:59.306809  9498 layer_factory.hpp:77] Creating layer conv13/scale
I0524 12:49:59.307126  9498 net.cpp:150] Setting up conv13/scale
I0524 12:49:59.307137  9498 net.cpp:157] Top shape: 2 1024 14 14 (401408)
I0524 12:49:59.307139  9498 net.cpp:165] Memory required for data: 692830240
I0524 12:49:59.307165  9498 layer_factory.hpp:77] Creating layer conv13/relu
I0524 12:49:59.307171  9498 net.cpp:100] Creating Layer conv13/relu
I0524 12:49:59.307175  9498 net.cpp:434] conv13/relu <- conv13
I0524 12:49:59.307179  9498 net.cpp:395] conv13/relu -> conv13 (in-place)
I0524 12:49:59.307699  9498 net.cpp:150] Setting up conv13/relu
I0524 12:49:59.307711  9498 net.cpp:157] Top shape: 2 1024 14 14 (401408)
I0524 12:49:59.307713  9498 net.cpp:165] Memory required for data: 694435872
I0524 12:49:59.307718  9498 layer_factory.hpp:77] Creating layer ip6
I0524 12:49:59.307726  9498 net.cpp:100] Creating Layer ip6
I0524 12:49:59.307730  9498 net.cpp:434] ip6 <- conv13
I0524 12:49:59.307736  9498 net.cpp:408] ip6 -> ip6
I0524 12:49:59.318797  9498 net.cpp:150] Setting up ip6
I0524 12:49:59.318820  9498 net.cpp:157] Top shape: 2 256 14 14 (100352)
I0524 12:49:59.318825  9498 net.cpp:165] Memory required for data: 694837280
I0524 12:49:59.318832  9498 layer_factory.hpp:77] Creating layer relu6
I0524 12:49:59.318840  9498 net.cpp:100] Creating Layer relu6
I0524 12:49:59.318843  9498 net.cpp:434] relu6 <- ip6
I0524 12:49:59.318850  9498 net.cpp:395] relu6 -> ip6 (in-place)
I0524 12:49:59.324936  9498 net.cpp:150] Setting up relu6
I0524 12:49:59.324955  9498 net.cpp:157] Top shape: 2 256 14 14 (100352)
I0524 12:49:59.324959  9498 net.cpp:165] Memory required for data: 695238688
I0524 12:49:59.324964  9498 layer_factory.hpp:77] Creating layer ip7
I0524 12:49:59.324976  9498 net.cpp:100] Creating Layer ip7
I0524 12:49:59.324980  9498 net.cpp:434] ip7 <- ip6
I0524 12:49:59.324988  9498 net.cpp:408] ip7 -> ip7
I0524 12:49:59.326300  9498 net.cpp:150] Setting up ip7
I0524 12:49:59.326311  9498 net.cpp:157] Top shape: 2 512 14 14 (200704)
I0524 12:49:59.326314  9498 net.cpp:165] Memory required for data: 696041504
I0524 12:49:59.326320  9498 layer_factory.hpp:77] Creating layer relu7
I0524 12:49:59.326341  9498 net.cpp:100] Creating Layer relu7
I0524 12:49:59.326345  9498 net.cpp:434] relu7 <- ip7
I0524 12:49:59.326349  9498 net.cpp:395] relu7 -> ip7 (in-place)
I0524 12:49:59.326860  9498 net.cpp:150] Setting up relu7
I0524 12:49:59.326871  9498 net.cpp:157] Top shape: 2 512 14 14 (200704)
I0524 12:49:59.326874  9498 net.cpp:165] Memory required for data: 696844320
I0524 12:49:59.326876  9498 layer_factory.hpp:77] Creating layer ip7_relu7_0_split
I0524 12:49:59.326881  9498 net.cpp:100] Creating Layer ip7_relu7_0_split
I0524 12:49:59.326885  9498 net.cpp:434] ip7_relu7_0_split <- ip7
I0524 12:49:59.326891  9498 net.cpp:408] ip7_relu7_0_split -> ip7_relu7_0_split_0
I0524 12:49:59.326897  9498 net.cpp:408] ip7_relu7_0_split -> ip7_relu7_0_split_1
I0524 12:49:59.326903  9498 net.cpp:408] ip7_relu7_0_split -> ip7_relu7_0_split_2
I0524 12:49:59.326908  9498 net.cpp:408] ip7_relu7_0_split -> ip7_relu7_0_split_3
I0524 12:49:59.327050  9498 net.cpp:150] Setting up ip7_relu7_0_split
I0524 12:49:59.327056  9498 net.cpp:157] Top shape: 2 512 14 14 (200704)
I0524 12:49:59.327059  9498 net.cpp:157] Top shape: 2 512 14 14 (200704)
I0524 12:49:59.327064  9498 net.cpp:157] Top shape: 2 512 14 14 (200704)
I0524 12:49:59.327066  9498 net.cpp:157] Top shape: 2 512 14 14 (200704)
I0524 12:49:59.327069  9498 net.cpp:165] Memory required for data: 700055584
I0524 12:49:59.327071  9498 layer_factory.hpp:77] Creating layer conv6_1
I0524 12:49:59.327080  9498 net.cpp:100] Creating Layer conv6_1
I0524 12:49:59.327082  9498 net.cpp:434] conv6_1 <- ip7_relu7_0_split_0
I0524 12:49:59.327088  9498 net.cpp:408] conv6_1 -> conv6_1
I0524 12:49:59.330667  9498 net.cpp:150] Setting up conv6_1
I0524 12:49:59.330682  9498 net.cpp:157] Top shape: 2 256 14 14 (100352)
I0524 12:49:59.330684  9498 net.cpp:165] Memory required for data: 700456992
I0524 12:49:59.330690  9498 layer_factory.hpp:77] Creating layer conv6_1_relu
I0524 12:49:59.330695  9498 net.cpp:100] Creating Layer conv6_1_relu
I0524 12:49:59.330700  9498 net.cpp:434] conv6_1_relu <- conv6_1
I0524 12:49:59.330704  9498 net.cpp:395] conv6_1_relu -> conv6_1 (in-place)
I0524 12:49:59.331598  9498 net.cpp:150] Setting up conv6_1_relu
I0524 12:49:59.331627  9498 net.cpp:157] Top shape: 2 256 14 14 (100352)
I0524 12:49:59.331631  9498 net.cpp:165] Memory required for data: 700858400
I0524 12:49:59.331634  9498 layer_factory.hpp:77] Creating layer conv6_2
I0524 12:49:59.331643  9498 net.cpp:100] Creating Layer conv6_2
I0524 12:49:59.331646  9498 net.cpp:434] conv6_2 <- conv6_1
I0524 12:49:59.331655  9498 net.cpp:408] conv6_2 -> conv6_2
I0524 12:49:59.337116  9498 net.cpp:150] Setting up conv6_2
I0524 12:49:59.337131  9498 net.cpp:157] Top shape: 2 256 7 7 (25088)
I0524 12:49:59.337133  9498 net.cpp:165] Memory required for data: 700958752
I0524 12:49:59.337139  9498 layer_factory.hpp:77] Creating layer conv6_2_relu
I0524 12:49:59.337144  9498 net.cpp:100] Creating Layer conv6_2_relu
I0524 12:49:59.337148  9498 net.cpp:434] conv6_2_relu <- conv6_2
I0524 12:49:59.337153  9498 net.cpp:395] conv6_2_relu -> conv6_2 (in-place)
I0524 12:49:59.337641  9498 net.cpp:150] Setting up conv6_2_relu
I0524 12:49:59.337651  9498 net.cpp:157] Top shape: 2 256 7 7 (25088)
I0524 12:49:59.337654  9498 net.cpp:165] Memory required for data: 701059104
I0524 12:49:59.337657  9498 layer_factory.hpp:77] Creating layer conv6_2_conv6_2_relu_0_split
I0524 12:49:59.337664  9498 net.cpp:100] Creating Layer conv6_2_conv6_2_relu_0_split
I0524 12:49:59.337667  9498 net.cpp:434] conv6_2_conv6_2_relu_0_split <- conv6_2
I0524 12:49:59.337672  9498 net.cpp:408] conv6_2_conv6_2_relu_0_split -> conv6_2_conv6_2_relu_0_split_0
I0524 12:49:59.337678  9498 net.cpp:408] conv6_2_conv6_2_relu_0_split -> conv6_2_conv6_2_relu_0_split_1
I0524 12:49:59.337685  9498 net.cpp:408] conv6_2_conv6_2_relu_0_split -> conv6_2_conv6_2_relu_0_split_2
I0524 12:49:59.337690  9498 net.cpp:408] conv6_2_conv6_2_relu_0_split -> conv6_2_conv6_2_relu_0_split_3
I0524 12:49:59.337832  9498 net.cpp:150] Setting up conv6_2_conv6_2_relu_0_split
I0524 12:49:59.337837  9498 net.cpp:157] Top shape: 2 256 7 7 (25088)
I0524 12:49:59.337841  9498 net.cpp:157] Top shape: 2 256 7 7 (25088)
I0524 12:49:59.337844  9498 net.cpp:157] Top shape: 2 256 7 7 (25088)
I0524 12:49:59.337847  9498 net.cpp:157] Top shape: 2 256 7 7 (25088)
I0524 12:49:59.337849  9498 net.cpp:165] Memory required for data: 701460512
I0524 12:49:59.337852  9498 layer_factory.hpp:77] Creating layer conv7_1
I0524 12:49:59.337862  9498 net.cpp:100] Creating Layer conv7_1
I0524 12:49:59.337867  9498 net.cpp:434] conv7_1 <- conv6_2_conv6_2_relu_0_split_0
I0524 12:49:59.337874  9498 net.cpp:408] conv7_1 -> conv7_1
I0524 12:49:59.345412  9498 net.cpp:150] Setting up conv7_1
I0524 12:49:59.345425  9498 net.cpp:157] Top shape: 2 128 7 7 (12544)
I0524 12:49:59.345428  9498 net.cpp:165] Memory required for data: 701510688
I0524 12:49:59.345434  9498 layer_factory.hpp:77] Creating layer conv7_1_relu
I0524 12:49:59.345440  9498 net.cpp:100] Creating Layer conv7_1_relu
I0524 12:49:59.345444  9498 net.cpp:434] conv7_1_relu <- conv7_1
I0524 12:49:59.345450  9498 net.cpp:395] conv7_1_relu -> conv7_1 (in-place)
I0524 12:49:59.345963  9498 net.cpp:150] Setting up conv7_1_relu
I0524 12:49:59.345974  9498 net.cpp:157] Top shape: 2 128 7 7 (12544)
I0524 12:49:59.345978  9498 net.cpp:165] Memory required for data: 701560864
I0524 12:49:59.345981  9498 layer_factory.hpp:77] Creating layer conv7_2
I0524 12:49:59.345990  9498 net.cpp:100] Creating Layer conv7_2
I0524 12:49:59.345995  9498 net.cpp:434] conv7_2 <- conv7_1
I0524 12:49:59.346000  9498 net.cpp:408] conv7_2 -> conv7_2
I0524 12:49:59.350406  9498 net.cpp:150] Setting up conv7_2
I0524 12:49:59.350419  9498 net.cpp:157] Top shape: 2 256 4 4 (8192)
I0524 12:49:59.350422  9498 net.cpp:165] Memory required for data: 701593632
I0524 12:49:59.350427  9498 layer_factory.hpp:77] Creating layer conv7_2_relu
I0524 12:49:59.350448  9498 net.cpp:100] Creating Layer conv7_2_relu
I0524 12:49:59.350451  9498 net.cpp:434] conv7_2_relu <- conv7_2
I0524 12:49:59.350456  9498 net.cpp:395] conv7_2_relu -> conv7_2 (in-place)
I0524 12:49:59.351269  9498 net.cpp:150] Setting up conv7_2_relu
I0524 12:49:59.351282  9498 net.cpp:157] Top shape: 2 256 4 4 (8192)
I0524 12:49:59.351298  9498 net.cpp:165] Memory required for data: 701626400
I0524 12:49:59.351301  9498 layer_factory.hpp:77] Creating layer conv7_2_conv7_2_relu_0_split
I0524 12:49:59.351307  9498 net.cpp:100] Creating Layer conv7_2_conv7_2_relu_0_split
I0524 12:49:59.351310  9498 net.cpp:434] conv7_2_conv7_2_relu_0_split <- conv7_2
I0524 12:49:59.351316  9498 net.cpp:408] conv7_2_conv7_2_relu_0_split -> conv7_2_conv7_2_relu_0_split_0
I0524 12:49:59.351323  9498 net.cpp:408] conv7_2_conv7_2_relu_0_split -> conv7_2_conv7_2_relu_0_split_1
I0524 12:49:59.351327  9498 net.cpp:408] conv7_2_conv7_2_relu_0_split -> conv7_2_conv7_2_relu_0_split_2
I0524 12:49:59.351476  9498 net.cpp:150] Setting up conv7_2_conv7_2_relu_0_split
I0524 12:49:59.351482  9498 net.cpp:157] Top shape: 2 256 4 4 (8192)
I0524 12:49:59.351486  9498 net.cpp:157] Top shape: 2 256 4 4 (8192)
I0524 12:49:59.351490  9498 net.cpp:157] Top shape: 2 256 4 4 (8192)
I0524 12:49:59.351492  9498 net.cpp:165] Memory required for data: 701724704
I0524 12:49:59.351495  9498 layer_factory.hpp:77] Creating layer conv12_norm
I0524 12:49:59.351501  9498 net.cpp:100] Creating Layer conv12_norm
I0524 12:49:59.351505  9498 net.cpp:434] conv12_norm <- conv12/dw_conv12/dw/relu_0_split_1
I0524 12:49:59.351511  9498 net.cpp:408] conv12_norm -> conv12_norm
I0524 12:49:59.352061  9498 net.cpp:150] Setting up conv12_norm
I0524 12:49:59.352072  9498 net.cpp:157] Top shape: 2 512 28 28 (802816)
I0524 12:49:59.352074  9498 net.cpp:165] Memory required for data: 704935968
I0524 12:49:59.352079  9498 layer_factory.hpp:77] Creating layer conv12_norm_conv12_norm_0_split
I0524 12:49:59.352094  9498 net.cpp:100] Creating Layer conv12_norm_conv12_norm_0_split
I0524 12:49:59.352098  9498 net.cpp:434] conv12_norm_conv12_norm_0_split <- conv12_norm
I0524 12:49:59.352103  9498 net.cpp:408] conv12_norm_conv12_norm_0_split -> conv12_norm_conv12_norm_0_split_0
I0524 12:49:59.352108  9498 net.cpp:408] conv12_norm_conv12_norm_0_split -> conv12_norm_conv12_norm_0_split_1
I0524 12:49:59.352170  9498 net.cpp:150] Setting up conv12_norm_conv12_norm_0_split
I0524 12:49:59.352177  9498 net.cpp:157] Top shape: 2 512 28 28 (802816)
I0524 12:49:59.352180  9498 net.cpp:157] Top shape: 2 512 28 28 (802816)
I0524 12:49:59.352182  9498 net.cpp:165] Memory required for data: 711358496
I0524 12:49:59.352186  9498 layer_factory.hpp:77] Creating layer conv12_norm_mbox_loc
I0524 12:49:59.352196  9498 net.cpp:100] Creating Layer conv12_norm_mbox_loc
I0524 12:49:59.352200  9498 net.cpp:434] conv12_norm_mbox_loc <- conv12_norm_conv12_norm_0_split_0
I0524 12:49:59.352205  9498 net.cpp:408] conv12_norm_mbox_loc -> conv12_norm_mbox_loc
I0524 12:49:59.360116  9498 net.cpp:150] Setting up conv12_norm_mbox_loc
I0524 12:49:59.360131  9498 net.cpp:157] Top shape: 2 24 28 28 (37632)
I0524 12:49:59.360133  9498 net.cpp:165] Memory required for data: 711509024
I0524 12:49:59.360141  9498 layer_factory.hpp:77] Creating layer conv12_norm_mbox_loc_perm
I0524 12:49:59.360148  9498 net.cpp:100] Creating Layer conv12_norm_mbox_loc_perm
I0524 12:49:59.360152  9498 net.cpp:434] conv12_norm_mbox_loc_perm <- conv12_norm_mbox_loc
I0524 12:49:59.360157  9498 net.cpp:408] conv12_norm_mbox_loc_perm -> conv12_norm_mbox_loc_perm
I0524 12:49:59.360411  9498 net.cpp:150] Setting up conv12_norm_mbox_loc_perm
I0524 12:49:59.360417  9498 net.cpp:157] Top shape: 2 28 28 24 (37632)
I0524 12:49:59.360421  9498 net.cpp:165] Memory required for data: 711659552
I0524 12:49:59.360424  9498 layer_factory.hpp:77] Creating layer conv12_norm_mbox_loc_flat
I0524 12:49:59.360430  9498 net.cpp:100] Creating Layer conv12_norm_mbox_loc_flat
I0524 12:49:59.360433  9498 net.cpp:434] conv12_norm_mbox_loc_flat <- conv12_norm_mbox_loc_perm
I0524 12:49:59.360438  9498 net.cpp:408] conv12_norm_mbox_loc_flat -> conv12_norm_mbox_loc_flat
I0524 12:49:59.360473  9498 net.cpp:150] Setting up conv12_norm_mbox_loc_flat
I0524 12:49:59.360477  9498 net.cpp:157] Top shape: 2 18816 (37632)
I0524 12:49:59.360479  9498 net.cpp:165] Memory required for data: 711810080
I0524 12:49:59.360496  9498 layer_factory.hpp:77] Creating layer conv12_norm_mbox_conf
I0524 12:49:59.360508  9498 net.cpp:100] Creating Layer conv12_norm_mbox_conf
I0524 12:49:59.360512  9498 net.cpp:434] conv12_norm_mbox_conf <- conv12_norm_conv12_norm_0_split_1
I0524 12:49:59.360517  9498 net.cpp:408] conv12_norm_mbox_conf -> conv12_norm_mbox_conf
I0524 12:49:59.364854  9498 net.cpp:150] Setting up conv12_norm_mbox_conf
I0524 12:49:59.364867  9498 net.cpp:157] Top shape: 2 36 28 28 (56448)
I0524 12:49:59.364871  9498 net.cpp:165] Memory required for data: 712035872
I0524 12:49:59.364892  9498 layer_factory.hpp:77] Creating layer conv12_norm_mbox_conf_perm
I0524 12:49:59.364899  9498 net.cpp:100] Creating Layer conv12_norm_mbox_conf_perm
I0524 12:49:59.364903  9498 net.cpp:434] conv12_norm_mbox_conf_perm <- conv12_norm_mbox_conf
I0524 12:49:59.364908  9498 net.cpp:408] conv12_norm_mbox_conf_perm -> conv12_norm_mbox_conf_perm
I0524 12:49:59.365156  9498 net.cpp:150] Setting up conv12_norm_mbox_conf_perm
I0524 12:49:59.365164  9498 net.cpp:157] Top shape: 2 28 28 36 (56448)
I0524 12:49:59.365165  9498 net.cpp:165] Memory required for data: 712261664
I0524 12:49:59.365168  9498 layer_factory.hpp:77] Creating layer conv12_norm_mbox_conf_flat
I0524 12:49:59.365175  9498 net.cpp:100] Creating Layer conv12_norm_mbox_conf_flat
I0524 12:49:59.365177  9498 net.cpp:434] conv12_norm_mbox_conf_flat <- conv12_norm_mbox_conf_perm
I0524 12:49:59.365181  9498 net.cpp:408] conv12_norm_mbox_conf_flat -> conv12_norm_mbox_conf_flat
I0524 12:49:59.365231  9498 net.cpp:150] Setting up conv12_norm_mbox_conf_flat
I0524 12:49:59.365237  9498 net.cpp:157] Top shape: 2 28224 (56448)
I0524 12:49:59.365240  9498 net.cpp:165] Memory required for data: 712487456
I0524 12:49:59.365242  9498 layer_factory.hpp:77] Creating layer ip7_mbox_loc
I0524 12:49:59.365250  9498 net.cpp:100] Creating Layer ip7_mbox_loc
I0524 12:49:59.365253  9498 net.cpp:434] ip7_mbox_loc <- ip7_relu7_0_split_1
I0524 12:49:59.365260  9498 net.cpp:408] ip7_mbox_loc -> ip7_mbox_loc
I0524 12:49:59.368566  9498 net.cpp:150] Setting up ip7_mbox_loc
I0524 12:49:59.368579  9498 net.cpp:157] Top shape: 2 24 14 14 (9408)
I0524 12:49:59.368582  9498 net.cpp:165] Memory required for data: 712525088
I0524 12:49:59.368589  9498 layer_factory.hpp:77] Creating layer ip7_mbox_loc_perm
I0524 12:49:59.368597  9498 net.cpp:100] Creating Layer ip7_mbox_loc_perm
I0524 12:49:59.368600  9498 net.cpp:434] ip7_mbox_loc_perm <- ip7_mbox_loc
I0524 12:49:59.368604  9498 net.cpp:408] ip7_mbox_loc_perm -> ip7_mbox_loc_perm
I0524 12:49:59.368851  9498 net.cpp:150] Setting up ip7_mbox_loc_perm
I0524 12:49:59.368857  9498 net.cpp:157] Top shape: 2 14 14 24 (9408)
I0524 12:49:59.368860  9498 net.cpp:165] Memory required for data: 712562720
I0524 12:49:59.368863  9498 layer_factory.hpp:77] Creating layer ip7_mbox_loc_flat
I0524 12:49:59.368870  9498 net.cpp:100] Creating Layer ip7_mbox_loc_flat
I0524 12:49:59.368872  9498 net.cpp:434] ip7_mbox_loc_flat <- ip7_mbox_loc_perm
I0524 12:49:59.368876  9498 net.cpp:408] ip7_mbox_loc_flat -> ip7_mbox_loc_flat
I0524 12:49:59.368911  9498 net.cpp:150] Setting up ip7_mbox_loc_flat
I0524 12:49:59.368918  9498 net.cpp:157] Top shape: 2 4704 (9408)
I0524 12:49:59.368921  9498 net.cpp:165] Memory required for data: 712600352
I0524 12:49:59.368924  9498 layer_factory.hpp:77] Creating layer ip7_mbox_conf
I0524 12:49:59.368933  9498 net.cpp:100] Creating Layer ip7_mbox_conf
I0524 12:49:59.368937  9498 net.cpp:434] ip7_mbox_conf <- ip7_relu7_0_split_2
I0524 12:49:59.368943  9498 net.cpp:408] ip7_mbox_conf -> ip7_mbox_conf
I0524 12:49:59.372448  9498 net.cpp:150] Setting up ip7_mbox_conf
I0524 12:49:59.372462  9498 net.cpp:157] Top shape: 2 36 14 14 (14112)
I0524 12:49:59.372464  9498 net.cpp:165] Memory required for data: 712656800
I0524 12:49:59.372471  9498 layer_factory.hpp:77] Creating layer ip7_mbox_conf_perm
I0524 12:49:59.372478  9498 net.cpp:100] Creating Layer ip7_mbox_conf_perm
I0524 12:49:59.372481  9498 net.cpp:434] ip7_mbox_conf_perm <- ip7_mbox_conf
I0524 12:49:59.372486  9498 net.cpp:408] ip7_mbox_conf_perm -> ip7_mbox_conf_perm
I0524 12:49:59.372732  9498 net.cpp:150] Setting up ip7_mbox_conf_perm
I0524 12:49:59.372740  9498 net.cpp:157] Top shape: 2 14 14 36 (14112)
I0524 12:49:59.372741  9498 net.cpp:165] Memory required for data: 712713248
I0524 12:49:59.372745  9498 layer_factory.hpp:77] Creating layer ip7_mbox_conf_flat
I0524 12:49:59.372750  9498 net.cpp:100] Creating Layer ip7_mbox_conf_flat
I0524 12:49:59.372751  9498 net.cpp:434] ip7_mbox_conf_flat <- ip7_mbox_conf_perm
I0524 12:49:59.372757  9498 net.cpp:408] ip7_mbox_conf_flat -> ip7_mbox_conf_flat
I0524 12:49:59.372807  9498 net.cpp:150] Setting up ip7_mbox_conf_flat
I0524 12:49:59.372812  9498 net.cpp:157] Top shape: 2 7056 (14112)
I0524 12:49:59.372814  9498 net.cpp:165] Memory required for data: 712769696
I0524 12:49:59.372819  9498 layer_factory.hpp:77] Creating layer conv12/dw_mbox_priorbox
I0524 12:49:59.372826  9498 net.cpp:100] Creating Layer conv12/dw_mbox_priorbox
I0524 12:49:59.372829  9498 net.cpp:434] conv12/dw_mbox_priorbox <- conv12/dw_conv12/dw/relu_0_split_2
I0524 12:49:59.372834  9498 net.cpp:434] conv12/dw_mbox_priorbox <- data_data_0_split_1
I0524 12:49:59.372840  9498 net.cpp:408] conv12/dw_mbox_priorbox -> conv12/dw_mbox_priorbox
I0524 12:49:59.372881  9498 net.cpp:150] Setting up conv12/dw_mbox_priorbox
I0524 12:49:59.372886  9498 net.cpp:157] Top shape: 1 2 18816 (37632)
I0524 12:49:59.372889  9498 net.cpp:165] Memory required for data: 712920224
I0524 12:49:59.372891  9498 layer_factory.hpp:77] Creating layer ip7_mbox_priorbox
I0524 12:49:59.372896  9498 net.cpp:100] Creating Layer ip7_mbox_priorbox
I0524 12:49:59.372900  9498 net.cpp:434] ip7_mbox_priorbox <- ip7_relu7_0_split_3
I0524 12:49:59.372903  9498 net.cpp:434] ip7_mbox_priorbox <- data_data_0_split_2
I0524 12:49:59.372908  9498 net.cpp:408] ip7_mbox_priorbox -> ip7_mbox_priorbox
I0524 12:49:59.372946  9498 net.cpp:150] Setting up ip7_mbox_priorbox
I0524 12:49:59.372949  9498 net.cpp:157] Top shape: 1 2 4704 (9408)
I0524 12:49:59.372952  9498 net.cpp:165] Memory required for data: 712957856
I0524 12:49:59.372954  9498 layer_factory.hpp:77] Creating layer conv6_2_mbox_loc
I0524 12:49:59.372963  9498 net.cpp:100] Creating Layer conv6_2_mbox_loc
I0524 12:49:59.372967  9498 net.cpp:434] conv6_2_mbox_loc <- conv6_2_conv6_2_relu_0_split_1
I0524 12:49:59.372972  9498 net.cpp:408] conv6_2_mbox_loc -> conv6_2_mbox_loc
I0524 12:49:59.381004  9498 net.cpp:150] Setting up conv6_2_mbox_loc
I0524 12:49:59.381019  9498 net.cpp:157] Top shape: 2 24 7 7 (2352)
I0524 12:49:59.381021  9498 net.cpp:165] Memory required for data: 712967264
I0524 12:49:59.381028  9498 layer_factory.hpp:77] Creating layer conv6_2_mbox_loc_perm
I0524 12:49:59.381036  9498 net.cpp:100] Creating Layer conv6_2_mbox_loc_perm
I0524 12:49:59.381042  9498 net.cpp:434] conv6_2_mbox_loc_perm <- conv6_2_mbox_loc
I0524 12:49:59.381047  9498 net.cpp:408] conv6_2_mbox_loc_perm -> conv6_2_mbox_loc_perm
I0524 12:49:59.381295  9498 net.cpp:150] Setting up conv6_2_mbox_loc_perm
I0524 12:49:59.381301  9498 net.cpp:157] Top shape: 2 7 7 24 (2352)
I0524 12:49:59.381305  9498 net.cpp:165] Memory required for data: 712976672
I0524 12:49:59.381309  9498 layer_factory.hpp:77] Creating layer conv6_2_mbox_loc_flat
I0524 12:49:59.381314  9498 net.cpp:100] Creating Layer conv6_2_mbox_loc_flat
I0524 12:49:59.381316  9498 net.cpp:434] conv6_2_mbox_loc_flat <- conv6_2_mbox_loc_perm
I0524 12:49:59.381322  9498 net.cpp:408] conv6_2_mbox_loc_flat -> conv6_2_mbox_loc_flat
I0524 12:49:59.381357  9498 net.cpp:150] Setting up conv6_2_mbox_loc_flat
I0524 12:49:59.381361  9498 net.cpp:157] Top shape: 2 1176 (2352)
I0524 12:49:59.381363  9498 net.cpp:165] Memory required for data: 712986080
I0524 12:49:59.381366  9498 layer_factory.hpp:77] Creating layer conv6_2_mbox_conf
I0524 12:49:59.381374  9498 net.cpp:100] Creating Layer conv6_2_mbox_conf
I0524 12:49:59.381377  9498 net.cpp:434] conv6_2_mbox_conf <- conv6_2_conv6_2_relu_0_split_2
I0524 12:49:59.381383  9498 net.cpp:408] conv6_2_mbox_conf -> conv6_2_mbox_conf
I0524 12:49:59.384599  9498 net.cpp:150] Setting up conv6_2_mbox_conf
I0524 12:49:59.384613  9498 net.cpp:157] Top shape: 2 36 7 7 (3528)
I0524 12:49:59.384614  9498 net.cpp:165] Memory required for data: 713000192
I0524 12:49:59.384620  9498 layer_factory.hpp:77] Creating layer conv6_2_mbox_conf_perm
I0524 12:49:59.384644  9498 net.cpp:100] Creating Layer conv6_2_mbox_conf_perm
I0524 12:49:59.384647  9498 net.cpp:434] conv6_2_mbox_conf_perm <- conv6_2_mbox_conf
I0524 12:49:59.384654  9498 net.cpp:408] conv6_2_mbox_conf_perm -> conv6_2_mbox_conf_perm
I0524 12:49:59.384892  9498 net.cpp:150] Setting up conv6_2_mbox_conf_perm
I0524 12:49:59.384901  9498 net.cpp:157] Top shape: 2 7 7 36 (3528)
I0524 12:49:59.384903  9498 net.cpp:165] Memory required for data: 713014304
I0524 12:49:59.384907  9498 layer_factory.hpp:77] Creating layer conv6_2_mbox_conf_flat
I0524 12:49:59.384910  9498 net.cpp:100] Creating Layer conv6_2_mbox_conf_flat
I0524 12:49:59.384914  9498 net.cpp:434] conv6_2_mbox_conf_flat <- conv6_2_mbox_conf_perm
I0524 12:49:59.384919  9498 net.cpp:408] conv6_2_mbox_conf_flat -> conv6_2_mbox_conf_flat
I0524 12:49:59.384950  9498 net.cpp:150] Setting up conv6_2_mbox_conf_flat
I0524 12:49:59.384954  9498 net.cpp:157] Top shape: 2 1764 (3528)
I0524 12:49:59.384958  9498 net.cpp:165] Memory required for data: 713028416
I0524 12:49:59.384959  9498 layer_factory.hpp:77] Creating layer conv6_2_mbox_priorbox
I0524 12:49:59.384965  9498 net.cpp:100] Creating Layer conv6_2_mbox_priorbox
I0524 12:49:59.384968  9498 net.cpp:434] conv6_2_mbox_priorbox <- conv6_2_conv6_2_relu_0_split_3
I0524 12:49:59.384972  9498 net.cpp:434] conv6_2_mbox_priorbox <- data_data_0_split_3
I0524 12:49:59.384977  9498 net.cpp:408] conv6_2_mbox_priorbox -> conv6_2_mbox_priorbox
I0524 12:49:59.385013  9498 net.cpp:150] Setting up conv6_2_mbox_priorbox
I0524 12:49:59.385018  9498 net.cpp:157] Top shape: 1 2 1176 (2352)
I0524 12:49:59.385021  9498 net.cpp:165] Memory required for data: 713037824
I0524 12:49:59.385023  9498 layer_factory.hpp:77] Creating layer conv7_2_mbox_loc
I0524 12:49:59.385031  9498 net.cpp:100] Creating Layer conv7_2_mbox_loc
I0524 12:49:59.385036  9498 net.cpp:434] conv7_2_mbox_loc <- conv7_2_conv7_2_relu_0_split_0
I0524 12:49:59.385058  9498 net.cpp:408] conv7_2_mbox_loc -> conv7_2_mbox_loc
I0524 12:49:59.388094  9498 net.cpp:150] Setting up conv7_2_mbox_loc
I0524 12:49:59.388108  9498 net.cpp:157] Top shape: 2 16 4 4 (512)
I0524 12:49:59.388109  9498 net.cpp:165] Memory required for data: 713039872
I0524 12:49:59.388116  9498 layer_factory.hpp:77] Creating layer conv7_2_mbox_loc_perm
I0524 12:49:59.388124  9498 net.cpp:100] Creating Layer conv7_2_mbox_loc_perm
I0524 12:49:59.388129  9498 net.cpp:434] conv7_2_mbox_loc_perm <- conv7_2_mbox_loc
I0524 12:49:59.388137  9498 net.cpp:408] conv7_2_mbox_loc_perm -> conv7_2_mbox_loc_perm
I0524 12:49:59.388402  9498 net.cpp:150] Setting up conv7_2_mbox_loc_perm
I0524 12:49:59.388411  9498 net.cpp:157] Top shape: 2 4 4 16 (512)
I0524 12:49:59.388412  9498 net.cpp:165] Memory required for data: 713041920
I0524 12:49:59.388415  9498 layer_factory.hpp:77] Creating layer conv7_2_mbox_loc_flat
I0524 12:49:59.388422  9498 net.cpp:100] Creating Layer conv7_2_mbox_loc_flat
I0524 12:49:59.388427  9498 net.cpp:434] conv7_2_mbox_loc_flat <- conv7_2_mbox_loc_perm
I0524 12:49:59.388432  9498 net.cpp:408] conv7_2_mbox_loc_flat -> conv7_2_mbox_loc_flat
I0524 12:49:59.388484  9498 net.cpp:150] Setting up conv7_2_mbox_loc_flat
I0524 12:49:59.388489  9498 net.cpp:157] Top shape: 2 256 (512)
I0524 12:49:59.388492  9498 net.cpp:165] Memory required for data: 713043968
I0524 12:49:59.388495  9498 layer_factory.hpp:77] Creating layer conv7_2_mbox_conf
I0524 12:49:59.388505  9498 net.cpp:100] Creating Layer conv7_2_mbox_conf
I0524 12:49:59.388510  9498 net.cpp:434] conv7_2_mbox_conf <- conv7_2_conv7_2_relu_0_split_1
I0524 12:49:59.388520  9498 net.cpp:408] conv7_2_mbox_conf -> conv7_2_mbox_conf
I0524 12:49:59.396263  9498 net.cpp:150] Setting up conv7_2_mbox_conf
I0524 12:49:59.396278  9498 net.cpp:157] Top shape: 2 24 4 4 (768)
I0524 12:49:59.396296  9498 net.cpp:165] Memory required for data: 713047040
I0524 12:49:59.396302  9498 layer_factory.hpp:77] Creating layer conv7_2_mbox_conf_perm
I0524 12:49:59.396309  9498 net.cpp:100] Creating Layer conv7_2_mbox_conf_perm
I0524 12:49:59.396314  9498 net.cpp:434] conv7_2_mbox_conf_perm <- conv7_2_mbox_conf
I0524 12:49:59.396324  9498 net.cpp:408] conv7_2_mbox_conf_perm -> conv7_2_mbox_conf_perm
I0524 12:49:59.396587  9498 net.cpp:150] Setting up conv7_2_mbox_conf_perm
I0524 12:49:59.396595  9498 net.cpp:157] Top shape: 2 4 4 24 (768)
I0524 12:49:59.396598  9498 net.cpp:165] Memory required for data: 713050112
I0524 12:49:59.396602  9498 layer_factory.hpp:77] Creating layer conv7_2_mbox_conf_flat
I0524 12:49:59.396608  9498 net.cpp:100] Creating Layer conv7_2_mbox_conf_flat
I0524 12:49:59.396611  9498 net.cpp:434] conv7_2_mbox_conf_flat <- conv7_2_mbox_conf_perm
I0524 12:49:59.396618  9498 net.cpp:408] conv7_2_mbox_conf_flat -> conv7_2_mbox_conf_flat
I0524 12:49:59.396670  9498 net.cpp:150] Setting up conv7_2_mbox_conf_flat
I0524 12:49:59.396677  9498 net.cpp:157] Top shape: 2 384 (768)
I0524 12:49:59.396678  9498 net.cpp:165] Memory required for data: 713053184
I0524 12:49:59.396682  9498 layer_factory.hpp:77] Creating layer conv7_2_mbox_priorbox
I0524 12:49:59.396692  9498 net.cpp:100] Creating Layer conv7_2_mbox_priorbox
I0524 12:49:59.396695  9498 net.cpp:434] conv7_2_mbox_priorbox <- conv7_2_conv7_2_relu_0_split_2
I0524 12:49:59.396701  9498 net.cpp:434] conv7_2_mbox_priorbox <- data_data_0_split_4
I0524 12:49:59.396710  9498 net.cpp:408] conv7_2_mbox_priorbox -> conv7_2_mbox_priorbox
I0524 12:49:59.396765  9498 net.cpp:150] Setting up conv7_2_mbox_priorbox
I0524 12:49:59.396771  9498 net.cpp:157] Top shape: 1 2 256 (512)
I0524 12:49:59.396775  9498 net.cpp:165] Memory required for data: 713055232
I0524 12:49:59.396777  9498 layer_factory.hpp:77] Creating layer mbox_loc
I0524 12:49:59.396785  9498 net.cpp:100] Creating Layer mbox_loc
I0524 12:49:59.396790  9498 net.cpp:434] mbox_loc <- conv12_norm_mbox_loc_flat
I0524 12:49:59.396797  9498 net.cpp:434] mbox_loc <- ip7_mbox_loc_flat
I0524 12:49:59.396803  9498 net.cpp:434] mbox_loc <- conv6_2_mbox_loc_flat
I0524 12:49:59.396809  9498 net.cpp:434] mbox_loc <- conv7_2_mbox_loc_flat
I0524 12:49:59.396819  9498 net.cpp:408] mbox_loc -> mbox_loc
I0524 12:49:59.396869  9498 net.cpp:150] Setting up mbox_loc
I0524 12:49:59.396875  9498 net.cpp:157] Top shape: 2 24952 (49904)
I0524 12:49:59.396878  9498 net.cpp:165] Memory required for data: 713254848
I0524 12:49:59.396881  9498 layer_factory.hpp:77] Creating layer mbox_conf
I0524 12:49:59.396889  9498 net.cpp:100] Creating Layer mbox_conf
I0524 12:49:59.396893  9498 net.cpp:434] mbox_conf <- conv12_norm_mbox_conf_flat
I0524 12:49:59.396899  9498 net.cpp:434] mbox_conf <- ip7_mbox_conf_flat
I0524 12:49:59.396905  9498 net.cpp:434] mbox_conf <- conv6_2_mbox_conf_flat
I0524 12:49:59.396910  9498 net.cpp:434] mbox_conf <- conv7_2_mbox_conf_flat
I0524 12:49:59.396917  9498 net.cpp:408] mbox_conf -> mbox_conf
I0524 12:49:59.396970  9498 net.cpp:150] Setting up mbox_conf
I0524 12:49:59.396976  9498 net.cpp:157] Top shape: 2 37428 (74856)
I0524 12:49:59.396978  9498 net.cpp:165] Memory required for data: 713554272
I0524 12:49:59.396981  9498 layer_factory.hpp:77] Creating layer mbox_priorbox
I0524 12:49:59.396986  9498 net.cpp:100] Creating Layer mbox_priorbox
I0524 12:49:59.396991  9498 net.cpp:434] mbox_priorbox <- conv12/dw_mbox_priorbox
I0524 12:49:59.396996  9498 net.cpp:434] mbox_priorbox <- ip7_mbox_priorbox
I0524 12:49:59.397002  9498 net.cpp:434] mbox_priorbox <- conv6_2_mbox_priorbox
I0524 12:49:59.397008  9498 net.cpp:434] mbox_priorbox <- conv7_2_mbox_priorbox
I0524 12:49:59.397017  9498 net.cpp:408] mbox_priorbox -> mbox_priorbox
I0524 12:49:59.397063  9498 net.cpp:150] Setting up mbox_priorbox
I0524 12:49:59.397069  9498 net.cpp:157] Top shape: 1 2 24952 (49904)
I0524 12:49:59.397073  9498 net.cpp:165] Memory required for data: 713753888
I0524 12:49:59.397076  9498 layer_factory.hpp:77] Creating layer mbox_conf_reshape
I0524 12:49:59.397091  9498 net.cpp:100] Creating Layer mbox_conf_reshape
I0524 12:49:59.397096  9498 net.cpp:434] mbox_conf_reshape <- mbox_conf
I0524 12:49:59.397106  9498 net.cpp:408] mbox_conf_reshape -> mbox_conf_reshape
I0524 12:49:59.397173  9498 net.cpp:150] Setting up mbox_conf_reshape
I0524 12:49:59.397181  9498 net.cpp:157] Top shape: 2 6238 6 (74856)
I0524 12:49:59.397182  9498 net.cpp:165] Memory required for data: 714053312
I0524 12:49:59.397186  9498 layer_factory.hpp:77] Creating layer mbox_conf_softmax
I0524 12:49:59.397192  9498 net.cpp:100] Creating Layer mbox_conf_softmax
I0524 12:49:59.397194  9498 net.cpp:434] mbox_conf_softmax <- mbox_conf_reshape
I0524 12:49:59.397200  9498 net.cpp:408] mbox_conf_softmax -> mbox_conf_softmax
I0524 12:49:59.398546  9498 net.cpp:150] Setting up mbox_conf_softmax
I0524 12:49:59.398560  9498 net.cpp:157] Top shape: 2 6238 6 (74856)
I0524 12:49:59.398562  9498 net.cpp:165] Memory required for data: 714352736
I0524 12:49:59.398566  9498 layer_factory.hpp:77] Creating layer mbox_conf_flatten
I0524 12:49:59.398571  9498 net.cpp:100] Creating Layer mbox_conf_flatten
I0524 12:49:59.398574  9498 net.cpp:434] mbox_conf_flatten <- mbox_conf_softmax
I0524 12:49:59.398582  9498 net.cpp:408] mbox_conf_flatten -> mbox_conf_flatten
I0524 12:49:59.398641  9498 net.cpp:150] Setting up mbox_conf_flatten
I0524 12:49:59.398648  9498 net.cpp:157] Top shape: 2 37428 (74856)
I0524 12:49:59.398651  9498 net.cpp:165] Memory required for data: 714652160
I0524 12:49:59.398654  9498 layer_factory.hpp:77] Creating layer detection_out
I0524 12:49:59.398665  9498 net.cpp:100] Creating Layer detection_out
I0524 12:49:59.398670  9498 net.cpp:434] detection_out <- mbox_loc
I0524 12:49:59.398675  9498 net.cpp:434] detection_out <- mbox_conf_flatten
I0524 12:49:59.398681  9498 net.cpp:434] detection_out <- mbox_priorbox
I0524 12:49:59.398689  9498 net.cpp:408] detection_out -> detection_out
11111
I0524 12:49:59.398828  9498 net.cpp:150] Setting up detection_out
I0524 12:49:59.398834  9498 net.cpp:157] Top shape: 1 1 1 7 (7)
I0524 12:49:59.398836  9498 net.cpp:165] Memory required for data: 714652188
I0524 12:49:59.398839  9498 layer_factory.hpp:77] Creating layer detection_eval
I0524 12:49:59.398845  9498 net.cpp:100] Creating Layer detection_eval
I0524 12:49:59.398849  9498 net.cpp:434] detection_eval <- detection_out
I0524 12:49:59.398855  9498 net.cpp:434] detection_eval <- label
I0524 12:49:59.398864  9498 net.cpp:408] detection_eval -> detection_eval
I0524 12:49:59.399124  9498 net.cpp:150] Setting up detection_eval
I0524 12:49:59.399132  9498 net.cpp:157] Top shape: 1 1 6 5 (30)
I0524 12:49:59.399137  9498 net.cpp:165] Memory required for data: 714652308
I0524 12:49:59.399140  9498 net.cpp:228] detection_eval does not need backward computation.
I0524 12:49:59.399147  9498 net.cpp:228] detection_out does not need backward computation.
I0524 12:49:59.399152  9498 net.cpp:228] mbox_conf_flatten does not need backward computation.
I0524 12:49:59.399155  9498 net.cpp:228] mbox_conf_softmax does not need backward computation.
…
