…
        max_scale: 1
        min_aspect_ratio: 0.5
        max_aspect_ratio: 2
      }
      sample_constraint {
        min_jaccard_overlap: 0.9
      }
      max_sample: 1
      max_trials: 50
    }
    batch_sampler {
      sampler {
        min_scale: 0.3
        max_scale: 1
        min_aspect_ratio: 0.5
        max_aspect_ratio: 2
      }
      sample_constraint {
        max_jaccard_overlap: 1
      }
      max_sample: 1
      max_trials: 50
    }
    label_map_file: "/home/zhangwanchun/data/VOCdevkit/VOC0712/lmdb/labelmap_voc.prototxt"
  }
}
layer {
  name: "conv1_1"
  type: "QuantConvolution"
  bottom: "data"
  top: "conv1_1"
  convolution_param {
    num_output: 64
    pad: 1
    kernel_size: 3
    weight_filler {
      type: "xavier"
    }
    bias_filler {
      type: "constant"
      value: 0
    }
  }
  quant_convolution_param {
    coef_precision: THREE_BITS
    bw_params: 8
    shift_enable: false
  }
}
layer {
  name: "quant_relu1_1"
  type: "QuantReLU"
  bottom: "conv1_1"
  top: "conv1_1"
  param {
    lr_mult: 5
  }
  quant_relu_param {
    filler {
      type: "constant"
      value: 31
    }
    channel_shared: true
    act_bits: 5
    quant_enable: false
  }
}
layer {
  name: "conv1_2"
  type: "QuantConvolution"
  bottom: "conv1_1"
  top: "conv1_2"
  convolution_param {
    num_output: 64
    pad: 1
    kernel_size: 3
    weight_filler {
      type: "xavier"
    }
    bias_filler {
      type: "constant"
      value: 0
    }
  }
  quant_convolution_param {
    coef_precision: THREE_BITS
    bw_params: 8
    shift_enable: false
  }
}
layer {
  name: "quant_relu1_2"
  type: "QuantReLU"
  bottom: "conv1_2"
  top: "conv1_2"
  param {
    lr_mult: 5
  }
  quant_relu_param {
    filler {
      type: "constant"
      value: 31
    }
    channel_shared: true
    act_bits: 5
    quant_enable: false
  }
}
layer {
  name: "pool1"
  type: "Pooling"
  bottom: "conv1_2"
  top: "pool1"
  pooling_param {
    pool: MAX
    kernel_size: 2
    stride: 2
  }
}
layer {
  name: "conv2_1"
  type: "QuantConvolution"
  bottom: "pool1"
  top: "conv2_1"
  convolution_param {
    num_output: 128
    pad: 1
    kernel_size: 3
    weight_filler {
      type: "xavier"
    }
    bias_filler {
      type: "constant"
      value: 0
    }
  }
  quant_convolution_param {
    coef_precision: THREE_BITS
    bw_params: 8
    shift_enable: false
  }
}
layer {
  name: "quant_relu2_1"
  type: "QuantReLU"
  bottom: "conv2_1"
  top: "conv2_1"
  param {
    lr_mult: 5
  }
  quant_relu_param {
    filler {
      type: "constant"
      value: 65.934
    }
    channel_shared: true
    act_bits: 5
    quant_enable: false
  }
}
layer {
  name: "conv2_2"
  type: "QuantConvolution"
  bottom: "conv2_1"
  top: "conv2_2"
  convolution_param {
    num_output: 128
    pad: 1
    kernel_size: 3
    weight_filler {
      type: "xavier"
    }
    bias_filler {
      type: "constant"
      value: 0
    }
  }
  quant_convolution_param {
    coef_precision: THREE_BITS
    bw_params: 8
    shift_enable: false
  }
}
layer {
  name: "quant_relu2_2"
  type: "QuantReLU"
  bottom: "conv2_2"
  top: "conv2_2"
  param {
    lr_mult: 5
  }
  quant_relu_param {
    filler {
      type: "constant"
      value: 107.992
    }
    channel_shared: true
    act_bits: 5
    quant_enable: false
  }
}
layer {
  name: "pool2"
  type: "Pooling"
  bottom: "conv2_2"
  top: "pool2"
  pooling_param {
    pool: MAX
    kernel_size: 2
    stride: 2
  }
}
layer {
  name: "conv3_1"
  type: "QuantConvolution"
  bottom: "pool2"
  top: "conv3_1"
  convolution_param {
    num_output: 256
    pad: 1
    kernel_size: 3
    weight_filler {
      type: "xavier"
    }
    bias_filler {
      type: "constant"
      value: 0
    }
  }
  quant_convolution_param {
    coef_precision: THREE_BITS
    bw_params: 8
    shift_enable: false
  }
}
layer {
  name: "quant_relu3_1"
  type: "QuantReLU"
  bottom: "conv3_1"
  top: "conv3_1"
  param {
    lr_mult: 5
  }
  quant_relu_param {
    filler {
      type: "constant"
      value: 115.32
    }
    channel_shared: true
    act_bits: 5
    quant_enable: false
  }
}
layer {
  name: "conv3_2"
  type: "QuantConvolution"
  bottom: "conv3_1"
  top: "conv3_2"
  convolution_param {
    num_output: 256
    pad: 1
    kernel_size: 3
    weight_filler {
      type: "xavier"
    }
    bias_filler {
      type: "constant"
      value: 0
    }
  }
  quant_convolution_param {
    coef_precision: THREE_BITS
    bw_params: 8
    shift_enable: false
  }
}
layer {
  name: "quant_relu3_2"
  type: "QuantReLU"
  bottom: "conv3_2"
  top: "conv3_2"
  param {
    lr_mult: 0
  }
  quant_relu_param {
    filler {
      type: "constant"
      value: 31
    }
    channel_shared: true
    act_bits: 5
    quant_enable: false
  }
}
layer {
  name: "conv3_3"
  type: "QuantConvolution"
  bottom: "conv3_2"
  top: "conv3_3"
  convolution_param {
    num_output: 256
    pad: 1
    kernel_size: 3
    weight_filler {
      type: "xavier"
    }
    bias_filler {
      type: "constant"
      value: 0
    }
  }
  quant_convolution_param {
    coef_precision: THREE_BITS
    bw_params: 8
    shift_enable: false
  }
}
layer {
  name: "quant_relu3_3"
  type: "QuantReLU"
  bottom: "conv3_3"
  top: "conv3_3"
  param {
    lr_mult: 0
  }
  quant_relu_param {
    filler {
      type: "constant"
      value: 31
    }
    channel_shared: true
    act_bits: 5
    quant_enable: false
  }
}
layer {
  name: "pool3"
  type: "Pooling"
  bottom: "conv3_3"
  top: "pool3"
  pooling_param {
    pool: MAX
    kernel_size: 2
    stride: 2
  }
}
layer {
  name: "conv4_1"
  type: "QuantConvolution"
  bottom: "pool3"
  top: "conv4_1"
  convolution_param {
    num_output: 512
    pad: 1
    kernel_size: 3
    weight_filler {
      type: "xavier"
    }
    bias_filler {
      type: "constant"
      value: 0
    }
  }
  quant_convolution_param {
    coef_precision: ONE_BIT
    bw_params: 8
    shift_enable: false
  }
}
layer {
  name: "quant_relu4_1"
  type: "QuantReLU"
  bottom: "conv4_1"
  top: "conv4_1"
  param {
    lr_mult: 0
  }
  quant_relu_param {
    filler {
      type: "constant"
      value: 31
    }
    channel_shared: true
    act_bits: 5
    quant_enable: false
  }
}
layer {
  name: "conv4_2"
  type: "QuantConvolution"
  bottom: "conv4_1"
  top: "conv4_2"
  convolution_param {
    num_output: 512
    pad: 1
    kernel_size: 3
    weight_filler {
      type: "xavier"
    }
    bias_filler {
      type: "constant"
      value: 0
    }
  }
  quant_convolution_param {
    coef_precision: ONE_BIT
    bw_params: 8
    shift_enable: false
  }
}
layer {
  name: "quant_relu4_2"
  type: "QuantReLU"
  bottom: "conv4_2"
  top: "conv4_2"
  param {
    lr_mult: 0
  }
  quant_relu_param {
    filler {
      type: "constant"
      value: 31
    }
    channel_shared: true
    act_bits: 5
    quant_enable: false
  }
}
layer {
  name: "conv4_3"
  type: "QuantConvolution"
  bottom: "conv4_2"
  top: "conv4_3"
  convolution_param {
    num_output: 512
    pad: 1
    kernel_size: 3
    weight_filler {
      type: "xavier"
    }
    bias_filler {
      type: "constant"
      value: 0
    }
  }
  quant_convolution_param {
    coef_precision: ONE_BIT
    bw_params: 8
    shift_enable: false
  }
}
layer {
  name: "quant_relu4_3"
  type: "QuantReLU"
  bottom: "conv4_3"
  top: "conv4_3"
  param {
    lr_mult: 0
  }
  quant_relu_param {
    filler {
      type: "constant"
      value: 31
    }
    channel_shared: true
    act_bits: 5
    quant_enable: false
  }
}
layer {
  name: "pool4"
  type: "Pooling"
  bottom: "conv4_3"
  top: "pool4"
  pooling_param {
    pool: MAX
    kernel_size: 2
    stride: 2
  }
}
layer {
  name: "conv5_1"
  type: "QuantConvolution"
  bottom: "pool4"
  top: "conv5_1"
  convolution_param {
    num_output: 512
    pad: 1
    kernel_size: 3
    weight_filler {
      type: "xavier"
    }
    bias_filler {
      type: "constant"
      value: 0
    }
  }
  quant_convolution_param {
    coef_precision: ONE_BIT
    bw_params: 8
    shift_enable: false
  }
}
layer {
  name: "quant_relu5_1"
  type: "QuantReLU"
  bottom: "conv5_1"
  top: "conv5_1"
  param {
    lr_mult: 0
  }
  quant_relu_param {
    filler {
      type: "constant"
      value: 31
    }
    channel_shared: true
    act_bits: 5
    quant_enable: false
  }
}
layer {
  name: "conv5_2"
  type: "QuantConvolution"
  bottom: "conv5_1"
  top: "conv5_2"
  param {
    lr_mult: 1
    decay_mult: 0
  }
  param {
    lr_mult: 1
    decay_mult: 1
  }
  convolution_param {
    num_output: 512
    pad: 1
    kernel_size: 3
    weight_filler {
      type: "xavier"
    }
    bias_filler {
      type: "constant"
      value: 0
    }
  }
  quant_convolution_param {
    coef_precision: ONE_BIT
    bw_params: 8
    shift_enable: false
  }
}
layer {
  name: "quant_relu5_2"
  type: "QuantReLU"
  bottom: "conv5_2"
  top: "conv5_2"
  param {
    lr_mult: 0
  }
  quant_relu_param {
    filler {
      type: "constant"
      value: 31
    }
    channel_shared: true
    act_bits: 5
    quant_enable: false
  }
}
layer {
  name: "conv5_3"
  type: "QuantConvolution"
  bottom: "conv5_2"
  top: "conv5_3"
  param {
    lr_mult: 1
    decay_mult: 0
  }
  param {
    lr_mult: 1
    decay_mult: 200
  }
  convolution_param {
    num_output: 512
    pad: 1
    kernel_size: 3
    weight_filler {
      type: "xavier"
    }
    bias_filler {
      type: "constant"
      value: 0
    }
  }
  quant_convolution_param {
    coef_precision: ONE_BIT
    bw_params: 8
    shift_enable: false
  }
}
layer {
  name: "quant_relu5_3"
  type: "QuantReLU"
  bottom: "conv5_3"
  top: "conv5_3"
  param {
    lr_mult: 5
  }
  quant_relu_param {
    filler {
      type: "constant"
      value: 29.225
    }
    channel_shared: true
    act_bits: 5
    quant_enable: false
  }
}
layer {
  name: "pool5"
  type: "Pooling"
  bottom: "conv5_3"
  top: "pool5"
  pooling_param {
    pool: MAX
    kernel_size: 2
    stride: 2
  }
}
layer {
  name: "ip6"
  type: "Convolution"
  bottom: "pool5"
  top: "ip6"
  param {
    lr_mult: 1
    decay_mult: 1
  }
  param {
    lr_mult: 2
    decay_mult: 0
  }
  convolution_param {
    num_output: 512
    pad: 1
    kernel_size: 3
    weight_filler {
      type: "xavier"
    }
    bias_filler {
      type: "constant"
      value: 0
    }
  }
}
layer {
  name: "relu6"
  type: "ReLU"
  bottom: "ip6"
  top: "ip6"
}
layer {
  name: "ip7"
  type: "Convolution"
  bottom: "ip6"
  top: "ip7"
  param {
    lr_mult: 1
    decay_mult: 1
  }
  param {
    lr_mult: 2
    decay_mult: 0
  }
  convolution_param {
    num_output: 512
    kernel_size: 1
    weight_filler {
      type: "xavier"
    }
    bias_filler {
      type: "constant"
      value: 0
    }
  }
}
layer {
  name: "relu7"
  type: "ReLU"
  bottom: "ip7"
  top: "ip7"
}
layer {
  name: "ip7_mbox_loc"
  type: "Convolution"
  bottom: "ip7"
  top: "ip7_mbox_loc"
  param {
    lr_mult: 1
    decay_mult: 1
  }
  param {
    lr_mult: 2
    decay_mult: 0
  }
  convolution_param {
    num_output: 24
    pad: 1
    kernel_size: 3
    stride: 1
    weight_filler {
      type: "xavier"
    }
    bias_filler {
      type: "constant"
      value: 0
    }
  }
}
layer {
  name: "ip7_mbox_loc_perm"
  type: "Permute"
  bottom: "ip7_mbox_loc"
  top: "ip7_mbox_loc_perm"
  permute_param {
    order: 0
    order: 2
    order: 3
    order: 1
  }
}
layer {
  name: "ip7_mbox_loc_flat"
  type: "Flatten"
  bottom: "ip7_mbox_loc_perm"
  top: "ip7_mbox_loc_flat"
  flatten_param {
    axis: 1
  }
}
layer {
  name: "ip7_mbox_conf"
  type: "Convolution"
  bottom: "ip7"
  top: "ip7_mbox_conf"
  param {
    lr_mult: 1
    decay_mult: 1
  }
  param {
    lr_mult: 2
    decay_mult: 0
  }
  convolution_param {
    num_output: 36
    pad: 1
    kernel_size: 3
    stride: 1
    weight_filler {
      type: "xavier"
    }
    bias_filler {
      type: "constant"
      value: 0
    }
  }
}
layer {
  name: "ip7_mbox_conf_perm"
  type: "Permute"
  bottom: "ip7_mbox_conf"
  top: "ip7_mbox_conf_perm"
  permute_param {
    order: 0
    order: 2
    order: 3
    order: 1
  }
}
layer {
  name: "ip7_mbox_conf_flat"
  type: "Flatten"
  bottom: "ip7_mbox_conf_perm"
  top: "ip7_mbox_conf_flat"
  flatten_param {
    axis: 1
  }
}
layer {
  name: "ip7_mbox_priorbox"
  type: "PriorBox"
  bottom: "ip7"
  bottom: "data"
  top: "ip7_mbox_priorbox"
  prior_box_param {
    min_size: 20
    max_size: 210
    aspect_ratio: 2
    aspect_ratio: 3
    flip: true
    clip: false
    variance: 0.1
    variance: 0.1
    variance: 0.2
    variance: 0.2
    step: 32
    offset: 0.5
  }
}
layer {
  name: "mbox_loc"
  type: "Concat"
  bottom: "ip7_mbox_loc_flat"
  top: "mbox_loc"
  concat_param {
    axis: 1
  }
}
layer {
  name: "mbox_conf"
  type: "Concat"
  bottom: "ip7_mbox_conf_flat"
  top: "mbox_conf"
  concat_param {
    axis: 1
  }
}
layer {
  name: "mbox_priorbox"
  type: "Concat"
  bottom: "ip7_mbox_priorbox"
  top: "mbox_priorbox"
  concat_param {
    axis: 2
  }
}
layer {
  name: "mbox_loss"
  type: "MultiBoxLoss"
  bottom: "mbox_loc"
  bottom: "mbox_conf"
  bottom: "mbox_priorbox"
  bottom: "label"
  top: "mbox_loss"
  include {
    phase: TRAIN
  }
  propagate_down: true
  propagate_down: true
  propagate_down: false
  propagate_down: false
  loss_param {
    normalization: VALID
  }
  multibox_loss_param {
    loc_loss_type: SMOOTH_L1
    conf_loss_type: SOFTMAX
    loc_weight: 1
    num_classes: 6
    share_location: true
    match_type: PER_PREDICTION
    overlap_threshold: 0.5
    use_prior_for_matching: true
    background_label_id: 0
    use_difficult_gt: true
    neg_pos_ratio: 3
    neg_overlap: 0.5
    code_type: CENTER_SIZE
    ignore_cross_boundary_bbox: false
    mining_type: MAX_NEGATIVE
  }
}
I0528 16:51:11.890658  3267 layer_factory.hpp:77] Creating layer data
I0528 16:51:11.891086  3267 net.cpp:100] Creating Layer data
I0528 16:51:11.891098  3267 net.cpp:408] data -> data
I0528 16:51:11.891124  3267 net.cpp:408] data -> label
I0528 16:51:11.891999  3302 db_lmdb.cpp:35] Opened lmdb /home/zhangwanchun/data/VOCdevkit/VOC0712/lmdb/VOC0712_trainval_lmdb
I0528 16:51:14.878552  3267 annotated_data_layer.cpp:62] output data size: 2,3,224,224
I0528 16:51:14.881000  3267 net.cpp:150] Setting up data
I0528 16:51:14.881013  3267 net.cpp:157] Top shape: 2 3 224 224 (301056)
I0528 16:51:14.881016  3267 net.cpp:157] Top shape: 1 1 1 8 (8)
I0528 16:51:14.881018  3267 net.cpp:165] Memory required for data: 1204256
I0528 16:51:14.881026  3267 layer_factory.hpp:77] Creating layer data_data_0_split
I0528 16:51:14.881054  3267 net.cpp:100] Creating Layer data_data_0_split
I0528 16:51:14.881060  3267 net.cpp:434] data_data_0_split <- data
I0528 16:51:14.881070  3267 net.cpp:408] data_data_0_split -> data_data_0_split_0
I0528 16:51:14.881078  3267 net.cpp:408] data_data_0_split -> data_data_0_split_1
I0528 16:51:14.881103  3267 net.cpp:150] Setting up data_data_0_split
I0528 16:51:14.881105  3267 net.cpp:157] Top shape: 2 3 224 224 (301056)
I0528 16:51:14.881108  3267 net.cpp:157] Top shape: 2 3 224 224 (301056)
I0528 16:51:14.881110  3267 net.cpp:165] Memory required for data: 3612704
I0528 16:51:14.881114  3267 layer_factory.hpp:77] Creating layer conv1_1
I0528 16:51:14.881120  3267 net.cpp:100] Creating Layer conv1_1
I0528 16:51:14.881124  3267 net.cpp:434] conv1_1 <- data_data_0_split_0
I0528 16:51:14.881127  3267 net.cpp:408] conv1_1 -> conv1_1
I0528 16:51:14.882339  3267 net.cpp:150] Setting up conv1_1
I0528 16:51:14.882347  3267 net.cpp:157] Top shape: 2 64 224 224 (6422528)
I0528 16:51:14.882350  3267 net.cpp:165] Memory required for data: 29302816
I0528 16:51:14.882361  3267 layer_factory.hpp:77] Creating layer quant_relu1_1
I0528 16:51:14.882367  3267 net.cpp:100] Creating Layer quant_relu1_1
I0528 16:51:14.882369  3267 net.cpp:434] quant_relu1_1 <- conv1_1
I0528 16:51:14.882372  3267 net.cpp:395] quant_relu1_1 -> conv1_1 (in-place)
I0528 16:51:14.885610  3267 net.cpp:150] Setting up quant_relu1_1
I0528 16:51:14.885622  3267 net.cpp:157] Top shape: 2 64 224 224 (6422528)
I0528 16:51:14.885624  3267 net.cpp:165] Memory required for data: 54992928
I0528 16:51:14.885632  3267 layer_factory.hpp:77] Creating layer conv1_2
I0528 16:51:14.885639  3267 net.cpp:100] Creating Layer conv1_2
I0528 16:51:14.885643  3267 net.cpp:434] conv1_2 <- conv1_1
I0528 16:51:14.885646  3267 net.cpp:408] conv1_2 -> conv1_2
I0528 16:51:14.886049  3267 net.cpp:150] Setting up conv1_2
I0528 16:51:14.886054  3267 net.cpp:157] Top shape: 2 64 224 224 (6422528)
I0528 16:51:14.886056  3267 net.cpp:165] Memory required for data: 80683040
I0528 16:51:14.886060  3267 layer_factory.hpp:77] Creating layer quant_relu1_2
I0528 16:51:14.886065  3267 net.cpp:100] Creating Layer quant_relu1_2
I0528 16:51:14.886067  3267 net.cpp:434] quant_relu1_2 <- conv1_2
I0528 16:51:14.886070  3267 net.cpp:395] quant_relu1_2 -> conv1_2 (in-place)
I0528 16:51:14.889524  3267 net.cpp:150] Setting up quant_relu1_2
I0528 16:51:14.889544  3267 net.cpp:157] Top shape: 2 64 224 224 (6422528)
I0528 16:51:14.889546  3267 net.cpp:165] Memory required for data: 106373152
I0528 16:51:14.889552  3267 layer_factory.hpp:77] Creating layer pool1
I0528 16:51:14.889561  3267 net.cpp:100] Creating Layer pool1
I0528 16:51:14.889564  3267 net.cpp:434] pool1 <- conv1_2
I0528 16:51:14.889569  3267 net.cpp:408] pool1 -> pool1
I0528 16:51:14.889616  3267 net.cpp:150] Setting up pool1
I0528 16:51:14.889621  3267 net.cpp:157] Top shape: 2 64 112 112 (1605632)
I0528 16:51:14.889623  3267 net.cpp:165] Memory required for data: 112795680
I0528 16:51:14.889626  3267 layer_factory.hpp:77] Creating layer conv2_1
I0528 16:51:14.889631  3267 net.cpp:100] Creating Layer conv2_1
I0528 16:51:14.889633  3267 net.cpp:434] conv2_1 <- pool1
I0528 16:51:14.889637  3267 net.cpp:408] conv2_1 -> conv2_1
I0528 16:51:14.890890  3267 net.cpp:150] Setting up conv2_1
I0528 16:51:14.890899  3267 net.cpp:157] Top shape: 2 128 112 112 (3211264)
I0528 16:51:14.890902  3267 net.cpp:165] Memory required for data: 125640736
I0528 16:51:14.890906  3267 layer_factory.hpp:77] Creating layer quant_relu2_1
I0528 16:51:14.890913  3267 net.cpp:100] Creating Layer quant_relu2_1
I0528 16:51:14.890916  3267 net.cpp:434] quant_relu2_1 <- conv2_1
I0528 16:51:14.890919  3267 net.cpp:395] quant_relu2_1 -> conv2_1 (in-place)
I0528 16:51:14.893684  3267 net.cpp:150] Setting up quant_relu2_1
I0528 16:51:14.893712  3267 net.cpp:157] Top shape: 2 128 112 112 (3211264)
I0528 16:51:14.893714  3267 net.cpp:165] Memory required for data: 138485792
I0528 16:51:14.893760  3267 layer_factory.hpp:77] Creating layer conv2_2
I0528 16:51:14.893791  3267 net.cpp:100] Creating Layer conv2_2
I0528 16:51:14.893796  3267 net.cpp:434] conv2_2 <- conv2_1
I0528 16:51:14.893807  3267 net.cpp:408] conv2_2 -> conv2_2
I0528 16:51:14.894661  3267 net.cpp:150] Setting up conv2_2
I0528 16:51:14.894671  3267 net.cpp:157] Top shape: 2 128 112 112 (3211264)
I0528 16:51:14.894675  3267 net.cpp:165] Memory required for data: 151330848
I0528 16:51:14.894678  3267 layer_factory.hpp:77] Creating layer quant_relu2_2
I0528 16:51:14.894685  3267 net.cpp:100] Creating Layer quant_relu2_2
I0528 16:51:14.894686  3267 net.cpp:434] quant_relu2_2 <- conv2_2
I0528 16:51:14.894690  3267 net.cpp:395] quant_relu2_2 -> conv2_2 (in-place)
I0528 16:51:14.896723  3267 net.cpp:150] Setting up quant_relu2_2
I0528 16:51:14.896733  3267 net.cpp:157] Top shape: 2 128 112 112 (3211264)
I0528 16:51:14.896735  3267 net.cpp:165] Memory required for data: 164175904
I0528 16:51:14.896741  3267 layer_factory.hpp:77] Creating layer pool2
I0528 16:51:14.896749  3267 net.cpp:100] Creating Layer pool2
I0528 16:51:14.896756  3267 net.cpp:434] pool2 <- conv2_2
I0528 16:51:14.896765  3267 net.cpp:408] pool2 -> pool2
I0528 16:51:14.896816  3267 net.cpp:150] Setting up pool2
I0528 16:51:14.896836  3267 net.cpp:157] Top shape: 2 128 56 56 (802816)
I0528 16:51:14.896840  3267 net.cpp:165] Memory required for data: 167387168
I0528 16:51:14.896843  3267 layer_factory.hpp:77] Creating layer conv3_1
I0528 16:51:14.896849  3267 net.cpp:100] Creating Layer conv3_1
I0528 16:51:14.896852  3267 net.cpp:434] conv3_1 <- pool2
I0528 16:51:14.896855  3267 net.cpp:408] conv3_1 -> conv3_1
I0528 16:51:14.898528  3267 net.cpp:150] Setting up conv3_1
I0528 16:51:14.898537  3267 net.cpp:157] Top shape: 2 256 56 56 (1605632)
I0528 16:51:14.898540  3267 net.cpp:165] Memory required for data: 173809696
I0528 16:51:14.898543  3267 layer_factory.hpp:77] Creating layer quant_relu3_1
I0528 16:51:14.898548  3267 net.cpp:100] Creating Layer quant_relu3_1
I0528 16:51:14.898551  3267 net.cpp:434] quant_relu3_1 <- conv3_1
I0528 16:51:14.898555  3267 net.cpp:395] quant_relu3_1 -> conv3_1 (in-place)
I0528 16:51:14.899518  3267 net.cpp:150] Setting up quant_relu3_1
I0528 16:51:14.899526  3267 net.cpp:157] Top shape: 2 256 56 56 (1605632)
I0528 16:51:14.899529  3267 net.cpp:165] Memory required for data: 180232224
I0528 16:51:14.899533  3267 layer_factory.hpp:77] Creating layer conv3_2
I0528 16:51:14.899538  3267 net.cpp:100] Creating Layer conv3_2
I0528 16:51:14.899540  3267 net.cpp:434] conv3_2 <- conv3_1
I0528 16:51:14.899544  3267 net.cpp:408] conv3_2 -> conv3_2
I0528 16:51:14.902381  3267 net.cpp:150] Setting up conv3_2
I0528 16:51:14.902390  3267 net.cpp:157] Top shape: 2 256 56 56 (1605632)
I0528 16:51:14.902392  3267 net.cpp:165] Memory required for data: 186654752
I0528 16:51:14.902410  3267 layer_factory.hpp:77] Creating layer quant_relu3_2
I0528 16:51:14.902415  3267 net.cpp:100] Creating Layer quant_relu3_2
I0528 16:51:14.902417  3267 net.cpp:434] quant_relu3_2 <- conv3_2
I0528 16:51:14.902421  3267 net.cpp:395] quant_relu3_2 -> conv3_2 (in-place)
I0528 16:51:14.903502  3267 net.cpp:150] Setting up quant_relu3_2
I0528 16:51:14.903510  3267 net.cpp:157] Top shape: 2 256 56 56 (1605632)
I0528 16:51:14.903512  3267 net.cpp:165] Memory required for data: 193077280
I0528 16:51:14.903517  3267 layer_factory.hpp:77] Creating layer conv3_3
I0528 16:51:14.903523  3267 net.cpp:100] Creating Layer conv3_3
I0528 16:51:14.903527  3267 net.cpp:434] conv3_3 <- conv3_2
I0528 16:51:14.903529  3267 net.cpp:408] conv3_3 -> conv3_3
I0528 16:51:14.906658  3267 net.cpp:150] Setting up conv3_3
I0528 16:51:14.906672  3267 net.cpp:157] Top shape: 2 256 56 56 (1605632)
I0528 16:51:14.906673  3267 net.cpp:165] Memory required for data: 199499808
I0528 16:51:14.906678  3267 layer_factory.hpp:77] Creating layer quant_relu3_3
I0528 16:51:14.906685  3267 net.cpp:100] Creating Layer quant_relu3_3
I0528 16:51:14.906688  3267 net.cpp:434] quant_relu3_3 <- conv3_3
I0528 16:51:14.906692  3267 net.cpp:395] quant_relu3_3 -> conv3_3 (in-place)
I0528 16:51:14.908167  3267 net.cpp:150] Setting up quant_relu3_3
I0528 16:51:14.908176  3267 net.cpp:157] Top shape: 2 256 56 56 (1605632)
I0528 16:51:14.908195  3267 net.cpp:165] Memory required for data: 205922336
I0528 16:51:14.908198  3267 layer_factory.hpp:77] Creating layer pool3
I0528 16:51:14.908205  3267 net.cpp:100] Creating Layer pool3
I0528 16:51:14.908208  3267 net.cpp:434] pool3 <- conv3_3
I0528 16:51:14.908215  3267 net.cpp:408] pool3 -> pool3
I0528 16:51:14.908241  3267 net.cpp:150] Setting up pool3
I0528 16:51:14.908246  3267 net.cpp:157] Top shape: 2 256 28 28 (401408)
I0528 16:51:14.908248  3267 net.cpp:165] Memory required for data: 207527968
I0528 16:51:14.908252  3267 layer_factory.hpp:77] Creating layer conv4_1
I0528 16:51:14.908257  3267 net.cpp:100] Creating Layer conv4_1
I0528 16:51:14.908258  3267 net.cpp:434] conv4_1 <- pool3
I0528 16:51:14.908262  3267 net.cpp:408] conv4_1 -> conv4_1
I0528 16:51:14.914240  3267 net.cpp:150] Setting up conv4_1
I0528 16:51:14.914252  3267 net.cpp:157] Top shape: 2 512 28 28 (802816)
I0528 16:51:14.914253  3267 net.cpp:165] Memory required for data: 210739232
I0528 16:51:14.914258  3267 layer_factory.hpp:77] Creating layer quant_relu4_1
I0528 16:51:14.914264  3267 net.cpp:100] Creating Layer quant_relu4_1
I0528 16:51:14.914268  3267 net.cpp:434] quant_relu4_1 <- conv4_1
I0528 16:51:14.914271  3267 net.cpp:395] quant_relu4_1 -> conv4_1 (in-place)
I0528 16:51:14.915158  3267 net.cpp:150] Setting up quant_relu4_1
I0528 16:51:14.915165  3267 net.cpp:157] Top shape: 2 512 28 28 (802816)
I0528 16:51:14.915168  3267 net.cpp:165] Memory required for data: 213950496
I0528 16:51:14.915171  3267 layer_factory.hpp:77] Creating layer conv4_2
I0528 16:51:14.915176  3267 net.cpp:100] Creating Layer conv4_2
I0528 16:51:14.915179  3267 net.cpp:434] conv4_2 <- conv4_1
I0528 16:51:14.915184  3267 net.cpp:408] conv4_2 -> conv4_2
I0528 16:51:14.926398  3267 net.cpp:150] Setting up conv4_2
I0528 16:51:14.926410  3267 net.cpp:157] Top shape: 2 512 28 28 (802816)
I0528 16:51:14.926414  3267 net.cpp:165] Memory required for data: 217161760
I0528 16:51:14.926419  3267 layer_factory.hpp:77] Creating layer quant_relu4_2
I0528 16:51:14.926424  3267 net.cpp:100] Creating Layer quant_relu4_2
I0528 16:51:14.926426  3267 net.cpp:434] quant_relu4_2 <- conv4_2
I0528 16:51:14.926431  3267 net.cpp:395] quant_relu4_2 -> conv4_2 (in-place)
I0528 16:51:14.927258  3267 net.cpp:150] Setting up quant_relu4_2
I0528 16:51:14.927266  3267 net.cpp:157] Top shape: 2 512 28 28 (802816)
I0528 16:51:14.927268  3267 net.cpp:165] Memory required for data: 220373024
I0528 16:51:14.927273  3267 layer_factory.hpp:77] Creating layer conv4_3
I0528 16:51:14.927280  3267 net.cpp:100] Creating Layer conv4_3
I0528 16:51:14.927285  3267 net.cpp:434] conv4_3 <- conv4_2
I0528 16:51:14.927292  3267 net.cpp:408] conv4_3 -> conv4_3
I0528 16:51:14.937538  3267 net.cpp:150] Setting up conv4_3
I0528 16:51:14.937551  3267 net.cpp:157] Top shape: 2 512 28 28 (802816)
I0528 16:51:14.937553  3267 net.cpp:165] Memory required for data: 223584288
I0528 16:51:14.937557  3267 layer_factory.hpp:77] Creating layer quant_relu4_3
I0528 16:51:14.937564  3267 net.cpp:100] Creating Layer quant_relu4_3
I0528 16:51:14.937566  3267 net.cpp:434] quant_relu4_3 <- conv4_3
I0528 16:51:14.937572  3267 net.cpp:395] quant_relu4_3 -> conv4_3 (in-place)
I0528 16:51:14.938295  3267 net.cpp:150] Setting up quant_relu4_3
I0528 16:51:14.938303  3267 net.cpp:157] Top shape: 2 512 28 28 (802816)
I0528 16:51:14.938305  3267 net.cpp:165] Memory required for data: 226795552
I0528 16:51:14.938308  3267 layer_factory.hpp:77] Creating layer pool4
I0528 16:51:14.938313  3267 net.cpp:100] Creating Layer pool4
I0528 16:51:14.938316  3267 net.cpp:434] pool4 <- conv4_3
I0528 16:51:14.938319  3267 net.cpp:408] pool4 -> pool4
I0528 16:51:14.938359  3267 net.cpp:150] Setting up pool4
I0528 16:51:14.938364  3267 net.cpp:157] Top shape: 2 512 14 14 (200704)
I0528 16:51:14.938366  3267 net.cpp:165] Memory required for data: 227598368
I0528 16:51:14.938382  3267 layer_factory.hpp:77] Creating layer conv5_1
I0528 16:51:14.938387  3267 net.cpp:100] Creating Layer conv5_1
I0528 16:51:14.938405  3267 net.cpp:434] conv5_1 <- pool4
I0528 16:51:14.938408  3267 net.cpp:408] conv5_1 -> conv5_1
I0528 16:51:14.949208  3267 net.cpp:150] Setting up conv5_1
I0528 16:51:14.949223  3267 net.cpp:157] Top shape: 2 512 14 14 (200704)
I0528 16:51:14.949224  3267 net.cpp:165] Memory required for data: 228401184
I0528 16:51:14.949230  3267 layer_factory.hpp:77] Creating layer quant_relu5_1
I0528 16:51:14.949236  3267 net.cpp:100] Creating Layer quant_relu5_1
I0528 16:51:14.949239  3267 net.cpp:434] quant_relu5_1 <- conv5_1
I0528 16:51:14.949244  3267 net.cpp:395] quant_relu5_1 -> conv5_1 (in-place)
I0528 16:51:14.949357  3267 net.cpp:150] Setting up quant_relu5_1
I0528 16:51:14.949362  3267 net.cpp:157] Top shape: 2 512 14 14 (200704)
I0528 16:51:14.949364  3267 net.cpp:165] Memory required for data: 229204000
I0528 16:51:14.949371  3267 layer_factory.hpp:77] Creating layer conv5_2
I0528 16:51:14.949378  3267 net.cpp:100] Creating Layer conv5_2
I0528 16:51:14.949379  3267 net.cpp:434] conv5_2 <- conv5_1
I0528 16:51:14.949383  3267 net.cpp:408] conv5_2 -> conv5_2
I0528 16:51:14.959545  3267 net.cpp:150] Setting up conv5_2
I0528 16:51:14.959570  3267 net.cpp:157] Top shape: 2 512 14 14 (200704)
I0528 16:51:14.959573  3267 net.cpp:165] Memory required for data: 230006816
I0528 16:51:14.959578  3267 layer_factory.hpp:77] Creating layer quant_relu5_2
I0528 16:51:14.959585  3267 net.cpp:100] Creating Layer quant_relu5_2
I0528 16:51:14.959590  3267 net.cpp:434] quant_relu5_2 <- conv5_2
I0528 16:51:14.959596  3267 net.cpp:395] quant_relu5_2 -> conv5_2 (in-place)
I0528 16:51:14.959692  3267 net.cpp:150] Setting up quant_relu5_2
I0528 16:51:14.959697  3267 net.cpp:157] Top shape: 2 512 14 14 (200704)
I0528 16:51:14.959700  3267 net.cpp:165] Memory required for data: 230809632
I0528 16:51:14.959703  3267 layer_factory.hpp:77] Creating layer conv5_3
I0528 16:51:14.959708  3267 net.cpp:100] Creating Layer conv5_3
I0528 16:51:14.959710  3267 net.cpp:434] conv5_3 <- conv5_2
I0528 16:51:14.959714  3267 net.cpp:408] conv5_3 -> conv5_3
I0528 16:51:14.969591  3267 net.cpp:150] Setting up conv5_3
I0528 16:51:14.969604  3267 net.cpp:157] Top shape: 2 512 14 14 (200704)
I0528 16:51:14.969606  3267 net.cpp:165] Memory required for data: 231612448
I0528 16:51:14.969611  3267 layer_factory.hpp:77] Creating layer quant_relu5_3
I0528 16:51:14.969617  3267 net.cpp:100] Creating Layer quant_relu5_3
I0528 16:51:14.969620  3267 net.cpp:434] quant_relu5_3 <- conv5_3
I0528 16:51:14.969624  3267 net.cpp:395] quant_relu5_3 -> conv5_3 (in-place)
I0528 16:51:14.969700  3267 net.cpp:150] Setting up quant_relu5_3
I0528 16:51:14.969705  3267 net.cpp:157] Top shape: 2 512 14 14 (200704)
I0528 16:51:14.969727  3267 net.cpp:165] Memory required for data: 232415264
I0528 16:51:14.969743  3267 layer_factory.hpp:77] Creating layer pool5
I0528 16:51:14.969769  3267 net.cpp:100] Creating Layer pool5
I0528 16:51:14.969772  3267 net.cpp:434] pool5 <- conv5_3
I0528 16:51:14.969775  3267 net.cpp:408] pool5 -> pool5
I0528 16:51:14.969810  3267 net.cpp:150] Setting up pool5
I0528 16:51:14.969815  3267 net.cpp:157] Top shape: 2 512 7 7 (50176)
I0528 16:51:14.969816  3267 net.cpp:165] Memory required for data: 232615968
I0528 16:51:14.969818  3267 layer_factory.hpp:77] Creating layer ip6
I0528 16:51:14.969839  3267 net.cpp:100] Creating Layer ip6
I0528 16:51:14.969842  3267 net.cpp:434] ip6 <- pool5
I0528 16:51:14.969846  3267 net.cpp:408] ip6 -> ip6
I0528 16:51:15.883136  3267 net.cpp:150] Setting up ip6
I0528 16:51:15.883157  3267 net.cpp:157] Top shape: 2 512 7 7 (50176)
I0528 16:51:15.883160  3267 net.cpp:165] Memory required for data: 232816672
I0528 16:51:15.883168  3267 layer_factory.hpp:77] Creating layer relu6
I0528 16:51:15.883175  3267 net.cpp:100] Creating Layer relu6
I0528 16:51:15.883178  3267 net.cpp:434] relu6 <- ip6
I0528 16:51:15.883183  3267 net.cpp:395] relu6 -> ip6 (in-place)
I0528 16:51:15.883541  3267 net.cpp:150] Setting up relu6
I0528 16:51:15.883548  3267 net.cpp:157] Top shape: 2 512 7 7 (50176)
I0528 16:51:15.883551  3267 net.cpp:165] Memory required for data: 233017376
I0528 16:51:15.883553  3267 layer_factory.hpp:77] Creating layer ip7
I0528 16:51:15.883563  3267 net.cpp:100] Creating Layer ip7
I0528 16:51:15.883564  3267 net.cpp:434] ip7 <- ip6
I0528 16:51:15.883569  3267 net.cpp:408] ip7 -> ip7
I0528 16:51:15.887464  3267 net.cpp:150] Setting up ip7
I0528 16:51:15.887472  3267 net.cpp:157] Top shape: 2 512 7 7 (50176)
I0528 16:51:15.887475  3267 net.cpp:165] Memory required for data: 233218080
I0528 16:51:15.887480  3267 layer_factory.hpp:77] Creating layer relu7
I0528 16:51:15.887485  3267 net.cpp:100] Creating Layer relu7
I0528 16:51:15.887488  3267 net.cpp:434] relu7 <- ip7
I0528 16:51:15.887491  3267 net.cpp:395] relu7 -> ip7 (in-place)
I0528 16:51:15.887773  3267 net.cpp:150] Setting up relu7
I0528 16:51:15.887779  3267 net.cpp:157] Top shape: 2 512 7 7 (50176)
I0528 16:51:15.887782  3267 net.cpp:165] Memory required for data: 233418784
I0528 16:51:15.887784  3267 layer_factory.hpp:77] Creating layer ip7_relu7_0_split
I0528 16:51:15.887789  3267 net.cpp:100] Creating Layer ip7_relu7_0_split
I0528 16:51:15.887790  3267 net.cpp:434] ip7_relu7_0_split <- ip7
I0528 16:51:15.887794  3267 net.cpp:408] ip7_relu7_0_split -> ip7_relu7_0_split_0
I0528 16:51:15.887799  3267 net.cpp:408] ip7_relu7_0_split -> ip7_relu7_0_split_1
I0528 16:51:15.887802  3267 net.cpp:408] ip7_relu7_0_split -> ip7_relu7_0_split_2
I0528 16:51:15.887841  3267 net.cpp:150] Setting up ip7_relu7_0_split
I0528 16:51:15.887845  3267 net.cpp:157] Top shape: 2 512 7 7 (50176)
I0528 16:51:15.887848  3267 net.cpp:157] Top shape: 2 512 7 7 (50176)
I0528 16:51:15.887850  3267 net.cpp:157] Top shape: 2 512 7 7 (50176)
I0528 16:51:15.887852  3267 net.cpp:165] Memory required for data: 234020896
I0528 16:51:15.887854  3267 layer_factory.hpp:77] Creating layer ip7_mbox_loc
I0528 16:51:15.887861  3267 net.cpp:100] Creating Layer ip7_mbox_loc
I0528 16:51:15.887862  3267 net.cpp:434] ip7_mbox_loc <- ip7_relu7_0_split_0
I0528 16:51:15.887866  3267 net.cpp:408] ip7_mbox_loc -> ip7_mbox_loc
I0528 16:51:15.890763  3267 net.cpp:150] Setting up ip7_mbox_loc
I0528 16:51:15.890770  3267 net.cpp:157] Top shape: 2 24 7 7 (2352)
I0528 16:51:15.890774  3267 net.cpp:165] Memory required for data: 234030304
I0528 16:51:15.890779  3267 layer_factory.hpp:77] Creating layer ip7_mbox_loc_perm
I0528 16:51:15.890784  3267 net.cpp:100] Creating Layer ip7_mbox_loc_perm
I0528 16:51:15.890785  3267 net.cpp:434] ip7_mbox_loc_perm <- ip7_mbox_loc
I0528 16:51:15.890789  3267 net.cpp:408] ip7_mbox_loc_perm -> ip7_mbox_loc_perm
I0528 16:51:15.890872  3267 net.cpp:150] Setting up ip7_mbox_loc_perm
I0528 16:51:15.890877  3267 net.cpp:157] Top shape: 2 7 7 24 (2352)
I0528 16:51:15.890878  3267 net.cpp:165] Memory required for data: 234039712
I0528 16:51:15.890892  3267 layer_factory.hpp:77] Creating layer ip7_mbox_loc_flat
I0528 16:51:15.890897  3267 net.cpp:100] Creating Layer ip7_mbox_loc_flat
I0528 16:51:15.890898  3267 net.cpp:434] ip7_mbox_loc_flat <- ip7_mbox_loc_perm
I0528 16:51:15.890902  3267 net.cpp:408] ip7_mbox_loc_flat -> ip7_mbox_loc_flat
I0528 16:51:15.890920  3267 net.cpp:150] Setting up ip7_mbox_loc_flat
I0528 16:51:15.890924  3267 net.cpp:157] Top shape: 2 1176 (2352)
I0528 16:51:15.890926  3267 net.cpp:165] Memory required for data: 234049120
I0528 16:51:15.890928  3267 layer_factory.hpp:77] Creating layer ip7_mbox_conf
I0528 16:51:15.890933  3267 net.cpp:100] Creating Layer ip7_mbox_conf
I0528 16:51:15.890936  3267 net.cpp:434] ip7_mbox_conf <- ip7_relu7_0_split_1
I0528 16:51:15.890939  3267 net.cpp:408] ip7_mbox_conf -> ip7_mbox_conf
I0528 16:51:15.893124  3267 net.cpp:150] Setting up ip7_mbox_conf
I0528 16:51:15.893132  3267 net.cpp:157] Top shape: 2 36 7 7 (3528)
I0528 16:51:15.893136  3267 net.cpp:165] Memory required for data: 234063232
I0528 16:51:15.893139  3267 layer_factory.hpp:77] Creating layer ip7_mbox_conf_perm
I0528 16:51:15.893144  3267 net.cpp:100] Creating Layer ip7_mbox_conf_perm
I0528 16:51:15.893146  3267 net.cpp:434] ip7_mbox_conf_perm <- ip7_mbox_conf
I0528 16:51:15.893151  3267 net.cpp:408] ip7_mbox_conf_perm -> ip7_mbox_conf_perm
I0528 16:51:15.893293  3267 net.cpp:150] Setting up ip7_mbox_conf_perm
I0528 16:51:15.893298  3267 net.cpp:157] Top shape: 2 7 7 36 (3528)
I0528 16:51:15.893299  3267 net.cpp:165] Memory required for data: 234077344
I0528 16:51:15.893302  3267 layer_factory.hpp:77] Creating layer ip7_mbox_conf_flat
I0528 16:51:15.893306  3267 net.cpp:100] Creating Layer ip7_mbox_conf_flat
I0528 16:51:15.893307  3267 net.cpp:434] ip7_mbox_conf_flat <- ip7_mbox_conf_perm
I0528 16:51:15.893311  3267 net.cpp:408] ip7_mbox_conf_flat -> ip7_mbox_conf_flat
I0528 16:51:15.893368  3267 net.cpp:150] Setting up ip7_mbox_conf_flat
I0528 16:51:15.893388  3267 net.cpp:157] Top shape: 2 1764 (3528)
I0528 16:51:15.893390  3267 net.cpp:165] Memory required for data: 234091456
I0528 16:51:15.893393  3267 layer_factory.hpp:77] Creating layer ip7_mbox_priorbox
I0528 16:51:15.893410  3267 net.cpp:100] Creating Layer ip7_mbox_priorbox
I0528 16:51:15.893412  3267 net.cpp:434] ip7_mbox_priorbox <- ip7_relu7_0_split_2
I0528 16:51:15.893415  3267 net.cpp:434] ip7_mbox_priorbox <- data_data_0_split_1
I0528 16:51:15.893419  3267 net.cpp:408] ip7_mbox_priorbox -> ip7_mbox_priorbox
I0528 16:51:15.893458  3267 net.cpp:150] Setting up ip7_mbox_priorbox
I0528 16:51:15.893462  3267 net.cpp:157] Top shape: 1 2 1176 (2352)
I0528 16:51:15.893465  3267 net.cpp:165] Memory required for data: 234100864
I0528 16:51:15.893466  3267 layer_factory.hpp:77] Creating layer mbox_loc
I0528 16:51:15.893492  3267 net.cpp:100] Creating Layer mbox_loc
I0528 16:51:15.893494  3267 net.cpp:434] mbox_loc <- ip7_mbox_loc_flat
I0528 16:51:15.893497  3267 net.cpp:408] mbox_loc -> mbox_loc
I0528 16:51:15.893537  3267 net.cpp:150] Setting up mbox_loc
I0528 16:51:15.893540  3267 net.cpp:157] Top shape: 2 1176 (2352)
I0528 16:51:15.893543  3267 net.cpp:165] Memory required for data: 234110272
I0528 16:51:15.893544  3267 layer_factory.hpp:77] Creating layer mbox_conf
I0528 16:51:15.893548  3267 net.cpp:100] Creating Layer mbox_conf
I0528 16:51:15.893550  3267 net.cpp:434] mbox_conf <- ip7_mbox_conf_flat
I0528 16:51:15.893553  3267 net.cpp:408] mbox_conf -> mbox_conf
I0528 16:51:15.893569  3267 net.cpp:150] Setting up mbox_conf
I0528 16:51:15.893574  3267 net.cpp:157] Top shape: 2 1764 (3528)
I0528 16:51:15.893576  3267 net.cpp:165] Memory required for data: 234124384
I0528 16:51:15.893579  3267 layer_factory.hpp:77] Creating layer mbox_priorbox
I0528 16:51:15.893580  3267 net.cpp:100] Creating Layer mbox_priorbox
I0528 16:51:15.893584  3267 net.cpp:434] mbox_priorbox <- ip7_mbox_priorbox
I0528 16:51:15.893586  3267 net.cpp:408] mbox_priorbox -> mbox_priorbox
I0528 16:51:15.893602  3267 net.cpp:150] Setting up mbox_priorbox
I0528 16:51:15.893611  3267 net.cpp:157] Top shape: 1 2 1176 (2352)
I0528 16:51:15.893615  3267 net.cpp:165] Memory required for data: 234133792
I0528 16:51:15.893616  3267 layer_factory.hpp:77] Creating layer mbox_loss
I0528 16:51:15.893625  3267 net.cpp:100] Creating Layer mbox_loss
I0528 16:51:15.893630  3267 net.cpp:434] mbox_loss <- mbox_loc
I0528 16:51:15.893631  3267 net.cpp:434] mbox_loss <- mbox_conf
I0528 16:51:15.893635  3267 net.cpp:434] mbox_loss <- mbox_priorbox
…
  name: "data"
  type: "AnnotatedData"
  top: "data"
  top: "label"
  include {
    phase: TEST
  }
  transform_param {
    scale: 0.12156863
    resize_param {
      prob: 1
      resize_mode: WARP
      height: 224
      width: 224
      interp_mode: LINEAR
    }
  }
  data_param {
    source: "/home/zhangwanchun/data/VOCdevkit/VOC0712/lmdb/VOC0712_test_lmdb"
    batch_size: 10
    backend: LMDB
  }
  annotated_data_param {
    batch_sampler {
    }
    label_map_file: "/home/zhangwanchun/data/VOCdevkit/VOC0712/lmdb/labelmap_voc.prototxt"
  }
}
layer {
  name: "conv1_1"
  type: "QuantConvolution"
  bottom: "data"
  top: "conv1_1"
  convolution_param {
    num_output: 64
    pad: 1
    kernel_size: 3
    weight_filler {
      type: "xavier"
    }
    bias_filler {
      type: "constant"
      value: 0
    }
  }
  quant_convolution_param {
    coef_precision: THREE_BITS
    bw_params: 8
    shift_enable: false
  }
}
layer {
  name: "quant_relu1_1"
  type: "QuantReLU"
  bottom: "conv1_1"
  top: "conv1_1"
  param {
    lr_mult: 5
  }
  quant_relu_param {
    filler {
      type: "constant"
      value: 31
    }
    channel_shared: true
    act_bits: 5
    quant_enable: false
  }
}
layer {
  name: "conv1_2"
  type: "QuantConvolution"
  bottom: "conv1_1"
  top: "conv1_2"
  convolution_param {
    num_output: 64
    pad: 1
    kernel_size: 3
    weight_filler {
      type: "xavier"
    }
    bias_filler {
      type: "constant"
      value: 0
    }
  }
  quant_convolution_param {
    coef_precision: THREE_BITS
    bw_params: 8
    shift_enable: false
  }
}
layer {
  name: "quant_relu1_2"
  type: "QuantReLU"
  bottom: "conv1_2"
  top: "conv1_2"
  param {
    lr_mult: 5
  }
  quant_relu_param {
    filler {
      type: "constant"
      value: 31
    }
    channel_shared: true
    act_bits: 5
    quant_enable: false
  }
}
layer {
  name: "pool1"
  type: "Pooling"
  bottom: "conv1_2"
  top: "pool1"
  pooling_param {
    pool: MAX
    kernel_size: 2
    stride: 2
  }
}
layer {
  name: "conv2_1"
  type: "QuantConvolution"
  bottom: "pool1"
  top: "conv2_1"
  convolution_param {
    num_output: 128
    pad: 1
    kernel_size: 3
    weight_filler {
      type: "xavier"
    }
    bias_filler {
      type: "constant"
      value: 0
    }
  }
  quant_convolution_param {
    coef_precision: THREE_BITS
    bw_params: 8
    shift_enable: false
  }
}
layer {
  name: "quant_relu2_1"
  type: "QuantReLU"
  bottom: "conv2_1"
  top: "conv2_1"
  param {
    lr_mult: 5
  }
  quant_relu_param {
    filler {
      type: "constant"
      value: 65.934
    }
    channel_shared: true
    act_bits: 5
    quant_enable: false
  }
}
layer {
  name: "conv2_2"
  type: "QuantConvolution"
  bottom: "conv2_1"
  top: "conv2_2"
  convolution_param {
    num_output: 128
    pad: 1
    kernel_size: 3
    weight_filler {
      type: "xavier"
    }
    bias_filler {
      type: "constant"
      value: 0
    }
  }
  quant_convolution_param {
    coef_precision: THREE_BITS
    bw_params: 8
    shift_enable: false
  }
}
layer {
  name: "quant_relu2_2"
  type: "QuantReLU"
  bottom: "conv2_2"
  top: "conv2_2"
  param {
    lr_mult: 5
  }
  quant_relu_param {
    filler {
      type: "constant"
      value: 107.992
    }
    channel_shared: true
    act_bits: 5
    quant_enable: false
  }
}
layer {
  name: "pool2"
  type: "Pooling"
  bottom: "conv2_2"
  top: "pool2"
  pooling_param {
    pool: MAX
    kernel_size: 2
    stride: 2
  }
}
layer {
  name: "conv3_1"
  type: "QuantConvolution"
  bottom: "pool2"
  top: "conv3_1"
  convolution_param {
    num_output: 256
    pad: 1
    kernel_size: 3
    weight_filler {
      type: "xavier"
    }
    bias_filler {
      type: "constant"
      value: 0
    }
  }
  quant_convolution_param {
    coef_precision: THREE_BITS
    bw_params: 8
    shift_enable: false
  }
}
layer {
  name: "quant_relu3_1"
  type: "QuantReLU"
  bottom: "conv3_1"
  top: "conv3_1"
  param {
    lr_mult: 5
  }
  quant_relu_param {
    filler {
      type: "constant"
      value: 115.32
    }
    channel_shared: true
    act_bits: 5
    quant_enable: false
  }
}
layer {
  name: "conv3_2"
  type: "QuantConvolution"
  bottom: "conv3_1"
  top: "conv3_2"
  convolution_param {
    num_output: 256
    pad: 1
    kernel_size: 3
    weight_filler {
      type: "xavier"
    }
    bias_filler {
      type: "constant"
      value: 0
    }
  }
  quant_convolution_param {
    coef_precision: THREE_BITS
    bw_params: 8
    shift_enable: false
  }
}
layer {
  name: "quant_relu3_2"
  type: "QuantReLU"
  bottom: "conv3_2"
  top: "conv3_2"
  param {
    lr_mult: 0
  }
  quant_relu_param {
    filler {
      type: "constant"
      value: 31
    }
    channel_shared: true
    act_bits: 5
    quant_enable: false
  }
}
layer {
  name: "conv3_3"
  type: "QuantConvolution"
  bottom: "conv3_2"
  top: "conv3_3"
  convolution_param {
    num_output: 256
    pad: 1
    kernel_size: 3
    weight_filler {
      type: "xavier"
    }
    bias_filler {
      type: "constant"
      value: 0
    }
  }
  quant_convolution_param {
    coef_precision: THREE_BITS
    bw_params: 8
    shift_enable: false
  }
}
layer {
  name: "quant_relu3_3"
  type: "QuantReLU"
  bottom: "conv3_3"
  top: "conv3_3"
  param {
    lr_mult: 0
  }
  quant_relu_param {
    filler {
      type: "constant"
      value: 31
    }
    channel_shared: true
    act_bits: 5
    quant_enable: false
  }
}
layer {
  name: "pool3"
  type: "Pooling"
  bottom: "conv3_3"
  top: "pool3"
  pooling_param {
    pool: MAX
    kernel_size: 2
    stride: 2
  }
}
layer {
  name: "conv4_1"
  type: "QuantConvolution"
  bottom: "pool3"
  top: "conv4_1"
  convolution_param {
    num_output: 512
    pad: 1
    kernel_size: 3
    weight_filler {
      type: "xavier"
    }
    bias_filler {
      type: "constant"
      value: 0
    }
  }
  quant_convolution_param {
    coef_precision: ONE_BIT
    bw_params: 8
    shift_enable: false
  }
}
layer {
  name: "quant_relu4_1"
  type: "QuantReLU"
  bottom: "conv4_1"
  top: "conv4_1"
  param {
    lr_mult: 0
  }
  quant_relu_param {
    filler {
      type: "constant"
      value: 31
    }
    channel_shared: true
    act_bits: 5
    quant_enable: false
  }
}
layer {
  name: "conv4_2"
  type: "QuantConvolution"
  bottom: "conv4_1"
  top: "conv4_2"
  convolution_param {
    num_output: 512
    pad: 1
    kernel_size: 3
    weight_filler {
      type: "xavier"
    }
    bias_filler {
      type: "constant"
      value: 0
    }
  }
  quant_convolution_param {
    coef_precision: ONE_BIT
    bw_params: 8
    shift_enable: false
  }
}
layer {
  name: "quant_relu4_2"
  type: "QuantReLU"
  bottom: "conv4_2"
  top: "conv4_2"
  param {
    lr_mult: 0
  }
  quant_relu_param {
    filler {
      type: "constant"
      value: 31
    }
    channel_shared: true
    act_bits: 5
    quant_enable: false
  }
}
layer {
  name: "conv4_3"
  type: "QuantConvolution"
  bottom: "conv4_2"
  top: "conv4_3"
  convolution_param {
    num_output: 512
    pad: 1
    kernel_size: 3
    weight_filler {
      type: "xavier"
    }
    bias_filler {
      type: "constant"
      value: 0
    }
  }
  quant_convolution_param {
    coef_precision: ONE_BIT
    bw_params: 8
    shift_enable: false
  }
}
layer {
  name: "quant_relu4_3"
  type: "QuantReLU"
  bottom: "conv4_3"
  top: "conv4_3"
  param {
    lr_mult: 0
  }
  quant_relu_param {
    filler {
      type: "constant"
      value: 31
    }
    channel_shared: true
    act_bits: 5
    quant_enable: false
  }
}
layer {
  name: "pool4"
  type: "Pooling"
  bottom: "conv4_3"
  top: "pool4"
  pooling_param {
    pool: MAX
    kernel_size: 2
    stride: 2
  }
}
layer {
  name: "conv5_1"
  type: "QuantConvolution"
  bottom: "pool4"
  top: "conv5_1"
  convolution_param {
    num_output: 512
    pad: 1
    kernel_size: 3
    weight_filler {
      type: "xavier"
    }
    bias_filler {
      type: "constant"
      value: 0
    }
  }
  quant_convolution_param {
    coef_precision: ONE_BIT
    bw_params: 8
    shift_enable: false
  }
}
layer {
  name: "quant_relu5_1"
  type: "QuantReLU"
  bottom: "conv5_1"
  top: "conv5_1"
  param {
    lr_mult: 0
  }
  quant_relu_param {
    filler {
      type: "constant"
      value: 31
    }
    channel_shared: true
    act_bits: 5
    quant_enable: false
  }
}
layer {
  name: "conv5_2"
  type: "QuantConvolution"
  bottom: "conv5_1"
  top: "conv5_2"
  param {
    lr_mult: 1
    decay_mult: 0
  }
  param {
    lr_mult: 1
    decay_mult: 1
  }
  convolution_param {
    num_output: 512
    pad: 1
    kernel_size: 3
    weight_filler {
      type: "xavier"
    }
    bias_filler {
      type: "constant"
      value: 0
    }
  }
  quant_convolution_param {
    coef_precision: ONE_BIT
    bw_params: 8
    shift_enable: false
  }
}
layer {
  name: "quant_relu5_2"
  type: "QuantReLU"
  bottom: "conv5_2"
  top: "conv5_2"
  param {
    lr_mult: 0
  }
  quant_relu_param {
    filler {
      type: "constant"
      value: 31
    }
    channel_shared: true
    act_bits: 5
    quant_enable: false
  }
}
layer {
  name: "conv5_3"
  type: "QuantConvolution"
  bottom: "conv5_2"
  top: "conv5_3"
  param {
    lr_mult: 1
    decay_mult: 0
  }
  param {
    lr_mult: 1
    decay_mult: 200
  }
  convolution_param {
    num_output: 512
    pad: 1
    kernel_size: 3
    weight_filler {
      type: "xavier"
    }
    bias_filler {
      type: "constant"
      value: 0
    }
  }
  quant_convolution_param {
    coef_precision: ONE_BIT
    bw_params: 8
    shift_enable: false
  }
}
layer {
  name: "quant_relu5_3"
  type: "QuantReLU"
  bottom: "conv5_3"
  top: "conv5_3"
  param {
    lr_mult: 5
  }
  quant_relu_param {
    filler {
      type: "constant"
      value: 29.225
    }
    channel_shared: true
    act_bits: 5
    quant_enable: false
  }
}
layer {
  name: "pool5"
  type: "Pooling"
  bottom: "conv5_3"
  top: "pool5"
  pooling_param {
    pool: MAX
    kernel_size: 2
    stride: 2
  }
}
layer {
  name: "ip6"
  type: "Convolution"
  bottom: "pool5"
  top: "ip6"
  param {
    lr_mult: 1
    decay_mult: 1
  }
  param {
    lr_mult: 2
    decay_mult: 0
  }
  convolution_param {
    num_output: 512
    pad: 1
    kernel_size: 3
    weight_filler {
      type: "xavier"
    }
    bias_filler {
      type: "constant"
      value: 0
    }
  }
}
layer {
  name: "relu6"
  type: "ReLU"
  bottom: "ip6"
  top: "ip6"
}
layer {
  name: "ip7"
  type: "Convolution"
  bottom: "ip6"
  top: "ip7"
  param {
    lr_mult: 1
    decay_mult: 1
  }
  param {
    lr_mult: 2
    decay_mult: 0
  }
  convolution_param {
    num_output: 512
    kernel_size: 1
    weight_filler {
      type: "xavier"
    }
    bias_filler {
      type: "constant"
      value: 0
    }
  }
}
layer {
  name: "relu7"
  type: "ReLU"
  bottom: "ip7"
  top: "ip7"
}
layer {
  name: "ip7_mbox_loc"
  type: "Convolution"
  bottom: "ip7"
  top: "ip7_mbox_loc"
  param {
    lr_mult: 1
    decay_mult: 1
  }
  param {
    lr_mult: 2
    decay_mult: 0
  }
  convolution_param {
    num_output: 24
    pad: 1
    kernel_size: 3
    stride: 1
    weight_filler {
      type: "xavier"
    }
    bias_filler {
      type: "constant"
      value: 0
    }
  }
}
layer {
  name: "ip7_mbox_loc_perm"
  type: "Permute"
  bottom: "ip7_mbox_loc"
  top: "ip7_mbox_loc_perm"
  permute_param {
    order: 0
    order: 2
    order: 3
    order: 1
  }
}
layer {
  name: "ip7_mbox_loc_flat"
  type: "Flatten"
  bottom: "ip7_mbox_loc_perm"
  top: "ip7_mbox_loc_flat"
  flatten_param {
    axis: 1
  }
}
layer {
  name: "ip7_mbox_conf"
  type: "Convolution"
  bottom: "ip7"
  top: "ip7_mbox_conf"
  param {
    lr_mult: 1
    decay_mult: 1
  }
  param {
    lr_mult: 2
    decay_mult: 0
  }
  convolution_param {
    num_output: 36
    pad: 1
    kernel_size: 3
    stride: 1
    weight_filler {
      type: "xavier"
    }
    bias_filler {
      type: "constant"
      value: 0
    }
  }
}
layer {
  name: "ip7_mbox_conf_perm"
  type: "Permute"
  bottom: "ip7_mbox_conf"
  top: "ip7_mbox_conf_perm"
  permute_param {
    order: 0
    order: 2
    order: 3
    order: 1
  }
}
layer {
  name: "ip7_mbox_conf_flat"
  type: "Flatten"
  bottom: "ip7_mbox_conf_perm"
  top: "ip7_mbox_conf_flat"
  flatten_param {
    axis: 1
  }
}
layer {
  name: "ip7_mbox_priorbox"
  type: "PriorBox"
  bottom: "ip7"
  bottom: "data"
  top: "ip7_mbox_priorbox"
  prior_box_param {
    min_size: 20
    max_size: 210
    aspect_ratio: 2
    aspect_ratio: 3
    flip: true
    clip: false
    variance: 0.1
    variance: 0.1
    variance: 0.2
    variance: 0.2
    step: 32
    offset: 0.5
  }
}
layer {
  name: "mbox_loc"
  type: "Concat"
  bottom: "ip7_mbox_loc_flat"
  top: "mbox_loc"
  concat_param {
    axis: 1
  }
}
layer {
  name: "mbox_conf"
  type: "Concat"
  bottom: "ip7_mbox_conf_flat"
  top: "mbox_conf"
  concat_param {
    axis: 1
  }
}
layer {
  name: "mbox_priorbox"
  type: "Concat"
  bottom: "ip7_mbox_priorbox"
  top: "mbox_priorbox"
  concat_param {
    axis: 2
  }
}
layer {
  name: "mbox_conf_reshape"
  type: "Reshape"
  bottom: "mbox_conf"
  top: "mbox_conf_reshape"
  reshape_param {
    shape {
      dim: 0
      dim: -1
      dim: 6
    }
  }
}
layer {
  name: "mbox_conf_softmax"
  type: "Softmax"
  bottom: "mbox_conf_reshape"
  top: "mbox_conf_softmax"
  softmax_param {
    axis: 2
  }
}
layer {
  name: "mbox_conf_flatten"
  type: "Flatten"
  bottom: "mbox_conf_softmax"
  top: "mbox_conf_flatten"
  flatten_param {
    axis: 1
  }
}
layer {
  name: "detection_out"
  type: "DetectionOutput"
  bottom: "mbox_loc"
  bottom: "mbox_conf_flatten"
  bottom: "mbox_priorbox"
  top: "detection_out"
  include {
    phase: TEST
  }
  detection_output_param {
    num_classes: 6
    share_location: true
    background_label_id: 0
    nms_param {
      nms_threshold: 0.45
      top_k: 400
    }
    code_type: CENTER_SIZE
    keep_top_k: 200
    confidence_threshold: 0.01
  }
}
layer {
  name: "detection_eval"
  type: "DetectionEvaluate"
  bottom: "detection_out"
  bottom: "label"
  top: "detection_eval"
  include {
    phase: TEST
  }
  detection_evaluate_param {
    num_classes: 6
    background_label_id: 0
    overlap_threshold: 0.5
    evaluate_difficult_gt: false
    name_size_file: "/home/zhangwanchun/data/VOCdevkit/VOC0712/lmdb/test_name_size.txt"
  }
}
I0528 16:51:15.895586  3267 layer_factory.hpp:77] Creating layer data
I0528 16:51:15.895634  3267 net.cpp:100] Creating Layer data
I0528 16:51:15.895640  3267 net.cpp:408] data -> data
I0528 16:51:15.895646  3267 net.cpp:408] data -> label
I0528 16:51:15.897011  3368 db_lmdb.cpp:35] Opened lmdb /home/zhangwanchun/data/VOCdevkit/VOC0712/lmdb/VOC0712_test_lmdb
I0528 16:51:15.898573  3267 annotated_data_layer.cpp:62] output data size: 10,3,224,224
I0528 16:51:15.905285  3267 net.cpp:150] Setting up data
I0528 16:51:15.905303  3267 net.cpp:157] Top shape: 10 3 224 224 (1505280)
I0528 16:51:15.905306  3267 net.cpp:157] Top shape: 1 1 1 8 (8)
I0528 16:51:15.905308  3267 net.cpp:165] Memory required for data: 6021152
I0528 16:51:15.905325  3267 layer_factory.hpp:77] Creating layer data_data_0_split
I0528 16:51:15.905333  3267 net.cpp:100] Creating Layer data_data_0_split
I0528 16:51:15.905336  3267 net.cpp:434] data_data_0_split <- data
I0528 16:51:15.905356  3267 net.cpp:408] data_data_0_split -> data_data_0_split_0
I0528 16:51:15.905364  3267 net.cpp:408] data_data_0_split -> data_data_0_split_1
I0528 16:51:15.905532  3267 net.cpp:150] Setting up data_data_0_split
I0528 16:51:15.905542  3267 net.cpp:157] Top shape: 10 3 224 224 (1505280)
I0528 16:51:15.905545  3267 net.cpp:157] Top shape: 10 3 224 224 (1505280)
I0528 16:51:15.905548  3267 net.cpp:165] Memory required for data: 18063392
I0528 16:51:15.905550  3267 layer_factory.hpp:77] Creating layer conv1_1
I0528 16:51:15.905558  3267 net.cpp:100] Creating Layer conv1_1
I0528 16:51:15.905560  3267 net.cpp:434] conv1_1 <- data_data_0_split_0
I0528 16:51:15.905589  3267 net.cpp:408] conv1_1 -> conv1_1
I0528 16:51:15.905828  3267 net.cpp:150] Setting up conv1_1
I0528 16:51:15.905833  3267 net.cpp:157] Top shape: 10 64 224 224 (32112640)
I0528 16:51:15.905835  3267 net.cpp:165] Memory required for data: 146513952
I0528 16:51:15.905843  3267 layer_factory.hpp:77] Creating layer quant_relu1_1
I0528 16:51:15.905848  3267 net.cpp:100] Creating Layer quant_relu1_1
I0528 16:51:15.905849  3267 net.cpp:434] quant_relu1_1 <- conv1_1
I0528 16:51:15.905853  3267 net.cpp:395] quant_relu1_1 -> conv1_1 (in-place)
I0528 16:51:15.909351  3267 net.cpp:150] Setting up quant_relu1_1
I0528 16:51:15.909379  3267 net.cpp:157] Top shape: 10 64 224 224 (32112640)
I0528 16:51:15.909382  3267 net.cpp:165] Memory required for data: 274964512
I0528 16:51:15.909390  3267 layer_factory.hpp:77] Creating layer conv1_2
I0528 16:51:15.909399  3267 net.cpp:100] Creating Layer conv1_2
I0528 16:51:15.909404  3267 net.cpp:434] conv1_2 <- conv1_1
I0528 16:51:15.909409  3267 net.cpp:408] conv1_2 -> conv1_2
I0528 16:51:15.909855  3267 net.cpp:150] Setting up conv1_2
I0528 16:51:15.909862  3267 net.cpp:157] Top shape: 10 64 224 224 (32112640)
I0528 16:51:15.909878  3267 net.cpp:165] Memory required for data: 403415072
I0528 16:51:15.909884  3267 layer_factory.hpp:77] Creating layer quant_relu1_2
I0528 16:51:15.909888  3267 net.cpp:100] Creating Layer quant_relu1_2
I0528 16:51:15.909890  3267 net.cpp:434] quant_relu1_2 <- conv1_2
I0528 16:51:15.909893  3267 net.cpp:395] quant_relu1_2 -> conv1_2 (in-place)
I0528 16:51:15.914546  3267 net.cpp:150] Setting up quant_relu1_2
I0528 16:51:15.914562  3267 net.cpp:157] Top shape: 10 64 224 224 (32112640)
I0528 16:51:15.914564  3267 net.cpp:165] Memory required for data: 531865632
I0528 16:51:15.914572  3267 layer_factory.hpp:77] Creating layer pool1
I0528 16:51:15.914577  3267 net.cpp:100] Creating Layer pool1
I0528 16:51:15.914580  3267 net.cpp:434] pool1 <- conv1_2
I0528 16:51:15.914584  3267 net.cpp:408] pool1 -> pool1
I0528 16:51:15.914640  3267 net.cpp:150] Setting up pool1
I0528 16:51:15.914644  3267 net.cpp:157] Top shape: 10 64 112 112 (8028160)
I0528 16:51:15.914669  3267 net.cpp:165] Memory required for data: 563978272
I0528 16:51:15.914670  3267 layer_factory.hpp:77] Creating layer conv2_1
I0528 16:51:15.914693  3267 net.cpp:100] Creating Layer conv2_1
I0528 16:51:15.914695  3267 net.cpp:434] conv2_1 <- pool1
I0528 16:51:15.914700  3267 net.cpp:408] conv2_1 -> conv2_1
I0528 16:51:15.915200  3267 net.cpp:150] Setting up conv2_1
I0528 16:51:15.915206  3267 net.cpp:157] Top shape: 10 128 112 112 (16056320)
I0528 16:51:15.915208  3267 net.cpp:165] Memory required for data: 628203552
I0528 16:51:15.915211  3267 layer_factory.hpp:77] Creating layer quant_relu2_1
I0528 16:51:15.915217  3267 net.cpp:100] Creating Layer quant_relu2_1
I0528 16:51:15.915220  3267 net.cpp:434] quant_relu2_1 <- conv2_1
I0528 16:51:15.915223  3267 net.cpp:395] quant_relu2_1 -> conv2_1 (in-place)
I0528 16:51:15.917088  3267 net.cpp:150] Setting up quant_relu2_1
I0528 16:51:15.917096  3267 net.cpp:157] Top shape: 10 128 112 112 (16056320)
I0528 16:51:15.917099  3267 net.cpp:165] Memory required for data: 692428832
I0528 16:51:15.917116  3267 layer_factory.hpp:77] Creating layer conv2_2
I0528 16:51:15.917121  3267 net.cpp:100] Creating Layer conv2_2
I0528 16:51:15.917124  3267 net.cpp:434] conv2_2 <- conv2_1
I0528 16:51:15.917129  3267 net.cpp:408] conv2_2 -> conv2_2
I0528 16:51:15.917886  3267 net.cpp:150] Setting up conv2_2
I0528 16:51:15.917891  3267 net.cpp:157] Top shape: 10 128 112 112 (16056320)
I0528 16:51:15.917893  3267 net.cpp:165] Memory required for data: 756654112
I0528 16:51:15.917898  3267 layer_factory.hpp:77] Creating layer quant_relu2_2
I0528 16:51:15.917901  3267 net.cpp:100] Creating Layer quant_relu2_2
I0528 16:51:15.917903  3267 net.cpp:434] quant_relu2_2 <- conv2_2
I0528 16:51:15.917906  3267 net.cpp:395] quant_relu2_2 -> conv2_2 (in-place)
I0528 16:51:15.920087  3267 net.cpp:150] Setting up quant_relu2_2
I0528 16:51:15.920099  3267 net.cpp:157] Top shape: 10 128 112 112 (16056320)
I0528 16:51:15.920101  3267 net.cpp:165] Memory required for data: 820879392
I0528 16:51:15.920106  3267 layer_factory.hpp:77] Creating layer pool2
I0528 16:51:15.920111  3267 net.cpp:100] Creating Layer pool2
I0528 16:51:15.920114  3267 net.cpp:434] pool2 <- conv2_2
I0528 16:51:15.920119  3267 net.cpp:408] pool2 -> pool2
I0528 16:51:15.920153  3267 net.cpp:150] Setting up pool2
I0528 16:51:15.920157  3267 net.cpp:157] Top shape: 10 128 56 56 (4014080)
I0528 16:51:15.920161  3267 net.cpp:165] Memory required for data: 836935712
I0528 16:51:15.920162  3267 layer_factory.hpp:77] Creating layer conv3_1
I0528 16:51:15.920166  3267 net.cpp:100] Creating Layer conv3_1
I0528 16:51:15.920168  3267 net.cpp:434] conv3_1 <- pool2
I0528 16:51:15.920172  3267 net.cpp:408] conv3_1 -> conv3_1
I0528 16:51:15.921919  3267 net.cpp:150] Setting up conv3_1
I0528 16:51:15.921926  3267 net.cpp:157] Top shape: 10 256 56 56 (8028160)
I0528 16:51:15.921929  3267 net.cpp:165] Memory required for data: 869048352
I0528 16:51:15.921933  3267 layer_factory.hpp:77] Creating layer quant_relu3_1
I0528 16:51:15.921938  3267 net.cpp:100] Creating Layer quant_relu3_1
I0528 16:51:15.921941  3267 net.cpp:434] quant_relu3_1 <- conv3_1
I0528 16:51:15.921943  3267 net.cpp:395] quant_relu3_1 -> conv3_1 (in-place)
I0528 16:51:15.922971  3267 net.cpp:150] Setting up quant_relu3_1
I0528 16:51:15.922978  3267 net.cpp:157] Top shape: 10 256 56 56 (8028160)
I0528 16:51:15.922981  3267 net.cpp:165] Memory required for data: 901160992
I0528 16:51:15.922983  3267 layer_factory.hpp:77] Creating layer conv3_2
I0528 16:51:15.922988  3267 net.cpp:100] Creating Layer conv3_2
I0528 16:51:15.922991  3267 net.cpp:434] conv3_2 <- conv3_1
I0528 16:51:15.922994  3267 net.cpp:408] conv3_2 -> conv3_2
I0528 16:51:15.925827  3267 net.cpp:150] Setting up conv3_2
I0528 16:51:15.925837  3267 net.cpp:157] Top shape: 10 256 56 56 (8028160)
I0528 16:51:15.925838  3267 net.cpp:165] Memory required for data: 933273632
I0528 16:51:15.925845  3267 layer_factory.hpp:77] Creating layer quant_relu3_2
I0528 16:51:15.925849  3267 net.cpp:100] Creating Layer quant_relu3_2
I0528 16:51:15.925853  3267 net.cpp:434] quant_relu3_2 <- conv3_2
I0528 16:51:15.925855  3267 net.cpp:395] quant_relu3_2 -> conv3_2 (in-place)
I0528 16:51:15.926916  3267 net.cpp:150] Setting up quant_relu3_2
I0528 16:51:15.926924  3267 net.cpp:157] Top shape: 10 256 56 56 (8028160)
I0528 16:51:15.926928  3267 net.cpp:165] Memory required for data: 965386272
I0528 16:51:15.926931  3267 layer_factory.hpp:77] Creating layer conv3_3
I0528 16:51:15.926937  3267 net.cpp:100] Creating Layer conv3_3
I0528 16:51:15.926940  3267 net.cpp:434] conv3_3 <- conv3_2
I0528 16:51:15.926944  3267 net.cpp:408] conv3_3 -> conv3_3
I0528 16:51:15.930591  3267 net.cpp:150] Setting up conv3_3
I0528 16:51:15.930600  3267 net.cpp:157] Top shape: 10 256 56 56 (8028160)
I0528 16:51:15.930603  3267 net.cpp:165] Memory required for data: 997498912
I0528 16:51:15.930608  3267 layer_factory.hpp:77] Creating layer quant_relu3_3
I0528 16:51:15.930613  3267 net.cpp:100] Creating Layer quant_relu3_3
I0528 16:51:15.930614  3267 net.cpp:434] quant_relu3_3 <- conv3_3
I0528 16:51:15.930629  3267 net.cpp:395] quant_relu3_3 -> conv3_3 (in-place)
I0528 16:51:15.931704  3267 net.cpp:150] Setting up quant_relu3_3
I0528 16:51:15.931712  3267 net.cpp:157] Top shape: 10 256 56 56 (8028160)
I0528 16:51:15.931715  3267 net.cpp:165] Memory required for data: 1029611552
I0528 16:51:15.931733  3267 layer_factory.hpp:77] Creating layer pool3
I0528 16:51:15.931740  3267 net.cpp:100] Creating Layer pool3
I0528 16:51:15.931741  3267 net.cpp:434] pool3 <- conv3_3
I0528 16:51:15.931744  3267 net.cpp:408] pool3 -> pool3
I0528 16:51:15.931777  3267 net.cpp:150] Setting up pool3
I0528 16:51:15.931782  3267 net.cpp:157] Top shape: 10 256 28 28 (2007040)
I0528 16:51:15.931783  3267 net.cpp:165] Memory required for data: 1037639712
I0528 16:51:15.931785  3267 layer_factory.hpp:77] Creating layer conv4_1
I0528 16:51:15.931790  3267 net.cpp:100] Creating Layer conv4_1
I0528 16:51:15.931792  3267 net.cpp:434] conv4_1 <- pool3
I0528 16:51:15.931797  3267 net.cpp:408] conv4_1 -> conv4_1
I0528 16:51:15.937157  3267 net.cpp:150] Setting up conv4_1
I0528 16:51:15.937166  3267 net.cpp:157] Top shape: 10 512 28 28 (4014080)
I0528 16:51:15.937170  3267 net.cpp:165] Memory required for data: 1053696032
I0528 16:51:15.937172  3267 layer_factory.hpp:77] Creating layer quant_relu4_1
I0528 16:51:15.937177  3267 net.cpp:100] Creating Layer quant_relu4_1
I0528 16:51:15.937180  3267 net.cpp:434] quant_relu4_1 <- conv4_1
I0528 16:51:15.937184  3267 net.cpp:395] quant_relu4_1 -> conv4_1 (in-place)
I0528 16:51:15.937918  3267 net.cpp:150] Setting up quant_relu4_1
I0528 16:51:15.937927  3267 net.cpp:157] Top shape: 10 512 28 28 (4014080)
I0528 16:51:15.937928  3267 net.cpp:165] Memory required for data: 1069752352
I0528 16:51:15.937932  3267 layer_factory.hpp:77] Creating layer conv4_2
I0528 16:51:15.937937  3267 net.cpp:100] Creating Layer conv4_2
I0528 16:51:15.937939  3267 net.cpp:434] conv4_2 <- conv4_1
I0528 16:51:15.937942  3267 net.cpp:408] conv4_2 -> conv4_2
I0528 16:51:15.949004  3267 net.cpp:150] Setting up conv4_2
I0528 16:51:15.949018  3267 net.cpp:157] Top shape: 10 512 28 28 (4014080)
I0528 16:51:15.949021  3267 net.cpp:165] Memory required for data: 1085808672
I0528 16:51:15.949026  3267 layer_factory.hpp:77] Creating layer quant_relu4_2
I0528 16:51:15.949033  3267 net.cpp:100] Creating Layer quant_relu4_2
I0528 16:51:15.949035  3267 net.cpp:434] quant_relu4_2 <- conv4_2
I0528 16:51:15.949039  3267 net.cpp:395] quant_relu4_2 -> conv4_2 (in-place)
I0528 16:51:15.949848  3267 net.cpp:150] Setting up quant_relu4_2
I0528 16:51:15.949857  3267 net.cpp:157] Top shape: 10 512 28 28 (4014080)
I0528 16:51:15.949859  3267 net.cpp:165] Memory required for data: 1101864992
I0528 16:51:15.949862  3267 layer_factory.hpp:77] Creating layer conv4_3
I0528 16:51:15.949868  3267 net.cpp:100] Creating Layer conv4_3
I0528 16:51:15.949872  3267 net.cpp:434] conv4_3 <- conv4_2
I0528 16:51:15.949874  3267 net.cpp:408] conv4_3 -> conv4_3
I0528 16:51:15.960276  3267 net.cpp:150] Setting up conv4_3
I0528 16:51:15.960289  3267 net.cpp:157] Top shape: 10 512 28 28 (4014080)
I0528 16:51:15.960291  3267 net.cpp:165] Memory required for data: 1117921312
I0528 16:51:15.960320  3267 layer_factory.hpp:77] Creating layer quant_relu4_3
I0528 16:51:15.960326  3267 net.cpp:100] Creating Layer quant_relu4_3
I0528 16:51:15.960330  3267 net.cpp:434] quant_relu4_3 <- conv4_3
I0528 16:51:15.960333  3267 net.cpp:395] quant_relu4_3 -> conv4_3 (in-place)
I0528 16:51:15.961107  3267 net.cpp:150] Setting up quant_relu4_3
I0528 16:51:15.961114  3267 net.cpp:157] Top shape: 10 512 28 28 (4014080)
I0528 16:51:15.961117  3267 net.cpp:165] Memory required for data: 1133977632
I0528 16:51:15.961122  3267 layer_factory.hpp:77] Creating layer pool4
I0528 16:51:15.961125  3267 net.cpp:100] Creating Layer pool4
I0528 16:51:15.961127  3267 net.cpp:434] pool4 <- conv4_3
I0528 16:51:15.961131  3267 net.cpp:408] pool4 -> pool4
I0528 16:51:15.961180  3267 net.cpp:150] Setting up pool4
I0528 16:51:15.961184  3267 net.cpp:157] Top shape: 10 512 14 14 (1003520)
I0528 16:51:15.961187  3267 net.cpp:165] Memory required for data: 1137991712
I0528 16:51:15.961220  3267 layer_factory.hpp:77] Creating layer conv5_1
I0528 16:51:15.961241  3267 net.cpp:100] Creating Layer conv5_1
I0528 16:51:15.961244  3267 net.cpp:434] conv5_1 <- pool4
I0528 16:51:15.961247  3267 net.cpp:408] conv5_1 -> conv5_1
I0528 16:51:15.971896  3267 net.cpp:150] Setting up conv5_1
I0528 16:51:15.971912  3267 net.cpp:157] Top shape: 10 512 14 14 (1003520)
I0528 16:51:15.971915  3267 net.cpp:165] Memory required for data: 1142005792
I0528 16:51:15.971920  3267 layer_factory.hpp:77] Creating layer quant_relu5_1
I0528 16:51:15.971927  3267 net.cpp:100] Creating Layer quant_relu5_1
I0528 16:51:15.971930  3267 net.cpp:434] quant_relu5_1 <- conv5_1
I0528 16:51:15.971935  3267 net.cpp:395] quant_relu5_1 -> conv5_1 (in-place)
I0528 16:51:15.972085  3267 net.cpp:150] Setting up quant_relu5_1
I0528 16:51:15.972090  3267 net.cpp:157] Top shape: 10 512 14 14 (1003520)
I0528 16:51:15.972092  3267 net.cpp:165] Memory required for data: 1146019872
I0528 16:51:15.972100  3267 layer_factory.hpp:77] Creating layer conv5_2
I0528 16:51:15.972105  3267 net.cpp:100] Creating Layer conv5_2
I0528 16:51:15.972107  3267 net.cpp:434] conv5_2 <- conv5_1
I0528 16:51:15.972111  3267 net.cpp:408] conv5_2 -> conv5_2
I0528 16:51:15.982857  3267 net.cpp:150] Setting up conv5_2
I0528 16:51:15.982872  3267 net.cpp:157] Top shape: 10 512 14 14 (1003520)
I0528 16:51:15.982874  3267 net.cpp:165] Memory required for data: 1150033952
I0528 16:51:15.982880  3267 layer_factory.hpp:77] Creating layer quant_relu5_2
I0528 16:51:15.982887  3267 net.cpp:100] Creating Layer quant_relu5_2
I0528 16:51:15.982892  3267 net.cpp:434] quant_relu5_2 <- conv5_2
I0528 16:51:15.982895  3267 net.cpp:395] quant_relu5_2 -> conv5_2 (in-place)
I0528 16:51:15.983006  3267 net.cpp:150] Setting up quant_relu5_2
I0528 16:51:15.983011  3267 net.cpp:157] Top shape: 10 512 14 14 (1003520)
I0528 16:51:15.983012  3267 net.cpp:165] Memory required for data: 1154048032
I0528 16:51:15.983016  3267 layer_factory.hpp:77] Creating layer conv5_3
I0528 16:51:15.983021  3267 net.cpp:100] Creating Layer conv5_3
I0528 16:51:15.983023  3267 net.cpp:434] conv5_3 <- conv5_2
I0528 16:51:15.983027  3267 net.cpp:408] conv5_3 -> conv5_3
I0528 16:51:15.993764  3267 net.cpp:150] Setting up conv5_3
I0528 16:51:15.993777  3267 net.cpp:157] Top shape: 10 512 14 14 (1003520)
I0528 16:51:15.993780  3267 net.cpp:165] Memory required for data: 1158062112
I0528 16:51:15.993784  3267 layer_factory.hpp:77] Creating layer quant_relu5_3
I0528 16:51:15.993791  3267 net.cpp:100] Creating Layer quant_relu5_3
I0528 16:51:15.993794  3267 net.cpp:434] quant_relu5_3 <- conv5_3
I0528 16:51:15.993798  3267 net.cpp:395] quant_relu5_3 -> conv5_3 (in-place)
I0528 16:51:15.993906  3267 net.cpp:150] Setting up quant_relu5_3
I0528 16:51:15.993911  3267 net.cpp:157] Top shape: 10 512 14 14 (1003520)
I0528 16:51:15.993912  3267 net.cpp:165] Memory required for data: 1162076192
I0528 16:51:15.993916  3267 layer_factory.hpp:77] Creating layer pool5
I0528 16:51:15.993921  3267 net.cpp:100] Creating Layer pool5
I0528 16:51:15.993924  3267 net.cpp:434] pool5 <- conv5_3
I0528 16:51:15.993927  3267 net.cpp:408] pool5 -> pool5
I0528 16:51:15.993958  3267 net.cpp:150] Setting up pool5
I0528 16:51:15.993963  3267 net.cpp:157] Top shape: 10 512 7 7 (250880)
I0528 16:51:15.993964  3267 net.cpp:165] Memory required for data: 1163079712
I0528 16:51:15.993968  3267 layer_factory.hpp:77] Creating layer ip6
I0528 16:51:15.993973  3267 net.cpp:100] Creating Layer ip6
I0528 16:51:15.993975  3267 net.cpp:434] ip6 <- pool5
I0528 16:51:15.993978  3267 net.cpp:408] ip6 -> ip6
I0528 16:51:16.006036  3267 net.cpp:150] Setting up ip6
I0528 16:51:16.006049  3267 net.cpp:157] Top shape: 10 512 7 7 (250880)
I0528 16:51:16.006052  3267 net.cpp:165] Memory required for data: 1164083232
I0528 16:51:16.006057  3267 layer_factory.hpp:77] Creating layer relu6
I0528 16:51:16.006063  3267 net.cpp:100] Creating Layer relu6
I0528 16:51:16.006067  3267 net.cpp:434] relu6 <- ip6
I0528 16:51:16.006086  3267 net.cpp:395] relu6 -> ip6 (in-place)
I0528 16:51:16.006414  3267 net.cpp:150] Setting up relu6
I0528 16:51:16.006422  3267 net.cpp:157] Top shape: 10 512 7 7 (250880)
I0528 16:51:16.006423  3267 net.cpp:165] Memory required for data: 1165086752
I0528 16:51:16.006426  3267 layer_factory.hpp:77] Creating layer ip7
I0528 16:51:16.006433  3267 net.cpp:100] Creating Layer ip7
I0528 16:51:16.006435  3267 net.cpp:434] ip7 <- ip6
I0528 16:51:16.006439  3267 net.cpp:408] ip7 -> ip7
I0528 16:51:16.010419  3267 net.cpp:150] Setting up ip7
I0528 16:51:16.010428  3267 net.cpp:157] Top shape: 10 512 7 7 (250880)
I0528 16:51:16.010432  3267 net.cpp:165] Memory required for data: 1166090272
I0528 16:51:16.010437  3267 layer_factory.hpp:77] Creating layer relu7
I0528 16:51:16.010440  3267 net.cpp:100] Creating Layer relu7
I0528 16:51:16.010443  3267 net.cpp:434] relu7 <- ip7
I0528 16:51:16.010447  3267 net.cpp:395] relu7 -> ip7 (in-place)
I0528 16:51:16.010738  3267 net.cpp:150] Setting up relu7
I0528 16:51:16.010746  3267 net.cpp:157] Top shape: 10 512 7 7 (250880)
I0528 16:51:16.010747  3267 net.cpp:165] Memory required for data: 1167093792
I0528 16:51:16.010751  3267 layer_factory.hpp:77] Creating layer ip7_relu7_0_split
I0528 16:51:16.010754  3267 net.cpp:100] Creating Layer ip7_relu7_0_split
I0528 16:51:16.010756  3267 net.cpp:434] ip7_relu7_0_split <- ip7
I0528 16:51:16.010759  3267 net.cpp:408] ip7_relu7_0_split -> ip7_relu7_0_split_0
I0528 16:51:16.010766  3267 net.cpp:408] ip7_relu7_0_split -> ip7_relu7_0_split_1
I0528 16:51:16.010768  3267 net.cpp:408] ip7_relu7_0_split -> ip7_relu7_0_split_2
I0528 16:51:16.010814  3267 net.cpp:150] Setting up ip7_relu7_0_split
I0528 16:51:16.010818  3267 net.cpp:157] Top shape: 10 512 7 7 (250880)
I0528 16:51:16.010823  3267 net.cpp:157] Top shape: 10 512 7 7 (250880)
I0528 16:51:16.010824  3267 net.cpp:157] Top shape: 10 512 7 7 (250880)
I0528 16:51:16.010826  3267 net.cpp:165] Memory required for data: 1170104352
I0528 16:51:16.010828  3267 layer_factory.hpp:77] Creating layer ip7_mbox_loc
I0528 16:51:16.010834  3267 net.cpp:100] Creating Layer ip7_mbox_loc
I0528 16:51:16.010836  3267 net.cpp:434] ip7_mbox_loc <- ip7_relu7_0_split_0
I0528 16:51:16.010840  3267 net.cpp:408] ip7_mbox_loc -> ip7_mbox_loc
I0528 16:51:16.013058  3267 net.cpp:150] Setting up ip7_mbox_loc
I0528 16:51:16.013067  3267 net.cpp:157] Top shape: 10 24 7 7 (11760)
I0528 16:51:16.013094  3267 net.cpp:165] Memory required for data: 1170151392
I0528 16:51:16.013099  3267 layer_factory.hpp:77] Creating layer ip7_mbox_loc_perm
I0528 16:51:16.013105  3267 net.cpp:100] Creating Layer ip7_mbox_loc_perm
I0528 16:51:16.013109  3267 net.cpp:434] ip7_mbox_loc_perm <- ip7_mbox_loc
I0528 16:51:16.013115  3267 net.cpp:408] ip7_mbox_loc_perm -> ip7_mbox_loc_perm
I0528 16:51:16.013234  3267 net.cpp:150] Setting up ip7_mbox_loc_perm
I0528 16:51:16.013238  3267 net.cpp:157] Top shape: 10 7 7 24 (11760)
I0528 16:51:16.013242  3267 net.cpp:165] Memory required for data: 1170198432
I0528 16:51:16.013243  3267 layer_factory.hpp:77] Creating layer ip7_mbox_loc_flat
I0528 16:51:16.013248  3267 net.cpp:100] Creating Layer ip7_mbox_loc_flat
I0528 16:51:16.013250  3267 net.cpp:434] ip7_mbox_loc_flat <- ip7_mbox_loc_perm
I0528 16:51:16.013254  3267 net.cpp:408] ip7_mbox_loc_flat -> ip7_mbox_loc_flat
I0528 16:51:16.013274  3267 net.cpp:150] Setting up ip7_mbox_loc_flat
I0528 16:51:16.013278  3267 net.cpp:157] Top shape: 10 1176 (11760)
I0528 16:51:16.013280  3267 net.cpp:165] Memory required for data: 1170245472
I0528 16:51:16.013283  3267 layer_factory.hpp:77] Creating layer ip7_mbox_conf
I0528 16:51:16.013288  3267 net.cpp:100] Creating Layer ip7_mbox_conf
I0528 16:51:16.013316  3267 net.cpp:434] ip7_mbox_conf <- ip7_relu7_0_split_1
I0528 16:51:16.013322  3267 net.cpp:408] ip7_mbox_conf -> ip7_mbox_conf
I0528 16:51:16.015846  3267 net.cpp:150] Setting up ip7_mbox_conf
I0528 16:51:16.015853  3267 net.cpp:157] Top shape: 10 36 7 7 (17640)
I0528 16:51:16.015856  3267 net.cpp:165] Memory required for data: 1170316032
I0528 16:51:16.015861  3267 layer_factory.hpp:77] Creating layer ip7_mbox_conf_perm
I0528 16:51:16.015873  3267 net.cpp:100] Creating Layer ip7_mbox_conf_perm
I0528 16:51:16.015877  3267 net.cpp:434] ip7_mbox_conf_perm <- ip7_mbox_conf
I0528 16:51:16.015882  3267 net.cpp:408] ip7_mbox_conf_perm -> ip7_mbox_conf_perm
I0528 16:51:16.015978  3267 net.cpp:150] Setting up ip7_mbox_conf_perm
I0528 16:51:16.015985  3267 net.cpp:157] Top shape: 10 7 7 36 (17640)
I0528 16:51:16.015987  3267 net.cpp:165] Memory required for data: 1170386592
I0528 16:51:16.015990  3267 layer_factory.hpp:77] Creating layer ip7_mbox_conf_flat
I0528 16:51:16.015995  3267 net.cpp:100] Creating Layer ip7_mbox_conf_flat
I0528 16:51:16.015997  3267 net.cpp:434] ip7_mbox_conf_flat <- ip7_mbox_conf_perm
I0528 16:51:16.016001  3267 net.cpp:408] ip7_mbox_conf_flat -> ip7_mbox_conf_flat
I0528 16:51:16.016024  3267 net.cpp:150] Setting up ip7_mbox_conf_flat
I0528 16:51:16.016031  3267 net.cpp:157] Top shape: 10 1764 (17640)
I0528 16:51:16.016033  3267 net.cpp:165] Memory required for data: 1170457152
I0528 16:51:16.016036  3267 layer_factory.hpp:77] Creating layer ip7_mbox_priorbox
I0528 16:51:16.016039  3267 net.cpp:100] Creating Layer ip7_mbox_priorbox
I0528 16:51:16.016042  3267 net.cpp:434] ip7_mbox_priorbox <- ip7_relu7_0_split_2
I0528 16:51:16.016046  3267 net.cpp:434] ip7_mbox_priorbox <- data_data_0_split_1
I0528 16:51:16.016050  3267 net.cpp:408] ip7_mbox_priorbox -> ip7_mbox_priorbox
I0528 16:51:16.016072  3267 net.cpp:150] Setting up ip7_mbox_priorbox
I0528 16:51:16.016077  3267 net.cpp:157] Top shape: 1 2 1176 (2352)
I0528 16:51:16.016080  3267 net.cpp:165] Memory required for data: 1170466560
I0528 16:51:16.016083  3267 layer_factory.hpp:77] Creating layer mbox_loc
I0528 16:51:16.016085  3267 net.cpp:100] Creating Layer mbox_loc
I0528 16:51:16.016088  3267 net.cpp:434] mbox_loc <- ip7_mbox_loc_flat
I0528 16:51:16.016095  3267 net.cpp:408] mbox_loc -> mbox_loc
I0528 16:51:16.016135  3267 net.cpp:150] Setting up mbox_loc
I0528 16:51:16.016139  3267 net.cpp:157] Top shape: 10 1176 (11760)
I0528 16:51:16.016155  3267 net.cpp:165] Memory required for data: 1170513600
I0528 16:51:16.016157  3267 layer_factory.hpp:77] Creating layer mbox_conf
I0528 16:51:16.016160  3267 net.cpp:100] Creating Layer mbox_conf
I0528 16:51:16.016162  3267 net.cpp:434] mbox_conf <- ip7_mbox_conf_flat
I0528 16:51:16.016165  3267 net.cpp:408] mbox_conf -> mbox_conf
I0528 16:51:16.016185  3267 net.cpp:150] Setting up mbox_conf
I0528 16:51:16.016189  3267 net.cpp:157] Top shape: 10 1764 (17640)
I0528 16:51:16.016191  3267 net.cpp:165] Memory required for data: 1170584160
I0528 16:51:16.016193  3267 layer_factory.hpp:77] Creating layer mbox_priorbox
I0528 16:51:16.016196  3267 net.cpp:100] Creating Layer mbox_priorbox
I0528 16:51:16.016198  3267 net.cpp:434] mbox_priorbox <- ip7_mbox_priorbox
I0528 16:51:16.016201  3267 net.cpp:408] mbox_priorbox -> mbox_priorbox
I0528 16:51:16.016444  3267 net.cpp:150] Setting up mbox_priorbox
I0528 16:51:16.016451  3267 net.cpp:157] Top shape: 1 2 1176 (2352)
I0528 16:51:16.016453  3267 net.cpp:165] Memory required for data: 1170593568
I0528 16:51:16.016455  3267 layer_factory.hpp:77] Creating layer mbox_conf_reshape
I0528 16:51:16.016461  3267 net.cpp:100] Creating Layer mbox_conf_reshape
I0528 16:51:16.016465  3267 net.cpp:434] mbox_conf_reshape <- mbox_conf
I0528 16:51:16.016469  3267 net.cpp:408] mbox_conf_reshape -> mbox_conf_reshape
I0528 16:51:16.016551  3267 net.cpp:150] Setting up mbox_conf_reshape
I0528 16:51:16.016556  3267 net.cpp:157] Top shape: 10 294 6 (17640)
I0528 16:51:16.016558  3267 net.cpp:165] Memory required for data: 1170664128
I0528 16:51:16.016561  3267 layer_factory.hpp:77] Creating layer mbox_conf_softmax
I0528 16:51:16.016566  3267 net.cpp:100] Creating Layer mbox_conf_softmax
I0528 16:51:16.016569  3267 net.cpp:434] mbox_conf_softmax <- mbox_conf_reshape
I0528 16:51:16.016573  3267 net.cpp:408] mbox_conf_softmax -> mbox_conf_softmax
I0528 16:51:16.018632  3267 net.cpp:150] Setting up mbox_conf_softmax
I0528 16:51:16.018641  3267 net.cpp:157] Top shape: 10 294 6 (17640)
I0528 16:51:16.018669  3267 net.cpp:165] Memory required for data: 1170734688
I0528 16:51:16.018673  3267 layer_factory.hpp:77] Creating layer mbox_conf_flatten
I0528 16:51:16.018678  3267 net.cpp:100] Creating Layer mbox_conf_flatten
I0528 16:51:16.018682  3267 net.cpp:434] mbox_conf_flatten <- mbox_conf_softmax
I0528 16:51:16.018687  3267 net.cpp:408] mbox_conf_flatten -> mbox_conf_flatten
I0528 16:51:16.018712  3267 net.cpp:150] Setting up mbox_conf_flatten
I0528 16:51:16.018730  3267 net.cpp:157] Top shape: 10 1764 (17640)
I0528 16:51:16.018733  3267 net.cpp:165] Memory required for data: 1170805248
I0528 16:51:16.018734  3267 layer_factory.hpp:77] Creating layer detection_out
I0528 16:51:16.018766  3267 net.cpp:100] Creating Layer detection_out
I0528 16:51:16.018769  3267 net.cpp:434] detection_out <- mbox_loc
I0528 16:51:16.018772  3267 net.cpp:434] detection_out <- mbox_conf_flatten
I0528 16:51:16.018774  3267 net.cpp:434] detection_out <- mbox_priorbox
I0528 16:51:16.018780  3267 net.cpp:408] detection_out -> detection_out
11111
I0528 16:51:16.018841  3267 net.cpp:150] Setting up detection_out
I0528 16:51:16.018846  3267 net.cpp:157] Top shape: 1 1 1 7 (7)
I0528 16:51:16.018848  3267 net.cpp:165] Memory required for data: 1170805276
I0528 16:51:16.018851  3267 layer_factory.hpp:77] Creating layer detection_eval
I0528 16:51:16.018857  3267 net.cpp:100] Creating Layer detection_eval
I0528 16:51:16.018859  3267 net.cpp:434] detection_eval <- detection_out
I0528 16:51:16.018862  3267 net.cpp:434] detection_eval <- label
I0528 16:51:16.018867  3267 net.cpp:408] detection_eval -> detection_eval
I0528 16:51:16.023118  3267 net.cpp:150] Setting up detection_eval
I0528 16:51:16.023123  3267 net.cpp:157] Top shape: 1 1 6 5 (30)
I0528 16:51:16.023125  3267 net.cpp:165] Memory required for data: 1170805396
I0528 16:51:16.023128  3267 net.cpp:228] detection_eval does not need backward computation.
I0528 16:51:16.023131  3267 net.cpp:228] detection_out does not need backward computation.
I0528 16:51:16.023136  3267 net.cpp:228] mbox_conf_flatten does not need backward computation.
I0528 16:51:16.023138  3267 net.cpp:228] mbox_conf_softmax does not need backward computation.
…
